vae_classification/state_dict_classifier_gru_single.pt (torch, 617467 bytes, 14 tensors)

net.0.weight_ih_l0 f4 [300, 2]
000000 6d e2 c5 3d c8 f2 b3 bc 38 3d 37 bd 9e 33 af 3d
       0.09662328 -0.021966353 -0.044736117 0.08554767
000010 e2 9e 01 bd eb 0c 89 3d 1a fc 94 3d 59 1a 20 bd
       -0.031645663 0.06691917 0.07274647 -0.039087627
000020 33 82 0c bd c1 b2 00 be 99 b8 ca bd ba b7 00 3d
       -0.034303855 -0.12568189 -0.098984905 0.031425215
000030 32 5b d4 bc 89 89 5d bd 6a 52 ce 3d 91 ad ba bd
       -0.025922392 -0.054086242 0.10074313 -0.091151364
000040 be 45 af 3b dd fa 32 bc cc 0c 30 3d ee 43 a4 ba
       0.00534889 -0.010924068 0.042980954 -0.0012532452
000050 41 b1 74 bd 62 94 98 3d 3f e7 05 3d 5d 89 59 3c
       -0.059739355 0.07450177 0.032691237 0.013277379
000060 12 43 3a 3d d7 f9 b1 3d 21 88 f1 3d d8 79 72 3d
       0.04547412 0.08690231 0.11793543 0.05919823
000070 4c 3c 3e 3b de 45 4e bd 53 90 52 bc 83 c3 e3 3d
       0.002902764 -0.0503596 -0.012851792 0.11121275
000080 9a 8f a7 3d 01 99 1e 3c e3 2c c5 bc 61 7b 8b bd
       0.08181687 0.009680034 -0.024069255 -0.06810642
000090 82 47 d6 bc 43 f9 ad bd bc 15 1a bb 79 5d 14 3e
       -0.026157144 -0.084948085 -0.002351149 0.14488782
0000a0 a2 76 a2 bc b3 f0 2e be f3 83 83 3b 09 b8 0b be
       -0.01983196 -0.17084007 0.0040135323 -0.13644423
0000b0 38 4a 08 be 19 e0 28 3d 8a 06 6d bc 00 b4 0e bd
       -0.13309562 0.04122934 -0.014466891 -0.03483963
0000c0 11 ed d5 bc 90 47 86 bc ce a0 64 bc 2c 54 2b be
       -0.026114019 -0.016391546 -0.013954354 -0.16731328
0000d0 14 e4 b7 bd 91 af c3 bd 03 d5 da bc 44 cd 0c 3d
       -0.08979049 -0.09554971 -0.0267129 0.034375444
0000e0 b1 42 00 3e 9e 7c 02 3d c8 6c 02 3e 0c 73 b0 bd
       0.12525441 0.031857125 0.12736809 -0.086156934
0000f0 27 be ed 3a 92 05 e6 3d 7c 14 e1 bd 9b 33 ad bd
       0.0018138335 0.11231531 -0.10990235 -0.084571086
000100 95 16 ce bb 82 99 7f bc e9 89 20 bd 58 d9 86 3d
       -0.006289313 -0.015600564 -0.03919402 0.06584424
000110 9d 83 1a bd 24 8c d1 3d 88 a0 d7 bd de 76 0f be
       -0.037723172 0.10231808 -0.10528666 -0.14010188
000120 86 27 49 bd 0f 48 3c bc 90 04 5c bd 13 6e 32 bd
       -0.049109958 -0.0114917895 -0.05371529 -0.043562006
000130 86 8a a3 bd 9d ef 06 be 0b 60 81 3d 85 91 7d 3d
       -0.079854056 -0.13177343 0.06317147 0.061906356
000140 6a f6 29 bb fd 39 03 3e f2 08 11 be f6 6c 0a be
       -0.0025934228 0.1281509 -0.14163569 -0.13518128
000150 bf f1 bc 3d 3d a4 f0 3b e7 9b 76 bc f9 a1 13 be
       0.09225797 0.0073437975 -0.015051818 -0.14417256
000160 03 2c a0 3d da 99 78 3d 28 1e 69 bd 6d b8 23 bc
       0.078208946 0.0606936 -0.056913525 -0.009992701
000170 d8 58 2a be 3c 20 14 be 2a 61 5b bd 5e 75 45 bd
       -0.16635454 -0.14465421 -0.05355946 -0.048207633
000180 6f 00 6e bd 1d 55 68 bd 53 f0 99 bd b9 f9 98 bd
       -0.058105882 -0.056721795 -0.07516541 -0.07469506
000190 c3 6e 91 3d 48 0c f3 3b 35 41 cb 3d 10 4e 5e bd
       0.07101204 0.0074172355 0.09924547 -0.054273665
0001a0 45 53 e7 bc 96 6d 85 bc fb e9 b3 3c 97 bc 17 3c
       -0.028237948 -0.016287606 0.021962157 0.009261272
0001b0 a6 35 bd bc 3b 7f 92 bc e8 80 03 bd 8a f2 9f bd
       -0.02309687 -0.017882934 -0.032105356 -0.078099325
0001c0 4d 11 a7 bb 31 97 72 bc cf d8 15 3c e8 ce 3b bc
       -0.005098498 -0.014806555 0.0091459295 -0.0114629045
0001d0 d3 02 21 be 71 a5 cd 3c fc bf dc 3d b8 39 80 bd
       -0.15723734 0.025103303 0.107788056 -0.06261009
0001e0 2c 87 92 bd 41 e0 e4 3b fd 38 38 3d eb a9 eb 3c
       -0.07154688 0.006984741 0.044976223 0.028767547
0001f0 75 8e 63 bd f9 49 04 3d 42 c0 1c 3d c9 50 c0 bd
       -0.05555578 0.03229711 0.03826929 -0.093904085
000200 8d 70 22 bd 8e 07 cb 3c 74 29 d0 3b 03 61 9c 3d
       -0.039658118 0.024783876 0.006352598 0.07635691
000210 29 85 cb bd 47 91 b1 bd 95 ce 24 3c b5 35 b6 3d
       -0.09937508 -0.086702876 0.010059019 0.088969626
000220 6c b5 7b 3d a6 61 f1 bc 4b 7d 7b bd f1 be 00 be
       0.061452314 -0.029465508 -0.061398786 -0.12572838
000230 9d 66 70 bd 98 ff 97 bd ae 01 26 bd d3 c4 6a bd
       -0.05869161 -0.074217975 -0.040528946 -0.057316612
000240 43 1b be 3d 5b b7 47 bd 8c c0 53 bd 17 b8 31 be
       0.092825435 -0.048758846 -0.0516973 -0.17355381
000250 9e 04 8a bc aa cf 49 3d 98 92 c1 bd 41 2c c9 3c
       -0.016847905 0.04927031 -0.09451789 0.024557235
000260 4a 0c e5 bc 45 29 24 be fc 76 98 3a 30 59 06 be
       -0.027959961 -0.16031368 0.001163214 -0.1311996
000270 3d 26 ac bd 66 e3 70 be dc 4f 43 bd 91 4c db bd
       -0.08405731 -0.23524246 -0.04768358 -0.10707963
000280 ba b3 46 be 4d cf ed bd d5 8c 45 be 47 11 85 bd
       -0.19404498 -0.11611805 -0.19292004 -0.06497436
000290 b7 e8 46 bd c7 7e 69 bd 50 f8 1c 3d 1f 76 a8 bd
       -0.048561778 -0.05700567 0.038322747 -0.08225655
0002a0 6c 20 4b 3c a0 fc 9d bd f5 af 3c be c5 1a 3f bd
       0.012397867 -0.077142 -0.18426497 -0.04665639
0002b0 3f 51 b3 bd 32 21 81 3c 80 da 7f 3d fb 6b 16 3d
       -0.08755731 0.0157629 0.062464237 0.036724072
0002c0 42 02 ff bd b0 fc 6a bc 6d 1f 16 bd 19 be 31 be
       -0.124516025 -0.014342472 -0.036651064 -0.17357673
0002d0 6a 11 2f 3c 05 3a 4a 3d c8 de 1e be bf 61 37 3d
       0.010685304 0.049371738 -0.15514672 0.044770952
0002e0 14 78 71 3d 79 a5 84 bd 5b bf 98 bd df 06 e7 bd
       0.058952406 -0.06476874 -0.07458373 -0.112806074
0002f0 8f db ce bd 96 a7 e7 3d b2 71 3f be f6 a1 94 bd
       -0.10100471 0.11311261 -0.18695715 -0.07257454
000300 54 e2 fe 3c 2a c6 f5 bd 40 f3 36 3d 15 39 ee bd
       0.031113781 -0.120006874 0.044665575 -0.11631981
000310 90 60 65 bd bc 6a 00 be 34 53 f6 bc 47 d4 0e be
       -0.056000292 -0.12540716 -0.030068971 -0.13948165
000320 45 1b a2 bc 21 1c 3b 3d 5e e5 a4 3c 0c bd 0e 3e
       -0.019788394 0.045681123 0.020128902 0.13939303
000330 8b 46 88 be 91 35 b4 bd f2 f3 94 bb 71 c4 62 3d
       -0.2661632 -0.087992795 -0.004545682 0.055363122
000340 65 41 9b bd ef ab 48 bd b3 8e 9e bc 3a b4 f0 3c
       -0.075808324 -0.048992094 -0.019355154 0.029382814
000350 ef b2 80 be a7 0b 21 be 03 f1 7f bd b6 a9 fd bd
       -0.25136515 -0.15727101 -0.062485706 -0.123858854
000360 56 e0 75 ba 31 af 15 be 06 4d 7f be 5a 73 64 be
       -0.0009379437 -0.14617611 -0.24931726 -0.22309628
000370 c2 3c 1a bd a3 4e a2 bd f3 ca 6a be 30 ca 88 be
       -0.0376556 -0.07925155 -0.22928981 -0.26716757
000380 b6 c9 19 bd 06 52 e3 bd 71 5f 3f be 25 ee c1 be
       -0.037545882 -0.11099629 -0.18688752 -0.37877002
000390 47 a7 22 be 4e 3b e3 3c 9d e0 e0 bd f5 0c 45 be
       -0.15884124 0.02773824 -0.109803416 -0.19243224
0003a0 b1 eb 5b be 08 6f 4f be a3 68 46 be 97 f2 5b be
       -0.21476628 -0.20257199 -0.19375853 -0.2147926
0003b0 3e bb a9 be 86 36 53 be 8e 4d 7d be 95 41 88 be
       -0.33150667 -0.20626268 -0.24736616 -0.26612535
0003c0 86 a0 cc bd e3 18 65 3d 64 a5 89 bd c4 37 01 3d
       -0.09991555 0.055931937 -0.06720999 0.031547323
0003d0 b5 3a 86 be 1d 1a d3 bd 34 36 8f be 88 72 b2 be
       -0.26216665 -0.10307715 -0.2797104 -0.34853005
0003e0 9f 09 17 be c2 fc 7e be 93 1a 18 be ba d5 b5 bc
       -0.14749764 -0.24901107 -0.14853887 -0.02219664
0003f0 5f 6f 3e be e2 e3 3e be fe 68 79 3e 66 da 06 3e
       -0.18597172 -0.18641618 0.24356458 0.1316925

net.0.weight_hh_l0 f4 [300, 100]
000000 88 20 9e bd cf 38 93 3d 39 e4 03 bd 8f 47 aa bd
       -0.077210486 0.0718857 -0.032200072 -0.0831443
000010 07 e1 26 3d c6 23 01 3d 85 f0 61 bd 27 99 8d 3b
       0.040741947 0.031528257 -0.055161018 0.0043212357
000020 20 77 7a 3d 15 86 40 bd 18 78 36 3c 5c 86 e9 bb
       0.061148763 -0.04700287 0.011137031 -0.0071266126
000030 e9 af 09 bc ab c4 2a bc e1 2b c1 3c 20 f9 bf bd
       -0.008403757 -0.010422866 0.023580493 -0.09373689
000040 6c d9 a3 3d 0f 97 49 bd 33 c6 4d bd 0b 85 d5 3d
       0.08000454 -0.049216326 -0.050237846 0.104257666
000050 11 f6 8a bd 80 94 b7 3d 09 66 4b bb b7 e3 06 3b
       -0.06785215 0.08963871 -0.003103616 0.0020582506
000060 bf af 1c 3d 5b 50 c6 bd fc e4 45 bd 82 ae 53 3d
       0.038253542 -0.09683295 -0.04831408 0.051680095
000070 48 75 81 bd 3a 79 6d bd cd 1e 60 3d 78 c7 42 bd
       -0.06321198 -0.05797694 0.054716874 -0.04755351
000080 5b f6 cb 3d 5e 64 71 3d b9 4b 8c 3d 11 b7 4b bd
       0.09959098 0.05893361 0.068503805 -0.049735133
000090 c3 ba 3e 3d 54 c8 c2 3d 47 89 ad 3d 61 fd 97 bd
       0.04656483 0.09510866 0.08473449 -0.07421375
0000a0 2a c0 c6 3d f2 1b 8c bd ac 37 ea 3c 23 3d 64 bd
       0.09704621 -0.06841268 0.028591 -0.055722367
0000b0 d8 a7 a2 bd 80 1b d7 bc d9 62 ff 3d d5 56 a7 3d
       -0.0794217 -0.02625823 0.124700256 0.08170859
0000c0 01 31 a0 bc f4 26 c7 ba db 1f 3a bd a4 0e 2a bd
       -0.019554617 -0.0015194104 -0.045440536 -0.04151787
0000d0 b6 b3 ad 3c 5d 31 de bd 47 3e c1 3d 2b 68 81 bd
       0.021203857 -0.10849259 0.094357066 -0.063186966
0000e0 8f 94 03 bd 52 73 9f bc 5b 4b df 3d 28 05 b9 3d
       -0.0321241 -0.019464169 0.10903045 0.090341866
0000f0 e6 57 8c bd bd eb a2 3b 22 08 9e bd 23 e0 cb bc
       -0.06852703 0.00497195 -0.07716395 -0.02488715
000100 49 30 f2 bd 3a 7e fe 3c 25 53 33 bd 11 28 1b 3d
       -0.11825616 0.031066049 -0.043780465 0.037880007
000110 29 43 11 3c 4d 65 6f bd 91 23 69 bd a7 7c 52 bb
       0.00886611 -0.058446217 -0.056918684 -0.0032117756
000120 af 73 a8 bd a2 8d 8d 3d 8a 99 5c bd 22 46 9d 3c
       -0.0822519 0.0691178 -0.053857364 0.019198481
000130 d8 75 10 bb 77 d5 d1 bc 33 db b2 bd bd d6 c2 bd
       -0.0022042897 -0.025614483 -0.08733215 -0.09513614
000140 2b ba 85 3d 6a b1 8e bd 5b f2 b2 bd 0c 55 b6 3c
       0.06529649 -0.06967433 -0.08737632 0.02225735
000150 74 ae 83 3d bb 0c b6 bd f5 c4 82 3d b8 6a 20 3b
       0.06429759 -0.08889147 0.06385223 0.0024477672
000160 38 24 8c bc be 5d 8b bc 7c a5 c8 bd f5 a3 87 3d
       -0.017107114 -0.017012473 -0.09797189 0.06623069
000170 e6 af 07 3c f9 b4 7b bd ee 28 94 bd fc 7e 33 bc
       0.008281684 -0.061451886 -0.07234369 -0.010955568
000180 57 06 09 3d 7a 7b a0 bd cc 42 62 3d 4c e5 28 3d
       0.03345331 -0.07836051 0.055239484 0.0412343
000190 ee 64 11 bd 84 9f 2e 3e ce 94 12 bd 85 f9 06 bd
       -0.035496645 0.17053038 -0.035786442 -0.032952804
0001a0 62 6e 34 bd 5a 4e 18 bc d0 ee df 3d af 73 c0 bd
       -0.04405058 -0.009296024 0.10934222 -0.09397065
0001b0 ae 5a 29 bd 66 46 af bc 50 f2 00 bd 6c 58 cc bc
       -0.041346245 -0.021395873 -0.031481087 -0.024944507
0001c0 d5 18 71 3d 5b cb 93 bd b6 98 4a 3d e2 4b 9a bd
       0.058861572 -0.07216521 0.049462043 -0.07534005
0001d0 8c d6 91 bd aa 64 34 bd df 2c b6 3c 51 c3 21 bd
       -0.07121 -0.044041313 0.022238193 -0.03949291
0001e0 4c e7 5f 3d 21 5a cf 3b e1 4d 91 3d 2e aa cc bd
       0.05466394 0.006327883 0.07094932 -0.09993397
0001f0 90 8e 74 bd 2d c9 43 bd 46 95 ca bd 61 07 42 bd
       -0.05970627 -0.047799278 -0.09891753 -0.04737032
000200 e9 51 93 bd 37 88 47 bd 31 f1 13 3c 74 2d 62 3c
       -0.071933575 -0.04871389 0.0090296725 0.013804782
000210 d2 de 2d 3c 6a 98 c6 ba f4 48 d3 3b a0 dd 9a bd
       0.0106122065 -0.0015151624 0.0064479057 -0.07561803
000220 d0 6f 70 3d fd 94 78 bc 81 76 88 bc e8 2d cf bd
       0.058700383 -0.01517224 -0.01665807 -0.10116178
000230 d0 b2 af bd d8 89 f5 bc 10 37 cf 3d 7d e1 93 3d
       -0.08579028 -0.029972956 0.10117924 0.07220743
000240 2a 33 c5 bd 2e c7 29 3c 69 67 12 bd c8 8d 3e 3d
       -0.096288994 0.01036243 -0.03574315 0.046521932
000250 76 2f 60 bd 13 ec 3e 39 7b 9e 0a 3d 50 df 40 bd
       -0.054732762 0.00018207757 0.033842545 -0.047087967
000260 19 4f 53 3d f3 86 56 bd 02 ff 23 3c e5 11 28 bd
       0.051589105 -0.05237479 0.010009529 -0.04103269
000270 a6 31 b7 bc b2 2f aa 3c 9b e2 4f 3d 80 12 96 3d
       -0.022362541 0.020774696 0.050753217 0.07327747
000280 5c d9 54 bd e6 56 81 3d 79 d7 18 3d 73 27 b1 bc
       -0.051965103 0.06315403 0.037314866 -0.021625256
000290 2c ce 62 bd 7c 2c 13 bd a5 5f e1 bc 46 18 70 3d
       -0.055372402 -0.035931095 -0.027511427 0.0586169
0002a0 1c 7e ce bc 80 25 c6 bd 8a c9 d7 3c 1d 8e ac bc
       -0.025206618 -0.09675121 0.026341219 -0.021063859
0002b0 37 b9 02 bc 3b b6 6b 3d 3e b4 97 3d 4e c7 f4 bd
       -0.007978729 0.057546835 0.07407425 -0.11952077
0002c0 5e 15 3e bd 81 f7 c0 bb fb ed 36 bd dc 2b 99 bc
       -0.046407096 -0.0058888798 -0.04466055 -0.018697672
0002d0 15 a2 b2 3d 60 ae 2b bd 68 18 90 bd 7a 9a af bd
       0.08722321 -0.041914344 -0.07035905 -0.08574386
0002e0 17 7a a0 3d 2b 29 ab bd 70 36 d1 3d ac 8e e2 bd
       0.07835787 -0.083574615 0.10215461 -0.11062369
0002f0 f5 25 63 bd 55 46 50 3c ea 5a 8e 3d 32 0e fa 3c
       -0.05545612 0.012712081 0.06950934 0.030524347
000300 88 36 83 3d 09 2e a9 3d 0a b4 97 bd 12 2d 31 3c
       0.064068854 0.08260734 -0.074073866 0.010813968
000310 8c 2a e8 3d 95 86 d1 ba e1 a7 80 3d 5c 3a 81 bc
       0.1133624 -0.0015985543 0.0628202 -0.015774898
000320 7c b2 10 3d cb 9a 85 3d 95 46 e1 bc b5 31 53 3d
       0.035326466 0.06523665 -0.027499476 0.051561076
000330 cc 68 bc 3d 28 c7 99 bd 70 6d b0 3d 42 ca 39 3c
       0.09199676 -0.07508689 0.086146235 0.011339726
000340 8e e8 a5 bd 83 56 40 3d d5 50 3c 3d ec c2 cc bd
       -0.08100997 0.046957504 0.045975525 -0.09998116
000350 eb 73 16 3d 28 d2 10 bd 47 be 9b 3b ac 88 6b 3d
       0.03673164 -0.03535667 0.0047529074 0.057503387
000360 c4 c7 41 bc 44 ab c8 3c dd 69 98 3d b4 cd 04 be
       -0.011827413 0.024495728 0.07442067 -0.12969095
000370 69 43 56 3d 5f d0 9f bb e2 47 80 bd e7 f6 91 3d
       0.05231038 -0.0048771347 -0.062637106 0.07127171
000380 bd 63 38 bd f9 f3 fd 3d 7e 46 82 bd 07 14 94 bd
       -0.045016993 0.1240005 -0.063611016 -0.072303824
000390 25 d0 85 bd f3 d8 96 3d 3b bf e0 3d 18 68 42 3d
       -0.06533841 0.073655985 0.10973974 0.047462553
0003a0 d6 0a a8 3a d7 e3 51 3c 24 f5 ee 3d 16 9a 97 3d
       0.0012820612 0.012810669 0.116678506 0.074024364
0003b0 d9 5f 47 bc 63 5c 3d bd a6 f2 54 3d 2e d4 97 bd
       -0.012168848 -0.046230685 0.05198922 -0.07413517
0003c0 ab 74 46 3d 2a 92 cd bd e1 7a 9e 3d d3 44 d7 bc
       0.048451107 -0.10037644 0.07738281 -0.026277935
0003d0 37 f5 d2 3c a2 00 4b bd 39 61 10 3d 96 56 aa bc
       0.025751693 -0.04956115 0.03524897 -0.02079324
0003e0 16 2c c6 3b 82 68 63 3a 8c e8 cd 3d b2 d8 87 bc
       0.006047736 0.00086749357 0.100541204 -0.01658282
0003f0 1c 18 1d 3d 97 0a b6 3d 49 97 32 bd 7f d5 68 3d
       0.03835307 0.088887386 -0.043601308 0.05684423

net.0.bias_ih_l0 f4 [300]
000000 df d9 cb bd 5f 2d b6 bd f8 50 28 3d 29 2e e6 bc
       -0.09953665 -0.088953726 0.041092843 -0.028098183
000010 40 ee 2e bd da 22 16 bd ed d7 05 be 31 9c 67 bd
       -0.04270768 -0.03665433 -0.1307065 -0.05654544
000020 1e 9d 93 3d 99 fe 04 be c3 68 d5 3c f4 fc df bc
       0.07207702 -0.12987746 0.02605093 -0.027342297
000030 11 6e 67 bd c4 30 00 3d 4b 1a 91 bc e5 bb 3c 3c
       -0.056501452 0.031296507 -0.017712733 0.011519407
000040 3d dc 1b 3d a4 6d 4a 3d 4b a7 13 3d 10 c8 01 3d
       0.038051832 0.049420968 0.036048215 0.031684935
000050 88 9b 23 3d a1 7c 73 bc 3b a5 8b 3d 2a ad 26 3c
       0.039943248 -0.014861257 0.068186246 0.0101731215
000060 06 40 b5 bd 52 38 3f bd 48 e8 18 3c b1 de a8 bd
       -0.08850102 -0.04668457 0.009332724 -0.082456
000070 34 1c 95 bd 97 fa 2f bd 98 b0 02 3a 98 d3 f6 bc
       -0.0728077 -0.04296359 0.0004985421 -0.030130193
000080 b2 07 5f bd 23 69 6f 3c 31 7c 68 3b 43 26 3d bd
       -0.0544507 0.014612469 0.0035474414 -0.046179067
000090 dd 98 b3 bd ba d5 93 bd c1 34 80 bd 16 c7 25 3d
       -0.08769391 -0.072184995 -0.06260062 0.040473066
0000a0 1d 78 79 bc 4a 4c 29 bc ce 6e e5 3d b5 9c f9 bc
       -0.015226391 -0.01033313 0.11202775 -0.030470232
0000b0 22 45 83 3c 84 08 6f bd e5 2e 15 be 66 2f 6a bd
       0.016024176 -0.05835773 -0.1456867 -0.05717411
0000c0 38 42 25 be 0b 7d 78 3c 83 cc 9d 3b 7e 34 bc 3c
       -0.16138542 0.015166531 0.0048156395 0.022974249
0000d0 b7 eb 27 3d 7c dd 82 bc 2b ac 11 3d 06 dc db bc
       0.04099628 -0.015974753 0.035564583 -0.026838314
0000e0 cc b4 56 3d 59 6e 7c bd 32 f7 16 bc 72 39 a9 bd
       0.052418515 -0.061628673 -0.009214209 -0.0826291
0000f0 b7 d6 54 39 88 29 b7 3a 1b cb a4 bd 73 18 90 bd
       0.00020297883 0.0013974169 -0.08046552 -0.07035913
000100 c4 4e 86 3b a0 46 93 3c b3 ee 68 3c 31 27 c1 bd
       0.004098745 0.017978013 0.014217067 -0.09431303
000110 83 b1 b6 bd 9d c5 9d 3d 10 ea a2 3c 64 8f 02 be
       -0.089205764 0.07703707 0.019887 -0.12750012
000120 23 75 15 3d 55 60 aa bd 8a c7 8e 3d 66 69 21 bd
       0.036488663 -0.08319155 0.06971653 -0.039407156
000130 0a 98 08 bd 36 0d 14 3d fb 3a 49 be d9 42 06 be
       -0.03334812 0.03614541 -0.19651406 -0.13111438
000140 24 a3 00 be ee 04 c5 bd cf ab b2 bd 78 70 82 bd
       -0.12562233 -0.09620081 -0.08724176 -0.06369108
000150 d5 2c e9 3c b6 24 c0 bd 25 3c a5 bd 96 e4 91 3d
       0.02846376 -0.09382002 -0.08068112 0.071236774
000160 8a 23 c9 3d b4 d3 15 be 9d 81 26 3c 73 e9 86 bd
       0.09821232 -0.1463154 0.010162738 -0.06587496
000170 2c 2b 11 3d 29 a8 43 3c 0f d6 e5 bc 86 6b 08 bd
       0.035441563 0.011941948 -0.028056173 -0.033305667
000180 c1 0b 8a 3d 2d ca 24 3d 31 d3 c1 3d 90 48 81 3d
       0.06740523 0.040231872 0.0946411 0.06312668
000190 c8 bb f3 3c 11 a1 32 3d 30 6c 6f be a8 b7 93 bd
       0.029752627 0.043610636 -0.23381114 -0.07212764
0001a0 19 bd 1d be 69 b0 83 bd 67 48 3f be 74 17 5a bd
       -0.15404166 -0.06430132 -0.18679963 -0.053245023
0001b0 f3 b7 f6 bd 3c e3 89 be d3 cb bc 3c 7a 06 6e be
       -0.12046804 -0.2693118 0.02304641 -0.23244658
0001c0 33 b3 07 be 27 3a 73 be 6c 89 7c 3d 1a 32 6d be
       -0.13251953 -0.23752652 0.061654493 -0.23163643
0001d0 f2 6a 4d bd 90 ed 11 be 34 31 93 be 47 39 72 be
       -0.05015082 -0.14250779 -0.28748477 -0.23654662
0001e0 e2 a6 98 bd 7b c5 fe bc 60 97 10 be 95 65 46 be
       -0.07453705 -0.031100025 -0.14120245 -0.19374688
0001f0 80 e3 82 be 32 f8 1e bd 4f 54 1b be d3 7a 29 3e
       -0.25564194 -0.038810916 -0.1516888 0.1655076
000200 d2 77 a3 3c ed e3 55 be 90 d8 2e be 7b 83 9d bb
       0.019954596 -0.20887728 -0.170748 -0.0048069335
000210 b1 36 15 bd 3b 9e 50 be 81 18 e0 3d cb 9b 84 bd
       -0.03642911 -0.2037286 0.10942174 -0.06475028
000220 c2 ec e2 bc 8b a1 1c be ac cb 99 3c 83 18 d9 3c
       -0.027700786 -0.15295999 0.018773876 0.026500946
000230 7e 16 ab be 2f 6a ad 3c 98 ea 02 3e 5e 53 92 bd
       -0.33415598 0.021168796 0.12784803 -0.07144807
000240 a3 01 0b bd 90 6b 17 bd 13 c8 84 3c 8b 60 0b bd
       -0.033937108 -0.036967814 0.016208684 -0.034027617
000250 63 8e 08 3d 2c 1e c9 be d9 65 67 be e0 7a 95 be
       0.033338916 -0.39280832 -0.22597446 -0.2919531
000260 b8 08 5f 3d b0 3d e5 bd 2c a9 e8 bd ec 6b b7 3c
       0.054451674 -0.111934066 -0.11360392 0.022390328
000270 94 28 8e 3d bf da 7f be 68 f8 75 3d 71 dc 40 be
       0.069413334 -0.24985789 0.06005135 -0.18834092
000280 01 f1 39 3e 80 49 ac bd 67 6b ef bd 6b cf ca bc
       0.18158342 -0.084124565 -0.11690407 -0.024757108
000290 c2 2a b5 bd b2 0c 48 be e7 18 0c be 88 73 da bd
       -0.08846046 -0.19536093 -0.13681374 -0.10666567
0002a0 09 55 1c be 62 46 1e be d3 7d fe bd b6 3b a2 bc
       -0.15266813 -0.15456536 -0.12426343 -0.019803863
0002b0 75 af 98 be 91 70 21 be 55 f6 0d bd 51 f9 70 be
       -0.29821363 -0.15765597 -0.03465875 -0.23532607
0002c0 31 97 ce bd 33 28 21 be 0e e0 3a 3b 85 20 87 be
       -0.10087431 -0.15737991 0.0028514895 -0.26391998
0002d0 7a 80 91 bc 86 51 8e be 46 27 1c bd 27 8b 5a be
       -0.017761458 -0.27796572 -0.03812339 -0.21342145
0002e0 38 ea 4d be cd f0 46 be f0 1c 08 be e7 da 88 bd
       -0.20108879 -0.19427796 -0.13292289 -0.06682377
0002f0 59 81 d7 3d 99 ce 0e bc dc db 80 bd c7 40 00 3e
       0.10522718 -0.008716249 -0.06291935 0.1252471
000300 dc 40 8a bd b0 3c fc bd 5a e5 a3 bd 4a 81 79 3c
       -0.06750652 -0.12316263 -0.0800273 0.015228579
000310 65 a8 60 be 5d 59 10 3e 68 9d b5 3d 9b 89 3e be
       -0.21939237 0.1409659 0.088679135 -0.1860718
000320 4a dd ba bd 41 4d 47 3d 54 4f 7e 3d 6c fd bf 3d
       -0.09124239 0.04865766 0.062087372 0.09374508
000330 bf c7 ef bc c7 1d 89 bb 45 71 83 3c f5 f6 e6 3c
       -0.029270051 -0.004184458 0.016045222 0.02819393
000340 fa 8c ad bc 8a 1b df bc 0d e8 89 bd 2e 25 9a bb
       -0.021185387 -0.027234811 -0.06733713 -0.004704139
000350 1f 58 ae bd 0f ac bc 3d 19 6e 37 bd 26 4a c7 3c
       -0.085129015 0.09212505 -0.04478273 0.024327349
000360 9a 73 6f bc fd 93 42 bd 50 61 3c bd f4 c5 c1 3d
       -0.014614964 -0.047504414 -0.045991242 0.09461585
000370 da cd 16 bd f7 e1 3e 3c 06 8e 43 3c f6 23 d7 3c
       -0.03681741 0.011650554 0.0119357165 0.026262265
000380 f9 24 8d bc 1b b5 a2 3c 53 59 1d bc c7 ab 5d 3d
       -0.017229544 0.019861748 -0.009603816 0.054118898
000390 0b 62 a8 bc 42 f5 0e bd 18 50 43 bd f3 d8 28 3c
       -0.020554563 -0.034901865 -0.047683805 0.010305631
0003a0 92 59 24 ba 48 e3 26 3d 7d 0c a8 3d ba a9 22 3d
       -0.00062694505 0.040744096 0.08205507 0.039712645
0003b0 e6 22 9f 3d ff 59 78 bd ca fc 23 3c e1 a7 80 bd
       0.07770328 -0.060632702 0.010009 -0.0628202
0003c0 a7 81 d4 bd dc cd 61 3d e0 7e 7b bd 8a c4 36 bd
       -0.10376292 0.055127963 -0.061400294 -0.044621028
0003d0 9c 63 22 3d 27 fd 58 bd 4a 99 96 bd b9 ee 48 bd
       0.039645776 -0.0529758 -0.07353456 -0.04905579
0003e0 e6 a8 9b 3d e3 a1 4f 3c 70 a6 e0 bc 04 13 f9 3c
       0.07600574 0.012672874 -0.027423114 0.030404575
0003f0 ad aa 92 bd af 18 c0 3d 45 2c 0d 3c aa a1 a2 3c
       -0.0716146 0.09379708 0.008616512 0.019852478

net.0.bias_hh_l0 f4 [300]
000000 43 b6 44 3c 0c 45 0d bd e3 95 4f bb 72 20 bf 3b
       0.012006345 -0.034489676 -0.0031675033 0.005832725
000010 b3 a9 c2 bd 5d 7f 0f be 44 aa 04 be 6c 89 74 3d
       -0.09505024 -0.14013429 -0.12955576 0.05970137
000020 0b 7d 1e 3d 89 d6 cf bd 36 8f 15 3d cf bd cb bd
       0.03869347 -0.10148341 0.03651353 -0.099483125
000030 ca 1e 67 3c 84 71 d8 3d c3 e6 41 be c6 a5 b2 bc
       0.014106462 0.105685264 -0.18935685 -0.021807563
000040 f0 6a c4 39 dd 9e 9b 3b ee 1c b9 3b 12 01 e4 bc
       0.00037463708 0.0047491626 0.0056492006 -0.027832542
000050 05 46 19 3d 4f 11 19 be 8d ba 11 bd ca b3 78 bb
       0.03742029 -0.14948009 -0.0355783 -0.003794896
000060 95 a2 8d 3d f9 63 a4 bc 8d 20 f6 bd 47 c2 09 3d
       0.06915776 -0.020067202 -0.12017927 0.033632543
000070 8b f7 de bd ba 9f 40 ba fc 35 79 bd 91 68 dc bd
       -0.10887059 -0.000734802 -0.0608425 -0.10762132
000080 9a f5 31 3d a8 4e 32 bd e2 ce 9c bd b5 d6 43 bd
       0.043447115 -0.043532044 -0.07656647 -0.047812182
000090 f1 0a 1a 3c fd f8 d6 3c a9 4c b1 bc 5a f9 d6 bc
       0.009402023 0.026241774 -0.021643 -0.026241947
0000a0 3a 67 e7 bd 18 5f 84 bd 8c c5 56 bd 60 3e f1 bc
       -0.11298986 -0.0646345 -0.05243449 -0.029448688
0000b0 60 44 75 3d 31 37 4b bc 0b ee a5 bc e4 eb bc bd
       0.05987966 -0.012403295 -0.02025511 -0.0922468
0000c0 b4 37 c7 bd d5 13 2f 3d 6c d5 2e bc de 34 b4 3c
       -0.097274214 0.042743523 -0.010671001 0.021997865
0000d0 e6 78 98 bd 13 aa 2f bd dd 93 99 bd df e3 18 be
       -0.074449345 -0.042886805 -0.07498906 -0.14930676
0000e0 c9 d1 4c bd a2 34 b0 3a 16 be 44 3d 2d 92 3b 3d
       -0.050004754 0.001344342 0.048032843 0.0457937
0000f0 cf fb b2 bd c4 5e 47 bd 49 0e 11 bd b8 1f 49 3d
       -0.08739435 -0.04867436 -0.035414014 0.049102515
000100 2d c1 25 3a 54 ce 40 bc a3 30 51 3d fd 58 6c bd
       0.0006323036 -0.011767942 0.051071774 -0.057702053
000110 2a b9 bc bd 3b a4 e4 3d 5e 1a 83 3d 3e 31 94 bd
       -0.09215005 0.11164137 0.064015135 -0.07235955
000120 64 f3 86 bd 6f d3 12 be 92 19 fb bc 17 dc d0 bd
       -0.06589392 -0.14338468 -0.030651841 -0.10198229
000130 62 ba ce bd f8 92 38 3c 8f 0b 3c be 99 b1 1e be
       -0.100941435 0.011265509 -0.18363784 -0.15497436
000140 d0 ed 66 3d c9 6b 06 3d 31 f4 b2 bd e6 ce b6 3d
       0.05637914 0.032817636 -0.08737982 0.089261815
000150 26 a2 93 bd 3d 7d b8 bc f1 3a 38 3c 2a ef a4 3d
       -0.07208662 -0.022520656 0.0112445215 0.080534294
000160 77 68 9b bc 7b c8 f3 3c 86 bf 85 3c c6 c1 e1 bc
       -0.018970711 0.029758682 0.016326677 -0.027558219
000170 a3 88 70 bd af d8 cf 3c 8b 2c 30 bd 0b 09 2b bd
       -0.058724057 0.025371877 -0.04301123 -0.04175667
000180 33 fa 82 bd ca 00 46 3d 2b 9f 87 bc b2 5e f3 bc
       -0.06395378 0.048340596 -0.01655539 -0.02970824
000190 c3 d5 30 3d 2f 79 83 bd fa 00 4a be d8 1e 42 3d
       0.04317261 -0.06419598 -0.19726935 0.047392696
0001a0 72 d6 e4 bd 7d 7c 9e 3c 53 cf 4c be 74 4e a3 bd
       -0.11173715 0.01934647 -0.20000963 -0.07973948
0001b0 ae f2 c8 bd 46 e5 86 be e9 1c 03 be 48 56 6e be
       -0.098119125 -0.26346797 -0.12803997 -0.23275101
0001c0 7b bf 0d bd ae b1 a8 be 83 30 3c bc ca 0a 09 be
       -0.034606438 -0.3294806 -0.0114861755 -0.13383022
0001d0 a5 a4 45 be 5e 69 ad bd 81 dc 84 be b2 67 a4 be
       -0.19301088 -0.08467363 -0.2594948 -0.32110363
0001e0 e7 ec cb bd d5 c0 72 bc 39 8e 39 be 50 4b 63 be
       -0.09957295 -0.014816483 -0.1812066 -0.22196698
0001f0 f6 33 2f be a1 bb b1 bc 9c 4b 35 bd 37 30 72 3e
       -0.17109665 -0.021695914 -0.04426156 0.23651205
000200 f4 2a 2f 3d 8c bc e5 bd 05 22 36 be e9 53 7e bc
       0.042765573 -0.11217603 -0.17786415 -0.015522935
000210 31 5a f5 3d e3 7f 5f be 3d c6 ae bc 4a 37 98 bd
       0.11980093 -0.21826129 -0.021334762 -0.074324206
000220 8d 42 a4 bc 38 d3 89 be fe 6f ee 3d 3f 30 e9 bd
       -0.020051265 -0.2691896 0.116424546 -0.11386155
000230 93 3d 89 be 2c d7 63 3c b8 7f 87 3d ba 4d 3c bd
       -0.2680479 0.013906281 0.06616157 -0.045972563
000240 32 79 69 3d 0f c1 01 bd bd b2 74 bd 0c af b9 bd
       0.057000346 -0.031678256 -0.05974077 -0.09066591
000250 4c 94 5f bd 17 b3 a1 be d5 2e 53 be 7c bb 34 be
       -0.054584786 -0.31581947 -0.20623334 -0.17649645
000260 c5 24 7d 3d 4b ca 85 bd a3 fb b2 bd f3 89 90 bd
       0.061802644 -0.06532725 -0.08739402 -0.07057562
000270 6f 8b b5 bd df 9c 79 be d5 c8 d0 3c 60 e2 13 be
       -0.088644855 -0.24376248 0.02548639 -0.14441824
000280 62 ff 94 3d 88 58 7a be 8a c3 cf 3c 91 a6 1c bd
       0.07275273 -0.24447834 0.025361795 -0.038244788
000290 65 33 f8 3c f6 46 f1 bd 8f 3f 13 bd d3 67 8c be
       0.030297944 -0.11781113 -0.035949286 -0.27422962
0002a0 89 66 17 bd a0 65 e8 37 aa b5 d4 bd 96 83 c2 bd
       -0.03696302 2.7703878e-05 -0.10386212 -0.09497754
0002b0 9b 07 8f be 17 56 6b be 20 5c f9 3d d9 98 72 be
       -0.2793549 -0.2298206 0.121757746 -0.23691119
0002c0 eb c4 17 bc ad 19 fd bd 4b df c0 bd f3 6d 65 be
       -0.0092632575 -0.12358413 -0.0941759 -0.22405224
0002d0 a5 77 a7 bd a8 18 32 be af a6 c4 3c b3 c0 a8 be
       -0.08177117 -0.17392218 0.024005262 -0.32959518
0002e0 f0 f5 11 be 31 a4 af be ea b8 93 bd 30 a6 41 3d
       -0.14253974 -0.34304956 -0.07213004 0.04727763
0002f0 ec b1 16 3d bb 6b 05 bd 4b 35 bf bd 8d 46 39 3d
       0.036790773 -0.032573443 -0.09336337 0.045233298
000300 3b bd ef ba 61 bc c5 bd b3 56 85 bd 05 06 8b bd
       -0.0018290648 -0.09655071 -0.06510677 -0.067882575
000310 ee 03 9d bd aa 91 90 3d fd 69 e8 bc ce 22 ea bd
       -0.07666765 0.07059033 -0.028370852 -0.1143242
000320 05 d3 b6 3d bc a0 ca bd 75 66 38 bd fe 1c 6c bd
       0.089269675 -0.09893939 -0.045019586 -0.057644837
000330 fd 5e 06 3d 41 90 15 3d ce 80 35 bd 46 a5 95 bd
       0.03280543 0.036514524 -0.04431229 -0.07306914
000340 8b bf ca 3d b0 27 6d 38 f9 35 3d 3d 58 5e ba 3d
       0.09899815 5.6542165e-05 0.04619405 0.09100026
000350 33 9a 93 3c 0b 7c 83 3c 96 5d 2a 3d ac 45 0e bd
       0.018017864 0.01605036 0.041593157 -0.034734413
000360 54 91 8e bd 63 73 c1 bb 1e df e8 3c 05 03 1b bd
       -0.06961313 -0.0059036477 0.028426703 -0.037844677
000370 16 87 a5 bd 48 4a 26 3c c4 97 80 3d fb 90 a9 bd
       -0.08082406 0.010149546 0.06278947 -0.08279606
000380 fa fa 55 bd b3 c5 7a 3d 42 43 14 3c e6 41 b1 bc
       -0.052241303 0.061223697 0.009049239 -0.021637868
000390 2f 1d 0f 3d 2b 24 43 3d 58 5e f7 3b be 85 2d bd
       0.03493994 0.047641914 0.0075490884 -0.042363875
0003a0 e3 c6 0e 3d 2e c5 67 bd 56 d9 b2 bc db 7b 7c 3c
       0.034857642 -0.05658453 -0.02183215 0.015410389
0003b0 9c b2 a0 ba b1 7d cb 3c a4 b2 21 bd d7 34 7c 3d
       -0.0012260261 0.024840208 -0.039477006 0.06157383
0003c0 fe 21 00 bd 0a 64 b6 3d bc 98 58 3d dc d9 7c bd
       -0.031282417 0.089058 0.052880034 -0.061731204
0003d0 74 a6 8b bc 2c 88 57 3d 6d 17 43 bd 39 28 b8 bc
       -0.017047144 0.052620098 -0.047629762 -0.022480117
0003e0 81 62 23 bd e0 b9 3d bd 54 d8 d9 bd c8 25 c3 bd
       -0.039888863 -0.046319842 -0.106369644 -0.095286906
0003f0 87 e1 af bd 35 32 56 bd f0 33 c5 3d af aa 14 bd
       -0.08587938 -0.052293975 0.09629047 -0.03629559

net.0.weight_ih_l1 f4 [300, 100]
000000 46 f3 c0 bc b9 e9 28 be ae d4 f6 39 99 26 44 3d
       -0.023553502 -0.16495408 0.00047079235 0.047888372
000010 81 95 23 bd ce e7 ff bd bd 81 e1 3d 74 0d 6a bd
       -0.0399375 -0.12495385 0.11011074 -0.057141736
000020 0f 16 a6 3d 0c 14 4c bc a0 38 ec bd 0c 23 5c bb
       0.08109676 -0.012455951 -0.11534238 -0.0033590226
000030 f7 16 02 be 49 fa b5 bb 0e 96 94 bd 0e b6 f1 bc
       -0.12704073 -0.005553518 -0.07255183 -0.029505756
000040 7c d8 24 3b ef e5 45 bd 78 d0 1d 3c d0 fd 4d 3d
       0.0025153449 -0.048314985 0.009632222 0.050290883
000050 c5 9d 2d be d4 05 8f 3a 0a 0b 10 3c 03 77 3d bd
       -0.16954716 0.0010911771 0.008791694 -0.046256077
000060 14 94 8e bc 76 d7 08 3e fc 81 b7 bd 0f 45 a4 bd
       -0.017404594 0.13363442 -0.089603394 -0.080209844
000070 3d 5c 8e 3c 45 b0 51 3d cc 80 44 be bb 46 37 be
       0.017377967 0.051193494 -0.19189757 -0.17898075
000080 64 7f 16 3e e3 dc 61 3d a2 54 51 3e c5 b1 cf bd
       0.14697033 0.055142295 0.20442441 -0.10141329
000090 7e 7b 90 3d 6c 74 f3 3c 53 4b 07 3b 92 ae a3 bd
       0.07054804 0.0297186 0.0020644262 -0.07992281
0000a0 61 68 eb 3c 3b 95 9d 3d bc f6 fc bd f0 4e 74 bc
       0.028736295 0.07694479 -0.12351748 -0.014911398
0000b0 ee d9 81 3c 5c 51 ec bd ad cc 5b be 20 97 95 bd
       0.015850987 -0.115389556 -0.21464796 -0.073042154
0000c0 6c 0b 99 3d 7d e0 b0 bc a4 55 a3 bd 9b 4c ff 3c
       0.07472882 -0.02159142 -0.07975319 0.031164458
0000d0 c6 96 20 3d 95 1b 00 3e 9d 71 8f 3d 50 11 cb 3b
       0.03920629 0.12510522 0.07004092 0.006197132
0000e0 80 a7 07 be 43 38 c6 3d 23 2c 71 bc b4 85 45 bc
       -0.1324749 0.096787 -0.014719996 -0.012055803
0000f0 0a f1 70 bd 38 53 15 3e 12 7e 03 3e 4c 3f d1 3d
       -0.058823623 0.14582527 0.12841061 0.10217151
000100 ae e7 bf 3c 50 30 82 3c 9f 1d 03 be ac 6b 8f bd
       0.023425903 0.015892178 -0.12804268 -0.07002959
000110 e3 5e c8 3c 7c 66 e8 bd fb 92 06 3b df 9b 24 be
       0.024459308 -0.11347672 0.0020534385 -0.16075085
000120 c9 ac cb 3d 8b c8 91 3c ac 3f 17 be 5c 02 6b bd
       0.099450655 0.017795822 -0.14770383 -0.057375297
000130 c4 47 aa bb fb 8a 15 bd f8 9c ca bb 6b 9e 00 bd
       -0.0051965434 -0.036509495 -0.006183263 -0.03140108
000140 f3 3e 67 3e de 00 1a be b1 10 99 bd ba 31 aa bd
       0.22582607 -0.15039393 -0.07473887 -0.08310266
000150 84 18 d1 3a c8 06 4a bd 1f f6 29 3e 93 9e 49 3c
       0.0015952741 -0.049322873 0.16597794 0.012305873
000160 6f 7c 26 3d 25 62 00 be 14 e3 2f be 13 85 12 3e
       0.040646013 -0.12537439 -0.17176467 0.14308576
000170 03 3c bf bb 62 e8 82 3d 07 76 65 bd f7 4a cf ba
       -0.0058360114 0.0639198 -0.056020763 -0.0015815188
000180 01 5e 08 3e 35 87 b9 bd c3 58 97 bd 26 01 bb 3d
       0.1331711 -0.09058992 -0.07389977 0.091310784
000190 48 d8 f7 3d 0c 1b e9 bd 15 c3 c1 3c e8 8d a7 3d
       0.12101799 -0.11382112 0.023652593 0.08181363
0001a0 04 a8 1e 3e 8e 58 81 bc 2c 40 fb bd 2d e3 cf 3d
       0.1549378 -0.015789296 -0.12268099 0.10150752
0001b0 61 c3 06 be 1f 8e 4e 3c 92 5c 9a 3d cb 2e 24 be
       -0.13160469 0.0126071265 0.07537188 -0.16033475
0001c0 b9 4c 43 3e f0 27 3a be 41 b3 87 3d 8c f9 9e 3d
       0.19072236 -0.18179297 0.06625987 0.07762441
0001d0 28 dc 82 3d 26 ac 41 3d 00 db a1 3e c2 d4 3c be
       0.06389648 0.047283314 0.31612396 -0.18440536
0001e0 9d a4 55 3e 51 fb 14 be d9 7b b7 3d a4 d7 6c 3d
       0.20863576 -0.14548995 0.08959169 0.05782284
0001f0 88 88 62 3a 43 7c 90 bd 0b 60 31 bd 7a 93 8a bd
       0.00086415606 -0.07054951 -0.043304484 -0.0676641
000200 9e 2c 19 be 36 36 d4 bd 2f e7 90 3e ed 12 94 3d
       -0.14958426 -0.103619024 0.2830138 0.07230172
000210 b7 2d a0 bd 64 39 72 bd a5 21 82 bb 2a 04 d0 bd
       -0.078212194 -0.059136763 -0.003971296 -0.10157044
000220 ea 3a 0a bd be 23 24 be 2a 48 2c 3c 70 40 5f b9
       -0.03374759 -0.1602926 0.010515252 -0.00021290942
000230 fb b4 11 3e 4c da ed bd 0c 96 d5 bb 83 e9 ea 3d
       0.14229195 -0.116139024 -0.006518131 0.1147032
000240 42 4e c8 3d 34 ce a3 3d 82 c8 2b 3e ae 51 06 3e
       0.097805515 0.079983145 0.16775706 0.13117096
000250 86 2b ec 39 c7 1e 8f 3d 6e 6e 40 3e 28 e8 30 3d
       0.00045045855 0.06988292 0.18792126 0.04319015
000260 17 7c cb 3c a8 70 0d be 46 d1 d8 bd 48 77 2c bc
       0.024839444 -0.13812506 -0.10586791 -0.010526486
000270 e7 d6 2b 3e 59 7b 54 3e 5f 85 0e be f8 af a0 3c
       0.16781197 0.20750178 -0.13918065 0.019615158
000280 d3 7b 03 be 56 cd 25 be 69 4d 58 bd 88 86 cf bd
       -0.12840204 -0.1619161 -0.0528082 -0.10133082
000290 76 30 e3 bd 4c 84 de bd de 75 85 3d b9 74 1a 3e
       -0.110932276 -0.108650774 0.06516622 0.15083589
0002a0 7b d3 8c 3d be b2 2d 3d 0c 64 eb bd 2d e9 f9 3c
       0.06876274 0.04240679 -0.11493692 0.030506695
0002b0 ab 94 b2 bb e7 31 0f 3e 26 fc 3d bd 87 dc b4 3d
       -0.0054498515 0.1398388 -0.046383046 0.08831125
0002c0 32 20 6a bc 85 a6 91 3c 24 f1 32 3d e9 91 f7 3d
       -0.0142899025 0.017779598 0.043687 0.12088377
0002d0 a8 e3 db bd e0 86 fb 3d 01 e9 c2 3d 87 4b 31 3e
       -0.10736781 0.12281585 0.09517098 0.17313968
0002e0 8f 48 45 3d 90 2b 1c bd b8 00 cb 3c c0 5b 51 3d
       0.0481649 -0.038127482 0.024780616 0.05111289
0002f0 f8 4d 59 3c 39 c2 d2 3d 3f bb 9f 3d a8 7a 99 bc
       0.013263218 0.10290951 0.07799386 -0.018735245
000300 9b 52 b4 3d 74 aa 43 be 63 9a 1a bd 57 d1 80 bb
       0.08804818 -0.19107991 -0.03774489 -0.0039312053
000310 74 8f 06 3d d1 b2 17 be 5e d9 69 3c 80 9c b7 bd
       0.03285165 -0.14814307 0.014273016 -0.08965397
000320 b6 75 d7 bb 3d 4a 11 3d 24 ee df 3c ed 62 49 3d
       -0.0065753115 0.03547119 0.027335234 0.04916661
000330 08 e7 9f 3b af 12 8f 3d 95 54 0e 3d c8 da 50 bc
       0.004879836 0.069859855 0.034748632 -0.012747474
000340 64 ea 37 3d 69 6c 94 3d e3 fb 2d bd 26 a3 0e 3e
       0.044901267 0.0724724 -0.042476546 0.13929424
000350 57 50 02 be d9 13 ac bd ac ae ad bd 78 44 06 bd
       -0.1272596 -0.08402223 -0.08480582 -0.03278014
000360 4e c4 67 3a 0e 43 70 bc 73 b6 5d bb 2b fa 01 3e
       0.00088412024 -0.014664425 -0.0033830672 0.12693088
000370 8e e2 97 bd 6b e9 37 3d 2f 5e 81 bd 91 67 43 be
       -0.07416259 0.04490034 -0.06316792 -0.19082476
000380 cc 27 0a be fb 1d 57 3c 74 21 22 3d 34 64 bd 3c
       -0.13491744 0.0131297065 0.039582685 0.02311907
000390 8b af 3b 3c 4b 82 14 3d 38 63 ff 3c e3 82 c4 39
       0.011455427 0.03625707 0.03117524 0.0003748155
0003a0 30 93 cd 3d 2e 1d 84 bb d5 88 c6 bd d0 82 37 bd
       0.100378394 -0.004031799 -0.096940674 -0.044802487
0003b0 7e ba 88 bc a5 11 a3 bc 60 bb 74 3c 8e fe 71 3d
       -0.016690489 -0.019905875 0.014937252 0.059080653
0003c0 88 be af bd 6f 45 b6 bd de a2 93 bd 34 39 83 3b
       -0.08581263 -0.08899962 -0.07208799 0.004004622
0003d0 9d 4e 71 bd 3e 85 12 bd 86 dd d8 bd 8d 11 fa 3c
       -0.058912862 -0.0357716 -0.10589127 0.030525947
0003e0 80 bc 82 3d 01 e5 83 3d 90 c2 00 be a2 4a 30 3c
       0.0638361 0.064401634 -0.1257422 0.010759981
0003f0 24 83 0b bd eb d7 82 3d 99 62 ca bd 77 14 05 3d
       -0.034060612 0.06388839 -0.09882087 0.03249022

net.0.weight_hh_l1 f4 [300, 100]
000000 06 4f 9a 3d 91 14 ff bc bb 09 85 3b 14 9a 78 3c
       0.07534604 -0.031137737 0.004059998 0.015173454
000010 b6 79 1d be 52 28 14 be c9 24 40 3d 50 4e 91 bc
       -0.1537846 -0.14468506 0.04691008 -0.017737538
000020 99 f0 75 3c 5f b6 82 bd 4c 11 0c 3e 42 07 f9 bd
       0.015010976 -0.06382441 0.13678473 -0.121595874
000030 5f 19 1a 3d 05 c8 7d 3d 86 e9 32 3d ba 0a 10 be
       0.037621852 0.06195833 0.043679737 -0.14066592
000040 27 ef 91 3d 90 84 ff 3b 29 c3 55 3d 96 56 1c 3d
       0.07125693 0.007797785 0.052188072 0.038168512
000050 d5 73 49 bd bd e8 15 3e be 4f 95 3d e8 0b 82 3d
       -0.04918273 0.14639564 0.072906 0.06349927
000060 f1 6b 98 3c 98 ec e8 bd 4b 0c 37 3e 3e e5 20 3d
       0.018606158 -0.11373252 0.17875783 0.039281122
000070 e5 9a 69 bd d6 8a 39 3e b3 90 8f 3d 84 8d 2b be
       -0.057032485 0.18119368 0.07010021 -0.16753203
000080 fe e1 67 3d 80 2b af bd 67 05 af bd f0 6c 2b 3e
       0.056612007 -0.08553219 -0.08545952 0.16740775
000090 77 16 be 3b 6c 87 0b be 84 fb 9d 3d e6 28 0b bc
       0.005801018 -0.13625878 0.077139884 -0.008493638
0000a0 99 e1 39 bd 89 e1 e2 bd 32 34 18 3d dd 01 f5 bc
       -0.045381162 -0.11078174 0.037159152 -0.029908115
0000b0 41 e5 2c 3d d6 9e 86 3d bf e6 5b 3d ac 98 d3 bd
       0.04221082 0.06573264 0.053686853 -0.10331854
0000c0 96 5e d5 3d 5a 89 97 bb a9 a5 06 be a8 9f c6 bd
       0.104184315 -0.004624528 -0.13149132 -0.09698421
0000d0 bd 3d 00 3e b8 f2 57 be 51 b1 eb bd 83 bf be bb
       0.12523551 -0.21088684 -0.1150843 -0.00582117
0000e0 31 67 75 bd a5 92 cf bd 79 93 e8 3b 22 98 3b bb
       -0.059912864 -0.10135392 0.0070976582 -0.0028624614
0000f0 02 b1 16 bd bc 35 2e 3b ef f6 19 be d3 58 8c bd
       -0.0367899 0.002658232 -0.15035604 -0.068528794
000100 de 2e a6 bc ea ea f5 3c cc af 1c 3e 06 e8 22 3e
       -0.02028602 0.030019242 0.15301436 0.15908822
000110 e4 e4 ac 3c 6b 16 bc bc 69 eb 09 bd 3d 5c ab 3d
       0.021105237 -0.022959908 -0.03367177 0.083672024
000120 2f 35 8c bd 5a d4 10 bb d8 66 b2 3d fd 53 7e 3b
       -0.068460815 -0.0022099228 0.08711022 0.0038807385
000130 a3 41 d7 3d 0e 59 d9 bd 38 1e 22 ba 2a 94 cb 3b
       0.10510566 -0.10612689 -0.00061843125 0.006212731
000140 20 f7 49 3c c6 0a ff 39 68 4c 9a bd a7 95 d6 3d
       0.012326986 0.00048645417 -0.075341046 0.10477763
000150 15 ad 6f bd 77 65 d6 3c 77 85 81 bd 55 76 09 be
       -0.058514673 0.02617143 -0.063242845 -0.13424046
000160 20 5d 06 bd 65 d0 c0 bc 6d df e1 3c 36 94 b6 3d
       -0.032803655 -0.02353687 0.027572358 0.08914988
000170 11 c3 05 bd 41 2f 82 3c 7b 98 bd bd 71 9d 0b 3e
       -0.032656733 0.015891673 -0.09257599 0.13634278
000180 08 ef 10 3d 9b 9f f5 3d 73 79 89 3c 54 20 80 bd
       0.035384208 0.11993333 0.016781544 -0.06256166
000190 d6 5c 0f bd c7 15 54 3d 21 cd 0f 3d 13 a3 98 3d
       -0.035000645 0.05177858 0.035107736 0.07452979
0001a0 db 0b 17 3e a6 3b 42 3e c6 b9 08 3d be dc de 3b
       0.14750616 0.18968067 0.033380292 0.006801217
0001b0 01 c3 56 3b 01 4d a5 bd f1 ea 73 3d 38 b9 9d 3d
       0.003277004 -0.08071328 0.05955023 0.07701343
0001c0 44 6f 2f 3d e7 bf 41 3e 1d ee 2b be ee 6c 2c 3e
       0.04283072 0.18920861 -0.16790052 0.16838428
0001d0 63 c4 21 bd 5e 48 bc 3d bc be 3c 3e c2 88 31 be
       -0.03949393 0.091934904 0.18432134 -0.17337325
0001e0 cf d6 14 bd 75 4d f1 bd 55 6b 36 3d df 6c 8a bd
       -0.03633767 -0.11782352 0.044535954 -0.06759047
0001f0 f0 2b 27 be 8c dd 81 3d 78 b2 9b bd 4e 12 2b be
       -0.16325355 0.06341085 -0.076023996 -0.16706201
000200 21 b6 20 3e b2 eb df bd 60 3a b4 bd a0 e9 2d 3e
       0.15694477 -0.10933627 -0.08800197 0.16983652
000210 52 3a 51 bd 92 e5 10 3e d2 da 15 be 18 e6 28 be
       -0.05108101 0.14150074 -0.14634255 -0.16494024
000220 41 1d 11 3e e3 94 1b 3e 83 0b 74 bd 3a b6 97 bd
       0.14171316 0.15193515 -0.05958129 -0.07407804
000230 fc 38 9c bd ae 51 78 3c 8f eb 44 be dc 11 0a 3e
       -0.076280564 0.015156193 -0.19230483 0.13483375
000240 90 98 2f be 6e 87 0c bd 8a c4 0d 3e d2 b9 86 3d
       -0.17148042 -0.034308843 0.13844505 0.06578411
000250 10 8a a6 bd 6e 4d f2 3b 15 cb c4 3c 68 47 23 3d
       -0.08131802 0.0073944842 0.024022618 0.03986302
000260 4b 16 3a be f5 f3 8f 3d 3b 95 3e 3b 14 9f e5 3d
       -0.18172567 0.07028953 0.0029080648 0.11211982
000270 2e 90 9a 3d 13 7c da bd 1b 85 08 be 78 19 5f 3c
       0.07547031 -0.106681965 -0.13332026 0.013616912
000280 59 8a 5c 3d 3f cf 92 bd 08 88 bf 3d 9c 2a 7b 3d
       0.053842876 -0.07168435 0.09352118 0.061319932
000290 c1 b5 08 bc 34 12 c9 3b cd 68 17 be f5 df a7 bd
       -0.008344115 0.006136203 -0.14786072 -0.08197013
0002a0 7f 66 d8 3b 4b c9 e0 3c 87 ee 9a 3d 32 c8 bf bd
       0.0066040154 0.027439734 0.07565027 -0.09364356
0002b0 f6 3b aa bd 40 a5 86 bd 18 c5 26 bd 7d 53 50 3e
       -0.08312218 -0.06574488 -0.040715307 0.20344348
0002c0 c9 8d 11 be 79 81 a1 bd 68 1a 10 3e 9e 98 c1 bd
       -0.14214243 -0.07886023 0.14072573 -0.094529375
0002d0 f9 54 20 bd 1d 29 d7 3d af b1 35 3e 88 dc 40 3c
       -0.039143536 0.105058886 0.17743562 0.011771329
0002e0 be bf e7 3d 4e 20 19 3e 19 79 d3 3d bd 12 c3 3d
       0.11315869 0.1495373 0.10325832 0.095250584
0002f0 88 f8 5d bc 8f 38 46 3e d9 cd 1f 3e 8d 8f e7 bc
       -0.013548024 0.19357513 0.15605868 -0.028266693
000300 0d 5f 8d 3d 0b ca fc bd cc 8b 61 3d 5a 6e 08 bd
       0.06902895 -0.12343224 0.05506496 -0.033308364
000310 26 70 5b bd 68 28 55 bd a0 3f 59 3d 58 c6 a6 3d
       -0.05357375 -0.052040488 0.053039193 0.081433
000320 6e ec 85 3d 2e 64 22 3c 63 7f 9d bc ab 92 c1 bc
       0.06539236 0.00991158 -0.019225782 -0.023629507
000330 ad 2f 62 3c d3 5e d4 bc b6 d3 1b bd 16 6b fa 3c
       0.013805312 -0.025924122 -0.0380437 0.03056864
000340 63 ec ec bd c6 32 b1 3d e3 76 0c bd e3 f4 da bd
       -0.11568525 0.086522624 -0.034293067 -0.1069124
000350 53 2a aa 3c 8a 26 0b 3c 08 df d0 3c e5 89 67 3d
       0.020772135 0.008493075 0.025496975 0.05652799
000360 89 55 a7 3d 08 cc 55 3d 0a b1 52 bb 41 7e b9 3d
       0.081706114 0.052196532 -0.003214898 0.09057284
000370 71 48 73 3d 91 f7 f8 3c 72 4b 58 3d b3 ed a6 3d
       0.059395257 0.030391486 0.052806325 0.08150806
000380 09 cf 04 bd d1 41 12 bd cc e5 20 bc 28 06 9a 3d
       -0.032424007 -0.0357073 -0.009820413 0.075207055
000390 7f 3c 3f 3d a0 25 f6 bc c3 7a 09 3d a1 23 25 bd
       0.046688553 -0.030047238 0.03356434 -0.04031718
0003a0 b0 62 26 3d f8 63 8f 3d 68 d9 5b 3d e0 0d 65 3d
       0.04062146 0.070014894 0.05367413 0.055921435
0003b0 96 7b 71 bb 54 f1 2f 3d da 7d c4 3c 69 2b 7a 3b
       -0.0036847345 0.042954758 0.023985792 0.0038172847
0003c0 1b 16 28 ba a3 46 3a bc 90 7d 48 bd de 1d 84 ba
       -0.00064119854 -0.01136938 -0.04894787 -0.0010079702
0003d0 b9 54 0d 3c 21 2b cd bd d1 a4 8e 3d 4c 49 6b 3d
       0.0086261565 -0.10017992 0.0696503 0.05744295
0003e0 aa d0 4f bd 9c 4d 16 3c af 94 0b be 60 0b 7d 3d
       -0.050736107 0.009173777 -0.13630937 0.061778426
0003f0 63 36 81 3d 4d 52 d3 3c 5a cd a2 3d 2c f0 06 3e
       0.063092016 0.02579608 0.07949324 0.13177556

net.0.bias_ih_l1 f4 [300]
000000 d6 28 8c bb f6 99 a8 bd f2 93 b0 bd 1f a5 8d bd
       -0.004277329 -0.08232491 -0.08621968 -0.0691626
000010 da 36 16 bd 85 0f 35 be d1 a8 9f bd 8f d1 bc bd
       -0.036673404 -0.17681701 -0.07795871 -0.09219658
000020 c7 cc cc 3c 38 8f f8 bb 53 d7 14 bd 3e bc 10 bd
       0.02499999 -0.0075854324 -0.03633816 -0.03533577
000030 9f d1 a4 3c 14 d0 e2 bd 47 8f 1d be 89 d2 83 bd
       0.020119486 -0.11074844 -0.15386687 -0.06436641
000040 ff 30 9f bd 46 e6 6b bc f6 8f 86 bc da 1d 94 bd
       -0.07773017 -0.014398163 -0.016426068 -0.07232256
000050 dd ba 23 bd e4 cb 14 be 7e cf 93 bd e8 ae fc 3c
       -0.03997313 -0.14530903 -0.0721731 0.03084512
000060 b1 95 7f bc 9f 27 3d bd 00 52 ad bd ff 6a 9c bd
       -0.015599654 -0.046180364 -0.08462906 -0.076375954
000070 9c 05 2a bb d5 69 17 be 83 c8 3f be 44 46 cc bd
       -0.0025943285 -0.14786465 -0.18728833 -0.099743396
000080 64 ad 12 bd a7 0d 09 be f7 a6 aa bd ae 58 ca ba
       -0.03580989 -0.13384114 -0.08332627 -0.0015437806
000090 d2 98 0a be 1a 06 f8 bd 71 c2 2b ba 38 16 d0 bd
       -0.13534859 -0.12110539 -0.00065521064 -0.10160488
0000a0 1c ba 19 be b6 a6 57 be ca 11 37 bd 24 58 06 be
       -0.15012401 -0.21059689 -0.0446947 -0.1311956
0000b0 26 38 dc bc 80 ac 5a bd f9 56 f8 bb d8 a7 2a 3d
       -0.026882242 -0.053387165 -0.0075787273 0.041663975
0000c0 ee 1b a8 bd f6 10 f4 bc 37 20 91 bd 62 ca 07 be
       -0.08208452 -0.029793244 -0.070862226 -0.13260797
0000d0 83 8e a2 bc 70 23 1b bd 15 71 33 be a4 49 e0 bd
       -0.019843346 -0.037875593 -0.17523606 -0.10951546
0000e0 0b 07 07 bd 4a db ad bb f2 b3 21 bd 42 6c b3 bd
       -0.0329657 -0.0053056823 -0.03947825 -0.08760883
0000f0 84 21 81 bd f3 08 99 bd e3 ca fa bd 21 9d db 3c
       -0.06305221 -0.0747241 -0.12245729 0.026808323
000100 5b 63 4f be fb ff 62 3d 53 9a 9d bd 62 df 17 3d
       -0.20252745 0.055419903 -0.07695451 0.03707827
000110 fd 90 24 be 16 18 9f bd 64 d3 c8 bd 29 3a 89 3c
       -0.16070934 -0.07768266 -0.098059446 0.016751366
000120 ec e9 4a bd 2c 18 d2 bd 25 da c4 3c 13 08 90 bd
       -0.04953949 -0.10258517 0.0240298 -0.0703279
000130 69 67 c3 bd 7c 22 f3 bd a1 82 02 be e4 b8 00 bc
       -0.09541208 -0.11871812 -0.12745143 -0.007856581
000140 f3 f4 db 3c 52 15 23 be d7 b9 67 bd 87 d6 97 bd
       0.0268502 -0.15926102 -0.056573715 -0.07413965
000150 53 97 12 be b5 b4 1d be 30 7d 0c be 6f 17 46 be
       -0.14315538 -0.15400966 -0.1371963 -0.19344877
000160 42 d8 e7 bd c1 50 0e 3d 40 f1 3c be e2 ec 75 bc
       -0.11320545 0.03474498 -0.18451405 -0.015010091
000170 91 0b ba bd 3e 09 a2 3b 45 39 09 be 7b 02 2d 3c
       -0.09084237 0.0049449494 -0.13400753 0.010559673
000180 09 86 c1 bd e4 d1 3b bd cc 13 02 3d 2d 92 de bd
       -0.09449393 -0.045854464 0.03175716 -0.108677246
000190 e5 cc 14 3e b2 ed 78 bd 3e 15 7e bd db 8c 02 bc
       0.14531286 -0.06077356 -0.062031977 -0.007968153
0001a0 3e 7f 25 3c fc 31 a1 bd 79 d4 c8 bc 8d 22 24 be
       0.010101138 -0.07870862 -0.024515377 -0.16028805
0001b0 ed ba f0 bc 55 55 9b 3b 80 04 9c b9 9c 43 54 3d
       -0.029386008 0.004740397 -0.0002975799 0.05182229
0001c0 ba 75 c2 3c dd f8 be bd a4 04 85 bd 93 43 33 3d
       0.023737777 -0.09324811 -0.06495026 0.043765616
0001d0 75 28 ad 3c 51 77 56 bd 69 09 b1 3b 5d 33 a0 3d
       0.021137455 -0.052359883 0.005402733 0.07822297
0001e0 d5 1b 96 ba 21 9e c3 bd 74 c9 8c bc 53 58 e1 bc
       -0.0011452386 -0.09551645 -0.017185904 -0.027507937
0001f0 1f 87 94 3d 24 96 d1 3c 2e 10 a3 bd d5 e3 dc bb
       0.07252335 0.025584288 -0.079620704 -0.006741027
000200 c9 20 b4 bd 51 fc 11 be 7b dd 23 be dc 82 d0 3c
       -0.08795316 -0.14256407 -0.16002457 0.025453024
000210 d9 77 4c 3c 82 af fb 3d c5 a3 e3 bd b8 e3 92 3b
       0.012479746 0.12289335 -0.11115221 0.0044827126
000220 b3 c9 9d 3d df c0 07 be 33 a4 b4 bd 5a f4 1a 3d
       0.07704487 -0.13257168 -0.08820381 0.037830688
000230 95 41 ba bb 7d af 07 3d c3 af d2 3d 7e 08 35 3d
       -0.0056840875 0.033126343 0.1028743 0.044197552
000240 40 6f 55 bd 7d b2 e5 bc b5 b8 3d 3e 08 dc ed bc
       -0.05210805 -0.028039211 0.18527491 -0.029035583
000250 95 18 7e 3d 40 dc 67 3d ab ca fc 3c 9c 16 3a 3c
       0.062035162 0.05660653 0.030858358 0.01135793
000260 af 06 3a bc 62 1b 41 bd 05 7b 11 3c e8 74 c7 3c
       -0.011354133 -0.047145255 0.008879428 0.024347737
000270 95 d9 87 bc 72 b0 65 bd a0 44 14 3e 55 a3 02 be
       -0.016583243 -0.056076474 0.14479303 -0.12757619
000280 39 82 ba bd 1d 78 54 3d e4 91 f9 3d ef c3 ad 3c
       -0.09106869 0.05187236 0.121860296 0.021211592
000290 f9 61 58 be 6c 2b 07 3e 5a 09 8e bc 9b 14 d7 bc
       -0.21131124 0.13200158 -0.017338444 -0.026254943
0002a0 48 5f 8b 3c 17 2e c6 bd 0a e9 21 bc 2b f2 4b 3e
       0.017013207 -0.0967676 -0.009882221 0.19916598
0002b0 92 ec e8 bc 0a dd ca 3d a6 20 11 3e 2a e0 7d bd
       -0.028433118 0.09905441 0.1417261 -0.061981358
0002c0 27 9c 5d bd 15 7e 75 bd 95 8e f4 bc 85 18 70 bd
       -0.054103997 -0.059934694 -0.029853145 -0.058617134
0002d0 d1 13 16 be ff d7 d4 bc 69 1e 5a bc 20 04 c1 3d
       -0.14655997 -0.025981901 -0.013312914 0.09424615
0002e0 51 b3 c4 3d 35 09 17 3d 10 e3 8f 3d 39 6d 36 bc
       0.096045144 0.036874015 0.070257306 -0.011134439
0002f0 0d 96 9f 3d 35 ef 91 bd 20 0d 66 bd 5d 47 44 bd
       0.07792292 -0.07125703 -0.05616486 -0.04791962
000300 3f b4 23 3e db 4b 09 bc c8 a9 25 be 87 15 31 bd
       0.15986727 -0.008379902 -0.16178048 -0.04323342
000310 38 8c 3e 3c ad 7d 58 3d 44 48 46 3e 23 3c 3b bc
       0.01163011 0.05285423 0.19363505 -0.011427912
000320 c4 49 03 3d 97 97 9b bd 42 1c e5 3c b6 cd 1f 3d
       0.03205277 -0.07597273 0.027967576 0.03901454
000330 8f 8a cc 3d 1f c3 86 3c 2d 9a 8f bc 00 00 c4 3d
       0.099873655 0.016450463 -0.017529571 0.095703125
000340 be 7c bc bd 00 f6 31 bd 73 ce 58 3d e5 28 53 bd
       -0.0920348 -0.043447495 0.05293126 -0.051552672
000350 d6 28 97 bc 31 5d 4c bc 8e bc a8 3d fa b6 83 bd
       -0.01845209 -0.01247339 0.08239089 -0.064313844
000360 02 43 6b 3d 33 c9 69 bd 8c 1d c9 bd e3 a0 ff bc
       0.05743695 -0.057076644 -0.09820089 -0.031204646
000370 ab 32 39 bc b8 e0 18 bd 81 56 01 bd db 56 2b bd
       -0.011303584 -0.037323684 -0.031576637 -0.04183088
000380 0e a0 cc 3d 03 4e 21 bb cd cb d3 3d d4 72 a9 3c
       0.099914655 -0.002461315 0.10341606 0.020684637
000390 3a 55 91 bd 03 e7 4f 3d f4 95 ae 3b db b3 ce bd
       -0.07096334 0.05075742 0.0053279344 -0.100928985
0003a0 7b dc a2 bc 05 4e 21 bd 8f f9 c7 bc 42 2e 08 3d
       -0.019880524 -0.039381046 -0.024410991 0.03324724
0003b0 4c a3 24 bd e6 d5 a0 3d 28 bd a9 bc 28 48 08 bc
       -0.040194795 0.07853298 -0.02072008 -0.008317985
0003c0 eb 23 18 3d 45 57 1e 3d 16 ea 03 3e 92 30 60 bc
       0.03714363 0.038657445 0.12882265 -0.013683455
0003d0 8a 78 91 3d 0c 60 2c 3d 22 6a d2 3c 91 78 24 3d
       0.07103069 0.042083785 0.025685374 0.040154044
0003e0 ae e1 29 3d 7d 03 9b 3d 87 4b 90 bd 0f 6e a7 bc
       0.04147499 0.07569025 -0.07045656 -0.020438222
0003f0 28 62 b6 3d a9 d0 25 bd 9d 66 9d 3b 4b 83 88 bd
       0.089054406 -0.040482197 0.004803492 -0.06665667
