vae_classification/state_dict_classifier_antenna1.pt (torch, 616187 bytes, 14 tensors)

net.0.weight_ih_l0 f4 [300, 1]
000000 74 d3 84 bd 39 05 be bc 1a 71 b9 bc ec f3 26 be
       -0.06485644 -0.02319585 -0.022636939 -0.16303986
000010 4c 2c c2 bd d4 70 a8 3d 35 37 78 bd 81 a9 db 3d
       -0.09481105 0.08224645 -0.060599525 0.1072569
000020 c4 1d 8e bd 41 0d b8 bc da 88 87 bc 89 d9 a1 3d
       -0.06939271 -0.022467257 -0.016544748 0.0790282
000030 fb 13 84 bd 96 2a ac 3c 92 8c 7b 3d 3f 16 98 bd
       -0.064491235 0.0210164 0.061413355 -0.07426118
000040 a6 cf 25 bc 3e e5 44 bc a9 54 8d bc 76 90 34 3d
       -0.010120308 -0.012017546 -0.017252283 0.04408308
000050 a5 b7 e1 3d 19 3c 4c 3d b0 fa 45 bd 28 be 8d bc
       0.110213555 0.049862 -0.048334777 -0.017302588
000060 78 2f eb bc e7 dc 38 3d d4 2a 80 bd 64 6b 3f bc
       -0.028709158 0.045132544 -0.06258169 -0.011683319
000070 16 da bd 3c ba 6d bf bd 8e 0b 15 be 21 9e 9c bd
       0.02317528 -0.093471006 -0.14555189 -0.07647348
000080 15 b9 85 bd 53 8f 02 bc 61 a4 ff bd 29 35 da 3d
       -0.06529442 -0.0079687415 -0.12482525 0.10654671
000090 c9 fe b7 bc 21 ca ec 3d 7a 2d b6 bc f6 a3 31 bd
       -0.022460358 0.115619905 -0.022238482 -0.043369256
0000a0 cc 36 05 be ae 75 cc bc f7 77 c3 3c 83 a8 e6 ba
       -0.13009185 -0.024958458 0.023860915 -0.0017597828
0000b0 17 fe 07 3d 28 37 8a 3d 1a 14 63 3d 69 94 87 3d
       0.033201303 0.067488015 0.055439092 0.06620104
0000c0 2b ae 42 bd 56 a0 3f 3c eb ed 91 3c 0e 8f 35 be
       -0.04752938 0.011695942 0.017813643 -0.17730352
0000d0 6b ec 0e 3d 7a 84 6b 3d cf 0b 6d 3d 19 dd b2 bd
       0.034893434 0.057499386 0.05787259 -0.08733577
0000e0 a0 06 af bd 83 88 2b bd cd 44 85 bd b5 98 95 3d
       -0.085461855 -0.041878235 -0.06507263 0.07304517
0000f0 ce f4 03 bd 78 27 9a 3d 2f 01 2d bc c1 a4 0f be
       -0.032215886 0.07527059 -0.010559364 -0.14027692
000100 fe 7a 4f 3d cf 2f ff bd 14 a6 bb bd ca f9 24 be
       0.050654404 -0.12460291 -0.09162536 -0.16110912
000110 93 99 ef 3d 23 e2 f7 3d aa 83 be bc 97 f2 13 3d
       0.11699214 0.12103679 -0.023256142 0.036120024
000120 a1 ca ea 3c 5f ba b9 bd d3 74 89 3d 13 27 f7 bd
       0.028661074 -0.090687506 0.067117356 -0.12068
000130 5f 22 1b bc 73 48 c4 3c 3c 67 00 be ef 26 83 3d
       -0.009468644 0.023960328 -0.12539381 0.0640391
000140 6f 88 df bd a0 bb eb bc 05 40 69 3d 85 37 9f bd
       -0.109146945 -0.02877599 0.05694582 -0.077742614
000150 80 85 cd bc 3b c5 0a bc 83 82 9a 3d e4 32 cb bc
       -0.025088072 -0.008469875 0.075444244 -0.02480454
000160 52 c9 60 3d 8b d1 01 be 8d b6 f8 bd 8e 6a c4 bd
       0.054879494 -0.1267759 -0.12144194 -0.09590636
000170 e2 20 91 3d a5 1b 10 bb 5d a3 13 bd c9 ae 17 be
       0.0708635 -0.0021989134 -0.036044467 -0.14812769
000180 f7 2f d8 3c f1 91 03 3d 2e f9 31 bd 4b d0 73 bc
       0.026390059 0.032121602 -0.043450527 -0.014881204
000190 5f 17 71 be be dc 9e bd 87 20 eb bd d7 bb a6 be
       -0.23544072 -0.07756947 -0.114808135 -0.32565185
0001a0 16 d5 fa bd 22 05 73 be a8 dc 04 be 53 d6 22 be
       -0.12247674 -0.23732427 -0.12974799 -0.1590207
0001b0 8f 6c 84 be 98 f4 d0 bd 23 7d 85 be 6d 4e 83 be
       -0.25864074 -0.102029026 -0.26072034 -0.25645772
0001c0 8f 74 29 be 55 a0 2c be fe 07 77 be cc 50 7f be
       -0.1654837 -0.16858037 -0.24124143 -0.24933165
0001d0 45 7f 4d be ed a7 e7 bd 33 00 b8 3d 08 2f 7b bc
       -0.2006808 -0.11311326 0.08984413 -0.015331037
0001e0 7c ea 3c be 46 81 ac 3c 42 9f 14 be 43 b5 7a be
       -0.18448824 0.021057736 -0.14513877 -0.24483208
0001f0 63 d7 86 3e d1 fd c0 bd 2a bb 40 be 4d 64 de bd
       0.26336202 -0.09423412 -0.18821397 -0.108589746
000200 7a 2f a6 bd b7 ce 23 be dc 57 7d be 2e cb 8a be
       -0.08114524 -0.15996824 -0.24740547 -0.2710814
000210 54 0d 49 be 12 e1 1b be a7 fd 26 be 76 2a 13 be
       -0.1963399 -0.15222576 -0.16307698 -0.14371666
000220 a5 3a 2c be 0a c7 e0 be 38 84 7f be 00 18 96 be
       -0.16819246 -0.43901855 -0.24952781 -0.29315186
000230 9f b6 98 be 94 3f 97 bc 32 d2 3f 3e 69 86 79 be
       -0.2982683 -0.018462934 0.18732527 -0.2436768
000240 7e b8 8b be 15 0d 85 be 58 13 42 be f7 38 4f be
       -0.27289194 -0.25986543 -0.18952692 -0.20236574
000250 f5 d0 a4 3e 85 83 91 be a2 ad 59 be c6 a7 3e be
       0.32190672 -0.28420654 -0.21257642 -0.18618688
000260 c7 2f b9 bd 2c a7 54 bd 26 00 42 3e e6 fd 95 be
       -0.09042316 -0.05191724 0.18945369 -0.29295272
000270 d6 f2 1a be 1b c5 ac be 0d d9 89 bc 7d 4e 2f be
       -0.15131697 -0.3374413 -0.01682713 -0.17119785
000280 c4 e2 20 be 71 7d 14 be c9 1a f5 bd 0b 68 58 be
       -0.15711504 -0.14500977 -0.119679995 -0.21133439
000290 61 db ab be f8 79 80 be b2 b2 3e be 00 99 36 be
       -0.3356581 -0.25093055 -0.18622854 -0.17831802
0002a0 02 e3 42 be 82 f7 92 be 71 e4 4f be 07 46 5a be
       -0.19031909 -0.28704458 -0.20301987 -0.21315776
0002b0 b7 4d 2a be 6f f3 9e be 08 30 a5 be ec 23 8b be
       -0.16631208 -0.310451 -0.32263207 -0.27175844
0002c0 1a b6 d4 be 27 7e 65 be bb 05 9f be 5c f8 78 be
       -0.41545182 -0.22411405 -0.3105906 -0.24313492
0002d0 de 80 50 be ac dc fe bd 2b 35 f8 bd 6a 19 15 be
       -0.20361659 -0.124444336 -0.12119516 -0.14560476
0002e0 14 69 91 be b9 59 35 be 44 16 92 be a0 cd 41 be
       -0.2840048 -0.17710008 -0.28532612 -0.18926096
0002f0 8a b0 a9 be bf 0d 42 be 1c c0 98 3d 7b fa 26 be
       -0.331425 -0.18950556 0.07458517 -0.16306488
000300 6c e5 46 be 9b 0b 32 be 29 51 62 be be 39 53 be
       -0.19423455 -0.1738724 -0.22101273 -0.20627496
000310 ac 10 79 be de f5 4a be 4d d1 e2 bd 66 d1 83 3e
       -0.24322766 -0.19820353 -0.11075077 0.25745696
000320 4d c3 d3 3d 14 a9 c0 bd 76 c3 48 3d 47 3a aa 3d
       0.10339985 -0.09407249 0.04901453 0.08311897
000330 12 cf 99 bd 61 5a aa bd 7a 20 db bd b9 5a f6 bd
       -0.07510199 -0.0831802 -0.10699554 -0.12029023
000340 5c 4a 8c 3c 5e 61 bd bd 17 38 ff bd 30 1c 9a bd
       0.017125301 -0.09247087 -0.1246187 -0.075249076
000350 8b 9b 92 3d 2e 25 b0 bb b2 b9 6f bd c4 4d cc 3d
       0.07158574 -0.005375526 -0.058526702 0.0997577
000360 d7 14 0c 3e 59 f8 22 bd 9e 21 3c bc 6b 06 e7 3d
       0.13679825 -0.039787624 -0.011482624 0.11280521
000370 8d 78 75 3d 1e 2c f0 bc 0d bb 76 bd 62 33 da 3d
       0.05992942 -0.029317912 -0.06023698 0.10654332
000380 de f6 b5 3c 5d 36 f5 3d f6 61 8e bd a0 fc e1 3d
       0.022212442 0.119732596 -0.06952278 0.110345125
000390 a7 ba bc bd e7 39 ec bd 9c 71 d2 bd 41 32 f7 3d
       -0.092152886 -0.115344815 -0.102755755 0.12070132
0003a0 09 0a 92 bd 53 3d 17 3d 73 c7 9e 3d ad b5 97 3d
       -0.0713082 0.036923718 0.07752886 0.07407699
0003b0 46 0b bb bd 5f 73 1a 3d 49 13 c5 3d d2 1d 45 3d
       -0.091330096 0.037707683 0.09622819 0.048124142
0003c0 e9 99 df bd 58 be 64 bd 78 ce 42 3d 8e c5 b8 3d
       -0.10918028 -0.05584559 0.047560185 0.090220556
0003d0 11 91 80 bd ad 61 99 3d 96 d9 a9 bd 2a a3 e1 bd
       -0.06277669 0.07489333 -0.08293454 -0.11017449
0003e0 36 0e 56 bc 28 1f a7 3d f0 9a 1d 3d 1b 31 f6 3d
       -0.013064912 0.081602395 0.038477838 0.12021085
0003f0 0b d8 2d bd 47 60 dd bb a8 5c 1a 3d d8 ef 1c be
       -0.042442363 -0.006755862 0.03768602 -0.15325868

net.0.weight_hh_l0 f4 [300, 100]
000000 db 64 e8 3b 9e ef 4e bc a0 3e 77 3d 9c ec ac bd
       0.007092101 -0.012630371 0.06036246 -0.08443567
000010 be 75 24 3d d0 82 92 bd 39 49 aa bd 21 c0 47 bd
       0.04015135 -0.07153857 -0.08314747 -0.048767213
000020 fe 3c bf 3d 2e 3e 1a bd 59 d6 c9 3d 3d 59 a8 bc
       0.09337805 -0.037656955 0.09855337 -0.020550365
000030 8f 37 0c bd d6 ee 4b bc b6 cb ad bd dd d6 31 3d
       -0.034232672 -0.01244708 -0.084861204 0.0434178
000040 02 28 55 3c 86 02 c9 3d 90 9c af 3d dd 8c 83 3b
       0.013010027 0.098149344 0.08574784 0.004014595
000050 47 c5 a9 3c 45 9a f0 3c 32 75 91 bc 35 f2 2d bd
       0.020723952 0.029370436 -0.017756078 -0.042467315
000060 f6 7a 74 bd 9c a2 8f bd 11 93 fa bc 8c 5a 82 bd
       -0.059687577 -0.07013437 -0.030587705 -0.06364927
000070 3c 40 b0 3d 54 c7 72 3d 0c d3 3b 3d c7 5a 00 3e
       0.08606002 0.059272125 0.045855567 0.12534629
000080 c6 7f 51 3d 28 e3 61 3c 02 15 37 bc f2 f5 24 3d
       0.051147245 0.013787068 -0.011174442 0.040273614
000090 1d 34 88 3d c9 fd ec 3d 31 88 be bd 25 a4 c3 3d
       0.06650565 0.11571843 -0.0930332 0.095527925
0000a0 16 a3 a0 3d 45 23 23 3c 75 e0 b4 39 51 19 0b 3e
       0.07843606 0.009957139 0.0003449951 0.13583876
0000b0 a8 5b e5 3c c2 18 39 3b ff 21 50 3d 69 6b 07 be
       0.027997807 0.0028243517 0.05081367 -0.13224567
0000c0 c7 7a 13 bd 01 ad 4e bc cc db 25 3d ad e8 09 3e
       -0.03600576 -0.0126144895 0.040492818 0.13467665
0000d0 9b fa a7 3c e4 65 ca bd f0 0e 42 bb 64 01 8a 3d
       0.02050524 -0.09882715 -0.0029610954 0.067385465
0000e0 8b 79 4c 3d 5c 1b cd bc c9 50 c8 3c 40 71 2f bd
       0.0499206 -0.02503746 0.024452584 -0.042832613
0000f0 c7 08 98 3c b6 89 d0 3c 50 9b 3a 3c 83 4c 87 bd
       0.018558873 0.02545629 0.011389568 -0.0660639
000100 a3 ff 29 bd ce 25 2b bd 1e ec 07 bd e6 27 f9 3c
       -0.04150356 -0.0417841 -0.033184163 0.030414533
000110 b1 95 ed bd 39 18 26 3d 7f 24 5d bd aa b9 5d ba
       -0.11600817 0.040550444 -0.053989884 -0.0008458147
000120 c5 dc 8c bb f8 d6 28 3b 10 52 bc 3d 3c 7a e4 3b
       -0.0042987787 0.0025762897 0.0919534 0.0069725793
000130 70 b5 54 bd 98 98 04 3d 1a 14 6d 3b c7 b3 44 bd
       -0.051930845 0.032372087 0.0036175312 -0.04802301
000140 b5 f3 db bd fc c7 17 3e 22 d9 eb bc e3 9a 29 bd
       -0.10739843 0.14822382 -0.02879006 -0.041407477
000150 42 b1 e3 bd f0 8a a9 bc 02 94 74 3d f6 4f 3d 3c
       -0.111177936 -0.020696133 0.059711464 0.011554709
000160 e6 e8 5e 3d 96 10 0d 3c 1e fd 29 bd 6b 56 71 bd
       0.054421328 0.008609911 -0.041501157 -0.058920305
000170 a8 17 fc 3d de 29 ce 3d 3e ac 42 bd 83 98 cf bd
       0.123091996 0.10066579 -0.047527544 -0.10136511
000180 d5 5f 22 3d ff c7 ed bc 63 8f a6 bd 7a 6d 62 3b
       0.039642174 -0.02902603 -0.081328176 0.0034550116
000190 8c bf 3c ba bd d5 87 3d 41 7e e3 bd c1 bf 6c 3d
       -0.00072001736 0.06632564 -0.111080654 0.05780006
0001a0 1e fd fa 3b 48 09 db bc 05 50 63 bd 70 ff db 3c
       0.0076595685 -0.026737824 -0.055496234 0.0268552
0001b0 8a 58 cb bd 68 21 59 3d 18 5a d8 3c f3 33 22 3d
       -0.09928997 0.053010374 0.026410148 0.039600324
0001c0 f7 3d c0 3d e0 3f a1 3d 94 74 a8 bd 70 28 93 3d
       0.09386819 0.07873511 -0.082253605 0.07185447
0001d0 d7 3a 61 bd e3 7e cb bd bf f1 b9 3d b5 bb 8b 3d
       -0.054987755 -0.09936311 0.090793125 0.06822912
0001e0 a1 8e 9d 3d 34 ec 62 3c bb 4d 61 bd c6 ea e6 3c
       0.0769322 0.0138502605 -0.05500577 0.02818812
0001f0 97 8b bc 3d a3 d4 4a 3d d0 47 69 3c 51 44 d3 3a
       0.09206312 0.049519192 0.014238313 0.0016118382
000200 a6 d8 7c bd 9f e3 22 bd e2 d6 7b 3d c9 78 9e bd
       -0.06173005 -0.039767858 0.061484225 -0.07737882
000210 ce bd 18 bd d8 43 46 bd b5 72 03 3d af 32 b5 3d
       -0.037290387 -0.048404545 0.032091815 0.08847558
000220 ee c0 b2 3d 0d ae 9a bd f3 ef 24 bc 98 19 0d bd
       0.08728205 -0.07552729 -0.010066974 -0.034448236
000230 64 0d ac 3c 66 ce 4f 3d e2 ff 85 3d fc 9c 22 bd
       0.021002479 0.050733946 0.065429464 -0.039700493
000240 a9 cf 9f 3d db 9b 8b 3c ea a6 61 bd e1 97 7f bc
       0.0780328 0.017042091 -0.055090822 -0.015600176
000250 c9 7e 6b 3d 79 0e 2c 3d 0d c7 58 bb a3 ed 43 3d
       0.05749396 0.04200599 -0.0033077628 0.04783405
000260 83 be 83 3d 08 7a 58 bd 44 71 84 bc 8d b5 d4 bd
       0.064328216 -0.052850753 -0.01616729 -0.103861906
000270 42 50 6b bd a7 06 37 3d 89 99 ed 3c fd 39 0e 3d
       -0.057449587 0.04468408 0.029003875 0.03472327
000280 0c 6b ee ba 3d 4e 8b 3d 50 33 11 3d 76 1e 94 3d
       -0.0018189861 0.06802032 0.035449326 0.072323725
000290 4e 57 74 3d 20 e4 46 bd 24 ef 04 3e 6f 70 a8 3d
       0.059653573 -0.0485574 0.1298185 0.0822457
0002a0 bf 94 c7 3d 6b 52 cd bd 83 87 93 3d eb 7a ba bd
       0.09745168 -0.100254856 0.07203581 -0.09105476
0002b0 23 b4 3c bd 33 04 af 3d c6 ec a6 3d 27 56 a5 3d
       -0.04607023 0.08545723 0.0815063 0.08073073
0002c0 60 90 32 bd c4 08 94 3d a6 f1 a2 bc 91 e0 af 3d
       -0.043594718 0.072282344 -0.019890618 0.085877545
0002d0 94 72 9f bc f3 3c 5c 3d 3b ea d1 3d a4 e5 86 3d
       -0.019463815 0.053769063 0.10249754 0.06586769
0002e0 71 a5 d8 3d 5f bb 99 bd 3d 96 96 bd 4a 9d 8c 3d
       0.105784304 -0.07506441 -0.073528744 0.06865938
0002f0 b0 c7 4f 3c 0e 51 2c bd fb 15 a8 bb b2 f7 2c 3d
       0.012681887 -0.042069487 -0.0051295734 0.04222841
000300 72 01 5d bd 5c 81 5f bc 36 b5 49 bd 44 bc ed 3d
       -0.053956456 -0.0136416815 -0.04924508 0.116081744
000310 f3 fa 93 3d 25 cd 33 bd 5e 30 69 bc 36 d8 19 3d
       0.07225599 -0.043896813 -0.014232723 0.03755971
000320 37 fb 15 3d 7d 27 17 3c 70 06 f2 3c c8 2d 01 3e
       0.03661653 0.009225723 0.029544085 0.1261512
000330 f0 66 94 bd 29 12 58 3d ff a4 50 bd be 47 0b bd
       -0.07246196 0.052751694 -0.050938603 -0.034003966
000340 9d 21 b7 bc 7e 3d be 3d a1 ad 5a bd 76 69 94 bd
       -0.022354895 0.092890725 -0.05338824 -0.072466776
000350 ec f2 47 bc fd 24 a8 bb a3 52 c0 3c a1 83 96 3d
       -0.012203913 -0.0051313625 0.023476904 0.07349325
000360 2f 2b 1d 3d fd d0 93 3d 53 44 1d 3d 5b e8 08 3d
       0.03837126 0.07217596 0.038395237 0.033424716
000370 b0 09 4e 3d bf 81 3d bd c5 63 44 bd 6f 56 cb bd
       0.050302207 -0.046266314 -0.04794671 -0.09928595
000380 ba d1 d6 3d c7 cb 07 bd fb 57 b6 bd e5 72 e2 bc
       0.10489221 -0.03315332 -0.089035 -0.027642677
000390 65 a2 19 bd ed 72 02 be 02 3b 8b 3d c0 c3 07 3e
       -0.037508387 -0.12739153 0.06798364 0.13258266
0003a0 ae 11 be 3d d7 f6 0f 3c d8 3d 8e 3d 4a b2 86 bd
       0.09280716 0.008786879 0.069453895 -0.06576975
0003b0 95 cf b3 bd bb 38 a8 bc 88 e8 d4 3b 74 6a b3 3d
       -0.087798275 -0.020534864 0.0064974464 0.08760539
0003c0 bc da 5e bd 8e 6f de 3d e1 f0 71 bd b4 2f ca 3d
       -0.05440782 0.10861121 -0.05906761 0.0987238
0003d0 70 77 e3 3c 22 a6 03 3d 02 a2 83 bd 58 6f cc bd
       0.027766913 0.03214086 -0.06427385 -0.09982175
0003e0 5c 20 9f bd 8a 25 dc bd dc e2 81 bd cd 7c f3 3b
       -0.07769844 -0.107493475 -0.06342098 0.007430649
0003f0 cb bb cc 3d dd 2e cc bd e9 07 98 bd 33 97 83 3d
       0.09996756 -0.09969876 -0.07423384 0.06425323

net.0.bias_ih_l0 f4 [300]
000000 1c bd 01 be 76 db a4 3d 2a ba d2 bd 45 5e d7 bd
       -0.12669796 0.08049671 -0.10289414 -0.10516027
000010 00 37 9f bb 3c d6 b4 bb ca 96 d5 bd 21 2e af bd
       -0.0048588514 -0.005518703 -0.10429151 -0.0855372
000020 91 17 0f 3d 74 e0 04 bd 92 6d 74 3d a1 c1 ba bc
       0.034934584 -0.032440618 0.059674807 -0.022797408
000030 58 ad 0e 3d 50 87 9d 3d ff e6 c3 3c 69 a1 e6 3c
       0.034833282 0.076918244 0.023913858 0.028153138
000040 09 6b 58 3d ba 14 74 bd 72 28 b3 bd d9 01 94 bd
       0.05283645 -0.05959008 -0.08747949 -0.07226915
000050 14 b5 86 3d 54 cc 09 bd 45 70 e0 3c 08 96 f9 3c
       0.06577507 -0.033642128 0.027397284 0.030467048
000060 68 6d 9b bd 6e e2 d9 bd 90 e7 b5 3d 82 5f c1 bd
       -0.07589227 -0.10638891 0.08882058 -0.09442045
000070 90 1e a7 bc 22 27 0c be fd f1 9c bd fd 61 89 bd
       -0.020400316 -0.13686803 -0.07663343 -0.06708143
000080 bd 1f a1 3c 83 89 f8 3c b3 a6 95 bd 49 3e 0e 3d
       0.019668454 0.030339008 -0.07307186 0.03472737
000090 b2 93 bb bd 86 da 28 3d 08 2d d2 3d 18 4d 23 be
       -0.0915903 0.041224025 0.10262495 -0.15947378
0000a0 33 a0 ac bc 14 87 0b bb a8 a7 81 bd 4a d1 63 b9
       -0.021072483 -0.002129023 -0.06330806 -0.00021726373
0000b0 78 a7 94 3d 0a a5 91 3c f1 28 c8 3d cf d4 af bd
       0.07258505 0.017778892 0.09773434 -0.08585512
0000c0 89 67 51 bd 8c 6a f5 bd cc 05 83 3d cf da 9c bd
       -0.05112413 -0.11983213 0.0639759 -0.07658922
0000d0 60 0b 45 3d af 8e f4 3a b9 a3 7c 3d 49 c2 cf 3c
       0.04810655 0.0018658246 0.061679576 0.025361197
0000e0 8c 42 76 3d 96 ea 4a 3b ab b1 72 3c 96 7d b9 3b
       0.060122058 0.0030962578 0.014812867 0.005660723
0000f0 9d 80 26 3d 79 04 94 bd 0d d6 d6 bc 79 f8 ac 3c
       0.04065 -0.072274156 -0.026225114 0.021114575
000100 4c cd ba bc a8 5f 1d be 28 9f ea bd 37 24 c1 bd
       -0.022802971 -0.15368521 -0.11456138 -0.094307356
000110 d6 d8 51 bd 67 18 ba bd 4f 67 68 bd 68 81 ea 3d
       -0.05123218 -0.09086686 -0.056739148 0.114504635
000120 6a 11 cf bc 73 16 64 3d 58 2f c8 bd 4c 3e 7a 3d
       -0.025276858 0.05568547 -0.09774655 0.061094567
000130 9f e6 67 bd 5f 25 38 bc 86 a1 50 bd 01 5f 9c bd
       -0.05661642 -0.011239379 -0.05093529 -0.07635308
000140 e5 5d 3d bd c6 72 ad 3d a5 c4 da 3d 55 54 d2 bd
       -0.046232123 0.08469157 0.10682038 -0.10269991
000150 4a c5 87 3d 6b 8d 58 3c 59 c0 a4 bd 92 a1 8e bd
       0.06629427 0.01321731 -0.080445 -0.06964411
000160 15 43 d7 3d 66 b5 16 be 47 e4 62 3b 00 17 b7 37
       0.10510842 -0.14717636 0.0034620927 2.182601e-05
000170 b2 69 66 bd 1d 84 9c 3d 00 cd a0 3d fb 9a 0c be
       -0.056253143 0.07642386 0.07851601 -0.13730995
000180 ae 34 50 bc 0a 7d c2 3a 19 37 df bb 7a d8 d7 3b
       -0.012707872 0.001483829 -0.006811988 0.0065870853
000190 24 87 30 3c cf 2f 8a bd 29 a7 ee bd 5c 6f 70 be
       0.010774408 -0.067474 -0.11652977 -0.2347998
0001a0 d0 b9 10 be e0 7b cf bc 7b 1b 3e be 08 dc 65 bd
       -0.14133382 -0.025327623 -0.1856517 -0.05611804
0001b0 8b d7 2a be aa 6e a3 bd d3 7d 2a be 42 ee 3a be
       -0.16683786 -0.07980092 -0.1664956 -0.1825495
0001c0 35 5c d5 bd 1d 90 93 bc f4 61 34 bd 3e 6b 5f bc
       -0.10417978 -0.018013055 -0.044038728 -0.013636408
0001d0 35 99 30 be 90 48 d8 bd e6 47 50 3e b9 8b a6 3c
       -0.17245944 -0.10560715 0.20339927 0.020330297
0001e0 a0 07 20 be 65 19 b7 bb 19 52 fd bd 6f 80 1e bd
       -0.15627909 -0.005587744 -0.123691745 -0.038696703
0001f0 30 59 21 3e 7c 8a 93 bd 40 fe 0d be 88 5a cc bd
       0.15756679 -0.07204148 -0.1386652 -0.09978205
000200 7e 5d fb bc d0 45 9a bd 20 e0 8e bd 7f cd f6 bd
       -0.030684229 -0.07532847 -0.06976342 -0.12050914
000210 05 be e2 bc 7a 79 07 be 49 c9 26 be dc dd 36 be
       -0.027678499 -0.13229933 -0.16287722 -0.1785807
000220 58 47 18 be 32 6a b5 be 3f 8e 05 be 92 3e a3 be
       -0.14870965 -0.35432583 -0.13042544 -0.31883675
000230 d9 48 02 be 07 5b 27 be 6e cf 8d 3d d2 48 26 be
       -0.12723102 -0.16343318 0.0692433 -0.16238716
000240 95 ae 42 be 5f 59 87 bc d6 c3 b6 bd 57 20 61 be
       -0.1901191 -0.016522108 -0.089240715 -0.21984993
000250 95 fd 1e 3e 55 16 55 bd 1e 8f 8f be e9 03 ad bd
       0.15526421 -0.05202325 -0.28038877 -0.084480114
000260 7e 29 29 be f6 51 bb bd cf 1b 46 3e 0f b7 88 bc
       -0.16519734 -0.09146492 0.19346546 -0.016688852
000270 7d 44 82 bd 34 ca 8e be ee 80 d6 3c b4 af 64 bd
       -0.06360719 -0.27888644 0.026184525 -0.055831626
000280 85 3e 57 be b7 a9 bf bc e6 56 c0 bb 62 72 34 be
       -0.21019943 -0.023396356 -0.005869734 -0.17621759
000290 d0 8c 6b be 0b 01 bf bd 63 29 3c be c2 f9 21 be
       -0.23002934 -0.09326371 -0.18375163 -0.15817931
0002a0 ef 05 a6 bd 9e 47 d4 bc bb b7 13 be 36 bf 6e bc
       -0.081066005 -0.025913056 -0.14425556 -0.014571955
0002b0 d5 a1 e5 bd 67 94 2b be 18 13 09 be d6 cd af bd
       -0.11212508 -0.1675583 -0.1338619 -0.08584182
0002c0 ce 5e cf be b8 ba ad bc cc eb 92 be 1a b3 c7 bd
       -0.40502018 -0.021207199 -0.28695524 -0.09750958
0002d0 05 b4 60 be 90 3e 8d bd ba 33 8e bd 47 9b 6d be
       -0.21943672 -0.068966985 -0.0694346 -0.23203765
0002e0 94 81 e4 bd 4d e6 0f be b0 ba 3f be 47 53 af bd
       -0.111575276 -0.14052697 -0.1872356 -0.08560806
0002f0 d8 14 a0 be 0d a0 3b bd 15 b0 ce 3d 84 5f 0e be
       -0.31265903 -0.045806933 0.10092179 -0.13903624
000300 21 f1 d4 bc aa ac 09 bd a7 59 8c be 56 f0 93 be
       -0.025993885 -0.03361193 -0.2741215 -0.288943
000310 d1 43 08 be b8 e7 3e be d2 ab 20 be d4 7b f4 3d
       -0.1330712 -0.18643081 -0.15690544 0.11937681
000320 44 eb 60 bd c4 8f 12 bd 99 c0 12 bd 17 64 f4 bc
       -0.054911867 -0.035781637 -0.035828207 -0.029832883
000330 3d af 39 bc 38 d3 b9 3a e6 0f f9 3c ce dd c6 3d
       -0.011333284 0.0014177328 0.030403089 0.09710275
000340 43 c7 4d bd f6 b7 2e 3d 94 c8 74 3d 16 4c ba bc
       -0.05023886 0.042655908 0.0597616 -0.022741359
000350 69 84 8b 3c 92 32 84 bd de 4d 6b bd e5 e4 ef 3c
       0.017030912 -0.06454958 -0.057447307 0.02928395
000360 10 22 4d bd 97 95 05 3c 41 45 95 3c a4 82 c3 3c
       -0.050081313 0.008153341 0.0182215 0.023866005
000370 c8 8f 99 bd e4 1a 11 3c 91 ca bb 3d e6 dd d3 3b
       -0.07498127 0.008856509 0.09169496 0.0064656613
000380 9f a1 67 3d 43 6c 8b 3d 7b b0 f3 bb cc 1d 49 3d
       0.05655062 0.06807759 -0.0074368096 0.049100682
000390 fa 0e e2 bc ca 6f 06 3d 9e 93 c5 bb a9 25 33 bc
       -0.027595032 0.032821454 -0.00602956 -0.010934272
0003a0 a6 76 c0 bc 14 bc ae bd e2 66 1d 3d b1 b6 5b bc
       -0.023494076 -0.08531967 0.038428195 -0.013410256
0003b0 80 96 34 3b 7a a7 ac bc 69 d2 9f 3c 66 3a 73 bd
       0.0027555525 -0.021075953 0.019509511 -0.059381865
0003c0 e4 e6 35 bc 63 3f 74 3b 83 6e 2b bd a6 97 d6 bd
       -0.011102412 0.0037269227 -0.04185344 -0.104781434
0003d0 c7 4b fd 3c 2e 1e 68 bc b3 61 fc bc 9a 44 8f 3d
       0.030919923 -0.014167352 -0.030808305 0.069955066
0003e0 00 6b 07 3d 74 e5 69 3d a9 bc c3 bc f5 67 83 bd
       0.033061028 0.05710359 -0.023893671 -0.064163126
0003f0 08 71 89 3d 21 5f 53 3d 2a 37 e0 3c 94 d9 77 3d
       0.06711012 0.051604394 0.027370054 0.060510233

net.0.bias_hh_l0 f4 [300]
000000 ee 65 a5 bd 3b 70 80 3c c1 ce 13 bd c6 88 07 be
       -0.08076082 0.015678516 -0.036085848 -0.13235769
000010 1a 45 9b 3d 21 29 ff bc 0d 04 26 bc 7f ab d6 3c
       0.075815395 -0.031147541 -0.010132802 0.026204823
000020 66 4b b4 bd 94 c8 47 3d 94 13 87 3d 1e 22 8e bd
       -0.088034436 0.04877527 0.06595531 -0.06940101
000030 26 1c 18 bd a6 93 5e 3c c9 e0 1f 3d 40 ad 0a bc
       -0.03713622 0.013585007 0.03903273 -0.008464158
000040 0b 8a cb bd b1 3e cf bd bf 68 0a be 47 2a 16 bd
       -0.09938439 -0.10119379 -0.1351652 -0.036661413
000050 e1 04 5b bc 0a d1 a6 3c 14 2d 8c bd e5 ca 6f bd
       -0.013367862 0.02036335 -0.068445355 -0.058543105
000060 8e 8b af 3d 76 cc 71 3d 24 b8 b8 bd 19 e3 84 3d
       0.0857154 0.05903288 -0.09019497 0.06488628
000070 fd 65 4a 3d 3f 25 d7 bd fd f5 08 bd f8 ed 87 bc
       0.04941367 -0.10505151 -0.033437718 -0.016592965
000080 ab f2 6a 3d 6a d3 c3 3d 59 ec 23 3d 3a a4 9c 3d
       0.057360332 0.095618084 0.04002032 0.07648511
000090 5f e1 7d bd b8 1a 98 bd 78 63 dd 3d fc de a0 bd
       -0.06198251 -0.07426971 0.10809988 -0.07855031
0000a0 4c 34 c4 bd 3f 74 ba bd de 3b 8b bc 73 d8 6f bb
       -0.09580287 -0.091042034 -0.01699632 -0.003659752
0000b0 fb 7b b7 3c e5 5b 3c bc 39 6e de 3d 0c 2f 73 bd
       0.022397986 -0.011496519 0.10860867 -0.05937104
0000c0 84 7e 86 bb 5e a9 d2 bd 1c 99 9f 3c f8 f2 77 bd
       -0.0041044373 -0.102862105 0.019482188 -0.060534447
0000d0 e4 38 b6 bd 98 cb 56 bd c6 be 67 3d 9b 6f 81 bd
       -0.0889757 -0.052440256 0.05657842 -0.06320115
0000e0 ef 18 40 bd 5b 64 7d bc ae d1 4a 3c b4 d9 c1 3c
       -0.04689878 -0.015465821 0.012379093 0.02366338
0000f0 ec 96 3d 3d 0e a9 a9 3d 7d 5f 00 be 57 d0 5c bd
       0.04628651 0.08284198 -0.12536426 -0.053909626
000100 3f 4c 43 bc 48 f6 7d bc 1b 19 2d 3d 08 df ef 3c
       -0.011920034 -0.015500613 0.04226027 0.029281154
000110 89 fb 5a 3d 78 e0 f4 bd 5f bd 03 3d 3f dd d6 3d
       0.05346254 -0.119568765 0.03216302 0.10491418
000120 a4 8e c0 3d 36 40 07 bd 37 0d 9f bd 22 48 4c 3d
       0.094022065 -0.03302022 -0.077661924 0.04987348
000130 48 2b 57 3d 32 76 5f 3d 33 3f ca bd 79 1b a6 bd
       0.05253151 0.05455608 -0.098753355 -0.08110709
000140 6a 18 07 bd 92 68 b3 bd 0d a7 c3 3d ea 0b f0 bd
       -0.032982267 -0.087601796 0.09553347 -0.117210224
000150 37 11 87 3d 03 85 f6 bd 7b e9 a7 bd c6 86 79 3d
       0.0659508 -0.12037089 -0.0819883 0.060919546
000160 b5 16 9b bd c2 ea a2 bd 03 75 e3 3c dd cb b5 3b
       -0.075726904 -0.07954933 0.027765756 0.005547984
000170 68 40 18 bd dd 2d c5 bd ab 3b b0 3d 93 4b c0 3c
       -0.037170798 -0.09627888 0.08605131 0.023473537
000180 bc 5a f2 bd ab 8f 27 be 4c da c8 bc 27 da 12 be
       -0.118337125 -0.16363399 -0.024518155 -0.14341031
000190 bd da 3f bd 0c b2 96 bc bd 5a 3c be 1f 02 58 be
       -0.046839464 -0.018395446 -0.18393989 -0.21094559
0001a0 a1 60 9d bd 56 fd f3 bd 80 9f f2 bd d9 76 48 be
       -0.07684446 -0.11913554 -0.118468285 -0.19576587
0001b0 06 db 12 be 3d 03 f2 bd 13 75 42 bd 43 e1 53 be
       -0.14341363 -0.11817024 -0.047474932 -0.206914
0001c0 99 bb 39 bc 46 bd 24 be 37 8f ea bd 5d 2b 68 bd
       -0.011336231 -0.16087827 -0.11453097 -0.05668198
0001d0 e8 df 2a be ed 32 59 be 71 15 0a 3d ed e4 a0 3d
       -0.16686976 -0.21210833 0.033711854 0.07856164
0001e0 56 cb d8 bd d6 a0 4d bd f8 51 3b be 13 f7 24 be
       -0.10585658 -0.050202213 -0.18292987 -0.16109876
0001f0 2e 37 c0 3d 5c de 7c 3c 38 5d 95 bd 14 93 50 bd
       0.09385525 0.015433874 -0.07293171 -0.050921515
000200 83 47 49 3d 21 eb 34 be 6e b8 aa bd 27 74 ac bd
       0.049140465 -0.1766782 -0.083359584 -0.08420592
000210 fd 2d ff bb 02 15 38 bd 19 96 13 be c2 85 8e bd
       -0.0077874647 -0.04494191 -0.14412726 -0.06959106
000220 94 bd 13 be 95 2f d4 be 15 6b 2e be 1b 97 a9 be
       -0.14427787 -0.41442552 -0.17033036 -0.33123097
000230 bc ff 0d be f0 f7 e9 bd fb 78 6c 3d 9a d6 c0 bd
       -0.13867086 -0.114242435 0.057732563 -0.09415932
000240 64 3c e3 bd 2c 5b 54 bd d8 be c9 bc 02 a1 da bd
       -0.11095503 -0.05184476 -0.024627134 -0.10675241
000250 43 eb a8 3e 1b c0 a3 bd 6b 19 a0 be 27 28 e8 bb
       0.3299199 -0.079956256 -0.31269392 -0.0070848647
000260 a5 6c 18 be d2 88 7c bd 7c d5 50 3e 54 f3 d9 bc
       -0.14885195 -0.06165392 0.20393938 -0.026605286
000270 e6 8c 86 bd ec a6 1d be 87 54 9b bc 20 d9 db bd
       -0.06569843 -0.15395707 -0.018961204 -0.10734773
000280 88 a5 4e be a6 7d c1 bd ea 26 39 bb d4 d7 10 be
       -0.20180333 -0.09447794 -0.0028251954 -0.14144832
000290 12 f8 5a be c0 bf a1 bd 79 b4 34 be 17 7a 2f be
       -0.21383694 -0.078979015 -0.1764697 -0.17136417
0002a0 8d dc 6e bd 3e 1c 16 be 35 d5 68 be 04 e5 a6 bd
       -0.058315802 -0.14659211 -0.22737582 -0.0814915
0002b0 e2 57 44 be d9 e7 91 be 69 7a 07 be ef 3b cf bd
       -0.1917415 -0.28497198 -0.1323029 -0.10118853
0002c0 c3 07 c7 be 26 b3 d3 bb 22 0f 1c be da 82 26 be
       -0.3887311 -0.006460565 -0.15240148 -0.16260853
0002d0 43 93 09 be ea 06 df bd 2e b8 ea bd 13 ed 1b be
       -0.13435082 -0.10889991 -0.11460911 -0.15227155
0002e0 b6 ed c9 bd 78 59 a7 bd 14 ce 79 bc 12 96 58 be
       -0.09859793 -0.08171362 -0.015246887 -0.21150997
0002f0 6a 55 09 be ad e5 40 bd 3b aa 9e 3d 24 68 11 be
       -0.13411489 -0.047094036 0.07747313 -0.14199883
000300 72 86 64 bd 2b 5c 45 be 2f 12 8d be 06 9d 67 be
       -0.05579228 -0.1927344 -0.27552935 -0.22618493
000310 8a de 2d bd 27 cb 2d be ce 7e ed bc 88 45 66 3e
       -0.042448558 -0.16972028 -0.02899113 0.22487462
000320 48 3a a1 3c 7a c3 92 bc 7d b6 4f 3d 19 91 35 3c
       0.019681111 -0.017915476 0.050711144 0.011081957
000330 9d e7 7d 3d 7d 7f 9e 3c fd e2 7c 3d 9d a3 88 3d
       0.06198846 0.0193479 0.06173991 0.06671832
000340 e9 79 d1 bc 14 43 01 bd 84 73 96 bd 5b d1 8c bd
       -0.025570827 -0.03155811 -0.073462516 -0.06875869
000350 6d 25 4d 3c d9 61 a0 3d 2e 06 cb 3d d1 3d f9 bd
       0.01252113 0.07831163 0.09913288 -0.12169994
000360 2e ca 69 bd dc aa 7e 3b 84 be a7 3c c0 53 51 3d
       -0.05707758 0.0038859164 0.020476587 0.05110526
000370 b8 33 82 3d e9 40 bb bc 59 c9 b5 3d bb 9e e3 3c
       0.06357521 -0.0228581 0.08876295 0.02778565
000380 53 80 da bd 89 56 a3 bd bb 1e bd 3d 5a 6e ae bd
       -0.10669007 -0.0797549 0.09234377 -0.08517142
000390 25 65 c6 bc 71 5d 38 bd df d2 ca 3d 99 6f 2f bc
       -0.024218151 -0.045010988 0.09903502 -0.010707759
0003a0 8c ed 83 bb 6d 5d e8 3c 92 19 7f bc b2 c2 ed 3c
       -0.0040261205 0.028364861 -0.015570061 0.029023502
0003b0 eb c2 b5 3d 30 91 de bc a6 ea 69 bd 0d 4c c0 3d
       0.08875068 -0.02716884 -0.057108544 0.093895055
0003c0 1d ec a2 3d 86 89 13 bc 43 fc 89 bd 74 a1 8a 3d
       0.07955191 -0.009004956 -0.06737568 0.06769076
0003d0 3a 0d ed 3b 7e b8 2d bd ba 8e 92 3d 59 cd 65 bb
       0.0072342427 -0.042412274 0.07156129 -0.0035065024
0003e0 b6 0b 08 3d a6 4e 81 bd 22 bc 8b bd 31 2f be bd
       0.033214293 -0.06313829 -0.06822993 -0.09286345
0003f0 04 d8 2c bd 8d 41 68 3c 35 f5 a2 bd 73 c6 ce 3d
       -0.042198196 0.014175785 -0.07956926 0.10096445

net.0.weight_ih_l1 f4 [300, 100]
000000 e1 74 b0 bd 09 8e 95 3d 54 6d d2 3c 11 0f 55 bc
       -0.08616043 0.07302482 0.025686897 -0.01300408
000010 7b 2c 30 3d 4a ba 08 bc 70 da da bc 26 3f a5 bd
       0.04301117 -0.008345196 -0.026715487 -0.08068685
000020 59 52 c7 3d 39 0e 1d 3d bc 54 7d 3c 94 0f c1 3c
       0.097325034 0.038343642 0.015462097 0.023566999
000030 c8 4a 07 3d 26 0f 08 3d 1a df f6 3d 52 7e c9 bb
       0.0330303 0.03321757 0.12054272 -0.0061490918
000040 9e e0 f3 bd 1e 5f e1 3d 71 24 5c bd fd dc 0b be
       -0.11908077 0.1100447 -0.05374569 -0.13658519
000050 6e ee 32 bd 02 2e ea bc df f4 a0 bd 6a 2d 0f be
       -0.043684416 -0.028586391 -0.078592055 -0.13982168
000060 b5 df 81 3c b7 03 ae bd 85 14 8d 3d 70 b4 01 be
       0.015853742 -0.08496802 0.068886794 -0.12666488
000070 23 52 06 3e 7d 69 df 3d d1 d5 42 bd 27 38 44 3c
       0.1311727 0.10908792 -0.047567192 0.011976278
000080 79 62 d0 3d 63 ad b3 3d c8 1e 94 bc 66 e3 31 bd
       0.10175032 0.08773305 -0.018081084 -0.043429755
000090 2c 9a 54 3d 85 75 13 bc 84 ba 8d bd 21 b0 28 bd
       0.051904842 -0.009000187 -0.06920341 -0.041183595
0000a0 d8 cc fa 3a 15 d6 72 3d 50 38 19 3e a8 27 b5 bd
       0.0019134535 0.059286196 0.14962888 -0.088454545
0000b0 c2 73 a9 3b 59 07 17 be 0f 25 20 3e 1d ba f9 3d
       0.00517127 -0.14748897 0.15639137 0.121937014
0000c0 fe f4 6e bc 23 6c 22 3d 8a 59 86 3d 2d ed bc 3c
       -0.014584778 0.03965391 0.06560047 0.023062313
0000d0 cc a7 a0 3d 65 02 c2 bd a0 03 38 3d 39 f9 18 bd
       0.07844505 -0.09473113 0.044925332 -0.037347052
0000e0 a9 39 e1 bd 7f 7e 40 bb a0 4d b7 bd e8 72 04 3c
       -0.10997326 -0.0029372273 -0.08950353 0.008084036
0000f0 29 6a 0b 3e 81 44 fc 3d d8 e8 a3 bc 94 d2 c6 bc
       0.13614716 0.123177536 -0.02000849 -0.024270333
000100 ac b7 29 3b ba d9 2a bc 02 ed 24 bd 71 57 7c bc
       0.002589683 -0.010427887 -0.04026509 -0.015401707
000110 d5 91 58 3d 31 d1 ce 3d 64 15 dc bc 5f c4 8b 3d
       0.05287345 0.10098494 -0.026865669 0.06824564
000120 37 3a 32 bd df d5 80 bd 09 29 07 3d 1c 5e f1 bd
       -0.04351255 -0.06290793 0.03299812 -0.11785528
000130 a4 97 51 bd 6d a1 c4 bd 26 3b f6 bd 13 64 6d bc
       -0.051170006 -0.09601102 -0.120230004 -0.014489192
000140 d4 92 20 be b8 18 5e 3d 70 8e c9 3d ed 51 e5 3d
       -0.1568101 0.054222792 0.09841621 0.11197267
000150 a5 25 5b 3c 85 28 6a 3d 08 5d b7 bd 43 95 7f 3c
       0.013375674 0.05716755 -0.08953291 0.015599552
000160 e8 e8 a9 bc 52 0e ff bd 26 23 50 bd 19 59 91 bd
       -0.020740941 -0.12453903 -0.05081477 -0.07097072
000170 95 34 a0 3d b2 bf 73 bc 3c 15 49 bd 24 09 8f bd
       0.07822529 -0.014877247 -0.049092516 -0.06984165
000180 d5 f3 36 bd 4a 82 9b bd ed 43 87 bd b8 c9 48 bd
       -0.04466613 -0.0759321 -0.06604753 -0.0490205
000190 81 fc c3 bd c3 73 e6 3d 2a 99 da bd 31 53 8a bd
       -0.09569646 0.112525485 -0.10673745 -0.06754149
0001a0 95 bf d8 3d 0d ab f7 3d b5 8a 49 3e e6 b2 d6 3d
       0.105834164 0.12093172 0.19681819 0.10483341
0001b0 0e 37 fd bd 50 ba 96 3d e8 79 03 3d b4 5d a4 3a
       -0.123640165 0.07359755 0.03209868 0.0012540133
0001c0 6d 35 f2 bd 48 8d 17 3e 24 b7 0f 3e 2e 6f 59 bd
       -0.118265964 0.14799988 0.14034706 -0.053084545
0001d0 07 33 9e bd f3 e4 59 bc 45 61 3d 3d 8e 72 6b bd
       -0.077245764 -0.013299215 0.04623534 -0.057482295
0001e0 4c bd 27 bd b6 d2 f7 3d 3e 05 0b 3d 77 f4 4b bd
       -0.040952012 0.12100737 0.033940546 -0.049793687
0001f0 70 99 a0 bc a8 a0 39 bd 22 5b 4b 3e 23 98 2c bc
       -0.019604415 -0.04531923 0.19858983 -0.010534319
000200 bc 29 82 3d 6d 9d ed 3d a8 e5 1d 3d 05 6a d4 bd
       0.063556165 0.11602292 0.038549095 -0.10371784
000210 2b d9 31 3d 91 4b 14 bd d1 1e c0 bd 45 9e 09 be
       0.04342 -0.03620488 -0.09380878 -0.13439281
000220 68 ba 52 3e b1 31 30 be d5 0e c2 bd 1d 1c a5 3d
       0.20578921 -0.17206456 -0.09475485 0.08062003
000230 88 87 84 3d 38 5b 53 3d 57 c0 3f bd c8 55 80 be
       0.06471163 0.051600665 -0.04681429 -0.25065446
000240 95 cd 14 3e 0d 43 3b 3c c1 26 24 3e fc 9d 36 3e
       0.14531548 0.01142956 0.16030408 0.17833704
000250 5d bd 8b 3c ef 04 f0 bc 5f e7 c6 3d c2 34 34 bd
       0.017058069 -0.029299228 0.09712099 -0.043995626
000260 48 5c 68 3d 79 9b 05 bd e1 c2 8c bc b9 95 ad 3d
       0.05672863 -0.032618973 -0.01718277 0.08475823
000270 62 dd dc 3c d5 f6 c4 bc e3 25 c2 3c bc ce 80 be
       0.026961032 -0.02404348 0.023699706 -0.25157726
000280 05 b4 9f 3c 33 df 05 3e 36 ee 8f bd 92 a4 da bc
       0.01949502 0.13073425 -0.07027857 -0.026689801
000290 fe 97 b9 3d 57 f7 00 be 86 f7 9c 3d 90 47 8d 3d
       0.09062193 -0.12594353 0.07664399 0.06898415
0002a0 3e e2 3a 3c 7a 3d db 3d 80 00 1f 3d 3a d4 17 3e
       0.011406479 0.10705085 0.038818836 0.14827052
0002b0 93 74 cf bd ee 1b 8e bc 33 28 24 be fa 7d 12 be
       -0.10129657 -0.017347302 -0.1603096 -0.14305869
0002c0 49 c5 2c 3e 46 52 8c 3c d3 5d 78 bd 6d 03 18 be
       0.16872133 0.017129075 -0.060636353 -0.14845057
0002d0 be d2 8c 3c c8 ef f6 bd 08 ba 4d 3e 29 b9 28 3e
       0.017190333 -0.120574534 0.20090497 0.16476883
0002e0 d3 bb 10 3c 95 42 30 be 88 a6 1f bb 12 6c 3d be
       0.008833843 -0.17212899 -0.0024360735 -0.18498257
0002f0 ac db e3 3c 98 09 2d be 5e ba 75 bb 05 82 1d be
       0.027814709 -0.16898191 -0.0037495117 -0.1538163
000300 62 3d 4f be 1e 83 31 3d d1 d7 f3 bd 1e 1c 9a 3d
       -0.2023826 0.043337934 -0.11906398 0.07524894
000310 7f db ed bd 86 59 e5 3c 30 2c 64 bd 36 d4 cb 3c
       -0.11614131 0.02799679 -0.055706203 0.024881463
000320 fe 3d 72 bd 7e 53 83 3d e5 01 a6 3d 85 4e 91 bd
       -0.05914115 0.06412409 0.0810583 -0.070950545
000330 6b c4 25 3e 9f 40 1d 3e 8e 85 30 3e 00 0a 93 3d
       0.16188209 0.15356682 0.17238447 0.07179642
000340 40 33 71 3c 80 8c c6 3d 3a 12 ef bb 9d f2 49 3d
       0.014721692 0.09694767 -0.007295874 0.04930364
000350 c0 ab e8 bd d4 6d a5 3d 5c dd 0e 3d 72 5c 2b be
       -0.11360884 0.08077589 0.034879074 -0.16734484
000360 d2 99 15 be 4c 93 1b 3e 56 7b 8e bd 86 8a 16 be
       -0.14609459 0.15192908 -0.06957118 -0.1470128
000370 3d 5a 2c bd ad 8d d9 3c 31 b1 9b bd 3b 98 66 bd
       -0.042078245 0.026556814 -0.07602156 -0.056297522
000380 40 9a 88 3d 7b 26 04 bd f8 b8 08 3e ac 3a db bc
       0.06670046 -0.03226326 0.1335181 -0.026761375
000390 13 a9 2e 3c 7d 99 77 bd 25 c8 b4 3c 53 1a fe bc
       0.010660428 -0.060449112 0.022068093 -0.031018412
0003a0 04 9f 2e 3e a3 34 dd 3c 31 c0 79 bd de 91 1f be
       0.17052847 0.027002638 -0.060974304 -0.15582988
0003b0 8b a6 ce 3d 91 e5 da 3c 56 cb 9d bd d2 56 65 bc
       0.10090359 0.026720794 -0.07704799 -0.01399775
0003c0 8e 4c 60 3d 2a 71 f4 3d 3b 3f 5d 3d 1d 09 ad bd
       0.05476051 0.11935647 0.05401538 -0.08449004
0003d0 bd af 43 3c f8 0d 04 be 22 e8 0d 3e b3 2f dd 3d
       0.011943755 -0.12895954 0.13858083 0.108001135
0003e0 7a 73 06 3d fc 92 79 3c 2e 8f 54 3d 03 65 63 bd
       0.03282497 0.015232798 0.05189436 -0.055516254
0003f0 80 df 4f bd ed d8 86 bd 96 32 8e 3d 17 6b ff 3c
       -0.050750256 -0.06584344 0.06943242 0.031178994

net.0.weight_hh_l1 f4 [300, 100]
000000 f1 8e 65 bc 82 5c 99 bc a9 05 91 bc 0b 72 06 bd
       -0.014011131 -0.018720869 -0.017702894 -0.032823604
000010 f0 71 3f bb ae e8 72 3d a0 0b 0c 3d 36 dc 52 3d
       -0.00292122 0.059303932 0.034190774 0.05147954
000020 7b ec 0e 3d e3 33 56 3d b9 9a ed 3c 0c b1 22 bc
       0.034893494 0.052295577 0.029004442 -0.009929907
000030 54 8f 60 3d d6 4c b2 3b a6 f2 62 3d c7 4e 7e 3c
       0.05482419 0.0054412885 0.05540719 0.015521712
000040 09 41 15 bd 05 4e ce bd b5 8d 87 3d 4e 8b 85 bd
       -0.036438975 -0.10073475 0.06618825 -0.06520711
000050 ff df 97 bd d7 d7 1c 3d 09 eb e4 bd ba 7e 6f 3d
       -0.07415771 0.03829178 -0.11177642 0.058470465
000060 22 1c 46 bd 91 0f ea 3b 46 43 9d bd 94 55 e9 3b
       -0.048366673 0.007142969 -0.07678847 0.0071207974
000070 03 9a 88 bc 54 3c 0a 3d 22 94 94 3c 17 5b 97 bd
       -0.016675001 0.03374894 0.018137041 -0.07390421
000080 ef 9f da bc 5a 2f b3 bc 9a db 9d 3d 7e a0 9e bd
       -0.02668759 -0.021873165 0.07707901 -0.07745455
000090 a9 1f ee 3d fd 44 7c bd d1 c9 0c 3d e7 3d b3 3d
       0.116271324 -0.06158923 0.034372155 0.08752041
0000a0 ec bc f1 3c 16 c8 07 bc 26 e2 02 3e f3 3c ff bc
       0.02950903 -0.00828745 0.12781581 -0.031156993
0000b0 6e 61 f2 3b 62 9b d2 3b 78 53 71 bd 36 4c 68 3c
       0.0073968684 0.0064272145 -0.058917493 0.014178326
0000c0 12 b3 d5 3a 2a 95 0b bb 80 2b cf bb f8 ea e1 bd
       0.0016303977 -0.0021298626 -0.0063223243 -0.11031145
0000d0 22 08 68 bc 94 33 8c bc 7a 0e dc 3d 48 2e a3 bd
       -0.014162095 -0.017114438 0.10744949 -0.07967812
0000e0 f2 8b b8 bb c2 9c 22 bb 83 0b 73 3c 00 77 65 bc
       -0.005631917 -0.0024812673 0.014834288 -0.014005423
0000f0 5f ba b6 3d 5c 7e 27 3d 13 f2 2e bd bd ea df 3c
       0.08922266 0.04089199 -0.04271133 0.027333612
000100 dc ac bf 3d 65 ea 6e bd f4 0a 11 3d e3 69 d9 bd
       0.09359142 -0.058329005 0.035410836 -0.106158994
000110 e0 71 e7 bd 2c c4 04 3d 14 e8 99 3b 08 19 bc 3d
       -0.11301017 0.032413647 0.0046968553 0.09184462
000120 c9 0e 9f 3d 97 d3 28 3d 3c 8e 91 bc c3 01 45 bc
       0.07766492 0.041217413 -0.017768018 -0.012024346
000130 90 54 8a 3c 80 a5 dc 3d 26 ae 44 bd ae 3a 9b bd
       0.016886026 0.10773754 -0.048017643 -0.07579552
000140 8c 9b 4d 3d cc 55 cf bb fe ee 12 3a ee 82 7e 3c
       0.05019717 -0.0063273665 0.00056050706 0.015534146
000150 ef 0b 80 bc f1 95 92 3c 92 d7 8d bc de c0 19 3e
       -0.01563069 0.017893763 -0.017314706 0.15014979
000160 bb 57 15 bc 84 d1 69 bb 84 bb 9d bb 1c 04 c7 bd
       -0.009115155 -0.003567786 -0.0048136134 -0.09717581
000170 14 7f 74 3d bb 80 ac bd 85 73 86 bd 2f 4f 37 3d
       0.059691504 -0.08422991 -0.06565002 0.04475325
000180 92 49 b2 bd 96 ac a6 bd d2 cd 78 3c 62 f9 bf bc
       -0.08705439 -0.08138387 0.01518579 -0.023434345
000190 f0 29 a3 3b 69 d8 1e bc 23 0c f5 3d 2f 88 2b be
       0.0049793646 -0.009695151 0.119652055 -0.16751169
0001a0 45 4b 6d bd b3 82 ca 3d 0d 99 4e bd 64 3d f2 3c
       -0.05793311 0.0988821 -0.05043893 0.029570289
0001b0 e3 d9 59 bd 98 98 10 3e 8d 9d 9c 3d 1e 98 b4 3d
       -0.05318631 0.1412071 0.07647238 0.088180766
0001c0 78 a6 ed 3d bb 01 00 bd f5 eb e0 3d 17 98 a1 3d
       0.11604017 -0.03125165 0.10982505 0.07890337
0001d0 92 db 05 3e d8 21 e8 bd e8 28 46 bd 8a ea a0 bc
       0.1307204 -0.1133458 -0.048378855 -0.019643087
0001e0 c0 66 9e bd 25 90 85 3d 43 d1 76 ba d6 7d 3b bc
       -0.07734442 0.06521634 -0.00094153377 -0.011443576
0001f0 41 e3 c8 3d 1e 83 83 3b e4 ed f8 bc 78 9f 89 3d
       0.0980897 0.004013433 -0.030386873 0.067198694
000200 03 25 e8 bc f9 22 a0 bc b1 07 cb bd 7a a8 17 3d
       -0.028337961 -0.019547926 -0.099135764 0.037025906
000210 61 b4 af 3d 4a 0a de bb 57 24 56 3c 12 f9 27 bd
       0.085793264 -0.006776129 0.0130701875 -0.041009016
000220 4e 31 5e bc 10 4d 37 bd 8b d8 1b 3d 6d 8f 0d bd
       -0.01356156 -0.044751227 0.03804831 -0.03456061
000230 d1 a6 de bd 1b ef 5f bc f3 cd be bc 44 96 54 bd
       -0.108716615 -0.013667847 -0.023291564 -0.051901117
000240 97 df 24 bd 1f 62 8a 3c 53 05 cd bd 34 1e a3 3d
       -0.040252294 0.01689249 -0.10010781 0.07964745
000250 b2 01 13 3d 30 dd 37 bc 76 d4 f6 3c 49 0d be bd
       0.03589029 -0.011222169 0.030130606 -0.09279878
000260 1e cb 93 bc a6 ad dc 3d 76 c9 7f 3b 29 af 69 bd
       -0.01804119 0.10775308 0.0039029992 -0.05705181
000270 cb 99 0b 3e 49 05 06 3c 2d 55 5f bd 97 29 a9 3b
       0.13632886 0.008179971 -0.05452459 0.0051624286
000280 c5 87 bf 3b 42 0e 41 3d 6c d4 e8 bd 08 bf 00 be
       0.0058450424 0.047132738 -0.11368641 -0.12572873
000290 25 75 87 bd 3c 1d 7f 3d e9 9e 50 bd 66 19 62 3a
       -0.066141404 0.06228374 -0.0509328 0.00086250005
0002a0 d7 82 dc 3c 10 71 b9 3c 79 4f c4 bd 24 ce 3e be
       0.026917858 0.02263692 -0.09585471 -0.18633324
0002b0 70 27 05 3d 9e 81 b4 3b d5 83 3c 3d 1a f1 f5 3c
       0.032508314 0.0055086156 0.046024162 0.030022193
0002c0 3d 8f 49 bc d9 ee 15 3d f2 52 f2 bd 47 1a b9 bd
       -0.012302217 0.036604736 -0.11832227 -0.09038215
0002d0 36 03 b0 3d 3b 2a 91 3b a5 b5 8c bb 54 a8 1e 3b
       0.085943624 0.004430083 -0.0042941147 0.0024209218
0002e0 fd bf f7 bd 30 38 bd 3d 96 9d 45 3d 1c 3b e9 3d
       -0.12097166 0.092392325 0.04824599 0.11388227
0002f0 a1 0e 8a bd 2e 00 7d 3c 36 fe aa bc 3f 26 ba bd
       -0.067410715 0.015441937 -0.02087317 -0.09089326
000300 55 ca c3 bc 55 b2 b8 3b 94 3f dd bd fc af 14 bd
       -0.02390019 0.005636493 -0.10803142 -0.036300644
000310 73 1d 88 bd 4a 8a ff 3d a0 6d 7b bd fc 37 19 bc
       -0.06646242 0.124775484 -0.061383843 -0.009351727
000320 74 48 1a bc a4 62 b4 3d 0d c6 fe bc 93 86 16 be
       -0.009416688 0.08807877 -0.031100297 -0.14699773
000330 9f 1f a4 3d e2 44 8f 3b eb 81 94 bd 63 44 67 bd
       0.08013844 0.004372225 -0.072513424 -0.056461703
000340 6f e4 92 3c cb 5b f6 3d c0 b9 ae 3d 7f e3 20 3d
       0.017931191 0.12029227 0.08531523 0.039279457
000350 e2 71 ba bb e0 e3 9d bd ee 9d 07 bd 55 65 a5 3d
       -0.0056898454 -0.07709479 -0.033109598 0.08075968
000360 2d 2a 9e 3d 3c 77 32 be f9 3a e1 bd b8 e0 42 3c
       0.07722888 -0.17428297 -0.10997576 0.011894397
000370 77 ab 13 3d 36 bd d4 3c d8 83 3b 3d 33 bb 5a 3d
       0.036052193 0.025969129 0.045780033 0.053401183
000380 7c 4f bb 3d 41 2b ea 3b d3 56 69 3d e6 71 d3 3d
       0.0914602 0.0071462695 0.056967568 0.10324459
000390 31 6d 25 bd 70 12 d9 3d 06 4a 77 3b 4b a0 40 3d
       -0.040387336 0.1059922 0.003773333 0.047027867
0003a0 70 0d 42 3d 13 4d 4d 3d 41 a5 b7 3c ea e2 ec bd
       0.047376096 0.05012233 0.022417666 -0.11566718
0003b0 90 ad 0c 3d c9 2e c1 bd 26 3e 83 bd c0 b2 44 bd
       0.03434521 -0.09432752 -0.06408338 -0.04802203
0003c0 7f 96 48 bc f2 85 47 bd 99 01 2f 3d 02 d6 01 be
       -0.012242912 -0.048711725 0.042726133 -0.12679294
0003d0 c8 80 11 be f4 16 3b bd 18 1d 98 bd 6d 53 2f 3e
       -0.14209282 -0.045676187 -0.07427424 0.17121668
0003e0 67 04 c5 3d 98 12 21 3c 94 65 0f be de b6 ab bd
       0.0961998 0.009831093 -0.14003593 -0.083844885
0003f0 16 c1 1e bd a9 f9 dc 3d 90 b5 09 3e 01 0a cd bd
       -0.03875836 0.107898064 0.13448167 -0.10011674

net.0.bias_ih_l1 f4 [300]
000000 3e 30 e6 bd 86 d1 2c bd b3 d9 bd 3b f7 0c d6 bd
       -0.1123967 -0.042192005 0.005793774 -0.104516916
000010 e2 9a 1c bd 5b 8c e0 bd 9d 45 83 3d e5 09 c0 3d
       -0.038233645 -0.10964271 0.06409762 0.09376887
000020 56 37 e8 bd a1 57 2f bd af bf 8c bd 08 af 35 3d
       -0.113386795 -0.04280818 -0.06872498 0.044356376
000030 c7 32 f1 bc d2 99 5e be 95 81 4e 3d 72 41 83 bd
       -0.029443158 -0.21738365 0.050416548 -0.06408967
000040 d7 8e ed bd a7 8d 93 bd 87 9a 01 3d 71 64 bd bd
       -0.1159951 -0.072047524 0.03164151 -0.09247673
000050 88 6d be 3c 8c aa 9b bd 97 7f 47 bd 1b 5e e9 bb
       0.023245588 -0.076008886 -0.048705664 -0.007121814
000060 27 13 cc 3c 99 99 05 3d 34 ac be bd 03 e7 ac 3d
       0.024911476 0.032617185 -0.09310189 0.084424995
000070 1a 99 c4 bd 76 f8 d7 bd 30 b9 d4 bd 04 30 99 3d
       -0.09599514 -0.10545437 -0.10386884 0.074798614
000080 52 28 93 bc f4 fb ed 3b f3 07 e2 3a 12 3e 0e bd
       -0.017963562 0.007262701 0.0017244801 -0.034727164
000090 83 97 09 be 24 53 3e 3d e7 57 25 bc 6a 29 b6 bc
       -0.13436703 0.046466008 -0.010091758 -0.022236545
0000a0 7e 0a 93 bd 49 6b 01 be a4 b5 05 bd 43 a0 b3 bc
       -0.071797356 -0.12638582 -0.03264393 -0.021927005
0000b0 07 36 c6 bd e8 d5 a9 bd e4 d2 ca bd 17 a3 ef bd
       -0.09678274 -0.082927525 -0.099035054 -0.11701029
0000c0 e2 fd 17 be 16 18 93 3d 8d eb cb bd 4e d6 1c 3d
       -0.14842942 0.071823284 -0.09957037 0.038290314
0000d0 5e 22 e1 bd 42 1a ff 39 02 a1 47 3d ec f0 90 bd
       -0.10992883 0.00048656954 0.048737533 -0.07077202
0000e0 0a a9 a4 bd 42 d1 07 bd 3d dd ae bd b0 6c 27 bd
       -0.08040054 -0.03315855 -0.085382916 -0.040875137
0000f0 0f f9 01 be 87 6e b4 bd 5f 48 ab bd c6 7a 5d bb
       -0.12692665 -0.08810144 -0.08363413 -0.0033795102
000100 8d fa 39 bd ed a2 1f 3d b8 57 88 bc 85 72 e6 bc
       -0.04540496 0.038973738 -0.01664339 -0.028130779
000110 2f bc 9f bc d6 69 33 3d 11 8e 9f bd b5 7b 1c be
       -0.019498913 0.043802105 -0.07790769 -0.15281565
000120 17 20 ed bd 2a 4d 2d bd 7b 5c 40 3d 60 af 42 3d
       -0.11578386 -0.042309918 0.046963196 0.047530532
000130 b2 27 04 bd 48 c4 ea bb f4 9f 67 3c 82 69 d3 bc
       -0.03226442 -0.007164512 0.014137257 -0.025807146
000140 7f 9e 1f bb 3a 6a fa bd b2 47 2b bc 22 6a 1d be
       -0.0024355946 -0.12227292 -0.010454105 -0.15372518
000150 1e 76 b9 bd 54 5d e0 3c 78 4c 6a 3d 2f 1e 7a 3b
       -0.09055732 0.027388252 0.057201833 0.0038164963
000160 58 12 d7 bd 0d 14 67 3c a9 ee a2 3c 1a 1e e9 bd
       -0.10501546 0.014103902 0.019889193 -0.113826945
000170 17 9d cc bd 04 c3 ab 3b 55 9d 90 bc bd ff 5e bd
       -0.099909 0.0052417535 -0.017653147 -0.05444311
000180 97 8b d8 bd 79 e6 14 3c ed d6 b4 bd d6 96 d0 bd
       -0.105735 0.009088152 -0.08830056 -0.1018502
000190 3c d3 11 be 0a c1 1b 3d 62 07 32 be 79 1a 24 be
       -0.14240736 0.038025893 -0.17385629 -0.16025724
0001a0 36 00 ba bb 59 4d 96 3c f1 ba f2 bc aa 13 7e 3d
       -0.0056762947 0.01834743 -0.029630156 0.06203047
0001b0 6b 7f 7e bc 20 68 15 be 0e 1a b7 bd 8b 9c eb bd
       -0.0155333085 -0.14590502 -0.089405164 -0.115044676
0001c0 75 62 f5 3d 0e 26 35 bd f1 2e 00 be 84 35 71 bc
       0.1198167 -0.044225745 -0.12517907 -0.014722232
0001d0 8c 77 f0 bd 24 5a 9f bd 5e dc e0 3c 8f 74 f0 bd
       -0.11741552 -0.07780865 0.02744883 -0.11740982
0001e0 9a c2 b1 3a 3c d8 63 be 6a a3 39 bc ed d8 d2 bd
       0.0013562024 -0.22250456 -0.011330465 -0.102952816
0001f0 cc e4 94 3c 4a 16 86 bc 93 82 1f be fe 18 cb 3a
       0.018175505 -0.01636805 -0.15577154 0.0015495119
000200 0f 0f fe bc b7 01 23 3c bc 86 ed bd d3 c3 cc bd
       -0.03101304 0.009949139 -0.11597964 -0.09998288
000210 9d 3c 4b bc 62 8b 26 3d 14 35 c1 bd f7 d6 48 bd
       -0.012404588 0.04066027 -0.09433952 -0.04903313
000220 c1 28 8c bd 25 8b 1e be 01 de 26 3d e7 31 e6 bc
       -0.06843711 -0.15482767 0.040739063 -0.028099967
000230 b6 ee 33 be 20 7f b2 3d a2 d1 0a bd 95 7c c1 3d
       -0.1757153 0.087156534 -0.033891328 0.0944759
000240 b4 84 82 bd e5 71 35 be 9e 3f 33 bc 30 61 97 bd
       -0.06372967 -0.17719229 -0.0109404605 -0.07391584
000250 75 71 82 3c 99 39 5e 3d b4 f4 0f be b6 28 87 bc
       0.015923241 0.05425415 -0.1405819 -0.016498905
000260 cc 72 94 bc 7c 89 a8 bd fd 1a ed bd e5 5f a6 bd
       -0.018121146 -0.08229348 -0.11577413 -0.08123759
000270 5a c0 23 3d c7 22 d8 bd 2c 41 22 be 65 8d f2 3c
       0.039978363 -0.10553508 -0.15845174 0.029608438
000280 db 5f 6f bd eb 20 57 bd 5a cd 2f 3e 1c 2e d6 3c
       -0.058441024 -0.052521627 0.17168179 0.026145034
000290 4d ea f6 3c 06 c6 64 be 7f 4c b4 bd bd 8a 81 3d
       0.03014102 -0.22341165 -0.08803653 0.0632529
0002a0 67 09 29 bc fe e9 2a be 9f e8 fd bc dd f7 0c 3d
       -0.010317183 -0.16690823 -0.030994711 0.03441607
0002b0 60 48 18 bd fc 93 28 be d9 af d9 bc cb 4d 6d be
       -0.037178397 -0.16462702 -0.026573109 -0.23174207
0002c0 27 0a ae bd 55 06 a0 bd 76 5a a1 bb 9e d0 c2 bd
       -0.0849803 -0.07813708 -0.004924114 -0.09512447
0002d0 08 b9 a2 bc 62 61 1d be 27 ea 60 be d3 a0 d3 bd
       -0.01986362 -0.1536918 -0.21964322 -0.10333409
0002e0 da 0e c5 bc 8f 14 7c bb f7 0c 8b bd 3b a8 61 bd
       -0.024054933 -0.0038464402 -0.06789582 -0.055092078
0002f0 dc de 4b bd b1 c1 8e bc ef a3 92 be dd c7 58 bd
       -0.049773082 -0.017426344 -0.28640696 -0.05292498
000300 6c 66 16 be 1f f1 04 3c 3d 4b 05 3e d3 06 e4 3c
       -0.14687508 0.008114128 0.13016982 0.027835285
000310 65 da a1 3d 0d 66 4a be b0 d3 50 bd e3 a1 c8 bc
       0.079029836 -0.19765492 -0.05098313 -0.024491256
000320 7a 3a 8d 3d ca 1d 6a bd 14 a2 b8 3d f2 3f 6c 3d
       0.06895919 -0.057157315 0.09015289 0.05767817
000330 6c e6 86 bb 72 ea 03 3d f7 5c d4 bb ed 82 83 3d
       -0.004116824 0.032206006 -0.006480809 0.064214565
000340 96 fa 43 bc 7c cd b4 3d d1 e2 54 3c 37 56 ac 3c
       -0.0119616 0.088282555 0.01299353 0.021037204
000350 03 3a ec 3b 0d 36 0f 3c ad 63 5a 3d 2f 8c 44 bd
       0.007209064 0.008740914 0.053317714 -0.047985252
000360 01 4f b8 3d b4 f7 35 3d 25 34 92 bd c5 74 09 bd
       0.08999444 0.04442568 -0.07138852 -0.033558626
000370 b9 ce 0a 3c ac 80 3f 3d d6 64 03 3d 4b 0a 82 3c
       0.008472138 0.04675357 0.032078587 0.015874049
000380 2e 92 a7 bd e0 c8 8d bd fa ae e1 3d a5 a3 69 bc
       -0.081821784 -0.069230795 0.11019702 -0.014260207
000390 2a e0 c7 3d 5e aa f0 bc 15 89 72 bd bf 01 4b bc
       0.09759553 -0.029378112 -0.059212763 -0.012390553
0003a0 e1 c1 cb 3c e7 57 70 bb 99 ea d3 3d 77 1e a6 3d
       0.024872722 -0.0036673488 0.1034748 0.081112795
0003b0 c6 a5 f7 bc 10 16 cb bd 6a b6 55 3d 33 13 ab bd
       -0.030230414 -0.099163175 0.052175917 -0.08353271
0003c0 8c b7 2a 3c f8 6a 64 bc 84 50 b8 bd 42 6d 96 3d
       0.010419738 -0.013941519 -0.08999732 0.07345058
0003d0 95 4f 6d bd 36 2c 8d bd c8 be a4 3c a7 a1 ce bd
       -0.057937223 -0.06893198 0.020110503 -0.100894265
0003e0 da c8 3f bd 5b 5b 9d bd ca 46 92 bd 29 d4 5b 3d
       -0.046822406 -0.0768344 -0.07142408 0.05366913
0003f0 ec 28 17 bd 8f 02 45 3d ee f4 ea bd ea 48 cd 3d
       -0.03690426 0.048098143 -0.11472498 0.10023673
