vae_classification/state_dict_classifier92.45_200.pt (torch, 617403 bytes, 14 tensors)

net.0.weight_ih_l0 f4 [300, 2]
00000000: f4d6 f93d 6ee4 cf3c 2e12 e5bd a4f3 80bc
00000010: 1c51 24be 3684 03bb c8e1 323d 0389 fbbd
00000020: f730 d8bd e351 a93c 12cc 3d3d 8745 92bd
00000030: 6914 9cbc c02e ecbd 2d44 7bbd 2b46 613d
00000040: f43e bebd 551b 27bd 17fd bb3d f42a c0bd
00000050: 49d6 923c 3f62 d9bd 1cf9 dbbd e7dd 8ebd
00000060: 84ca fabd e08b 793d 3e16 943c 5603 a13d
00000070: e8ab 9cbd cdff 723d 57e2 1fbe c0ce a9bc
00000080: 701d 88bc 9c22 8bbd 1c03 b73b 6a42 8cbc
00000090: 22f6 05bd fad0 e5bc 9313 04bd 73fd 71bd
000000a0: 0f75 94bd 32f8 c2bb ba82 acbd 6455 2ebd
000000b0: 432f e8bd 7aee 90bd e460 b3bd 079a 61bc
000000c0: 48d2 99bc 4c6a cdbd 5aff 2f3d f105 ee3d
000000d0: f2d4 94bd e90d 733d 30ba 8fbd 2730 5d3d
000000e0: 3e46 c73c 3e31 5d3b b7d0 2fbd ea90 68bd
000000f0: b807 4a3d a787 84bc 4286 9bbd b436 853d
00000100: 2299 00be 9b33 cd3c 51fd 533d f3d9 e63b
00000110: 5050 06bd 09ad 8dba 2879 903c e98a 263c
00000120: 07e7 e63d 6279 b6bb a59a 8a3c 859d f1bd
00000130: 0e49 00bd 67c3 c2bd 3775 a03d ab24 e13d
00000140: f9b2 263c acde 993d 2d44 e1bc 7b41 3abe
00000150: 17df d5bd d039 5d3d 6dcb 51bd bbc5 21bd
00000160: b932 943d 3e39 ae3d e322 373d 7053 533c
00000170: 0d38 24be 871d 363d 0e90 1d3d d03a d4bd
00000180: c3f4 243d 6d75 d73d ba16 8fbc f40e c63d
00000190: a100 bebd 79df f13b fb60 efbd c949 c23c
000001a0: 05e0 983d 29f8 4dbd 1f7d e43c 4cc4 7e3d
000001b0: 5238 0ebd 0656 9dbb 285e 153e 633d 173e
000001c0: 0269 1bbd ba7c 68bd 15c8 44bd 3637 b93c
000001d0: 0c33 c2bd f5b2 29be 930e 72bd d4d2 5ebc
000001e0: f27f 123d 3155 a33d 07bf 773d f58c 21be
000001f0: c6a4 cebb 21c3 d4bd 079a 633b 143e 063e
00000200: 57c0 a23d 5dc5 8f3d cef3 64bd 78c2 18be
00000210: f3db b3bc ea5b 8abd aa55 4fbd 6b28 203d
00000220: 62ee aabb 70ce b73d 7833 9ebd 40b1 e3bd
00000230: 76bb a5bd 76a0 773d bddc a53d 2fe5 8f3d
00000240: 1ddf 373d a277 523d fc5f f5bd da67 90bc
00000250: 7aa2 24bd af70 83bd 98a9 413d 1e7f a6bc
00000260: 861f 49bd 5c08 3a3d 2d1c 58bd c275 a2bd
00000270: 209e 93bc dea0 96bd b748 c63d 7ac5 08be
00000280: 35ad 19be 2ecc 82bd 4392 503c 692c 603c
00000290: f287 84bd 0284 64bd 9f13 bb3d cf77 bd3d
000002a0: b021 cabd 384c 243d 97fe 10bc 5de3 83bd
000002b0: c671 3d3d 8c2e 8d3d 7f0a a83c e8df 73bc
000002c0: 5351 cb3d 89b1 a2bd 2e53 b73d 5018 08be
000002d0: 1f93 33bb fd47 20bd a93c 34bb 3115 2f3d
000002e0: 7bfe 21bd ae52 debb 8949 20bd 6641 63bd
000002f0: d4e1 a3bd d88d 0cbc d723 9bbd 506f 463d
00000300: 23ee 73bb 9252 e33d 3c00 84bd 2897 cdbd
00000310: 3573 89bd 6922 93bd f359 4ebd 5bd8 833d
00000320: 1bb8 18be 3ed6 2cbe 73f8 55be e340 ed3c
00000330: 03e8 c9be e836 95be 0ea3 b3bd c1b8 41bc
00000340: dbc3 7cbd 3be3 83be 11d1 62be ca0b b9be
00000350: 2631 2dbe 9ed7 69bd 9f35 57be df16 06be
00000360: ab2c 2bbe 8e7f cc3d ad9b 32bd 812c 8cbd
00000370: 5aa7 80be 3de4 d2bd aa69 ddbd ead8 2dbe
00000380: c30d 73be b3a4 6dbe e802 68be 5afe eebd
00000390: 25d5 bebe 8e38 ccbe ad2b 833a f72a 1cbd
000003a0: dd81 bbbe d347 4cbe 3140 a23e d491 a93e
000003b0: 7682 4cbe ea30 83be 1c5a 2fbe d34d 99be
000003c0: 8870 033d f8a0 c23d 6cf9 1fbe c870 3abe
000003d0: 58ef cebd b116 8bbd b7d2 b6bd b2d0 9cbd
000003e0: e076 8cbe 7aa3 84be 29c7 28be 2fc0 6fbe
000003f0: 2da0 12be 6ee3 13be 590f 00be 90c3 0dbe
0.12199202 0.025377478 -0.11185108 -0.015741177 -0.16046566 -0.0020067818 0.043672353 -0.12281992
-0.10556214 0.02066893 0.046337195 -0.071421675 -0.019052701 -0.11532354 -0.061344314 0.054998558
-0.09289351 -0.04079755 0.091791324 -0.09383193 0.017924445 -0.10614442 -0.10740873 -0.06975918
-0.12245658 0.06092441 0.018077012 0.078619644 -0.07649976 0.059325982 -0.15613686 -0.020728469
-0.0166156 -0.067937106 0.0055850875 -0.017121512 -0.032705434 -0.02805375 -0.03224523 -0.0590796
-0.0724889 -0.0059499973 -0.084233716 -0.042561904 -0.113371395 -0.07076736 -0.08758715 -0.013769633
-0.018777028 -0.1003004 0.04296813 0.11622227 -0.072671786 0.059339438 -0.07017934 0.054001
0.024325486 0.0033751274 -0.042923655 -0.056778826 0.049323767 -0.016177965 -0.07593967 0.065045744
-0.12558416 0.025049021 0.051755253 0.0070450245 -0.032791436 -0.0010809015 0.017635897 0.010164955
0.11274534 -0.005568669 0.016919443 -0.117976226 -0.03131967 -0.09509926 0.07834857 0.10993322
0.010174506 0.075131744 -0.027498329 -0.18189041 -0.10442942 0.054010212 -0.051219393 -0.03949521
0.07236237 0.08507012 0.044711005 0.012898311 -0.16037007 0.044461753 0.03846746 -0.1036278
0.040272485 0.10520444 -0.017466892 0.09670821 -0.09277464 0.0073813763 -0.116884194 0.023716824
0.07464603 -0.050285492 0.027891694 0.062198922 -0.03472168 -0.0048015146 0.14586699 0.14769511
-0.03794194 -0.056759574 -0.048042376 0.022609334 -0.09482393 -0.16572173 -0.05909593 -0.01360007
0.03576655 0.07975233 0.060484912 -0.15776427 -0.0063062636 -0.103887804 0.0034729259 0.13109618
0.07946842 0.07020066 -0.055896573 -0.14917934 -0.021955466 -0.067558125 -0.050618805 0.039101046
-0.0052164057 0.08974922 -0.07724661 -0.11117792 -0.08092396 0.06045576 0.08098743 0.07026135
0.04489051 0.051383622 -0.11981198 -0.017627645 -0.040194012 -0.06417977 0.047280878 -0.020324286
-0.04910233 0.04541813 -0.052761246 -0.07932617 -0.018019736 -0.07354902 0.09681838 -0.13356581
-0.1500748 -0.063866004 0.012730184 0.013682463 -0.06471242 -0.055789955 0.09134602 0.09251367
-0.09869707 0.04011175 -0.008849761 -0.064398505 0.04625108 0.06893644 0.020512817 -0.014884926
0.09927621 -0.079440184 0.08951412 -0.13290524 -0.0027400923 -0.039131153 -0.0027501977 0.04274482
-0.039549332 -0.0067847585 -0.03913263 -0.05548229 -0.08002058 -0.00857874 -0.07575195 0.048446
-0.0037220798 0.110997334 -0.06445357 -0.100385964 -0.06711427 -0.071842976 -0.05037875 0.06437751
-0.1491398 -0.16878602 -0.20895557 0.028961604 -0.39434823 -0.29143453 -0.087713346 -0.011823834
-0.06171022 -0.257593 -0.22150065 -0.36141807 -0.1691328 -0.057090394 -0.21016549 -0.13094662
-0.16716258 0.099852666 -0.043605495 -0.06844426 -0.2512768 -0.10297439 -0.108111694 -0.16977277
-0.23735718 -0.23207359 -0.22657359 -0.116696075 -0.3727199 -0.39886898 0.0010007523 -0.038126912
-0.36622515 -0.19949274 0.316896 0.3311907 -0.19971642 -0.25623256 -0.17124218 -0.29942188
0.03208974 0.095033586 -0.1562249 -0.18207085 -0.10104245 -0.067914374 -0.089269094 -0.07656993
-0.27434444 -0.25905973 -0.16482224 -0.23413156 -0.14318915 -0.14442226 -0.12505855 -0.13844132

net.0.weight_hh_l0 f4 [300, 100]
00000000: 1c5c e9bc 9fc9 86bc 0857 b83d 9c10 ea3b
00000010: 386a 803d 3cd0 ff3d 86bd 463d 5139 003d
00000020: 0af2 c43d 24bc 45be 5725 42bd ac3b 8c3d
00000030: 4f8b 83bd b802 c0bd a5cd 81bd 88f1 b9bd
00000040: 8fbc 043d c92b ba3d eb81 563d 9e41 813c
00000050: bb7a e7bd 2806 363d 47e9 883d 0646 0abd
00000060: 0a6e f33c 14a9 cbbd 64d6 66bd 03b9 53bc
00000070: 6a14 493d 2fcf ecbd 71a5 2fbb 06e1 f33d
00000080: 182a f5bd f204 d9bd 3be1 11bd 273f 85bc
00000090: 4b0e 4ebc 69c7 093d 50cc 67bd 421d a13d
000000a0: 35d4 193e 9ee6 b7bd 1d1d a5bc 72b1 c4bd
000000b0: 0cc3 84bd c1f0 1b3e 80bd ab3d d59c aa3b
000000c0: c876 1bbe 3ce1 aa3d 9d9e 013d ebd4 91bc
000000d0: 9d1a 0cbd afab d53d d6fa 5a3c 324d 0cbe
000000e0: 1e49 523d 3c2d 26bd d06e a23d 1b02 7a3c
000000f0: a12e 963e 7062 963c 7f3b e93c ff41 e03d
00000100: aea3 38bd 91d8 e2bd c4b9 d4bc be7a c73d
00000110: 9c02 0a3e c175 063c bf5a 96bd 1cf1 84bd
00000120: 8071 273e ffd3 51be 9ee7 063c 9338 90bd
00000130: 8d86 d6bd d79e 8bbd 8158 b4bb cf25 433e
00000140: 7a63 af3d 466f 7e3e 115d 85be 8f90 45bc
00000150: 3167 373d a4e4 2ebd b307 c43b 869c b2bd
00000160: 7880 79bd 52cc b9ba 1eef c33d fbaf 13bd
00000170: ae48 ef3d 4c43 cdbd bdfd 24bd c933 a3bc
00000180: d89f e8bc 0ba9 1d3d 8357 f8bd ba0b 9b3d
00000190: 8f02 f6bd 09f6 3dbc b5a3 703d b3e5 89bc
000001a0: 49ca 573d b4a2 813b 8ce2 d63b f727 98bd
000001b0: 26da 5c3c 3c0d 223d cbce f5bd 6435 42bc
000001c0: b1e6 b1bd 8689 58bd 107b 00be f39b 33bc
000001d0: 44bd 82bc 000b 8a3d 4a18 febd 3879 c53d
000001e0: cedb 83bd fc56 76bd c920 9d3d e660 99bd
000001f0: d80f a2bc de2e 85bc 196c 323c ff5d 993d
00000200: 5d26 633d 0f1c 83bc 667e 043d 6fdb 683c
00000210: ee52 93bd f9d6 543d c441 313b de07 023e
00000220: c25b 67bc 0759 8d3d ec11 c33d 7e3b f7bc
00000230: c41a cf3d 5c3e 9e3b 5fe3 ef3d 61d0 c53d
00000240: 62c8 6c3d ea93 063d a136 54bb 848d a5bd
00000250: 128a eabc 68ee e93c c9f1 003d 6c2c 813d
00000260: e772 f13d 81de c9bd 8c67 c33c a61b 56bd
00000270: 2391 9b3a a506 b53c 52a8 203d e12b d1bd
00000280: a9dc 70bd 82c0 3d3d 6bb5 a1bd 2961 1abd
00000290: 5599 25bd bfcf ecbd dbf6 01bb e178 f23d
000002a0: d20b 35bd 615e 413d 7940 16bd 0f21 0d3e
000002b0: 5029 a13d 3706 a9bc 89ca 883c e73c e1bd
000002c0: 22b1 993c 37a0 43bc 3b75 0a3d 6438 05bc
000002d0: 1a75 70bd 52b5 5ebd 5bf4 66bd 3b81 833d
000002e0: 998f 0abd b9ce 9f3d b595 87bc 6ca3 f9bc
000002f0: eb2b b53c 6b9d ef3d 8729 dc3c 9976 803b
00000300: c64b bebd 6bc3 403c 304d a7bc bae7 95bd
00000310: 4031 65bc 46ef c6bc 7a2f c83d a1ab 6a3c
00000320: 6fb9 83bd d7c6 2b3d 4b08 2e3d 82dd 853d
00000330: 57b3 483e e612 9bbd ff48 503d 4b41 aa3d
00000340: df04 3fbd 535e 06bc df0c 593d 2acb 893a
00000350: d519 98bd 8063 c53d 8341 3b3c 652c 2d3e
00000360: 0d75 aabd 7f4f 363c 5982 b0bd ee6f c73d
00000370: 01d8 89bd ab63 143e 41f9 7c3d cb4d 3b3d
00000380: 9fc2 87bd 1ca4 5bbc addd 8b3d e802 683d
00000390: cde2 18be e29c 14bd 0579 913b 1ce6 e0bd
000003a0: 62fb 363e 0b0f 1f3e fc8b 13ba 8cbc 543d
000003b0: a13f a3bd 70c8 033e b8df 863d f878 0f3d
000003c0: 425c 053d 1bd9 953d c56e b43d b896 fb3d
000003d0: f001 feb9 3e9f 22bd 9252 a6bc 3f42 18be
000003e0: b975 b9bd e2f4 ad3c a882 a9bc c495 2fbe
000003f0: b046 4d3d 354f 2ebd 454f 303e 8b55 85bc
-0.028486304 -0.016453562 0.09000975 0.0071430933 0.062702596 0.124908894 0.048520587 0.03130466
0.09616478 -0.19310051 -0.04739889 0.06847319 -0.064230554 -0.093755186 -0.06338052 -0.090792716
0.032406386 0.090903826 0.052369993 0.015778359 -0.11302706 0.044439465 0.06685119 -0.033758186
0.029715557 -0.099443585 -0.056356803 -0.012922528 0.049091734 -0.11562955 -0.0026801492 0.11908154
-0.11970919 -0.10596646 -0.035615187 -0.016265465 -0.01257665 0.033637438 -0.056591332 0.078669086
0.15022357 -0.089795336 -0.020155484 -0.096041575 -0.06482515 0.15228559 0.08385754 0.005206684
-0.1518203 0.08343741 0.031645406 -0.017801723 -0.034205068 0.10433137 0.013365468 -0.13701323
0.05133926 -0.040570483 0.07931292 0.015259291 0.2933245 0.018357486 0.028470753 0.10950088
-0.045077972 -0.11076463 -0.025967486 0.09740208 0.13477558 0.008206786 -0.07341527 -0.064913005
0.1635189 -0.20491026 0.008233933 -0.07042041 -0.10474882 -0.06817406 -0.0055037146 0.19057392
0.085638955 0.24847135 -0.26047567 -0.012058391 0.044776145 -0.042698517 0.005982363 -0.08721261
-0.060913533 -0.0014175272 0.09567092 -0.0360565 0.116837844 -0.100226015 -0.040281046 -0.019922154
-0.028396532 0.03849129 -0.121260665 0.07570596 -0.12012207 -0.011594304 0.058749873 -0.016833162
0.05268315 0.0039561633 0.006557768 -0.07429498 0.013479745 0.039563403 -0.12002333 -0.01185355
-0.08686579 -0.052865528 -0.12546945 -0.010962474 -0.01595939 0.06740379 -0.124069765 0.09642261
-0.06438409 -0.06014155 0.07672269 -0.07489185 -0.019782946 -0.0162577 0.01089003 0.074886315
0.055456508 -0.01600459 0.032347105 0.014212473 -0.07193552 0.051962826 0.0027047256 0.12698314
-0.014120998 0.06901746 0.09524903 -0.030179735 0.10112527 0.004829211 0.117132895 0.09658886
0.057808287 0.032855906 -0.0032381194 -0.080836326 -0.02863029 0.028556064 0.031480584 0.06307301
0.11789494 -0.098568924 0.023853086 -0.05227246 0.0011868816 0.022097895 0.039223023 -0.10213447
-0.058804188 0.046326168 -0.07895931 -0.037690315 -0.040429432 -0.11563062 -0.0019830975 0.11839462
-0.044200726 0.047209147 -0.03668258 0.13782142 0.07869208 -0.020632846 0.016698139 -0.10997944
0.018761221 -0.011940054 0.033803206 -0.00813112 -0.058705427 -0.05437214 -0.05638538 0.06421133
-0.03382835 0.07803101 -0.016550878 -0.030473433 0.022115668 0.11699947 0.02687527 0.003920388
-0.092917964 0.011765341 -0.020422548 -0.07319589 -0.013988793 -0.024284016 0.097746804 0.014323146
-0.06431853 0.041937675 0.042488378 0.0653639 0.19599663 -0.07571964 0.050850864 0.08313235
-0.046635505 -0.0082012 0.05299079 0.0010512818 -0.07426802 0.09638119 0.011429193 0.16911466
-0.08323107 0.011127352 -0.08618612 0.09738146 -0.067306526 0.14491145 0.061761145 0.045728486
-0.06628918 -0.013405826 0.06829391 0.056643397 -0.14930268 -0.036282428 0.0044394755 -0.1098139
0.17869332 0.15533082 -0.0005628464 0.051937625 -0.079711206 0.1286943 0.0658564 0.035027474
0.032558687 0.073168 0.0881019 0.12284607 -0.000484481 -0.039702646 -0.020303044 -0.14869021
-0.09055657 0.021234933 -0.020692185 -0.17146975 0.05011624 -0.042556006 0.17217739 -0.016276142

net.0.bias_ih_l0 f4 [300]
00000000: 52e3 243d 8f10 48bd a5a9 f1bd 5464 d8bd
00000010: c4fd 33bd 3577 42bd fb3c 91bd bc3b 9fbd
00000020: 7b85 82bd 95bc 3ebd 4838 993c a5d8 e33d
00000030: ce99 2c3c 3d23 a4bd 9aae 17be 3bf3 26be
00000040: bc3d 94bc 0075 7bbc b96f b1bc 3d09 a63d
00000050: 02c7 e43d 672e cbbd 105d 2e3d 5001 bbbc
00000060: dab4 90bd f7ea 8bbd d03c 3dbd 58e5 8f3d
00000070: 0173 aabd 924b 20bd b1a1 c53d 0505 fcbd
00000080: 459e 91bd fd1d 113c 8f51 88bd 8e91 cc3d
00000090: 8ebb 493b 9e28 e0bd fc7e 733b b04d 98bd
000000a0: ea33 b2bc 30a9 1cbe 70fe 953c 0743 bc3d
000000b0: 87b2 923d 94e3 7bbd cae3 86bb a37b b8bd
000000c0: 135d 033c 0f7e 123b 41fe 11bd f4f9 bcbb
000000d0: f7e3 c5bd 620d 5a3d 6e50 b8bd 1845 62bd
000000e0: d5ce 83bc 181d 0f3d 90c1 0d3d e8c3 52bd
000000f0: f664 8dbd 6ab5 b53c 0dd3 793c 4865 bc3d
00000100: 36b6 bcbd 95ad b4bd 0d44 0d3d 2309 b7bd
00000110: 8178 c6bd 09ce 84bd 5760 bcbd a20d babd
00000120: f950 9b3b c522 cabd 4ca9 0b3e 401b cf3d
00000130: 93f6 90bb 7c06 c2bd 2e22 38bd a9af abbd
00000140: 573e c2bd ec2a 163d 063e 543c a427 953d
00000150: 431e 003d 7a3a f93b 034e 07bc da13 ac3d
00000160: a3e7 443d b704 353d 7fac b43d 36b0 153c
00000170: 291f a8bd e107 8a3d ceae afbd 9dfe 47bd
00000180: 4acb db3b 79a1 f8bc f1f8 a7bd 640b d93c
00000190: 7d3f 8abe 1d65 eabd 982a b0be 03a1 14be
000001a0: bfd8 2abe 13e7 86be 20ee 30be e072 95be
000001b0: a17e c23d d265 0e3d 6113 0fbe b510 6cbe
000001c0: 8941 a4be 936b cabd d145 b7be afdb 18be
000001d0: 56ba 9bbe 1e5a a33e 4dd3 89be 9fd5 17be
000001e0: f588 f73b 8429 92be 319e e8bd 7a4b 24be
000001f0: 0bed a8be 3de2 2bbe 94ac 59be f599 80be
00000200: 0825 32be 5e88 a7be f134 7bbe e270 9bbe
00000210: a96b dfbd aac4 5ebe 6129 e5bd 4c6d 93be
00000220: d11f 793e 3440 083d ea80 41be dc39 84be
00000230: 5e24 42be 96b1 23be 194d 9fbe 60df 6abe
00000240: ba71 48be 26c5 31be a778 a0be 50d1 87be
00000250: bae3 62be 463f 48be bf7b 1cbe e624 1fbe
00000260: 9703 20be 5454 67be 5724 44be 7e04 babd
00000270: e8b0 f5bd 34f1 7bbe 3bad 3dbe 3cae acbd
00000280: e5e3 97be b3a4 23be 73a2 4abd 6078 81be
00000290: 246a 85be 1d8b 01be 1568 00be 8866 0ebe
000002a0: 0c6a 6dbe dd8b a8be 19df 2abe e77a c0be
000002b0: ddf8 4e3c 5955 59be 376c 7ebe bbb8 05be
000002c0: 98de 96bd c729 adbe 6e71 83be eef7 debd
000002d0: e3ea 88bd 34c2 0dbd a40e 80be 61ca 07be
000002e0: ea00 21be f2ea 2c3e 6dbf 73be 5228 64be
000002f0: 21cc d6bd 9024 4bbe 5ff5 78be a268 a2be
00000300: e71b a8bd 4c4f cfbd c8fc 03bd fffe d2bd
00000310: f448 a1be 9714 7cbe eb50 153d 540a 56be
00000320: d115 7c3d 545f e93c 5946 f3bd 74c4 89bd
00000330: 8ca9 45bd 9055 083d bfb3 45bd e4f1 aabd
00000340: cfea 3d3d 5a33 f53c ae82 c13b 15dd 28bc
00000350: fabe d13b 91eb d0bd 244d 8f3d 14f5 a7bd
00000360: bb32 0dbb 4efe 463d 40d5 81bc 3058 29bd
00000370: cb94 423d c234 41bd 28c9 453d 8c02 4dbc
00000380: 05d3 3c3c 0443 b7bd fde0 48bd 83d3 d8bd
00000390: ad9b 6f3d 9cfe 9fbc a75a ea3b b8a4 633c
000003a0: c3c0 4abc 58c0 183d a6b5 813d 6d35 8cbc
000003b0: f17b b03d d6de a9bd 2841 abbd 3f16 9a3c
000003c0: 2dc1 6b3d 6e49 493d 8a9e 0cbd a055 22bd
000003d0: fcc0 d13d 6f3a 11bd 0411 b43d 743e db3c
000003e0: 7f66 b0bd 2b43 0e3d 7ad2 0c3d 2ecb dd3d
000003f0: 85b3 78bd 67ff 843d ca7f 003d bfdb 803d
0.040255852 -0.048843917 -0.11799935 -0.10566011 -0.04394318 -0.047476966 -0.07091709 -0.07775065
-0.06373116 -0.046566565 0.018703595 0.11125306 0.010534717 -0.08014534 -0.14812699 -0.16303723
-0.018095843 -0.015347719 -0.021659719 0.08107231 0.1117077 -0.0992096 0.04256922 -0.022827774
-0.07065745 -0.06831925 -0.046200573 0.07026166 -0.083227165 -0.03913457 0.09649981 -0.12305645
-0.07110266 0.008857247 -0.06656181 0.099887 0.0030781957 -0.10945247 0.0037154546 -0.07436693
-0.02175327 -0.15298915 0.018309802 0.09192472 0.07162958 -0.061496332 -0.00411651 -0.09007957
0.008017796 0.0022352969 -0.035642866 -0.0057671014 -0.096626215 0.05323542 -0.08999716 -0.055241674
-0.016089836 0.034939855 0.034608424 -0.051456362 -0.069040224 0.022181232 0.015248072 0.09199005
-0.092144415 -0.08822171 0.034488726 -0.089372896 -0.09690953 -0.064846106 -0.09198063 -0.090846315
0.0047398773 -0.09869913 0.136388 0.101126194 -0.004423925 -0.09473893 -0.04495447 -0.08383114
-0.09484547 0.036662027 0.012954241 0.072829515 0.03127886 0.007605848 -0.008258346 0.08402224
0.04807247 0.04419395 0.088219635 0.00913625 -0.08209068 0.06739784 -0.08578263 -0.048826803
0.0067075836 -0.030350434 -0.08201779 0.02649469 -0.27001563 -0.11445067 -0.34407496 -0.14514546
-0.16684245 -0.2634817 -0.17278337 -0.29189205 0.09496809 0.034765072 -0.13972236 -0.23053248
-0.3208125 -0.098837994 -0.35795453 -0.14927553 -0.304156 0.3190469 -0.26919022 -0.14827584
0.0075541683 -0.285473 -0.113582976 -0.16044417 -0.3299335 -0.16785522 -0.2125724 -0.2511746
-0.17396939 -0.32721227 -0.24531914 -0.3035956 -0.109092064 -0.21754709 -0.11189533 -0.28794324
0.24328543 0.033264354 -0.18896833 -0.25825393 -0.18959185 -0.15985712 -0.31113508 -0.22936773
-0.19574633 -0.17360362 -0.3134205 -0.2652688 -0.22157183 -0.19555387 -0.1528158 -0.1554142
-0.1562637 -0.22590762 -0.19154488 -0.09082888 -0.11996633 -0.2460373 -0.18523113 -0.0843167
-0.29666057 -0.15980797 -0.04947133 -0.2528715 -0.2605754 -0.12650724 -0.12539704 -0.139063
-0.23184985 -0.32919207 -0.16686668 -0.37593767 0.012632576 -0.21223964 -0.24845968 -0.1305875
-0.07366675 -0.33820936 -0.25672477 -0.108871326 -0.06685426 -0.034609035 -0.2501117 -0.13260795
-0.15723005 0.168865 -0.23803492 -0.22281006 -0.10488153 -0.19838166 -0.24312352 -0.31720454
-0.08208447 -0.101225466 -0.032223493 -0.10302543 -0.3150097 -0.2461723 0.036454123 -0.20902377
0.061544243 0.028487839 -0.11878652 -0.067269236 -0.048257396 0.033284724 -0.048267122 -0.08346918
0.04636651 0.029931713 0.005905471 -0.010306616 0.00640094 -0.10201181 0.06997135 -0.08201042
-0.002154513 0.048582368 -0.015848756 -0.041343868 0.04750518 -0.047169454 0.04828754 -0.012512814
0.01152492 -0.08948329 -0.04904269 -0.10587218 0.058498073 -0.019530587 0.00715192 0.0138942525
-0.01237506 0.03729281 0.06333475 -0.01711532 0.0861739 -0.08294456 -0.08362037 0.018809436
0.057557274 0.049142294 -0.034330882 -0.03963244 0.10241887 -0.035456117 0.08792308 0.026763178
-0.086132996 0.034732025 0.034380414 0.10829769 -0.06071808 0.06494027 0.03137187 0.06291913

net.0.bias_hh_l0 f4 [300]
00000000: 854b b1bd 0211 73bd 002f 62bd bc0f ddbd
00000010: d62c 1bbc f7c7 dbbc 3302 f8bc f5bf 933d
00000020: dad5 a3bc 09ae 3cbd d9da 10bc 6bda 21bd
00000030: 18bf e63b 2fcb 0a3d f5d9 6ebd 9425 19be
00000040: d2e4 84bd c6a9 c8bd ef4b 953d fbc0 c03d
00000050: 4ca9 a33c 5925 ffbc 2155 17bc d846 bf3a
00000060: 27eb 2fbc b2a6 4ebd 5fee 2cbd 9ecf 913d
00000070: 5452 93bd 5e83 92bd 59b7 66bc fbe1 bcbd
00000080: 238a d0bd 1985 90bd 0a24 86bd 017c 3bbd
00000090: b7e5 ca3d f621 6dbb 9d52 9a3d 70a8 31bd
000000a0: b82c 35bd 15a8 ccbd 286a 9d3c a53b b93d
000000b0: 73b7 633d de42 c13d 8e98 13bd 1844 a2bd
000000c0: 3da2 26bd 2a34 fabd 6a00 533d 6e7d c0bd
000000d0: 9ed2 15bd e756 473b b10d 39bc 8b60 ac3d
000000e0: 241e 1a39 c005 393d ec36 d43c 2494 b83d
000000f0: cfbe c03c 5f4a 523d 68df dcbd 2514 e93c
00000100: 915a 143d 0914 a5bd 8cef de3d 9ce0 82bd
00000110: a862 1cbd 2be8 a5bd 97d6 9a3b 7691 863b
00000120: 75c2 0c3d 23e0 69bd 026a ec3d e5a0 ccbb
00000130: 6a0f a3bd ef71 17be 378c 4fbd 727d 98bb
00000140: bc47 623d ca9b 823d 1a86 e4bd c3bc cf3d
00000150: cbde e3bd caf3 b1bd 983b c03d 1ab1 bdbd
00000160: 6435 12bd bb05 a73d 154a c23d 94ad 4f3d
00000170: 9261 1cbe 20fe 453d d797 243d 2054 4f3d
00000180: fb84 12bd 95ba a43d 4f2b 05bd b67e aebd
00000190: 6ad9 7cbe eec2 18bd 51bb 97be 9463 f4bc
000001a0: 47ce 34be f40d 80be b1be 15be f4a1 97be
000001b0: 1b3f 42bc c73b ef3d ae4a 08be 0687 08be
000001c0: f997 2abe 575f 0cbe 674a bcbe e529 ddbc
000001d0: 6877 8cbe 64d2 ab3e 60cf 46be 5c4c 4abe
000001e0: d250 6e3c ed04 38be 75a2 f6bd 831d 1cbe
000001f0: 37c9 91be 1877 71be 87c3 a2be 0bbe 99be
00000200: b256 45be c0b4 99be 5e22 86be 8825 13be
00000210: a98c 12bd 319a 0fbe b498 73bd e56a 57be
00000220: 71cc 963e 77b9 fd3d 910d 6fbe 2764 72be
00000230: 89b9 c1bd 9181 8dbd 7811 adbe 2858 40be
00000240: 11f7 8cbe 4ab0 8ebe dc62 65be 8b04 d1bd
00000250: afff 6cbe 4704 9bbe b3d9 98be 8ef2 93be
00000260: 9006 85be 9ecf 24be 76b9 1ebe 6d6b 4cbe
00000270: cf4f 58be b5dc 6bbe 7431 b4bd 194c 42be
00000280: 8556 53be 1901 8ebd 67c0 dbbd c925 14be
00000290: 39ce 69be 341b 63bd 1346 a1be 6a0d 2cbe
000002a0: 22a0 16be 2a49 1bbe 5ab8 89bd c7b4 9fbe
000002b0: b4a5 0abe c0e2 70be 2fa9 9abe e8b5 4f3d
000002c0: 6897 42be 0801 1dbe 61d7 15be af00 eabd
000002d0: 25d5 06be baca 813c 9bdd d6bd c83e 27be
000002e0: f322 81be 12ea 7a3d 66bf 7abe ab64 a4be
000002f0: 7e40 0dbe bb41 bebe ff7b 49be 0ed4 2fbe
00000300: 3271 2dbe 2c61 d7bd 5605 75bd f7fd 8bbd
00000310: cff1 8ebe ec1e 0cbe c332 a73d 5821 53be
00000320: e590 43bd 38fb 963d 5b80 3d3d 08b9 8a3d
00000330: d67a 6f3c a699 d13c 233c a2bc c7e8 42b9
00000340: 61c7 c6bd d2da dbbc ec0f e2bd 50f2 4f3d
00000350: 743b 7bbd 1801 033d cca9 74bd 6542 e13c
00000360: da12 9bbd 023c 733d c0ef acbd 496f 4a3d
00000370: c1d6 d13c f5ab dbbc 6764 833d e7b3 e4bd
00000380: a8e5 213d 02e9 aa3d 784f b5bd 7db9 303d
00000390: 59fa c7bd 16eb ecbd 77a8 d1bd bd2c 283d
000003a0: 3602 5abd 48ee 74bd cad8 00be 0287 ba3d
000003b0: fc7e 6b3d 55fe 3ebc 4c1d 9bbd 2210 a03c
000003c0: 82d2 82bd 472c 8b3b 6f55 ae3d 4465 4dbd
000003d0: 3611 5c3d 5e8d 6f3d 6f91 10bd ef05 943c
000003e0: 20af 873c d34a 59bd 1d3c bd3d 9319 923d
000003f0: bb31 02bd ff17 8c3c 11ec 3e3d f85f bbbb
-0.08656982 -0.05934239 -0.055220604 -0.10794017 -0.009471139 -0.02682875 -0.030274486 0.07214347
-0.019999433 -0.04606441 -0.00884124 -0.03951494 0.007041823 0.033885177 -0.05831333 -0.14955741
-0.064889565 -0.09798007 0.07289874 0.09411808 0.019978188 -0.031145738 -0.009236605 0.0014593257
-0.010737217 -0.05045194 -0.042219516 0.07119678 -0.07193437 -0.071539626 -0.014081799 -0.0922279
-0.101825975 -0.07056636 -0.06549843 -0.045772556 0.09907096 -0.0036183572 0.075352885 -0.043373525
-0.0442321 -0.099929966 0.019215658 0.090445794 0.055594873 0.09436582 -0.03603416 -0.07923144
-0.040682066 -0.12216981 0.051514067 -0.09398924 -0.036577813 0.0030416788 -0.011294768 0.084168516
0.00014697813 0.0451715 0.025905095 0.090126306 0.023528485 0.051340457 -0.10784799 0.028451988
0.036219183 -0.08060462 0.10885534 -0.06390497 -0.038180023 -0.08100923 0.004725288 0.0041066958
0.034365136 -0.05709852 0.11543657 -0.006244766 -0.079619244 -0.14789556 -0.05067083 -0.004653626
0.055244192 0.06377371 -0.1115839 0.10143425 -0.11126479 -0.08689077 0.093863666 -0.09262295
-0.03569545 0.0815539 0.09486786 0.050702646 -0.15271595 0.048338056 0.04018387 0.050617337
-0.03577135 0.080434 -0.032512005 -0.08520262 -0.24692312 -0.037295274 -0.296351 -0.029832639
-0.17656814 -0.25010645 -0.14623524 -0.29615748 -0.011855866 0.116813235 -0.13309738 -0.13332757
-0.16659535 -0.13708244 -0.36775514 -0.026997516 -0.2743485 0.33558953 -0.19415045 -0.19755691
0.014545636 -0.17970629 -0.12042705 -0.15245633 -0.28473827 -0.23580587 -0.317898 -0.30027804
-0.19271353 -0.30020714 -0.26198095 -0.14369786 -0.035778675 -0.14023663 -0.0594718 -0.21036871
0.2945285 0.1238889 -0.23345019 -0.23671018 -0.09459216 -0.069094785 -0.3380239 -0.18783629
-0.27532247 -0.27868873 -0.22400993 -0.10205945 -0.2314441 -0.302767 -0.2985359 -0.28895992
-0.2598157 -0.16094825 -0.15500435 -0.19962855 -0.21124195 -0.23033412 -0.08798495 -0.18974341
-0.20638473 -0.06933803 -0.10730057 -0.14467539 -0.22832574 -0.055445865 -0.31498775 -0.16801992
-0.14709523 -0.15164629 -0.067246154 -0.3119261 -0.13539773 -0.23523998 -0.30207202 0.05071059
-0.1900307 -0.15332425 -0.14632942 -0.11425912 -0.13167246 0.015843738 -0.10491487 -0.16332543
-0.25221977 0.061258383 -0.24487075 -0.32108054 -0.13794133 -0.37159523 -0.19676207 -0.17170736
-0.16937712 -0.10516581 -0.059819542 -0.06835549 -0.2791886 -0.13683671 0.08163979 -0.20618188
-0.047745604 0.07372135 0.046264987 0.06773573 0.014616689 0.02558596 -0.019804066 -0.00018587998
-0.09705997 -0.02683774 -0.11038193 0.050768197 -0.061335996 0.031983465 -0.059732243 0.02749748
-0.07571955 0.0593834 -0.08444166 0.049422536 0.025615098 -0.026815394 0.064156346 -0.11167126
0.039525658 0.08345224 -0.08853048 0.043145645 -0.09764547 -0.115682766 -0.1023721 0.04105829
-0.053224765 -0.059797555 -0.12582698 0.09107782 0.05749415 -0.011657317 -0.07573947 0.019538943
-0.063878074 0.0042472216 0.08512389 -0.050145403 0.05372735 0.058484428 -0.035294946 0.018069236
0.016562998 -0.053049874 0.09239981 0.07133784 -0.031785708 0.017101286 0.04661185 -0.0057182275

net.0.weight_ih_l1 f4 [300, 100]
00000000: 9366 39bd 240f 4e3c f6c3 9c3d 8035 983c
00000010: 540e 8cbc 99d9 e43c 7b73 b93d 7b08 af3c
00000020: ae98 f8bd 8916 613c 1fa3 1cbe 99a3 163e
00000030: 2ed8 e2bd 963d eb3d b26d bcbd 6dba d43d
00000040: dc1a dc3b 88de 3f3c d79f dcbc de11 143e
00000050: d516 c7bd ad16 563d 7d6f ef3d e9ff bebd
00000060: 1be7 12bd 37e0 0cbd a053 a53d d08a ebbc
00000070: 46c3 cdbd 53fa 1f3d 8ea3 36be c0e4 40bd
00000080: 44fa dd3d defe 533e 7619 4c3c 09f4 123e
00000090: 29dc 87bd 1d9e 203e 8e1c fa3d 1ab7 fe3d
000000a0: da6f 0d3b 0586 6a3e 25ab b03d 79ef 613d
000000b0: 076d c03c 6d9d cd3d 4806 fabd 6fd3 253c
000000c0: 260d 523c 55dd 04bd 9203 3cbd 3ab4 d5bd
000000d0: bb0d 313d f3ad 79bd 159a e33d f0dd b7bd
000000e0: 5d33 e73c 3cc9 07bd 549a d23d 3fd5 9ebd
000000f0: 4c8f 243d 2dda 1c3e 80d5 813d 96a1 433e
00000100: 92be 3bbe 86cb 12bd fd6b 3f3d dc4c 5a3e
00000110: 72d8 d9bd 42ab 1bbe b82b 043d 0e02 be3d
00000120: 93a7 f93b f50a 88bd e7da b23c c60e 1abd
00000130: 7168 623d 4dd3 8a3d bb3a 35bd cb9b 18be
00000140: bc87 e73d 37a7 1a3d ab43 b03b 75d3 cfbd
00000150: 9966 e9bb 269c 163d c830 afbd dfe0 203d
00000160: 40e5 e03d 5cc0 153e 30c9 37be 1b28 c1bc
00000170: 28a2 473d 8f9a a33d 608c ccbd 9995 5b3d
00000180: 614d 3cbd 96f7 10bd 0169 2ebd a712 4abd
00000190: 56ce c0bc 839e a1bd 9305 42bd 1d22 b73d
000001a0: 4a27 04be c317 cbbd 617b a4bb 8d32 2fba
000001b0: eb0c b93d 3e03 a7bc 2ff1 ba3c 8af0 e5bd
000001c0: b622 9dbc f4cb 8dbc 3c68 68bd 1648 8b3d
000001d0: eff5 3a3c 6563 5b3d fdc8 283d 44ce 8fbb
000001e0: c0a2 613d ffe4 06be 62fe 15bd 25ee f73d
000001f0: c093 3dbd db64 26ba 51c0 5a3d 83d8 8bbd
00000200: cdda c43d c900 f93d 16f7 9ebb 057b 9f3d
00000210: fe77 be3d 475b ebbb 1eb1 7ebc 203f 3abd
00000220: c973 873d 73be 44bd 50f2 ce3d 2a30 a2bc
00000230: ded1 88bd dd97 6ebd 71c9 e8bd 1731 72bd
00000240: 783c 34bd 85a9 05bc 560a 57bd dd94 3ebd
00000250: 3151 583c df41 be3d 97ad 8abd fc60 193c
00000260: 6445 fabc 24ab 78bd 3846 0fbe a3c6 52bd
00000270: 9087 9c3c ca99 89bd 387d 643d 57e3 ddbc
00000280: 233d 21bd 3e15 0f3c 88c9 943d 5b88 8fbd
00000290: 5354 c13d edf5 633d 2c8b a9bd 2af0 d93c
000002a0: 484d f53c 29df 993d 3972 e6bd 098a 03be
000002b0: 5596 81bc e205 043c 96e8 003d c36a 973d
000002c0: fbe4 9d3d ae83 41bd fc0b 3f3c 358d 593d
000002d0: 250b c8bd e4fd a03d 1962 48bc 5294 723c
000002e0: 73b7 fe3d 86ee 6f3d 3223 603d 6746 9c3d
000002f0: 63b1 833d d903 17bd 083a 183d e290 9fbd
00000300: fd56 ca3b b7de 19bd 53f8 4cbd 477a 433d
00000310: 7f51 4ebd 2c55 3ebd 8f6d adbd 0b9c b53d
00000320: 6b0b b0bd 23d9 0abe df94 93bd d7b9 2bbb
00000330: da0e ae3c ab2b 373e cf1b 22bc ce72 9f3d
00000340: 18aa f93d 16e1 8abe 0651 05bd c612 973c
00000350: d112 fdbd 2019 6ebb 41fa f3bc d79c 51bd
00000360: 0634 d4bc 9e13 aabc 81d0 15be 9045 173e
00000370: d8e4 f5bd b021 873d a3db dabd 45bb 81bd
00000380: 66aa 973d 7ebd e8bc 28fc 24bd 86d3 61bd
00000390: 42d2 4e3d c79a f5bd 5796 acbd 273d ecbd
000003a0: 0345 12be bb0a bbbd 8b45 65be a4ba 9ebd
000003b0: f774 3ebd 9705 8cbb 8b48 80bd c8c4 ecbc
000003c0: 06bc 853e 0ead 38bd f632 0bbd b609 f7bc
000003d0: c526 563d 96ee 483d 6ebb 8b3d 2d62 b13d
000003e0: 2a52 56bd 7c95 b53d 70ee 0e3e 28b1 b43d
000003f0: 7d8e aa3b 8755 25bd 118d 043c e68c b9bd
-0.045263838 0.012576852 0.07654564 0.018580198 -0.017096676 0.02793579 0.09055229 0.021366348
-0.12138496 0.013738283 -0.15296601 0.14710845 -0.11076389 0.11486356 -0.0920061 0.103871204
0.006717069 0.01171077 -0.026931686 0.14459941 -0.09721152 0.05226772 0.116911866 -0.09326155
-0.03586493 -0.034393515 0.08072591 -0.028752714 -0.10047011 0.039057087 -0.17835829 -0.047093153
0.1083875 0.20702693 0.012457242 0.14350905 -0.06633789 0.15685315 0.122124776 0.124372676
0.0021581561 0.22902687 0.08626393 0.05516002 0.023489488 0.10039792 -0.12208229 0.0101212105
0.012820518 -0.03243764 -0.045901842 -0.10434766 0.043225985 -0.060956907 0.11113373 -0.08977878
0.028222734 -0.033150896 0.10283342 -0.07755517 0.04017572 0.15317602 0.0633955 0.19104609
-0.18334416 -0.035838626 0.046733845 0.21318382 -0.10636987 -0.15202048 0.032268256 0.09277736
0.0076188534 -0.06642715 0.021832896 -0.037611745 0.055275384 0.06778584 -0.044245463 -0.1490318
0.11305186 0.037757125 0.0053791604 -0.10147754 -0.0071228263 0.03677001 -0.08554226 0.039276954
0.10981226 0.1462416 -0.1794784 -0.023578694 0.04873863 0.07988464 -0.09987712 0.053609464
-0.04597223 -0.035392366 -0.04258061 -0.049334195 -0.023535889 -0.07891562 -0.047368597 0.089420535
-0.12905613 -0.099166416 -0.0050195907 -0.0006683253 0.09035667 -0.020387288 0.022820083 -0.1122752
-0.01918159 -0.017309166 -0.05674003 0.06800859 0.011411174 0.053561587 0.041207302 -0.0043886025
0.05508685 -0.13173293 -0.03661955 0.12105969 -0.046283484 -0.0006347426 0.053406063 -0.06828406
0.096120454 0.12158353 -0.0048512323 0.07787136 0.093002304 -0.007182512 -0.015545158 -0.045470357
0.06613881 -0.04803319 0.10104811 -0.019798357 -0.06680654 -0.058250297 -0.11366547 -0.059128847
-0.04400298 -0.008158092 -0.05250009 -0.046528686 0.013202951 0.09289908 -0.06771391 0.009361502
-0.030550666 -0.060710087 -0.1399163 -0.051458966 0.01910761 -0.06718786 0.05578348 -0.027085943
-0.039364945 0.008733092 0.072650015 -0.070084296 0.09439912 0.055654455 -0.08278498 0.026603777
0.029944077 0.075132675 -0.11252255 -0.12845625 -0.015818754 0.008058043 0.03147181 0.0739341
0.0770969 -0.04724472 0.011660572 0.05311318 -0.09767751 0.07860926 -0.01223042 0.01480587
0.12437334 0.058577083 0.054721065 0.07630616 0.06430318 -0.036868904 0.037164718 -0.07791306
0.0061749206 -0.037565913 -0.050041508 0.047724035 -0.05037069 -0.046467945 -0.08468162 0.088676535
-0.08595928 -0.13559394 -0.07206129 -0.0026203298 0.021247316 0.17887752 -0.009894325 0.07785569
0.12190646 -0.27124852 -0.032547973 0.018441569 -0.123571046 -0.0036330894 -0.029782416 -0.051174965
-0.025903713 -0.020761307 -0.14630319 0.1477263 -0.12006539 0.06598222 -0.10686424 -0.06334547
0.07405548 -0.02841067 -0.040279537 -0.055133365 0.050493486 -0.11992412 -0.084271125 -0.115351014
-0.14284138 -0.09132906 -0.2238981 -0.077504426 -0.046498265 -0.0042731273 -0.062638365 -0.028902426
0.26120013 -0.045086913 -0.033984147 -0.030155998 0.052283067 0.04905566 0.06822859 0.08661304
-0.05232445 0.088664025 0.13958144 0.088228524 0.005204974 -0.04036477 0.0080902735 -0.09060077

net.0.weight_hh_l1 f4 [300, 100]
00000000: dcea 94bb 9064 4bbd 93f1 943d 1af0 513d
00000010: ba12 043d 272a 2abe ae4f efbd c63a f83d
00000020: c04e fc3b afa0 af3b c024 193d 65fb 123d
00000030: e4ac 3f3d 3f55 8c3d 0064 9fbd 1e4a 80bc
00000040: 1074 9a3d 3ad1 1a3c adec 89bc 75d3 2dbd
00000050: 02fd febc e789 0cbd 599e 943d 3dd8 8cbd
00000060: a1db c73c 525e f1bd 6c96 173e d891 16bc
00000070: 4d12 83bd 6efd 3a3d 9366 27bd 92e2 d7ba
00000080: 5cdd cb3d 7853 a13d 8ee1 a33d 9d38 c5bd
00000090: 52a0 b73c ba7d f4bd bd44 1c3e 0744 f9bc
000000a0: d300 5c3d a4aa 363d db8e 093e 066c a93d
000000b0: dfef 0b3b 1054 29bd 4dbc a4bd af7d b53d
000000c0: 3b71 12be 0bd8 b6bd 4a32 8c3d 3f2b f63d
000000d0: 9f6c 303d 0946 933d faab b4bc 6b7b 5d3c
000000e0: 7844 503d c402 f0ba bece dc3d 69a1 f33c
000000f0: 79f3 00bd a3a4 7cbb 23f9 bbbd a5ac 80bb
00000100: b70f 06be 9267 923c 9eb6 103b 95b7 823c
00000110: 63c8 3f3c db1e 0f3c d4d9 85bc 265c 123c
00000120: d3f2 af3d 7e79 303d af11 503d 55c7 64bc
00000130: b7b5 dbbd 6d1e ecbd b84f 44bd c5ef 9a3d
00000140: 4731 903d 1364 723c eb37 373d cffd 8e3d
00000150: d31b 11bc 14be f2bb 6560 153e ccc0 a83d
00000160: b455 183c 590f 22bc 70e5 a4bc 1b7a 9f3c
00000170: 53e4 3cbc 0a34 11bd 59db 19bc a5fb ca3c
00000180: c950 7e3d 62d9 843d b384 30be a213 eabd
00000190: 9725 2e3d 20fb 09bd 96be 97bc 0788 99bd
000001a0: 6838 073d 4c09 583d bdee 8b3d ec42 843d
000001b0: 41fc 1fbe 433a ef3d cbd8 09bd f648 39bd
000001c0: e9bd 7cbd 2004 563d ffb6 3abd 7015 303d
000001d0: 4d1d 78bd 1aae 273c 71c0 033e 2b51 b5bc
000001e0: 6d0d 8a3d 32e9 49bd 7e84 833d 6ec5 843d
000001f0: 72b0 7e3d 6b34 733b 01d0 06be 810e 01be
00000200: 7ccc dd3c 6d97 6dbd e45d 193d 4e7b d7bd
00000210: 508c bcbd 3395 ebbc b35a 323d 6b33 413d
00000220: fc07 bebb edf7 833d d2d5 853d c882 4c3d
00000230: b2d2 163d 4233 9f3d 7bde ecbd 315a ecbd
00000240: 72c8 01be 107b 983c 9553 9b3d 27ba ba3c
00000250: 4ace 083e b49f 20bc 64e2 a03d 13a7 4f3c
00000260: 9d9b 8bbd 8f6d a9bd b80f 623d bf4e 8fbb
00000270: 9467 a13d 8785 6abd b64e 67bd a4a4 823d
00000280: a1eb 523d 4fb5 d43d 84c2 243d e74a 0a3d
00000290: 7072 b53c 1806 2bbc 853d e9bc 8659 e53c
000002a0: d4d8 27bc e9eb 3bbd 2c0d 653d 03bf 52bd
000002b0: 0853 97bd ad62 cf3d c07e f5bd c2ae c4bd
000002c0: 773f 153e 15f8 cfbc 6654 b13d d94d 773d
000002d0: 4492 ea3b 6627 ab3c 0845 bebd dcc6 94bb
000002e0: 62a3 eb3c 8d50 523d d03f 0bbd 8e2d ebbd
000002f0: 6a0c 613a aac9 943d ffa8 2e3d 91ad 313d
00000300: 04b6 c23c 000a f23c a692 11be a947 7bbd
00000310: 76ba 55bc a587 823d 018a 1c3b 1ac2 e63d
00000320: 136d 683c 9832 18ba f9e8 cdbd 8868 c7bd
00000330: 3b45 933d 492b 573d 296f 133e ee12 b1bc
00000340: 853f 923b 2ae6 a0bc 9078 9fbd bbc8 6bbd
00000350: cfc8 273e 68be 12be 7a5b 3ebc 71a8 0d3d
00000360: 8e80 44bd cd3c 033d f172 893d df64 f63c
00000370: a727 b4bd e4e5 263c e6af 1cbe 4ae7 663d
00000380: dca0 ca3d fbb6 783d 0f53 c1bd bf02 b2bc
00000390: a05d 77bd a413 c2bc 96b6 8cbd 98b8 193d
000003a0: 446b e3bd f081 133e 7e41 cdbd 1a7c cdbd
000003b0: b8f9 aa3d 07bb 56bd 221c b33d b3d2 903d
000003c0: e53f 28bb 92c6 f03d a403 bebd 2bbb e43c
000003d0: 71d1 44bb 8adf e8bc 8c67 073e e8cc 6bbd
000003e0: d5ae 9ebd 7bb9 dc3d 052e 04bd d1fb 29bd
000003f0: b294 ccbd 3062 9ebd 38e3 653d e07f 30bd
-0.004544599 -0.04965645 0.07272639 0.05125437 0.03224442 -0.16617642 -0.116851196 0.12120585
0.0076998174 0.005359731 0.037388563 0.03588428 0.04679574 0.06852197 -0.07782745 -0.015660342
0.075416684 0.009449298 -0.016836489 -0.04243799 -0.031126503 -0.0343112 0.07256765 -0.06877182
0.02439672 -0.11785568 0.14803475 -0.009190045 -0.06399975 0.045651846 -0.040869307 -0.0016470721
0.0995433 0.078772485 0.080020055 -0.09629939 0.022415314 -0.11938043 0.15260597 -0.030427946
0.053711724 0.04459633 0.13433401 0.08272557 0.002135269 -0.041339934 -0.08043728 0.08861863
-0.14301006 -0.08927926 0.068455294 0.12019967 0.04307234 0.071910925 -0.022054661 0.013518195
0.050846547 -0.0018311371 0.107816204 0.029740052 -0.031482194 -0.003855028 -0.091783784 -0.003926831
-0.13091932 0.017871652 0.0022081505 0.01595668 0.011705491 0.008735384 -0.01633922 0.008933103
0.08591237 0.043084614 0.050798114 -0.01396354 -0.10728019 -0.11529241 -0.04792759 0.07565264
0.07040649 0.014794367 0.044731062 0.06982004 -0.0088567315 -0.007407913 0.14587553 0.08239898
0.009297777 -0.0098913545 -0.020128936 0.019467404 -0.011529046 -0.03545002 -0.009390675 0.024778197
0.06208876 0.06486775 -0.1723812 -0.11429526 0.042516317 -0.033686757 -0.018523496 -0.07496648
0.033012778 0.05274324 0.06832645 0.06458077 -0.15623571 0.116810344 -0.033654016 -0.045235597
-0.06170455 0.052250028 -0.045584675 0.042989194 -0.06057482 0.01023438 0.1286638 -0.02213343
0.06740842 -0.049294658 0.06421755 0.06482969 0.06217999 0.00371101 -0.13165285 -0.12603189
0.027075045 -0.05800574 0.037443057 -0.105215654 -0.0920645 -0.028757667 0.04354353 0.047168177
-0.0057992917 0.064437725 0.065349236 0.04992941 0.03682203 0.077734485 -0.11565872 -0.1154064
-0.1267412 0.018613368 0.075843014 0.022793842 0.13359943 -0.009803701 0.078556806 0.012674111
-0.0681679 -0.0827285 0.05519077 -0.004373401 0.07881084 -0.057256248 -0.05647155 0.06379059
0.051494244 0.10386144 0.040224567 0.03376284 0.022149295 -0.010438465 -0.028471718 0.02799679
-0.010244567 -0.04587928 0.055920765 -0.051451694 -0.07388884 0.10126243 -0.11987066 -0.09603645
0.14574991 -0.02538685 0.08658676 0.060376976 0.0071585495 0.02089281 -0.092905104 -0.0045403074
0.02876443 0.05134635 -0.033996403 -0.11483298 0.00085849187 0.07265027 0.042641636 0.043378416
0.023768432 0.029545784 -0.14216098 -0.061347637 -0.013044944 0.063735284 0.0023885968 0.11267491
0.014186162 -0.0005805879 -0.10054202 -0.09736735 0.07190939 0.052531514 0.14397873 -0.021615472
0.0044631385 -0.019641 -0.07786667 -0.05756448 0.16385196 -0.14330447 -0.011618489 0.034584466
-0.04797416 0.032040406 0.067113765 0.030077396 -0.087966256 0.010186646 -0.15301475 0.05637292
0.09893963 0.06072138 -0.0943967 -0.021729825 -0.060392022 -0.023691006 -0.06870763 0.037529558
-0.11104444 0.14405036 -0.10022257 -0.10033436 0.08348411 -0.052424457 0.087456 0.07071438
-0.002567285 0.11756624 -0.09278038 0.02792128 -0.0030032063 -0.028426904 0.13223094 -0.05756846
-0.0774819 0.10777565 -0.03227045 -0.041499916 -0.09989299 -0.077335715 0.056124896 -0.0430907

net.0.bias_ih_l1 f4 [300]
00000000: 7e08 07be 4839 1f3c 34bc 553d 2252 85bd
00000010: 19e1 4d3d 5b53 38bd f613 d2bd 66fe 9abd
00000020: 39c1 b8bc 567d 7fbd 431d 4bbc e43d 85bd
00000030: c4f0 7bbd c4e6 0abd 6b32 d93a a71d 433c
00000040: 66f2 28be 9814 893d aa32 0a3b 1a55 dfbd
00000050: d646 f5bd 5381 963d 5f75 f8bd a04e 08be
00000060: 2c52 923d 2cc2 67bd 0700 17bd 1111 9e3d
00000070: 0f18 af3d 39f4 4dbd 1205 9abd acf9 41bd
00000080: 5108 313d 8af7 62bd 5666 d7bd 6c42 f4b9
00000090: 50bf 6d3c f5a2 7abd 6fa5 96bd cd61 a33d
000000a0: 1b19 55bd 3802 0c3d e749 fabd 4ba6 8bbc
000000b0: 2da8 c93c 811d 973d 5c4d ca3b 3193 08ba
000000c0: 51c1 1c3c fc1c cbbd 0153 a8bd 0b1e a5bd
000000d0: 3fa0 bcbd 085b 05bd 1bb2 f0bd 1751 2cbd
000000e0: 63ff 6d3c 1db7 8abd 40da 2e3d 3e3a 323d
000000f0: 5dc4 da3d 362d 1bbe 8c66 15bb f6be 3cbd
00000100: a1e5 a4bd 5753 a73c 2789 6d3d 17d7 6abc
00000110: 8288 13bd 0bbb a93c 171e 90bd 1c2c 313d
00000120: 7446 143d 6d13 cf3a 054d 82bd 84bb 0bbd
00000130: 0499 b93d 7a7d 593b 7076 17be ec4f e4bd
00000140: 95e3 ccbd 0ce5 25be 0242 a13d 2f93 863d
00000150: e0ba 40bd 0d0c 08bd 7750 253c 977c d5bd
00000160: b2a5 27bd 3845 27bd fdc4 89bd db1c a73d
00000170: 4f3f 2d3d 7e79 043b 017d f8bc 9bc7 00be
00000180: a479 18bd 3d12 583d 75f8 583d 98ec cd3c
00000190: 5af0 6ebd 2c02 8b3e 024c 593e dde2 8c3d
000001a0: 6f15 65bc d371 c03d 934c 27be 693d e9bc
000001b0: 4153 b9bc df80 22ba f33d ffbc 4083 153d
000001c0: 8a76 de3d b192 ffbc fec2 083d a345 a5bd
000001d0: 61ce 8c3b 6dc8 0fbe e4f9 2cb9 b2dd f9bd
000001e0: 33c9 15be 9019 3dbe 879b 5fbe 1e1c 4abd
000001f0: afb7 48be d726 683e c763 8ebc 0a54 f0bd
00000200: 69c2 42be 49be fabd 7082 d8bd d397 06bd
00000210: fd7d a3bc 5552 703d 3da7 843c 5df4 debd
00000220: 97d3 5abd 8293 293d 9c56 48be 9a68 2bbe
00000230: c1e2 efbd 69bc e9bc a046 d4bd 0cfd 82bc
00000240: c543 4bbc 9c69 eabd d668 01be faf3 2e3d
00000250: 7a7e aebd 6941 8fbd eee8 01be dbdd 213d
00000260: 9399 a93d e8b3 c83c 805c 12be 483f 3bbc
00000270: b352 af3d dd0e ddbc 4682 58bd 8b2f 93bd
00000280: f064 10be b40b 39bd 2aa4 66bd c6a5 af3d
00000290: 601a 663e 97b0 1d3c 5824 e43d 79c4 d9ba
000002a0: b689 8bbd 88a7 8d3d 7ec1 86bc 8c16 d4bd
000002b0: 7c69 e9bd 3a27 4abd 00e7 e1bc 26cc bd3d
000002c0: 059b 763c fe4f e7bd 85de 2fbe 5bc8 2bbe
000002d0: f6ce 33be 0004 803c e2b3 26be c2b5 eabd
000002e0: 20c8 ebbd 0f8c 443d bf6b 06be 56b9 afbd
000002f0: 2ee4 a03d eca0 59bd c00b 1cbd fa3d 353e
00000300: 3367 053e e18c 05be 9f98 a6bd a536 ca3b
00000310: fdc5 663d a021 f7bd 76fa 313e 68a8 12bd
00000320: f738 d0bc d14a 313d c53a 1fbd fadb bfbd
00000330: 10e1 d4bc 9b7d 903d 6049 5cbc b140 bc3c
00000340: 559f febb d989 1fbd ad55 d43d 56d5 27bd
00000350: 81af c7bd b353 22bd 04f0 ddbc af3e babc
00000360: 855f 57bd ea91 3a3c 64c8 9dbb b905 ef3c
00000370: a38a ed3c 3de3 3ebd 34f8 60bd 4f93 043d
00000380: 49bd 29bc 9b83 a33d 7ad1 bfbd 1eeb afbd
00000390: f938 a53b c327 923d fdfa 303c 204f 8e3d
000003a0: e311 22bd 55d1 a4bd d4df e33c 977d 37bd
000003b0: d867 8c3c 2752 d3bc 2e6d d3bd bb7a 5bbc
000003c0: 5c00 83bd e79d 34bd 450a 5b3d c088 8d3d
000003d0: dd5c 113c 18cd 3abd e698 b13d 59d8 003e
000003e0: 3a77 783d 7e00 8a3d 7eac fe3c 06c0 8c3d
000003f0: 4ad8 17bd 9897 253d 18a7 80bd 5201 433d
-0.13186833 0.009718247 0.052181438 -0.06509806 0.050263498 -0.04500137 -0.102577135 -0.07568054
-0.022553073 -0.06237539 -0.012397113 -0.06505945 -0.06150891 -0.03391148 0.0016570812 0.011908925
-0.16498718 0.06693381 0.0021087327 -0.10904904 -0.119764015 0.073488854 -0.12131762 -0.13311243
0.07144579 -0.05658166 -0.03686526 0.07718099 0.08549511 -0.050281737 -0.07520498 -0.047357246
0.04322082 -0.055411853 -0.10517566 -0.00046588795 0.0145109445 -0.061190564 -0.07355773 0.079776384
-0.052025896 0.034181803 -0.12221127 -0.017047068 0.024616325 0.07378674 0.0061737727 -0.00052099215
0.009567575 -0.09917638 -0.08218957 -0.08062371 -0.09210252 -0.032557517 -0.11752721 -0.04206952
0.014526221 -0.06773207 0.04268861 0.043512575 0.106819846 -0.15153965 -0.0022796718 -0.046080552
-0.08051611 0.020425482 0.057992127 -0.014333508 -0.036018856 0.020719072 -0.07036989 0.043254957
0.0362 0.0015798636 -0.063623466 -0.034114376 0.090623885 0.0033186362 -0.14791274 -0.111480564
-0.10004345 -0.16200656 0.07873918 0.06571042 -0.047053218 -0.033214618 0.010089985 -0.10424154
-0.040929504 -0.040837497 -0.06727026 0.081598006 0.042296704 0.0020214017 -0.030333044 -0.12576143
-0.03722538 0.05275177 0.052971322 0.02513723 -0.058334686 0.27150095 0.21220401 0.06879208
-0.013982161 0.0939671 -0.16337804 -0.028471665 -0.022622706 -0.0006199013 -0.03115747 0.036502123
0.10862453 -0.031197878 0.033389084 -0.08069923 0.004297063 -0.140413 -0.0001649629 -0.12200488
-0.14627533 -0.18466783 -0.21836673 -0.04934322 -0.1960132 0.22671066 -0.017381562 -0.11734779
-0.19019474 -0.12243325 -0.10571754 -0.032859635 -0.019957537 0.058672268 0.016193027 -0.10886452
-0.053424444 0.04140044 -0.19564289 -0.16739121 -0.11713172 -0.028532224 -0.10365033 -0.015989803
-0.012406294 -0.11445925 -0.12637648 0.042713143 -0.08520217 -0.06994898 -0.12686512 0.03951822
0.08281245 0.024499848 -0.14293098 -0.011428662 0.085606955 -0.026984626 -0.052858613 -0.071868025
-0.14101005 -0.045177177 -0.056308903 0.08576541 0.22470999 0.009624622 0.111397445 -0.001661434
-0.06813376 0.0691672 -0.016449686 -0.10355863 -0.11397073 -0.049353816 -0.02757597 0.09267454
0.015051608 -0.11294554 -0.17174728 -0.16775648 -0.17559418 0.015626907 -0.16279557 -0.11460449
-0.1151278 0.047985133 -0.1312704 -0.08580272 0.07856022 -0.053131983 -0.038097143 0.17699423
0.13027649 -0.13042022 -0.08134579 0.006171065 0.05634116 -0.1206696 0.173807 -0.035805136
-0.025417788 0.04328424 -0.038874406 -0.09368129 -0.025986224 0.07055207 -0.013445228 0.022980066
-0.0077704587 -0.03894982 0.10367904 -0.040974937 -0.097502716 -0.039630603 -0.027091987 -0.022734968
-0.05258133 0.011387328 -0.004815148 0.029177533 0.028996771 -0.04660343 -0.054924205 0.032367047
-0.0103600705 0.07984086 -0.09366126 -0.08589767 0.005042192 0.0713649 0.010802028 0.06948686
-0.03956784 -0.080477394 0.02781669 -0.044797506 0.01713936 -0.02579601 -0.10323559 -0.01339596
-0.06396553 -0.0440959 0.05347659 0.069108486 0.008872238 -0.04560575 0.08671741 0.1258253
0.06066058 0.06738375 0.03108811 0.06872563 -0.037071504 0.040427774 -0.062818706 0.04760868
