vae_classification/state_dict_classifier_100_76.42.pt (torch, 617403 bytes, 14 tensors)

net.0.weight_ih_l0 f4 [300, 2]
0.023933433 0.02873506 0.046845775 -0.09682061 0.000284785 -0.14877018 0.010266994 -0.07949744
0.079300724 -0.03473356 0.054799948 0.06368751 -0.050895467 -0.0219393 0.080430366 -0.038139384
-0.10350031 0.062374204 -0.097976364 -0.05113124 0.0666051 -0.0621339 -0.14864403 -0.107829005
-0.06515234 0.07326306 -0.082765654 -0.111481085 0.09378157 -0.038963594 -0.0058543864 0.0965495
-0.027218439 0.0014716396 0.028862823 -0.036936067 -0.05146657 0.014738903 -0.055949993 -0.026655251
-0.024129389 0.094119206 -0.031282026 0.043523155 -0.0015653977 -0.10330199 -0.0040810113 -0.033488285
-0.08004343 -0.029133303 -0.094510354 0.02855652 0.047323003 -0.00937691 -0.0038433897 0.0012503997
0.07858785 -0.037865408 -0.12973948 -0.011021743 0.040880367 -0.070284635 -0.007005766 0.07116426
0.057213884 -0.13936266 0.08980941 0.01296446 -0.06614437 0.013925462 -0.07739817 -0.04480309
0.038689803 -0.028357543 -0.10605554 -0.03230997 -0.0012192682 0.064735435 -0.011683943 0.016003473
0.009041246 0.020490805 -0.08938614 -0.023997057 0.04868615 0.043330234 0.058475275 0.032037105
-0.07700361 0.027161598 0.099978074 -0.048148688 -0.098458394 0.007830534 -0.056357957 0.00036908203
-0.06712289 0.011112494 0.018473696 -0.0012967591 -0.07493184 -0.069243684 0.06975022 -0.1112813
0.056344166 0.03864645 -0.048316516 0.033666093 0.011783402 -0.05745574 0.078471795 -0.029759513
-0.087004535 0.020743376 0.06962532 0.06881876 -0.118788764 0.013033748 -0.033662044 0.06320766
-0.08160295 -0.040287044 -0.05681637 0.06877972 -0.070974946 0.05991244 0.00738559 -0.084486336
0.053220876 0.11674262 -0.13688935 0.009882159 -0.021807432 0.04582872 0.10101908 0.09359885
-0.08704009 0.12011838 -0.08252848 -0.044862382 -0.017510151 -0.108762905 -0.020462431 -0.0001773712
-0.09843789 -0.050419483 -0.05959037 -0.04116768 -0.09606409 0.08860877 -0.004479832 -0.031320393
0.00028343534 0.0071566263 -0.022421688 0.11825667 -0.005347421 0.018488845 -0.020494858 -0.015656604
0.013974068 0.025959898 0.031494703 -0.092841156 -0.05560582 0.04272039 0.0017925405 -0.104600005
-0.05117826 -0.024806144 0.095963046 0.09185957 0.02345062 -0.07575331 0.067249015 0.08400176
0.010371105 0.0061827335 -0.0127032045 0.06555803 -0.007866352 -0.12190679 -0.08533274 0.121563636
0.008806258 -0.052313168 0.016156083 0.034404468 0.0454593 0.058272086 0.05432198 -0.0065050204
-0.014328012 0.03394983 0.045971125 0.02414686 0.047200035 -0.018620048 -0.042849857 -0.108156435
-0.16587076 -0.3081323 -0.25981548 -0.24926347 -0.13551624 -0.4097111 0.11750135 -0.00558409
-0.2226034 -0.3320912 0.14645052 0.08354728 -0.14465135 -0.1602325 -0.06726129 -0.1275532
-0.2512541 -0.32436404 -0.083289675 -0.07961223 0.105598666 0.13451968 -0.07692789 -0.17015508
0.17721178 0.20401739 -0.25131595 -0.19557099 -0.30537364 -0.37535277 -0.22356752 -0.31505594
-0.35625267 -0.4277854 0.04339171 -0.028798154 -0.106701836 -0.18577722 -0.13169627 -0.124296054
-0.28257087 -0.1323461 0.09309122 0.14979555 0.045798633 -0.0467397 -0.11495325 -0.22513819
-0.22990069 -0.3399664 -0.19900256 -0.27209166 0.05092911 -0.010204145 -0.26275805 -0.27380493
00000000: 0c10 c43c ca65 eb3c 5be1 3f3d e249 c6bd
00000010: 324f 9539 3657 18be e536 283c 8ecf a2bd
00000020: 6b68 a23d c744 0ebd e975 603d 996e 823d
00000030: c477 50bd 0cba b3bc adb8 a43d 0b38 1cbd
00000040: f8f7 d3bd 187c 7f3d d5a7 c8bd fe6e 51bd
00000050: 4168 883d 1e80 7ebd 2436 18be 74d5 dcbd
00000060: 976e 85bd f10a 963d 0a81 a9bd 3250 e4bd
00000070: 8d10 c03d 4a98 1fbd 27d6 bfbb bfbb c53d
00000080: 34f9 debc 08e4 c03a ba71 ec3c 464a 17bd
00000090: 9cce 52bd 717b 713c d22b 65bd 1d5c dabc
000000a0: ffaa c5bc 92c1 c03d 9521 00bd 5645 323d
000000b0: 082e cdba fe8f d3bd 01ba 85bb 032b 09bd
000000c0: cfed a3bd f7a8 eebc a58e c1bd 5def e93c
000000d0: c4d5 413d 9ca1 19bc 61e1 7bbb 74e4 a33a
000000e0: abf2 a03d c218 1bbd 6dda 04be 8a94 34bc
000000f0: 2c72 273d 64f1 8fbd a090 e5bb 91be 913d
00000100: 1b59 6a3d 16b5 0ebe ffed b73d e368 543c
00000110: b376 87bd 9f27 643c ef82 9ebd 7283 37bd
00000120: 3379 1e3d 144e e8bc a633 d9bd 7657 04bd
00000130: dacf 9fba 0394 843d 026e 3fbc b719 833c
00000140: bc21 143c 55dc a73c 1510 b7bd 7a95 c4bc
00000150: 216b 473d 0b7b 313d c583 6f3d 5739 033d
00000160: 12b4 9dbd 0082 de3c 4ec1 cc3d 8f37 45bd
00000170: 8ea4 c9bd a44b 003c 9ad7 66bd 5a81 c139
00000180: ba77 89bd 2e11 363c 2656 973c 04f8 a9ba
00000190: dd75 99bd a2cf 8dbd 34d9 8e3d 73e7 e3bd
000001a0: 24c9 663d bd4b 1e3d 8ae7 45bd 75e5 093d
000001b0: 2c0f 413c b656 6bbd d2b5 a03d 39ca f3bc
000001c0: 6f2f b2bd 03ee a93c b897 8e3d daf0 8c3d
000001d0: 8647 f3bd 808b 553c 36e1 09bd 0573 813d
000001e0: 731f a7bd 0704 25bd 48b8 68bd 62dc 8c3d
000001f0: 505b 91bd bf66 753d d202 f23b 2c07 adbd
00000200: 22fe 593d c116 ef3d b92c 0cbe c7e8 213c
00000210: 80a5 b2bc e5b6 3b3d 17e3 ce3d c1b0 bf3d
00000220: 1342 b2bd a000 f63d b104 a9bd 9ec1 37bd
00000230: 7371 8fbc 16bf debd d4a0 a7bc b8fc 39b9
00000240: ce99 c9bd a984 4ebd 0815 74bd 719f 28bd
00000250: 40bd c4bd 8478 b53d 8ecb 92bb d049 00bd
00000260: 0c9a 9439 2282 ea3b b0ad b7bc 8e30 f23d
00000270: 6b39 afbb eb75 973c d5e4 a7bc 4742 80bc
00000280: 7df3 643c daa9 d43c 9700 013d 8123 bebd
00000290: eec2 63bd 93fb 2e3d aef3 ea3a 8738 d6bd
000002a0: 4ca0 51bd 4136 cbbc 4688 c43d df20 bc3d
000002b0: 841b c03c 8d24 9bbd dab9 893d 1d09 ac3d
000002c0: 91eb 293c 8798 ca3b 1a21 50bc 4a43 863d
000002d0: dfe1 00bc 44aa f9bd eec2 aebd 5bf6 f83d
000002e0: 2048 103c 5546 56bd c359 843c b3eb 0c3d
000002f0: 8833 3a3d b6ae 6e3d b980 5e3d 1128 d5bb
00000300: 0ac0 6abc fa0e 0b3d 384c 3c3d a3cf c53c
00000310: d354 413d 1289 98bc 5583 2fbd 1f81 ddbd
00000320: 06da 29be 84c3 9dbe 8906 85be ec3e 7fbe
00000330: c5c4 0abe a7c5 d1be 8ca4 f03d befa b6bb
00000340: 25f2 63be dc07 aabe 20f7 153e d61a ab3d
00000350: 7c1f 14be fd13 24be 4ac0 89bd 4e9d 02be
00000360: 61a4 80be 0b13 a6be c793 aabd bd0b a3bd
00000370: 1d44 d83d 87bf 093e 5f8c 9dbd 223d 2ebe
00000380: 0177 353e efe9 503e 7cac 80be c343 48be
00000390: ef59 9cbe 3d2e c0be e2ee 64be 034f a1be
000003a0: c066 b6be b006 dbbe 81bb 313d 1bea ebbc
000003b0: 7e86 dabd 623c 3ebe 63db 06be ee8e febd
000003c0: 21ad 90be bc85 07be 9ca6 be3d 0164 193e
000003d0: 5997 3b3d 2172 3fbd 9c6c ebbd a08a 66be
000003e0: 166b 6bbe 1310 aebe 54c7 4bbe 994f 8bbe
000003f0: 0b9b 503d 492f 27bc 3988 86be 2930 8cbe

net.0.weight_hh_l0 f4 [300, 100]
0.10821244 -0.0032059464 0.023785233 -0.1079209 0.007738305 -0.020276492 0.08439612 -0.08648832
-0.0023710227 0.059105366 0.06938003 -0.09126347 -0.014405888 -0.05451804 0.0064834123 0.09115477
0.13741568 0.052295096 -0.017326428 0.017596496 -0.044838995 -0.06405864 -0.01942875 -0.05775654
0.09414904 -0.02570852 -0.05399494 -0.013997721 -0.03312379 0.047674354 0.07832955 0.016087566
0.06279214 -0.007954754 0.05174583 -0.07182001 0.0011224672 0.012702367 0.027432714 0.036461845
-0.035272 -0.019579723 0.039816212 0.045349043 -0.033170942 -0.036397126 -0.048749648 0.009484088
-0.113088556 -0.119898885 -0.1564944 -0.09131533 -0.03865414 0.08431548 -0.015867993 -0.0017793773
-0.052604433 -0.048791207 0.055408634 -0.023117637 -0.012731963 -0.04558123 0.053257927 -0.024667803
-0.06601192 -0.0075083314 0.08688572 -0.052548494 0.017348694 0.049965028 -0.05586249 -0.06071848
-0.04353208 -0.03579959 0.025684433 -0.01431946 -0.062035285 -0.004068715 0.0064612483 0.016443944
0.028648907 0.05049112 -0.06454609 -0.06687748 -0.019791728 -0.09403932 -0.03223141 -0.051318623
0.020914825 -0.035916876 0.066153266 -0.08372492 0.067554906 -0.010749828 0.092030734 0.05211905
0.07976223 0.060739633 0.030874332 0.016572475 0.15662138 -0.10800676 -0.044162676 0.116854504
-0.112678535 0.09892592 0.14855611 -0.09441018 0.012946461 -0.068075165 -0.044002607 0.038697325
-0.0065855836 0.06520885 -0.032908127 0.009929904 0.023093475 0.01290735 -0.12594022 0.09471217
0.0044553922 -0.05743888 0.0016452329 -0.0059907855 0.13283609 0.17906405 -0.15331188 -0.018550625
-0.110288054 0.016835397 -0.13020127 0.098957084 -0.112482674 -0.032558177 0.057859067 0.03125411
-0.022608984 0.023180047 0.06182983 -0.069700785 0.0651001 0.072310135 0.11357334 -0.009556988
0.0079633985 0.023056133 -0.061899576 0.042060636 -0.09161182 0.0631379 0.07669318 0.036031112
-0.074689485 0.14250664 -0.054414682 -0.03485804 0.16327712 0.06596965 -0.017131906 -0.021432173
-0.045591272 -0.052133672 0.038166188 -0.0033355355 -0.08725517 0.0034046758 -0.11049192 0.009957043
0.033026464 0.007461512 -0.04620063 0.1241659 -0.00058010453 -0.060065266 0.16337807 0.051038437
0.010044461 0.06738143 0.05010039 0.0019211832 0.09097602 -0.14319554 0.06659942 -0.075012885
-0.02547017 0.01186347 -0.105237536 -0.06830169 -0.030452602 0.014527889 -0.08360658 0.02910677
-0.1005691 0.109990664 0.11012783 0.057871852 0.005028709 0.052356288 0.058729973 -0.122123346
0.07178347 -0.030294854 0.09436352 0.06792112 0.01002991 -0.029141607 0.07443374 -0.06645413
0.11725581 -0.05685182 0.06149392 -0.016896162 0.046693236 -0.065121375 0.14302117 -0.026221262
0.05359945 -0.11341662 -0.06987666 -0.016692542 0.05440154 0.10637502 0.055515043 0.064045615
0.030922394 0.112215675 -0.12085035 -0.13748495 -0.050638445 0.00416702 -0.030883718 0.0638308
-0.10422645 -0.08253782 0.021776346 0.09587978 -0.017794596 0.061912205 -0.05472574 0.13137342
-0.09573081 0.09465993 -0.03404616 -0.025360523 0.0068942285 0.0037085214 -0.0949323 0.048062574
-0.0005699094 0.0259045 -0.024508957 -0.0061943866 -0.008415279 0.13195342 0.048429314 0.036308575
00000000: 7c9e dd3d db1a 52bb 40d9 c23c a205 ddbd
00000010: 9b91 fd3b e31a a6bc dfd7 ac3d ca20 b1bd
00000020: 2963 1bbb 7818 723d 1e17 8e3d 58e8 babd
00000030: ac06 6cbc 4f4e 5fbd ce72 d43b 5aaf ba3d
00000040: b2b6 0c3e 6233 563d 27f0 8dbc 8726 903c
00000050: 18a9 37bd 2d31 83bd 0b29 9fbc 1f92 6cbd
00000060: 36d1 c03d ad9a d2bc cc29 5dbd b256 65bc
00000070: d0ac 07bd 2f46 433d 3e6b a03d 12ca 833c
00000080: 2a99 803d a854 02bc 6ff3 533d 5f16 93bd
00000090: c01f 933a 971d 503c 92ba e03c 0459 153d
000000a0: 5f79 10bd a865 a0bc 5316 233d ebbf 393d
000000b0: 41de 07bd 2715 15bd b6ad 47bd 2663 1b3c
000000c0: f99a e7bd 8c8d f5bd 1140 20be 8803 bbbd
000000d0: ce53 1ebd 98ad ac3d 98fd 81bc ff39 e9ba
000000e0: bf77 57bd 4ad9 47bd 2af4 623d 3361 bdbc
000000f0: b999 50bc 62b3 3abd fc24 5a3d 2214 cabc
00000100: 4231 87bd 7308 f6bb 24f1 b13d 173d 57bd
00000110: d91e 8e3c 21a8 4c3d 11d0 64bd f1b3 78bd
00000120: b24e 32bd 97a2 12bd 2968 d23c 2b9c 6abc
00000130: b618 7ebd db52 85bb e1b8 d33b 73b5 863c
00000140: 1db1 ea3c c7cf 4e3d be30 84bd 0ff7 88bd
00000150: 4322 a2bc b097 c0bd 1505 04bd 7a33 52bd
00000160: 9155 ab3c 931d 13bd 5d7b 873d f977 abbd
00000170: 3a5a 8a3d 0c20 30bc 9c7a bc3d c97a 553d
00000180: 615a a33d 1fca 783d 2bec fc3c 00c3 873c
00000190: 5b61 203e a632 ddbd ece3 34bd 6a51 ef3d
000001a0: 01c4 e6bd ac99 ca3d 181f 183e 205a c1bd
000001b0: 651d 543c fe6a 8bbd 143c 34bd 1681 1e3d
000001c0: e1cb d7bb 388c 853d acca 06bd 09b1 223c
000001d0: 872e bd3c 5a79 533c 79f6 00be 74f8 c13d
000001e0: 8afe 913b 0845 6bbd dba4 d73a 5a4e c4bb
000001f0: 2f06 083e 915c 373e cafd 1cbe 7bf7 97bc
00000200: b4de e1bd 63ea 893c 7b53 05be 03aa ca3d
00000210: 515d e6bd b95b 05bd a1fd 6c3d 4f04 003d
00000220: 7a36 b9bc 15e4 bd3c 4741 7d3d 49bf 8ebd
00000230: 3453 853d 5617 943d 2499 e83d ea94 1cbc
00000240: ea78 023c 37e0 bc3c 698a 7dbd c647 2c3d
00000250: fa9e bbbd 714e 813d 5011 9d3d 5c95 133d
00000260: cdf6 98bd 43ed 113e eee1 5ebd 4ec7 0ebd
00000270: 1e32 273e 191b 873d 3658 8cbc 8692 afbc
00000280: eabd 3abd 1e8a 55bd 2654 1c3d 0099 5abb
00000290: d7b2 b2bd fb20 5f3b 9649 e2bd de22 233c
000002a0: c246 073d b37f f43b df3c 3dbd b14a fe3d
000002b0: 2812 18ba ff06 76bd 954c 273e ae0d 513d
000002c0: 8691 243c 46ff 893d 1136 4d3d 36d0 fb3a
000002d0: a351 ba3d daa1 12be 4765 883d 5ba0 99bd
000002e0: d1a6 d0bc 005f 423c c786 d7bd c2e1 8bbd
000002f0: bc77 f9bc 6206 6e3c ed39 abbd 5271 ee3c
00000300: 2cf7 cdbd c942 e13d b38a e13d 090b 6d3d
00000310: dec7 a43b 8c73 563d d78e 703d ce1b fabd
00000320: 3603 933d ea2c f8bc a941 c13d 3a1a 8b3d
00000330: 7e54 243c 61ba eebc b770 983d 1a19 88bd
00000340: d023 f03d 74dd 68bd 0ce1 7b3d d269 8abc
00000350: 6841 3f3d 5b5e 85bd 2474 123e f9cd d6bc
00000360: 198b 5b3d f946 e8bd 7f1b 8fbd ccbe 88bc
00000370: 26d4 5e3d 26db d93d be63 633d 592a 833d
00000380: f650 fd3c 55d1 e53d 6380 f7bd dbc8 0cbe
00000390: 426a 4fbd 7f8b 883b daff fcbc b9b9 823d
000003a0: ad74 d5bd 9709 a9bd 4f64 b23c 9e5c c43d
000003b0: f9c5 91bc a797 7d3d 1928 60bd c186 063e
000003c0: 840e c4bd 11dd c13d fc73 0bbd dfc0 cfbc
000003d0: fbe8 e13b aa0a 733b de6b c2bd 43dd 443d
000003e0: f965 15ba ad35 d43c 02c7 c8bc 48fa cabb
000003f0: 3de0 09bc cc1e 073e d15d 463d 4db8 143d

net.0.bias_ih_l0 f4 [300]
-0.083621204 0.054462716 0.0061402824 -0.0059780823 0.03951251 0.024582637 0.035836678 0.027329722
-0.044928662 0.014750862 0.038934223 -0.11348907 0.056325447 0.011538607 -0.0007504464 -0.09161069
0.070312165 0.040142827 -0.0054152873 -0.043579556 -0.08757477 -0.065621115 0.060703773 -0.043275677
-0.13199368 0.054336067 0.021885637 -0.035833895 0.08625323 -0.11512109 0.024170103 0.06324551
-0.06930021 -0.073836714 0.047994543 -0.09464272 0.008300996 0.1096037 0.017467085 0.00031337072
0.106397614 0.09518382 -0.0423796 -0.05870708 0.03256017 -0.11226067 -0.07411512 0.06532404
-0.076558344 0.07288425 -0.04956137 0.08235561 0.010108099 0.04152408 -0.00079843705 0.012906776
-0.088903815 -0.022067009 -0.00070072635 -0.004133219 0.09368006 -0.07759743 -0.07929943 0.06846516
0.006394792 -0.012458182 -0.028506225 -0.00078541896 -0.042683687 0.0733583 -0.021362856 0.0044375043
0.031980354 0.006084724 0.0084235575 0.0535049 0.048853364 -0.021038124 -0.05337429 -0.07860734
-0.10330109 0.0044820355 -0.02700663 -0.055590857 -0.06464701 0.005373687 -0.045289222 0.072593674
0.047809184 -0.051986087 -0.10145586 0.06853199 0.090561844 -0.0249546 -0.015515818 -0.011609983
-0.021690877 0.060120363 0.05305621 -0.048628952 -0.34342507 -0.20201896 -0.37811446 0.09003107
-0.13288218 0.22069639 -0.13295437 -0.0038354534 -0.14176346 -0.19260098 0.20346856 -0.13718663
0.22751606 -0.22191763 -0.22498165 -0.257645 -0.34382448 0.15139729 -0.20745984 -0.13601975
-0.21722198 0.11077537 0.008672412 -0.17484157 -0.16039446 -0.2640353 0.047918662 -0.31861404
0.014575604 -0.27490512 0.06794514 -0.2822975 -0.069480926 0.23191105 -0.16760741 -0.16690174
-0.22608957 -0.17903104 0.0023960976 -0.04996482 -0.24882059 -0.28786063 -0.2331502 0.10436751
-0.3968884 -0.062825136 -0.22233482 0.031052694 -0.019939497 -0.30244207 -0.19404656 -0.26213834
-0.087889776 -0.09155079 0.0012515263 0.23041224 -0.1602078 -0.11190011 -0.17731531 -0.09140061
-0.02834213 -0.056231514 -0.013457157 -0.20100611 -0.2607211 -0.39851204 0.0031072053 0.13753137
-0.13321367 0.048283473 -0.040422786 -0.19131576 -0.17120351 -0.15528941 -0.25860468 0.007465092
-0.023012605 -0.1930052 -0.10392701 -0.30002546 0.27089348 -0.20141631 -0.1957318 -0.17790417
-0.12915652 -0.016069882 0.15464765 -0.074547276 -0.20991081 0.11917729 0.007625417 -0.12769149
0.018584305 -0.23996592 -0.25454572 -0.29827195 -0.24945502 -0.31477767 -0.1779801 0.039571114
0.089538425 -0.108932264 0.030497693 0.008278784 -0.08596698 0.06170757 0.062378157 -0.026226852
0.012332146 0.013357461 0.010882356 0.033814497 0.013682177 0.049810443 0.09384123 0.057962883
0.07207856 0.008742021 -0.06422664 0.08410062 -0.047047213 -0.075973205 -0.060775016 -0.05994093
0.08266385 -0.0053309505 -0.0382776 -0.047228303 0.0023008315 -0.06720162 0.020748707 0.099319294
0.001052904 0.036700666 0.07480626 0.016339643 -0.025824796 0.021019049 0.06994476 0.028513504
0.01663845 0.042187177 0.028053705 0.038983997 -0.0336075 0.06214288 0.0094424505 0.023149362
-0.010357171 -0.02763896 -0.060938053 0.031416602 -0.06734647 0.09370433 0.028447324 -0.05274538
00000000: 9841 abbd 4c14 5f3d 6c34 c93b cae3 c3bb
00000010: dfd7 213d 8761 c93c 7bc9 123d 95e2 df3c
00000020: 1e07 38bd 99ad 713c 7e79 1f3d f56c e8bd
00000030: 83b5 663d 6d0c 3d3c 9bb9 44ba 639e bbbd
00000040: d3ff 8f3d ce6c 243d b972 b1bb 7a80 32bd
00000050: 675a b3bd 5d64 86bd 85a4 783d d641 31bd
00000060: 5a29 07be 7f8f 5e3d 8249 b33c 90c6 12bd
00000070: 89a5 b03d 9bc4 ebbd 6100 c63c dd86 813d
00000080: 45ed 8dbd b437 97bd ed95 443d 0bd4 c1bd
00000090: e700 083c e877 e03d 2217 8f3c e84b a439
000000a0: fee6 d93d bcef c23d 3b96 2dbd d676 70bd
000000b0: d05d 053d ece8 e5bd abc9 97bd 9cc8 853d
000000c0: 9fca 9cbd 5644 953d dd00 4bbd 0faa a83d
000000d0: 719c 253c 2715 2a3d 344e 51ba f176 533c
000000e0: 3413 b6bd dfc5 b4bc f3b0 37ba f46f 87bb
000000f0: 55db bf3d 67eb 9ebd bd67 a2bd 7637 8c3d
00000100: 678b d13b 671d 4cbc e385 e9bc 93e4 4dba
00000110: 17d5 2ebd e03c 963d 2801 afbc 7c68 913b
00000120: d5fd 023d 5d62 c73b f602 0a3c f427 5b3d
00000130: 771a 483d 2558 acbc 009f 5abd e3fc a0bd
00000140: 868f d3bd 0ade 923b 023d ddbc 3db3 63bd
00000150: a765 84bd c115 b03b 3181 39bd feab 943d
00000160: 90d3 433d 5def 54bd 17c8 cfbd 805a 8c3d
00000170: 7d78 b93d 976d ccbc 0f36 7ebc cc37 3ebc
00000180: 11b1 b1bc c540 763d 7851 593d 272f 47bd
00000190: 69d5 afbe 0fde 4ebe 3898 c1be 3662 b83d
000001a0: 4412 08be 3cfe 613e 3125 08be 3b5c 7bbb
000001b0: 712a 11be 3139 45be 105a 503e a77a 0cbe
000001c0: f8f9 683e 603e 63be 9761 66be 0cea 83be
000001d0: c309 b0be e407 1b3e 5a70 54be c348 0bbe
000001e0: 706f 5ebe 32de e23d bb16 0e3c ab09 33be
000001f0: 723e 24be a32f 87be 5c46 443d 6121 a3be
00000200: 84ce 6e3c 5dc0 8cbe d226 8b3d 4c89 90be
00000210: 044c 8ebd 177a 6d3e 47a1 2bbe 4ae8 2abe
00000220: 0684 67be ea53 37be d907 1d3b e9a7 4cbd
00000230: d3ca 7ebe 7862 93be edbe 6ebe a2be d53d
00000240: f534 cbbe 77aa 80bd bdab 63be 3862 fe3c
00000250: 2858 a3bc b0d9 9abe 24b4 46be ff36 86be
00000260: 8eff b3bd fb7e bbbd 410a a43a 30f1 6b3e
00000270: 830d 24be e32b e5bd 2592 35be 3e30 bbbd
00000280: c12d e8bc 0453 66bd 687b 5cbc 8cd4 4dbe
00000290: 3c7d 85be c509 ccbe 41a2 4b3b 06d5 0c3e
000002a0: 2a69 08be e4c4 453d 5d92 25bd 47e8 43be
000002b0: f94f 2fbe 3004 1fbe d567 84be bb9d f43b
000002c0: ee84 bcbc 28a3 45be afd7 d4bd f09c 99be
000002d0: 8db2 8a3e 1440 4ebe eb6d 48be 832c 36be
000002e0: 9b41 04be fca4 83bc f45b 1e3e 3eac 98bd
000002f0: dcf2 56be 3913 f43d a2de f93b 8fc1 02be
00000300: 1d3e 983c a0b9 75be d153 82be 1ab7 98be
00000310: 2371 7fbe 8a2a a1be 6a40 36be 5215 223d
00000320: ec5f b73d e117 dfbd 4cd6 f93c bda3 073c
00000330: 750f b0bd 14c1 7c3d 3d80 7f3d b2d9 d6bc
00000340: c50c 4a3c 41d9 5a3c e94b 323c 1281 0a3d
00000350: 362b 603c 0906 4c3d d52f c03d 7d6a 6d3d
00000360: ed9d 933d b23a 0f3c 4289 83bd f23c ac3d
00000370: 94b4 40bd d797 9bbd 39ef 78bd 9f84 75bd
00000380: aa4b a93d 41af aebb f9c8 1cbd 7772 41bd
00000390: 8cc9 163b 01a1 89bd 31f9 a93c ea67 cb3d
000003a0: 9801 8a3a 7053 163d 0634 993d b7da 853c
000003b0: 868e d3bc 2430 ac3c 333f 8f3d 2795 e93c
000003c0: 5c4d 883c 76cc 2c3d e2d0 e53c afad 1f3d
000003d0: 05a8 09bd 8889 7e3d 82b4 1a3c bba3 bd3c
000003e0: 20b1 29bc 1a6b e2bc 2e9a 79bd b2ae 003d
000003f0: f2ec 89bd 0ee8 bf3d 5d0a e93c 8a0b 58bd

net.0.bias_hh_l0 f4 [300]
-0.0053084963 0.077888116 0.05295961 0.00058804534 0.10254335 0.040366817 0.07321672 -0.039399896
-0.05594319 -0.085681126 0.0463535 -0.15173756 -0.09569457 0.092919424 0.08170308 -0.098333605
-0.07289147 0.051935114 0.04059998 -0.09617067 -0.09321585 -0.04045901 0.023217332 -0.036924936
0.016962841 0.10491837 0.09907383 0.07776503 0.04987295 -0.13233592 -0.08689781 0.022704456
0.06324411 -0.021542901 -0.05342124 -0.00153702 0.059762638 0.07338111 -0.0768489 -0.078665845
0.08864263 0.090781234 -0.036159217 -0.0023075545 -0.022442872 -0.009547384 -0.0750262 -0.089839004
0.09264425 -0.052673593 -0.086128294 0.10199341 -0.039138306 -0.05777219 -0.054274544 -0.0500191
0.06686885 0.006380444 -0.0024495667 -0.021421745 -0.09097464 0.022177393 -0.023782024 0.055193562
-0.050577242 -0.06636635 -0.08724811 0.07989632 0.070632264 -0.023024421 -0.08420727 0.038618423
0.074478805 -0.05159614 0.019871833 -0.0023801592 0.03652311 -0.07511769 0.027665319 0.05010795
0.016180234 0.014256936 -0.05748976 0.0534666 -0.10792352 -0.041185454 -0.0041893013 -0.102311514
-0.029011244 -0.12245732 0.04472733 0.061941568 -0.09362176 -0.020974228 0.10174719 -0.015473773
-0.034113616 -0.046679456 0.07582604 -0.11376795 -0.30550605 -0.29556745 -0.20466667 0.05043831
-0.1398861 0.2053812 -0.10062834 -0.092920244 -0.28948537 -0.050594714 0.04678982 -0.12309001
0.2433962 -0.16375755 -0.25895837 -0.20827183 -0.20034616 0.029304424 -0.18716076 -0.09031037
-0.132331 0.042666484 -0.0026463645 -0.3225719 -0.16916798 -0.33113766 -0.006022198 -0.21878684
0.11647673 -0.20798136 0.031312183 -0.33575088 -0.015057017 0.06391451 -0.16958867 -0.27114174
-0.25496387 -0.17406297 -0.03318849 -0.061564047 -0.32014874 -0.2218727 -0.19585212 0.17172663
-0.25686222 -0.036237005 -0.13794021 0.1710787 -0.04117082 -0.25231087 -0.19138457 -0.22983587
0.026226733 -0.23196737 0.02496499 0.1324252 -0.24959636 -0.21956812 -0.20358287 -0.051380996
-0.15812512 0.013901446 -0.002175144 -0.3217535 -0.3428658 -0.39008066 0.030294549 0.062119104
-0.11999222 0.018054696 -0.20502992 -0.26276454 -0.16649579 -0.14507736 -0.29286984 -0.13330762
-0.05560791 -0.3026976 -0.14210786 -0.20521764 0.1364033 -0.093340114 -0.09320015 -0.17910357
-0.20416902 0.09119978 0.08545078 0.0043203146 -0.31834355 0.08706631 0.022999236 0.021591257
-0.09312494 -0.19421196 -0.22333938 -0.26099873 -0.24298117 -0.133471 -0.265316 0.13911627
0.08385397 0.057917845 -0.053431712 0.05703173 0.00030743476 -0.044448897 0.05753373 0.05666511
0.057503838 -0.10050605 -0.08864351 0.017180506 -0.07484087 -0.038993962 -0.03074633 -0.07327018
-0.057660997 -0.018153144 0.022149373 -0.101308666 -0.048390698 0.027036903 -0.0792759 0.06474138
0.039255973 -0.02427102 0.014925067 0.0028003145 -0.04167411 -0.013737629 -0.09953552 0.01004768
0.001080492 0.005112701 0.08471872 -0.04451091 0.08333005 -0.12902355 -0.07463733 -0.02139951
-0.0624439 0.008145145 0.015212725 0.010192571 0.08828562 0.01575249 0.022624701 -0.039618824
-0.088912554 -0.025969105 -0.05815666 -0.053445306 0.023424687 -0.028259251 -0.014919008 0.054951824
00000000: e5f2 adbb ce83 9f3d 2dec 583d 0e27 1a3a
00000010: 3f02 d23d ad57 253d a6f2 953d c961 21bd
00000020: b024 65bd 9679 afbd 2bdd 3d3d 1761 1bbe
00000030: 84fb c3bd 8a4c be3d f253 a73d 2163 c9bd
00000040: 1f48 95bd eab9 543d 2a4c 263d 21f5 c4bd
00000050: f4e7 bebd 59b8 25bd 4632 be3c 9a3e 17bd
00000060: a8f5 8a3c 71df d63d 38e7 ca3d 4643 9f3d
00000070: 9447 4c3d 1183 07be 7bf7 b1bd b2fe b93c
00000080: 2186 813d bd7a b0bc 3bd0 5abd d575 c9ba
00000090: abc9 743d d648 963d f562 9dbd 8f1b a1bd
000000a0: 448a b53d 83eb b93d b01b 14bd 573a 17bb
000000b0: 1dda b7bc a26c 1cbc 56a7 99bd 83fd b7bd
000000c0: 45bc bd3d 44c0 57bd 0864 b0bd ece1 d03d
000000d0: 7d4f 20bd 88a2 6cbd fc4e 5ebd d4e0 4cbd
000000e0: 89f2 883d 0b13 d13b e988 20bb a87c afbc
000000f0: e950 babd 5dad b53c 85d2 c2bc a512 623d
00000100: 152a 4fbd 15eb 87bd 23af b2bd afa0 a33d
00000110: a6a7 903d b69d bcbc dc74 acbd 5a2e 1e3d
00000120: 5888 983d 7956 53bd 41ca a23c 72fc 1bbb
00000130: 4299 153d 4ed7 99bd 61a2 e23c fe3d 4d3d
00000140: 698c 843c ec95 693c 627a 6bbd cbff 5a3d
00000150: 0207 ddbd 14b2 28bd 6846 89bb b388 d1bd
00000160: fda8 edbc e7ca fabd 0134 373d 71b6 7d3d
00000170: c4bc bfbd 25d2 abbc d560 d03d b585 7dbc
00000180: b8ba 0bbd f532 3fbd af4a 9b3d 2cff e8bd
00000190: 4a6b 9cbe 9e54 97be 2494 51be 6798 4e3d
000001a0: 4d3e 0fbe 734f 523e 3b16 cebd f84c bebd
000001b0: 6d37 94be 673c 4fbd afa6 3f3d 9d16 fcbd
000001c0: da3c 793e 0fb0 27be 3196 84be 3645 55be
000001d0: 8b27 4dbe d50f f03c 12a7 3fbe a5f4 b8bd
000001e0: c781 07be 0dc3 2e3d a16e 2dbb 2528 a5be
000001f0: 5f3a 2dbe e08a a9be dc55 c5bb a809 60be
00000200: 5a8b ee3d 11f9 54be 3441 003d 8ae7 abbe
00000210: b5b1 76bc 9ce5 823d a7a8 2dbe 17d3 8abe
00000220: a08a 82be 903d 32be a7f0 07bd 952a 7cbd
00000230: 89ea a3be 9932 63be 758d 48be 1bd9 2f3e
00000240: 7283 83be 416d 14bd 3340 0dbe 412f 2f3e
00000250: bca2 28bd e42e 81be 51fa 43be 185a 6bbe
00000260: 72d9 d63c db88 6dbe 6183 cc3c 799a 073e
00000270: 3096 7fbe 77d6 60be 0778 50be e174 52bd
00000280: 8deb 21be e4c2 633c dc8c 0ebb e0bc a4be
00000290: 1b8c afbe a7b8 c7be 462c f83c 9a70 7e3d
000002a0: 7bbe f5bd 71e7 933c 5df3 51be 1389 86be
000002b0: df7d 2abe 298f 14be 09f3 95be cb81 08be
000002c0: 1fc5 63bd 2efb 9abe b984 11be 9324 52be
000002d0: 4fad 0b3e 1a29 bfbd b8df bebd ed66 37be
000002e0: af11 51be f3c6 ba3d d200 af3d 6d91 8d3b
000002f0: edfd a2be d24f b23d e568 bc3c 26e0 b03c
00000300: 4ab8 bebd 80df 46be 14b3 64be a0a1 85be
00000310: 0ed0 78be 9fac 08be 80d7 87be 7f74 0e3e
00000320: a1bb ab3d 433b 6d3d 36db 5abd 1a9a 693d
00000330: 322f a139 0c10 36bd 7da8 6b3d ad19 683d
00000340: 2589 6b3d 1ed6 cdbd bb8a b5bd 22be 8c3c
00000350: 2c46 99bd 22b8 1fbd badf fbbc ad0e 96bd
00000360: f02d 6cbd e7b5 94bc 9a72 b53c eb7a cfbd
00000370: 5335 46bd 7f7c dd3c 675b a2bd 2197 843d
00000380: dfca 203d 05d4 c6bc 4588 743c 7b85 373b
00000390: 79b2 2abd cb13 61bc 47d9 cbbd 069f 243c
000003a0: 4c9f 8d3a 7288 a73b 0281 ad3d 1251 36bd
000003b0: f2a8 aa3d c01e 04be 75db 98bd 064e afbc
000003c0: 2dc5 7fbd 3773 053c cb3e 793c befe 263c
000003d0: 17cf b43d 5e0b 813c 7057 b93c 5947 22bd
000003e0: c917 b6bd 29bd d4bc ae35 6ebd 77e9 5abd
000003f0: 21e5 bf3c f27f e7bc db6e 74bc 2a15 613d

net.0.weight_ih_l1 f4 [300, 100]
-0.051817853 0.0068574846 0.103408635 -0.07636175 -0.1064754 -0.051105276 -0.07622294 -0.029408546
-0.031635568 -0.014210028 -0.011312331 0.0017122165 0.035209052 -0.105799854 -0.04372821 -0.019383516
0.11793688 -0.07848094 -0.09980921 0.06640992 -0.007434607 -0.04124101 0.037033517 0.01908524
0.11827803 0.0922105 0.039891418 0.02241955 -0.07677013 0.008513332 0.0023816358 -0.024151064
-0.06904242 -0.105214976 -0.02126873 0.09184236 0.14597252 -0.08956095 0.0974813 0.035055853
-0.053393595 0.09844942 -0.022709357 0.07131867 0.062991396 -0.06432138 -0.13197978 -0.04423735
0.0055392287 -0.04397431 0.023806578 -0.13636705 0.02875755 -0.028556123 -0.09297459 0.079833224
-0.07657674 -0.03688294 0.08238153 0.071915045 -0.0050973 -0.09380263 0.05398654 0.029295204
-0.035681825 0.014764355 -0.057601992 0.039774276 0.06761921 0.12744337 -0.063671954 -0.013588045
-0.11399373 0.08250079 0.06738236 0.072611436 -0.0040832087 -0.033097744 0.02612087 -0.10410103
-0.0135189695 -0.04176561 -0.067645274 -0.09642471 0.083295144 0.03790504 -0.016117018 -0.034288682
0.0044886023 -0.12493586 -0.02511543 0.116164744 0.042187385 -0.06560988 0.04232624 0.030947024
0.13436161 0.06296745 -0.040548813 -0.040588904 0.01120112 0.014265595 -0.123024985 0.062035035
-0.021301424 -0.056646664 -0.02950133 0.06896127 -0.16163208 -0.031394526 -0.079240434 -0.053508062
-0.078679405 -0.03200005 -0.05212401 -0.012251459 -0.012288722 -0.013658445 0.10163312 -0.069723174
-0.045039073 -0.042164855 -0.08549459 0.09665636 -0.013392411 -0.12328992 0.0027368558 0.0972999
0.078532994 -0.028817948 -0.024624351 0.016627336 0.05375328 0.08429176 -0.14755917 -0.10063587
0.004271544 -0.044474192 -0.03211079 -0.09428703 -0.009826109 0.036826264 -0.050389808 -0.06183834
-0.017110169 -0.034592655 -0.04604974 -0.00580315 -0.059696242 0.06813945 0.025322814 0.114867
0.02309235 -0.10900701 -0.034036588 0.02498694 -0.10732571 -0.03596547 -0.0026520665 0.0038327803
0.103793554 0.10572137 -0.0070318608 -0.027670924 0.06324457 -0.07631893 0.005001009 0.054460023
0.022264441 0.061640933 -0.050452247 0.075976074 -0.070259914 0.07427895 0.01054975 -0.021960963
-0.055996243 -0.07105986 0.045727383 0.12220713 0.1048847 0.054009773 -0.006158779 0.015653571
0.032643266 -0.09832907 -0.07145043 -0.03263236 0.0978864 0.04629544 -0.0010680822 0.030224742
-0.07383783 0.06903041 -0.0884078 -0.028150916 -0.041911107 -0.017908858 0.029056022 0.05797154
-0.09200624 -0.024690257 -0.069553494 -0.08521184 -0.02356836 0.031064728 0.0064641447 -0.06684999
-0.022542683 0.0066832774 0.07061873 -0.02331978 0.05731018 -0.028751517 -0.027856087 0.04402551
0.035606287 -0.012900739 0.112019695 -0.11606219 -0.040218532 -0.019624377 0.044176105 0.09695841
0.06636342 -0.042862155 0.026504582 -0.053059943 0.11234836 0.014558709 0.08942168 -0.08606744
0.05167508 -0.012390194 -0.07103149 0.0009077383 0.07371585 -0.059414722 -0.10437435 0.026997708
0.06270905 0.06280435 0.07398097 -0.029901078 0.081648625 0.045919336 -0.024692008 -0.012696697
-0.011443462 -0.027261488 0.019940035 0.01581746 0.053924613 -0.01941354 -0.06792123 -0.00029492372
00000000: f53e 54bd c0b4 e03b e8c7 d33d 8d63 9cbd
00000010: c60f dabd c453 51bd c61a 9cbd 31ea f0bc
00000020: 4c94 01bd 2dd1 68bc 5b57 39bc 746c e03a
00000030: 5e37 103d 98ad d8bd 5a1c 33bd 2eca 9ebc
00000040: e488 f13d 9dba a0bd c568 ccbd ed01 883d
00000050: 019e f3bb 55ec 28bd 75b0 173d a658 9c3c
00000060: c03b f23d dcd8 bc3d 2f65 233d 34a9 b73c
00000070: a839 9dbd 817b 0b3c 3815 1c3b 74d8 c5bc
00000080: 1d66 8dbd f37a d7bd c23b aebc d917 bc3d
00000090: d279 153e bb6b b7bd 47a4 c73d ba96 0f3d
000000a0: 3eb3 5abd d99f c93d f908 babc 860f 923d
000000b0: a201 813d edba 83bd b525 07be 3932 35bd
000000c0: 6b82 b53b 681e 34bd 0306 c33c cea3 0bbe
000000d0: f494 eb3c 88ee e9bc 7669 bebd 9a7f a33d
000000e0: 44d4 9cbd 9112 17bd a6b7 a83d 3248 933d
000000f0: 4007 a7bb 981b c0bd fd20 5d3d 7ffc ef3c
00000100: 1b27 12bd 31e6 713c 11f0 6bbd 5aea 223d
00000110: f17b 8a3d 8480 023e 7166 82bd 64a0 5ebc
00000120: 8b75 e9bd 2df6 a83d c3ff 893d 4eb5 943d
00000130: 70cc 85bb 8091 07bd 6ffb d53c ec32 d5bd
00000140: ab7e 5dbc 6b12 2bbd 9b89 8abd 517a c5bd
00000150: a596 aa3d 5142 1b3d d607 84bc 4a72 0cbd
00000160: 2015 933b 5fde ffbd e0be cdbc c8e7 ed3d
00000170: aecc 2c3d 795e 86bd 485e 2d3d 9d84 fd3c
00000180: 1796 093e 14f5 803d 8316 26bd 8d40 26bd
00000190: e784 373c 3eba 693c 86f4 fbbd 7318 7e3d
000001a0: 5380 aebc 5506 68bd c6ac f1bc 913b 8d3d
000001b0: e182 25be 8c97 00bd cf48 a2bd 452b 5bbd
000001c0: ab22 a1bd 7c12 03bd fc7f 55bd 58ba 48bc
000001d0: a356 49bc acc7 5fbc 0625 d03d 06cb 8ebd
000001e0: e47a 38bd 0eb5 2cbd ca17 afbd c5f3 c53d
000001f0: d86b 5bbc 6d7f fcbd d25c 333b 2c45 c73d
00000200: e8d5 a03d 9e13 ecbc 02b9 c9bc 0d36 883c
00000210: 662c 5c3d 29a1 ac3d c019 17be 2e1a cebd
00000220: 4ff8 8b3b 922a 36bd 9b86 03bd 8f19 c1bd
00000230: b0fd 20bc 23d7 163d 8b65 4ebd 334a 7dbd
00000240: a02a 8cbc 07b1 0dbd a79e 3cbd 5a28 bebb
00000250: 0c84 74bd b28c 8b3d ca71 cf3c 643f eb3d
00000260: 2b2c bd3c 113f dfbd f369 0bbd 69b1 cc3c
00000270: 95cd dbbd 8750 13bd 4bce 2dbb 622f 7b3b
00000280: b791 d43d 7284 d83d 866b e6bb 22ae e2bc
00000290: 5e86 813d 194d 9cbd 81df a33b 7911 5f3d
000002a0: eb63 b63c 347b 7c3d 04a7 4ebd 5899 9b3d
000002b0: 6ee4 8fbd 901f 983d dcd8 2c3c 7ae7 b3bc
000002c0: 515c 65bd d587 91bd a34c 3b3d bb47 fa3d
000002d0: cacd d63d 5a39 5d3d 95cf c9bb eb3b 803c
000002e0: f2b4 053d c060 c9bd 9a54 92bd 82a9 05bd
000002f0: aa78 c83d 4aa0 3d3d e4fe 8bba e199 f73c
00000300: 4a38 97bd d15f 8d3d 260f b5bd c09c e6bc
00000310: fbaa 2bbd 99b5 92bc e506 ee3c 9173 6d3d
00000320: c46d bcbd 3943 cabc 1072 8ebd 8c83 aebd
00000330: 6f12 c1bc 757b fe3c 2dd1 d33b a6e8 88bd
00000340: 6fab b8bc 65ff da3b 8da0 903d 2009 bfbc
00000350: 14be 6a3d 4d88 ebbc 7332 e4bc 1854 343d
00000360: e6d7 113d 9f5d 53bc 956a e53d 03b2 edbd
00000370: 30bc 24bd 4dc3 a0bc 01f2 343d 2292 c63d
00000380: 8be9 873d 3a90 2fbd 2320 d93c 6255 59bd
00000390: e616 e63d a787 6e3c b722 b73d 2044 b0bd
000003a0: 40a9 533d 3e00 4bbc f578 91bd 49f5 6d3a
000003b0: 56f8 963d da5c 73bd 38c2 d5bd 4c2a dd3c
000003c0: 9a6d 803d 919f 803d 5683 973d 1bf3 f4bc
000003d0: 6537 a73d ea15 3c3d e546 cabc cf05 50bc
000003e0: 5c7d 3bbc 7c53 dfbc 4959 a33c 9e93 813c
000003f0: 0ee0 5c3d 2509 9fbc 491a 8bbd fe9f 9ab9

net.0.weight_hh_l1 f4 [300, 100]
0.116342455 -0.07184532 -0.077091046 -0.02467578 0.028909288 -0.06784107 -0.06073927 0.049810916
-0.016197966 -0.047593206 -0.07451073 -0.084863804 0.11425477 0.0405694 0.0392651 -0.06863409
-0.06767079 -0.09104626 -0.027785232 -0.01130584 -0.08123588 0.11913946 0.048157793 0.06833335
-0.08145245 0.07026249 0.022651277 0.02588188 -0.0050666346 0.012141121 0.08747229 -0.049608517
-0.067951 -0.025646515 -0.09742043 0.064611115 0.028355952 0.031534363 -0.084378496 -0.03455924
-0.08759253 0.0587584 0.084104694 0.047952343 0.03312443 -0.018358191 0.05105514 0.030155707
0.03235244 0.05875257 0.04401798 -0.012957753 0.04142998 -0.04095405 0.005273148 0.026477871
0.00023047352 -0.07863429 -0.03564923 -0.134464 0.07602996 0.10565798 0.026306795 0.053357888
-0.0679393 -0.06877211 0.0700763 -0.03881227 -0.032329608 -0.07524176 0.056727093 0.045674264
-0.0934682 0.039518993 -0.047228962 -0.088781886 0.042013895 -0.03356792 0.0029407742 0.04822083
0.011305713 -0.057988536 -0.028330687 -0.09396405 -0.026248952 0.031938437 0.043558877 0.017406909
0.038435247 -0.07612457 0.03806958 -0.09237506 -0.02261209 -0.018649211 0.03570794 0.016333612
0.009742848 -0.02412971 0.042631023 0.029660577 -0.11441432 0.0077735595 -0.043112557 0.10131381
-0.09454577 0.053816963 -0.10480081 -0.033511724 0.114460364 0.12338916 0.021450965 0.068245344
0.04115716 -0.025880072 -0.05595465 -0.08516637 0.091434814 0.03266958 -0.035056923 -0.053073544
-0.038446285 -0.1282438 -0.054941338 0.052347887 -0.015624957 0.103492185 0.012665402 -0.053560145
-0.14775808 -0.026851794 -0.07589982 0.013555769 0.03295533 0.0014490971 -0.017366176 0.14010721
0.0056116534 -0.12289115 -0.0259818 0.1233139 0.026174868 -0.1284779 -0.04373217 0.03814867
-0.0015251786 -0.055240355 -0.010188701 -0.042147078 -0.024188105 -0.038926702 0.0033531752 -0.019722518
0.15854596 -0.014411351 0.002953464 0.04275197 -0.07574351 0.090659216 -0.11391408 0.14958784
0.05455941 0.084049106 0.15036367 -0.012584747 0.003849024 0.09779514 -0.021039588 0.15305561
0.110710755 -0.0798748 -0.11553608 -0.0733067 -0.085925475 -0.0432037 0.129741 0.056187548
-0.048889004 -0.038042303 0.08444538 0.0023300606 0.023858804 0.05523507 0.00847211 -0.022138374
0.0050755627 0.009021868 0.13867298 0.048826735 -0.121483855 0.046755705 0.057083637 -0.14614496
-0.10262198 0.13512784 -0.039835338 -0.02200194 0.04866336 -0.070097536 0.031935778 -0.036222897
-0.06524695 0.09407605 0.02108338 0.016917054 0.071274556 0.06043451 -0.14218152 0.056527257
0.015181019 0.06506875 -0.05462519 0.106427014 0.043335035 -0.13299869 -0.033927444 -0.015310796
-0.10703591 -0.019455612 -0.060425244 -0.00713863 -0.047618344 -0.11571629 0.06895106 0.026601652
-0.033819947 0.084110014 0.05473388 0.049952015 -0.09785912 0.050160725 0.054137595 -0.072232686
0.04405516 -0.011366446 0.013829433 0.09511906 -0.12156989 -0.04175854 0.022313597 0.0116946325
0.045071848 -0.09701729 0.0006480422 0.032481737 0.016424235 -0.12717491 -0.05926797 -0.064277574
-0.0916811 0.014421499 -0.03209851 0.10805147 0.027803116 0.09106407 0.13415533 -0.09403356
00000000: f444 ee3d a423 93bd e9e1 9dbd dd24 cabc
00000010: 2cd3 ec3c 42f0 8abd bec9 78bd 8806 4c3d
00000020: 99b1 84bc 18f1 42bd 1599 98bd 13cd adbd
00000030: 68fe e93d 192c 263d 71d4 203d 0890 8cbd
00000040: fc96 8abd 7676 babd db9d e3bc 213c 39bc
00000050: ff5e a6bd 64ff f33d 1b41 453d 5bf2 8b3d
00000060: 8bd0 a6bd c8e5 8f3d 2c8f b93c 3d06 d43c
00000070: 0306 a6bb 8deb 463c ac24 b33d 4d32 4bbd
00000080: e529 8bbd a418 d2bc 5d84 c7bd d552 843d
00000090: be4a e83c 2d2a 013d a2ce acbd fd8d 0dbd
000000a0: b663 b3bd a6ac 703d 153f ac3d ad69 443d
000000b0: 7bad 073d eb63 96bc 321f 513d 1a09 f73c
000000c0: fe83 043d 89a6 703d 334c 343d c14c 54bc
000000d0: 7cb2 293d 6fbf 27bd 5fca ac3b 1fe8 d83c
000000e0: 44ab 7139 040b a1bd ed04 12bd eeb0 09be
000000f0: 98b5 9b3d 3663 d83d 5981 d73c cd8d 5a3d
00000100: c223 8bbd 64d8 8cbd 2a84 8f3d 9df9 1ebd
00000110: 0d6c 04bd 5a18 9abd ab5a 683d f014 3b3d
00000120: 416c bfbd abde 213d 2873 41bd 47d3 b5bd
00000130: c316 2c3d 847e 09bd 01ba 403b 3483 453d
00000140: 993b 393c 6385 6dbd c215 e8bc 3970 c0bd
00000150: 0b08 d7bc e1d1 023d cb6a 323d ef98 8e3c
00000160: 476e 1d3d 33e7 9bbd d9ee 1b3d 232f bdbd
00000170: fd3c b9bc 3bc6 98bc 7d42 123d 11ce 853c
00000180: 77a0 1f3c abab c5bc de9d 2e3d bdfa f23c
00000190: 0e52 eabd 58b9 fe3b cb96 30bd 9d7d cf3d
000001a0: 36a1 c1bd 2d6f 5c3d cfa1 d6bd 9743 09bd
000001b0: 326a ea3d 75b3 fc3d efb9 af3c 37c4 8b3d
000001c0: 6994 283d 7202 d4bc b430 65bd b56b aebd
000001d0: 2d42 bb3d 8ad0 053d d997 0fbd a563 59bd
000001e0: da79 1dbd 5852 03be 2b0a 61bd bd6a 563d
000001f0: d2ff 7fbc b6f3 d33d 8c82 4f3c e261 5bbd
00000200: e54d 17be 4bf8 dbbc 5d71 9bbd 0419 5e3c
00000210: 2bfc 063d a1ef bd3a 8343 8ebc 4478 0f3e
00000220: f6e1 b73b 5bae fbbd c9d7 d4bc ff8b fc3d
00000230: ad6c d63c b68f 03be 8120 33bd c841 1c3d
00000240: 80e8 c7ba b643 62bd 82ee 26bc 6aa2 2cbd
00000250: 2226 c6bc 9b71 1fbd f2c0 5b3b 1e91 a1bc
00000260: df59 223e 961d 6cbc e78e 413b b11c 2f3d
00000270: 6a1f 9bbd 8aab b93d c94b e9bd 8e2d 193e
00000280: b079 5f3d f021 ac3d eff8 193e 4130 4ebc
00000290: e83f 7c3b d248 c83d 375b acbc 9cba 1c3e
000002a0: 52bc e23d 6695 a3bd 2e9e ecbd d321 96bd
000002b0: b2f9 afbd 5df6 30bd d3da 043e ea24 663d
000002c0: d63f 48bd 3fd2 1bbd b3f1 ac3d eeb3 183b
000002d0: 8a73 c33c 2b3e 623d 9bce 0a3c 895b b5bc
000002e0: e850 a63b 75d0 133c 4a00 0e3e 8bfe 473d
000002f0: 87cc f8bd e982 3f3d 88d0 693d 06a7 15be
00000300: 792b d2bd f45e 0a3e 612a 23bd 6a3d b4bc
00000310: 3b53 473d 4c8f 8fbd 17cf 023d 765e 14bd
00000320: 31a0 85bd f2aa c03d 0db7 ac3c a295 8a3c
00000330: 65f8 913d 2d8a 773d 0898 11be 2089 673d
00000340: cfb9 783c c442 853d aabe 5fbd 68f6 d93d
00000350: 1480 313d cf30 08be 81f7 0abd 22da 7abc
00000360: a535 dbbd 6061 9fbc 7680 77bd 2beb e9bb
00000370: 740b 43bd aafc ecbd 3736 8d3d b5eb d93c
00000380: c986 0abd df41 ac3d a230 603d 7c9a 4c3d
00000390: 5d6a c8bd 5575 4d3d 62bf 5d3d bbee 93bd
000003a0: 2f73 343d 543a 3abc d994 623c c8cd c23d
000003b0: a2f9 f8bd 010b 2bbd 01cb b63c d89a 3f3c
000003c0: 429d 383d 00b1 c6bd 60e1 293a 920b 053d
000003d0: 1e8c 863c 243a 02be f9c2 72bd f6a3 83bd
000003e0: 4dc3 bbbd 2748 6c3c ba79 03bd 174a dd3d
000003f0: 5cc3 e33c cd7f ba3d 0460 093e ab94 c0bd

net.0.bias_ih_l1 f4 [300]
0.013982309 0.008051722 -0.0004879754 -0.0022423225 -0.08701356 0.058023248 0.0015967472 -0.086016566
-0.09570002 -0.004848256 -0.08156406 0.015945438 -0.0236541 -0.09564464 0.025960088 -0.09493203
0.042863637 -0.003928139 0.072958186 -0.074249126 -0.08364999 0.091784716 -0.130623 -0.11596108
-0.026786936 -0.09394448 -0.062431876 0.021768592 -0.02469022 -0.06969826 -0.05335223 -0.056762505
0.09587972 -0.047865916 0.046541657 -0.0076638083 0.026848454 0.05381015 -0.046854593 0.061401237
0.080814965 -0.13411663 -0.012558052 -0.037242744 -0.029637942 -0.028217487 -0.010009799 -0.03418589
-0.017505402 0.012292965 -0.03110803 -0.116957396 -0.01340963 -0.087808415 0.10028759 -0.06765087
0.10668611 0.08452135 -0.0514696 -0.10641543 0.008195857 0.106172845 -0.044128597 -0.01760685
-0.12923634 -0.045775525 0.02450353 0.0077538793 -0.0656318 -0.06212464 -0.09823061 -0.10990658
-0.12341842 0.060174942 -0.110686965 0.0017195896 -0.14868344 -0.06628025 -0.049058225 -0.07883659
-0.030742224 -0.0005655033 0.0118913045 -0.07641276 -0.0734405 -0.020492071 -0.0054827947 -0.035604306
-0.12890941 -0.028296266 -0.06742695 -0.09734349 0.060265373 -0.013774195 -0.12995948 0.09396786
-0.08372073 -0.08507721 -0.024585152 0.026123326 -0.019388672 -0.03045541 -0.08035403 -0.059803523
-0.086503655 0.18210658 -0.17987925 0.056777667 0.049777023 -0.0053774416 0.07700771 0.07622659
0.06378763 0.004260301 0.12451836 0.08214439 -0.051145922 -0.00551159 -0.1131308 -0.08128803
-0.11539352 -0.075234465 0.16216907 0.08637523 0.24828035 0.0376898 -0.04685911 -0.13356814
0.13513929 -0.0067642 -0.010650759 -0.013378045 -0.021020623 -0.0075890156 0.07116231 -0.005463815
-0.02626957 -0.12317566 -0.04720774 -0.007899278 -0.049545854 0.03540003 -0.101889335 -0.021203808
-0.0024411108 -0.11385705 -0.0062177177 -0.03752359 0.059084814 0.0041370885 0.009388676 -0.123118974
0.04038003 -0.058805544 -0.0054902285 0.016309865 0.022745049 -0.042475402 -0.0319919 0.081186295
0.22502863 0.11786495 0.046286486 -0.15524794 0.024801055 -0.061867565 0.03047301 -0.10053001
0.03843959 0.021980163 -0.036182884 -0.06809717 0.03329849 0.0072740847 0.0906273 0.03250119
0.045548495 -0.078871176 -0.058545694 0.058791928 -0.16807799 0.18516606 0.09407121 0.058571246
0.1321435 0.07154346 0.1444627 -0.10043771 -0.018423362 -0.030226922 -0.040604796 0.10865755
0.08982317 0.11610958 -0.06356766 0.06945177 0.056732383 -0.120903 -0.11794051 -0.055974893
0.07236694 -0.036323432 0.023424877 0.051333793 -0.071232185 -0.03739247 -0.011167595 -0.04434782
0.030862032 0.06809493 0.0652053 0.012063314 -0.104832426 -0.00024471365 -0.054830227 -0.04469732
0.060332246 -0.056418974 0.102112904 0.03804581 -0.033928476 0.068173975 -0.06025721 -0.07580041
0.03730486 -0.08782292 -0.037780486 0.011162756 -0.048858333 -0.04115372 -0.0038163392 0.08748806
0.024536567 0.03817146 0.023931785 -0.09363151 0.011128588 0.015364189 0.08620534 -0.018883895
0.024193428 -0.08815584 -0.015038761 -0.040135294 0.02009481 -0.008338788 0.08313377 -0.018689241
-0.05708203 0.041163176 -0.040404044 -0.02335878 -0.053623937 -0.063558735 -0.1131128 0.09265607
00000000: 0e16 653c 5feb 033c f3d6 ffb9 eef3 12bb
00000010: 2a34 b2bd c9a9 6d3d f249 d13a 7429 b0bd
00000020: 5ffe c3bd 1ede 9ebb 0f0b a7bd 02a0 823c
00000030: 3ec6 c1bc 56e1 c3bd 40aa d43c b96b c2bd
00000040: c891 2f3d 9eb7 80bb 1a6b 953d ed0f 98bd
00000050: b050 abbd a0f9 bb3d 09c2 05be 017d edbd
00000060: 4770 dbbc f765 c0bd 91b8 7fbd 0c54 b23c
00000070: 2543 cabc f6bd 8ebd de87 5abd cd7f 68bd
00000080: 965c c43d 0d0f 44bd 77a2 3e3d af20 fbbb
00000090: 4af1 db3c 0868 5c3d 9aea 3fbd dd7f 7b3d
000000a0: 5182 a53d df55 09be 4ac0 4dbc d98b 18bd
000000b0: 45cb f2bc 5c28 e7bc 2400 24bc 8106 0cbd
000000c0: 7d67 8fbc 6f68 493c 44d6 febc 5c87 efbd
000000d0: 11b4 5bbc e6d4 b3bd 9463 cd3d 8a8c 8abd
000000e0: 3f7e da3d 8819 ad3d cad1 52bd 55f0 d9bd
000000f0: ea47 063c 2671 d93d 30c0 34bd 3e3c 90bc
00000100: 8856 04be 1e7f 3bbd a0bb c83c 4114 fe3b
00000110: f769 86bd 6876 7ebd 212d c9bd b316 e1bd
00000120: ccc2 fcbd 007a 763d d9af e2bd da63 e13a
00000130: 7940 18be f1bd 87bd 47f1 48bd 1475 a1bd
00000140: 1ed7 fbbc 493e 14ba bfd3 423c 4b7e 9cbd
00000150: f967 96bd fdde a7bc 04a9 b3bb d2d5 11bd
00000160: d400 04be 92cd e7bc 2417 8abd 065c c7bd
00000170: d3d8 763d 29ad 61bc 1914 05be 3972 c03d
00000180: c675 abbd f63c aebd cd66 c9bc 9600 d63c
00000190: fed4 9ebc a07d f9bc a790 a4bd 8af4 74bd
000001a0: d428 b1bd 267a 3a3e 4432 38be b38f 683d
000001b0: fee2 4b3d 4035 b0bb 38b6 9d3d b01c 9c3d
000001c0: 17a3 823d ff99 8b3b 7b03 ff3d 513b a83d
000001d0: 637e 51bd 919a b4bb 1fb1 e7bd 577a a6bd
000001e0: 7053 ecbd 8714 9abd a60f 263e 7fe5 b03d
000001f0: 343d 7e3e 9f60 1a3d 57ef 3fbd 16c6 08be
00000200: f461 0a3e 39a6 ddbb 8580 2ebc 962f 5bbc
00000210: 7133 acbc 47ad f8bb 8cbd 913d cd09 b3bb
00000220: 4833 d7bc 8543 fcbd e75c 41bd f96b 01bc
00000230: 98f0 4abd 9fff 103d 5bab d0bd 9cb3 adbc
00000240: 0bfb 1fbb e32d e9bd ffbd cbbb 56b2 19bd
00000250: eb02 723d 6a90 873b f6d2 193c cd25 fcbd
00000260: 8865 253d 15de 70bd 60e7 b3bb 449c 853c
00000270: d353 ba3c b0fa 2dbd f009 03bd 0045 a63d
00000280: e86d 663e 2e63 f13d e696 3d3d 51f9 1ebe
00000290: 952b cb3c d868 7dbd 89a2 f93c aee2 cdbd
000002a0: d572 1d3d be0f b43c 8134 14bd 8776 8bbd
000002b0: ff63 083d 725b ee3b ce9a b93d f81f 053d
000002c0: 0f91 3a3d 3687 a1bd 9ccd 6fbd cecf 703d
000002d0: a31c 2cbe 2c9c 3d3e 68a8 c03d 67e8 6f3d
000002e0: a050 073e 6185 923d 08ee 133e 49b2 cdbd
000002f0: 97ec 96bc 739e f7bc 3751 26bd d987 de3d
00000300: 36f5 b73d dcca ed3d c32f 82bd bb3c 8e3d
00000310: 3760 683d fe9b f7bd cb8a f1bd ee45 65bd
00000320: 1e35 943d e1c7 14bd 87e5 bf3c 6243 523d
00000330: 2ee2 91bd d928 19bd 4af8 36bc 0fa6 35bd
00000340: 5fd2 fc3c 5b75 8b3d 5b8a 853d 35a5 453c
00000350: 62b2 d6bd e94c 80b9 a995 60bd 8914 37bd
00000360: f21e 773d 9517 67bd 9220 d13d ecd5 1b3d
00000370: 96f8 0abd cc9e 8b3d 44d0 76bd 3f3d 9bbd
00000380: fbcc 183d 81dc b3bd b6bf 1abd fee3 363c
00000390: ad1f 48bd ce90 28bd 8c1b 7abb f12c b33d
000003a0: e900 c93c ad59 1c3d 970c c43c e1c1 bfbd
000003b0: ae54 363c 14ba 7b3c 6d8c b03d 66b2 9abc
000003c0: 4c31 c63c 0d8b b4bd 2365 76bc e864 24bd
000003d0: df9d a43c 699f 08bc 0a42 aa3d 2e1a 99bc
000003e0: d9ce 69bd b89a 283d b67e 25bd ea5a bfbc
000003f0: c6a4 5bbd 152b 82bd afa7 e7bd 77c2 bd3d
