vae_classification/state_dict_classifier_100_90.57.pt (torch, 617403 bytes, 14 tensors)

net.0.weight_ih_l0 f4 [300, 2]
0	0xbd859130	-0.06521833
1	0x3dccf7be	0.100081906
2	0xbd926693	-0.07148471
3	0x3cdcc35d	0.026948625
4	0x3d4f6ae9	0.050639067
5	0x3dc7daf9	0.097585626
6	0xbe0d3695	-0.13790353
7	0x3cf260ef	0.029587237
8	0xbda5b59a	-0.080912784
9	0xbd1e6460	-0.038669944
10	0x3d704c34	0.058666423
11	0xbd392451	-0.04520065
12	0xbdc547b5	-0.09632818
13	0xbd8de530	-0.0692848
14	0x3db82c27	0.089927964
15	0x3e0ba16c	0.13635796
16	0x3be5c137	0.0070115584
17	0x3ccc4ffd	0.024940485
18	0xbda60db2	-0.08108081
19	0xbd9344ff	-0.07190894
20	0xbc9cccc9	-0.019140618
21	0xbddf10eb	-0.10891899
22	0xbe406f52	-0.18792465
23	0xbda37abc	-0.07982394
24	0xbd86b031	-0.065765746
25	0xbe0fdd48	-0.14049256
26	0xbd8abe9a	-0.067746356
27	0x3a3bc064	0.00071621523
28	0x3bf0a152	0.0073434496
29	0xbc60925a	-0.013706768
30	0xbc9181fc	-0.017762177
31	0x3cd17ccc	0.025572203
32	0xbdf809c4	-0.12111238
33	0x3d0ce212	0.034395285
34	0x3dc01ebb	0.09380861
35	0xbdbcc73e	-0.0921769
36	0x3c5aca46	0.01335389
37	0xbc609b8b	-0.013708959
38	0x3c6356b1	0.013875649
39	0xbcd77af2	-0.026303742
40	0xbd8f9477	-0.07010739
41	0xbdd84821	-0.105606325
42	0xbd14d1ec	-0.03633301
43	0xbd551641	-0.052023176
44	0x3b5c3654	0.0033601718
45	0xbddd6c91	-0.10811723
46	0x3d7ef17e	0.062242024
47	0xbdf46c92	-0.11934771
48	0x3d3a12e2	0.045428164
49	0xbd6776d4	-0.056509808
50	0x3c83a1c9	0.016068356
51	0x3bf32337	0.0074199694
52	0xbc22572c	-0.009908479
53	0x3da8fb33	0.082510374
54	0xbd0e1e6c	-0.03469698
55	0xbcbc6b97	-0.023000522
56	0x3d784f43	0.060622465
57	0xbe383cdd	-0.17991967
58	0xbdf4f893	-0.11961474
59	0xbda277af	-0.07932984
60	0xbda7b0dc	-0.0818803
61	0xbcce40c8	-0.025177374
62	0x3b147781	0.0022654238
63	0xbd714c85	-0.058910865
64	0xbdb80193	-0.08984675
65	0xbddf7e63	-0.10912778
66	0x3e00a2a5	0.12562044
67	0xbd037d0a	-0.03210167
68	0x3d786405	0.06064226
69	0x3d11ebb7	0.035625186
70	0x3cc7f911	0.024410756
71	0x3c894cf9	0.016760336
72	0xbded2b1f	-0.1158049
73	0x3d4a7740	0.049430132
74	0xbe0af454	-0.13569766
75	0xbc428837	-0.011873296
76	0xbdaada85	-0.083424605
77	0xbdba747d	-0.091042496
78	0x3d935c68	0.071953595
79	0x3db6bd74	0.08922854
80	0xbcc35e91	-0.023848804
81	0x3d898255	0.06714312
82	0xbd565621	-0.052328233
83	0xbc57fd23	-0.013182911
84	0xbdd14fea	-0.102203205
85	0xbe0cc523	-0.13747077
86	0xbd05d04f	-0.03266936
87	0x3bc7a5ff	0.0060927863
88	0xbd35a5ee	-0.044347696
89	0xbde9fcc0	-0.11425161
90	0xbdca4ec5	-0.09878305
91	0xbd0c3f9d	-0.034240354
92	0xbcbb54d0	-0.02286759
93	0xbcb822c2	-0.022477511
94	0xbd171db6	-0.03689357
95	0x3de04456	0.10950534
96	0xbe01d057	-0.12677132
97	0xbdf266a0	-0.118359804
98	0xbc255384	-0.010090712
99	0x3d5cc8f4	0.05390258
100	0x3bd45871	0.0064802696
101	0xbc1e32e0	-0.009655684
102	0x3c751aa0	0.014959961
103	0x3d8acae5	0.0677698
104	0x3d06d56b	0.032918375
105	0x3c911179	0.017708527
106	0xbd74aa94	-0.05973299
107	0xbdde5af3	-0.10857191
108	0xbd778964	-0.06043376
109	0xbc83f44e	-0.016107704
110	0xbddbd3f6	-0.10733788
111	0xbdfa20e0	-0.12213302
112	0x3cc0b381	0.023523094
113	0x3c8de6a9	0.017321901
114	0xbdc0fb71	-0.09422959
115	0xbd3dc205	-0.04632761
116	0xbb7d4ff6	-0.0038652397
117	0x3ce0ae2d	0.027426803
118	0xbc9f520b	-0.0194483
119	0x3b17fedd	0.0023192682
120	0x3da44c0a	0.08022316
121	0xbdcac227	-0.09900313
122	0x3bf0fd05	0.007354381
123	0x3dc5f4f8	0.09665865
124	0x3ae3b912	0.0017373881
125	0x3dab009f	0.08349728
126	0xbd853053	-0.06503358
127	0xbd268c86	-0.040661357
128	0xbca9f42c	-0.020746313
129	0x3d152066	0.03640785
130	0xbd08933d	-0.033343542
131	0x3bb7f981	0.00561446
132	0xbdae6a8b	-0.08516415
133	0xbda3485d	-0.079727866
134	0xbc897ae9	-0.016782241
135	0xbdae30b1	-0.08505381
136	0xbd19dd0d	-0.037564326
137	0xbd8da444	-0.06916097
138	0x3dbcb390	0.09213936
139	0x3cbddfd8	0.023178026
140	0xbdc1ff6b	-0.09472545
141	0xbcbaf711	-0.022822889
142	0x3d69760e	0.05699735
143	0xbdfb9981	-0.12285138
144	0xbdf6d38e	-0.120520696
145	0xbd969666	-0.07352905
146	0xbda19371	-0.0788945
147	0xbda5e5c1	-0.08100463
148	0xbdbcdd21	-0.092218645
149	0xbd5240c6	-0.051331304
150	0x3d29f73e	0.041495554
151	0xbe105738	-0.14095771
152	0xbdfce5e4	-0.12348536
153	0xbd793760	-0.060843825
154	0xbd1e39e2	-0.03862942
155	0xbdf61dac	-0.12017378
156	0x3d1d8d9f	0.03846514
157	0xbdc591a9	-0.09646923
158	0x3db88511	0.090097554
159	0x3d047c9e	0.032345407
160	0xbd94b5b2	-0.07261218
161	0x3d747a06	0.059686683
162	0xbd1972b8	-0.03746292
163	0x3b294862	0.0025830497
164	0x3d11724e	0.0355094
165	0xbccf960e	-0.025340106
166	0xbd817969	-0.06321985
167	0xbe220b46	-0.15824613
168	0xbdcb7c5c	-0.09935829
169	0x3c618ce2	0.013766499
170	0xbdfbac88	-0.12288767
171	0xbe1a0e14	-0.15044433
172	0x3d0b7e16	0.03405579
173	0x3d38812c	0.045045063
174	0xbc026e63	-0.007960889
175	0xbe170362	-0.14747384
176	0xbd432a2b	-0.047647636
177	0x3bad6cf6	0.00529253
178	0x3b8d888f	0.0043192576
179	0x3d214dd6	0.03938087
180	0xbe06f2e1	-0.13178588
181	0xbe39ef38	-0.18157661
182	0xbe3158ec	-0.17319077
183	0xbe05faa1	-0.13083889
184	0x3d7b500f	0.061355647
185	0x3daee8b9	0.08540482
186	0x3d648ca5	0.05579819
187	0xbca5a68d	-0.02022102
188	0xbc90cba6	-0.017675232
189	0xbd36602d	-0.044525314
190	0xbc9a5bf1	-0.01884267
191	0xbdf4cd57	-0.11953228
192	0x3c36951c	0.011143949
193	0xbe17ec75	-0.14836295
194	0x3d389454	0.04506333
195	0xbde45d9c	-0.11150667
196	0x3c57dacc	0.013174724
197	0x3dd990d7	0.10623329
198	0xbdbab443	-0.091164134
199	0x3dc20043	0.09472706
200	0xbdb6ae7d	-0.0892
201	0xbdcc68e9	-0.099809475
202	0x3d0d7d1a	0.034543134
203	0xbd6ac9dd	-0.057321418
204	0xbdb7a56d	-0.08967099
205	0xbdd175ae	-0.10227524
206	0xbd32287c	-0.04349564
207	0x3d1ac082	0.037781246
208	0xbd328371	-0.043582384
209	0xbd66e1ad	-0.056367565
210	0xbd8be855	-0.06831423
211	0x3c3e6868	0.011621572
212	0xbd7416b2	-0.059591956
213	0xbd3e6f10	-0.046492636
214	0xbdbb2f24	-0.09139851
215	0xbddfca06	-0.10927205
216	0x3d23e526	0.040013455
217	0xbd34bddf	-0.044126388
218	0x3c1bbd83	0.009505632
219	0xbbca0361	-0.0061649536
220	0x3e33c64d	0.17556114
221	0x3e0d404d	0.1379406
222	0x3de26bfe	0.11055754
223	0x3e3cd1b8	0.18439376
224	0x3bdfbd10	0.006827958
225	0x3c1667ec	0.00918005
226	0xbd0d7c1c	-0.034542188
227	0x3e1e1f89	0.15441717
228	0xbd82c7b4	-0.063857466
229	0x3e181e09	0.14855208
230	0xbe2c490c	-0.1682474
231	0xbd7a4a46	-0.06110599
232	0x3e011c4e	0.12608454
233	0x3e576a6e	0.21036693
234	0xbd11b659	-0.03557429
235	0x3d84185b	0.06449958
236	0xbd9e58c0	-0.077317715
237	0x3da240e2	0.07922532
238	0xbcc2c080	-0.023773432
239	0x3e08c80e	0.13357565
240	0x3dfe6026	0.124206826
241	0xbc3f4fc9	-0.011676737
242	0xbd0db8bb	-0.0346
243	0x3dc423c8	0.09577137
244	0x3e04fbea	0.12986723
245	0x3d97696d	0.07393155
246	0x3e5fa9d3	0.21842127
247	0x3e1a38cc	0.15060729
248	0xbdb3b076	-0.08773892
249	0x3dad00ec	0.084474415
250	0xbc272ed8	-0.0102040395
251	0xbcae8a0b	-0.021306058
252	0xbc6430b4	-0.013927627
253	0xbe15726e	-0.14594433
254	0x3e01319f	0.12616585
255	0x3d3a4e08	0.045484573

net.0.weight_hh_l0 f4 [300, 100]
0	0x3c7f29c1	0.01557392
1	0xbd25cc7f	-0.040478226
2	0xbcb4c147	-0.022064818
3	0xbcd58545	-0.026064524
4	0x3d69d498	0.05708751
5	0x3b351e0e	0.0027636322
6	0xbd0c9529	-0.034321938
7	0xbd7df42c	-0.06200044
8	0xbd9e7a5f	-0.07738184
9	0x3c8f40a6	0.017486881
10	0x3c89c4ff	0.016817568
11	0x3d9ad31d	0.07559798
12	0x3c891f8a	0.016738672
13	0xbd6c1809	-0.05764011
14	0x3d6ae1d9	0.05734429
15	0x3c9ba958	0.019001648
16	0x3d88d71e	0.06681655
17	0x3d3c0f8e	0.04591327
18	0x3d6f2e4e	0.05839377
19	0x3d80cfd2	0.062896386
20	0x3d8dd3a2	0.069251314
21	0x3bcc7f0a	0.00624073
22	0xbd29039e	-0.041263215
23	0xbcfaa0fa	-0.030594338
24	0xbd4b95e0	-0.04970348
25	0xbcc3698e	-0.023854043
26	0x3dbcbcf2	0.09215726
27	0xbd46b06e	-0.0485081
28	0xbd9fdd66	-0.078059
29	0xbb6ba12f	-0.0035954227
30	0xbd4fb3bd	-0.05070852
31	0xbd339e11	-0.043851916
32	0xbaec15f4	-0.0018011914
33	0xbda465ca	-0.08027227
34	0x3da86fa7	0.08224421
35	0x3ccd18b6	0.025036197
36	0xbcd96576	-0.026537638
37	0x3d24593c	0.040124163
38	0x3d02caff	0.031931873
39	0x3d805d8d	0.062678434
40	0xbdb86ab9	-0.09004731
41	0xbb8ed1ea	-0.00435852
42	0x3d32af46	0.043624185
43	0x3d641861	0.055687312
44	0x3daf37cb	0.085555635
45	0x3de67ef1	0.11254681
46	0xbdf35578	-0.11881536
47	0x3cdb6482	0.026781324
48	0xbd5df6e2	-0.054190524
49	0x3c3b23eb	0.011422138
50	0x3c4e9b68	0.012610294
51	0xbd774f88	-0.06037858
52	0x3d4b0578	0.049565762
53	0xbd1b5d90	-0.037931025
54	0xbdb35723	-0.087568544
55	0x3db80bfb	0.0898666
56	0x3b0a7432	0.0021126387
57	0x3d1ea0d5	0.0387276
58	0xbd314cdf	-0.0432862
59	0xbc2254c5	-0.009907906
60	0xbd1f5b52	-0.03890545
61	0xbd74f1a2	-0.05980075
62	0xbd9ee1a1	-0.07757879
63	0x3c799c73	0.015235054
64	0xbca1fa87	-0.019772781
65	0x3dba2246	0.090885684
66	0x3ca38573	0.019961094
67	0x3d13bb6a	0.036067404
68	0xbdb6c6bd	-0.08924625
69	0x3d9a5b32	0.075369254
70	0xbd455da2	-0.048185
71	0x3d4826cb	0.04886512
72	0xbd2bdec6	-0.0419605
73	0xbdb3fb4e	-0.08788167
74	0xbd6a2827	-0.0571672
75	0x3d35851c	0.044316396
76	0xbdcc255d	-0.09968064
77	0xbdecc9bc	-0.11561915
78	0x3db28f6b	0.08718761
79	0x3d2543c5	0.040347833
80	0xbd5b74a7	-0.053578045
81	0xbb0bfe17	-0.0021361166
82	0x3d8cabcc	0.06868705
83	0xbde1d0d8	-0.11026162
84	0xbda422bb	-0.08014437
85	0x3d9459a2	0.072436586
86	0xbd9493e0	-0.072547674
87	0x3d68d110	0.056840003
88	0xbbdafac8	-0.0066827275
89	0x3d9729ae	0.07380997
90	0xbd9e5d93	-0.077326916
91	0xbd3d41c1	-0.046205286
92	0x3d5361b4	0.05160685
93	0x3a1afe1b	0.00059124985
94	0x3cbb0dfd	0.022833819
95	0x3d8f3c59	0.06993932
96	0x3df3b199	0.118991084
97	0x3df6833e	0.12036751
98	0xbd2cc60b	-0.042181056
99	0x3cebdf6d	0.028793061
100	0x3a1ac62c	0.00059041637
101	0xbc34af77	-0.011028162
102	0xbd8e9a32	-0.06963004
103	0xbd0fd73d	-0.035117377
104	0x3d858d6e	0.06521116
105	0xbdfb3f7d	-0.12267969
106	0x3ca36577	0.019945843
107	0x3d93dcd9	0.07219858
108	0xbd01446b	-0.03155939
109	0xbdda65e0	-0.10663962
110	0x3c84c762	0.016208354
111	0xbde119b3	-0.1099123
112	0xbd7a6184	-0.061128154
113	0x3cdf767b	0.027278176
114	0x3dcc62e1	0.09979797
115	0xbde2909f	-0.110627405
116	0x3d562dc7	0.05228975
117	0x3c2de4ad	0.010613603
118	0x3d329466	0.043598555
119	0xbd54dd63	-0.051968943
120	0xbb8ef610	-0.004362829
121	0xbd925667	-0.07145386
122	0xbccc7aa9	-0.024960833
123	0x3d28b37c	0.041186795
124	0xbce703ad	-0.028199995
125	0xbbbca41c	-0.005756868
126	0xbcc44e26	-0.023963045
127	0x3d876ae7	0.06612187
128	0xbd85d159	-0.065340705
129	0xbc93b4c8	-0.01803054
130	0x3d6f8627	0.058477547
131	0x3cd648eb	0.026157817
132	0x3db6c822	0.08924891
133	0x3d8808cc	0.06642303
134	0xbc866761	-0.016406717
135	0xbdd26b52	-0.10274376
136	0x3d79b492	0.06096322
137	0xbc1f6ce0	-0.009730548
138	0xbcc7af8e	-0.024375703
139	0xbc0677af	-0.008207246
140	0xbd0d15f3	-0.03444476
141	0xbcb1c14c	-0.021698616
142	0x3d2f76dc	0.042837963
143	0xbd9093e4	-0.07059458
144	0xbda807b6	-0.08204596
145	0xbdd43ac4	-0.10362771
146	0xbb0a3eb3	-0.00210945
147	0xbd04d3eb	-0.032428663
148	0x3caacafc	0.020848744
149	0x3dd344c3	0.1031585
150	0x3d0067ae	0.031348877
151	0xbccddbd2	-0.025129233
152	0xbd698236	-0.057008944
153	0x3df04968	0.11732751
154	0x3c758e0a	0.014987478
155	0xbd301204	-0.04298593
156	0xbd5e65d1	-0.05429632
157	0xbda57ce7	-0.08080464
158	0x3c454da9	0.012042441
159	0x3c7219ad	0.014776629
160	0x3d230c7f	0.03980684
161	0x3c9be905	0.01903201
162	0x3c49e28d	0.01232208
163	0xbe01ceda	-0.12676564
164	0xbc688139	-0.014190965
165	0x3d71a7ac	0.058997795
166	0x39005f12	0.00012242448
167	0x3db1a0c1	0.086732395
168	0xbe0590db	-0.13043539
169	0xbd80b4db	-0.062844954
170	0xbb164762	-0.002293073
171	0xbd53b441	-0.051685575
172	0x3c01a08d	0.007911813
173	0xbd87a2f1	-0.066228755
174	0xbdd815bd	-0.10551021
175	0x3dac8549	0.084238596
176	0xbda2ad9c	-0.079432696
177	0x3cf02fa0	0.029319584
178	0x3dda1906	0.10649304
179	0xbd7e5403	-0.06209184
180	0xbbe5dee3	-0.0070150956
181	0xbc369574	-0.011144031
182	0x3b8f93ce	0.0043816334
183	0xbcfa38b4	-0.030544616
184	0x3d5042a6	0.05084481
185	0xbd8f18b4	-0.069871336
186	0xbd7e49ab	-0.062081974
187	0xbd8af711	-0.067854054
188	0xbcd4210a	-0.02589466
189	0xbcd807cd	-0.026370907
190	0x3df187cb	0.117934786
191	0x3db7a126	0.089662835
192	0xbd548f39	-0.0518944
193	0xbd1f8735	-0.038947303
194	0xbd271f40	-0.040801287
195	0x3dc57102	0.09640695
196	0x3d476259	0.048677776
197	0xbd87a6f1	-0.066236384
198	0xbdd78b56	-0.10524623
199	0xbd62028a	-0.055178203
200	0x3c5878ad	0.013212365
201	0xbe0a3fef	-0.13500951
202	0x3d0886b2	0.03333158
203	0x3d143a2f	0.0361883
204	0xbc5c6983	-0.01345289
205	0xbb41ebce	-0.0029590013
206	0x3e3a2454	0.1817792
207	0xbe1b2177	-0.15149485
208	0x3ddf2fa0	0.108977556
209	0x3d1cae0c	0.03825192
210	0x3d3b33ff	0.045703884
211	0x3d2b7fd3	0.04186995
212	0xbd182963	-0.037148844
213	0x3dac6d6e	0.084193096
214	0xbce2b0cf	-0.0276722
215	0x3dff7e7c	0.12475297
216	0x3c404e42	0.011737408
217	0x3e063539	0.1310624
218	0xbdc1b908	-0.0945912
219	0x3d21053d	0.039311636
220	0x3df271d0	0.11838114
221	0xbc314357	-0.010819278
222	0x3de4b9dc	0.11168262
223	0xbde06585	-0.10956863
224	0x3e2e2262	0.17005304
225	0xbc826c1b	-0.01592069
226	0xbcdd0c96	-0.02698354
227	0x3d4a2885	0.04935505
228	0x3bec8ec2	0.0072191665
229	0x3e074658	0.13210428
230	0xbdf5f589	-0.12009723
231	0x3e046100	0.12927628
232	0xbdb9081b	-0.09034749
233	0x3da1b695	0.07896153
234	0xbd3773f6	-0.044788323
235	0x3db1165e	0.08646844
236	0x3d8367e9	0.06416304
237	0xbe1411a7	-0.14459859
238	0xbd34c5f0	-0.04413408
239	0x3d0ff721	0.03514779
240	0xbdc90e48	-0.09817177
241	0x3d847617	0.06467836
242	0xbc800260	-0.015626132
243	0x3e1c074f	0.15237163
244	0x3d518320	0.05115044
245	0x3dd99340	0.10623789
246	0xbd67abfe	-0.05656051
247	0xbe21c4d5	-0.15797742
248	0xbde5990b	-0.11210831
249	0xbd7af74f	-0.061271008
250	0x3e0db449	0.13838305
251	0xbe31779a	-0.1733078
252	0x3de5efd5	0.11227385
253	0x3ca2cde1	0.019873561
254	0xbddaced1	-0.10683978
255	0xbc23455d	-0.009965268

net.0.bias_ih_l0 f4 [300]
0	0xbd03ff23	-0.03222574
1	0xbd31b2d2	-0.043383427
2	0x3dc3c203	0.09558489
3	0xbda16f3e	-0.07882546
4	0x3d37c66c	0.044866964
5	0xbda6737c	-0.08127496
6	0xbd1f4539	-0.038884375
7	0x3d93e1e7	0.07220822
8	0xbd63c128	-0.05560413
9	0x3d6fdc3d	0.058559645
10	0x3ce23552	0.027613316
11	0xbcfb45b0	-0.030672878
12	0x3d609e28	0.05483833
13	0xbdbd1d66	-0.09234123
14	0x3c4a2ce3	0.012339803
15	0x3d0ad83d	0.033897627
16	0xbd5c0d28	-0.053723484
17	0xbce5e62a	-0.028063852
18	0xbd2d3a83	-0.04229213
19	0x3d6d41fb	0.057924252
20	0x3c3ec77e	0.011644242
21	0xbdd8dcd7	-0.10588997
22	0x3da4a17c	0.08038613
23	0xbd47a180	-0.048738003
24	0x3bc32caf	0.0059562544
25	0xbd9126fc	-0.07087514
26	0xbd9ffab7	-0.07811492
27	0xbdba2692	-0.09089388
28	0xbdbb36c7	-0.09141307
29	0xbc18d174	-0.009327281
30	0xbd72be21	-0.059263352
31	0x3d36eed8	0.044661373
32	0x3c3b3b40	0.0114277005
33	0xbd365bf3	-0.044521283
34	0xbce68be3	-0.028142875
35	0xbd8d9070	-0.06912315
36	0x3dbe615f	0.09295916
37	0xbc384006	-0.011245733
38	0xbcd6c1f4	-0.026215531
39	0xbdab5ed8	-0.083676994
40	0xbd7b1a06	-0.061304115
41	0xbe01b62d	-0.12667151
42	0xbd4a0914	-0.049325064
43	0xbd88c719	-0.066786
44	0xbca3c874	-0.019993044
45	0xbc1ea863	-0.009683701
46	0xbdad2391	-0.084540494
47	0xbd752aed	-0.05985539
48	0x3c7a9973	0.015295374
49	0x3dd30b72	0.103049174
50	0xbcac7961	-0.021053972
51	0xbd92a82c	-0.071609825
52	0x3daa66c3	0.083203815
53	0xbd48ab9c	-0.048991784
54	0xbd91fa5b	-0.0712783
55	0xbdbbb8a5	-0.091660775
56	0x3c2be529	0.010491648
57	0xbd90f0be	-0.07077168
58	0x3d8e1cf9	0.0693912
59	0xbd39a8b8	-0.04532692
60	0x3d114bf2	0.035472818
61	0x3cb1bf9f	0.021697817
62	0x3c67cf44	0.014148537
63	0xbd5ab484	-0.05339481
64	0x3d475ff3	0.04867549
65	0xbd9d9c90	-0.076958776
66	0xbdb614f3	-0.088907145
67	0x3cfd19ca	0.030896086
68	0x3ab78340	0.0014000908
69	0xbdb0ddd1	-0.08636058
70	0xbc9a09bb	-0.018803468
71	0xba08eedc	-0.0005223581
72	0xbd1d9856	-0.038475357
73	0x3a2b2c05	0.0006529692
74	0xbd4e9e24	-0.050443783
75	0x3daf6899	0.08564872
76	0xbdcb63d3	-0.09931149
77	0x3d78f8cd	0.06078415
78	0x3c0ea93a	0.008707339
79	0xbc1731bf	-0.009228169
80	0xbd8b396d	-0.067980625
81	0xbd5f22d1	-0.054476563
82	0xbd7ff22c	-0.062486812
83	0x3d611f01	0.05496121
84	0x3d23dab5	0.040003497
85	0xbdec6c4e	-0.11544095
86	0xbc9f3628	-0.019435003
87	0xbc8719cf	-0.016491799
88	0xbd5af81f	-0.053459283
89	0xbd186b30	-0.037211597
90	0xbcb91fa2	-0.022598092
91	0xbe2018be	-0.15634438
92	0x3db2b147	0.08725219
93	0x3cb73fe0	0.022369325
94	0xbde92255	-0.113835014
95	0xbe07fed1	-0.13280798
96	0x3d068e85	0.03285076
97	0x39db1f58	0.00041794288
98	0x3cbfc978	0.023411497
99	0x3d478fd5	0.048721153
100	0xbe3c06da	-0.18361989
101	0x3c3408b9	0.010988408
102	0xbe179293	-0.14802007
103	0xbd55561d	-0.052084077
104	0xbd190013	-0.037353586
105	0x3d0d4c56	0.034496628
106	0xbd8b6a2d	-0.06807361
107	0xbdbc6fbb	-0.092009984
108	0xbcf5965e	-0.029978927
109	0xbce85b3e	-0.02836382
110	0x3e08277d	0.13296314
111	0x3df6cea4	0.12051132
112	0xbd19fd7e	-0.037595265
113	0x3dafe8a3	0.08589294
114	0x3d8a7a97	0.067616634
115	0xbdbd4e45	-0.09243444
116	0x3e3d5a1f	0.1849141
117	0xbda15ef5	-0.0787944
118	0xbcc13fbf	-0.023589967
119	0x3d49edf8	0.04929921
120	0xbdba66f9	-0.09101672
121	0x3d09bacd	0.033625413
122	0xbc9d1e17	-0.019179387
123	0x3eb3e42c	0.3513502
124	0xbba4a49f	-0.005024507
125	0xbe206fce	-0.1566765
126	0xbdabc822	-0.08387782
127	0xbde1f4d4	-0.110330254
128	0xbdb46477	-0.08808225
129	0x3d3a1202	0.04542733
130	0x3ae94bdc	0.0017799097
131	0xbe0c9fd3	-0.13732843
132	0x3d093794	0.03350027
133	0xbd1f79ea	-0.038934626
134	0x3b9cdcd5	0.0047870674
135	0xbd05f0e8	-0.03270045
136	0x3e099caf	0.13438676
137	0xbdbb83fb	-0.09156033
138	0x3e86dcaf	0.26340243
139	0x3d89bf19	0.06725902
140	0x3de46727	0.11152487
141	0x3cb7a6c4	0.022418387
142	0xbd5038d4	-0.050835446
143	0x3e96fc32	0.29489285
144	0xbd138c55	-0.036022503
145	0x3ac6fd33	0.001518166
146	0xbd56175c	-0.05226837
147	0xbd452c1c	-0.04813777
148	0x3d1ca8e7	0.038247015
149	0xbd524739	-0.051337454
150	0x3e0b756b	0.1361901
151	0xbde53b1a	-0.11192913
152	0xbde87445	-0.11350302
153	0x3d5f14e1	0.05446327
154	0x3b8df186	0.0043317704
155	0xbd8bfeb5	-0.06835691
156	0x3c3c3759	0.011487805
157	0x3d2d4918	0.042306036
158	0xbd9cffde	-0.0766599
159	0xbdf62687	-0.12019067
160	0xbd8c9371	-0.0686406
161	0xbd8941f9	-0.067020364
162	0xbdb34cfb	-0.08754917
163	0xbda63841	-0.08116198
164	0x3dae84d2	0.08521427
165	0xbe127d49	-0.14305605
166	0xbdd1c4ac	-0.1024259
167	0x3d877924	0.066149026
168	0x3b5e6f1a	0.0033940733
169	0xbdc1817f	-0.094485275
170	0x3d16af28	0.036788136
171	0x39440e78	0.00018697407
172	0x3d4f73dc	0.0506476
173	0xbde2a12d	-0.11065898
174	0x3e52843c	0.20558256
175	0xbd9149b6	-0.07094137
176	0xbd50aa5a	-0.05094371
177	0xbcbea182	-0.023270372
178	0xbd7a27d9	-0.061073158
179	0x3db159ca	0.08659704
180	0xbcfd47ea	-0.03091808
181	0x3dce5db8	0.10076469
182	0x3c49d810	0.01231958
183	0xbdb57af6	-0.088613436
184	0x3d1810a4	0.037125245
185	0xbd7755fc	-0.060384735
186	0xbd941d48	-0.072321475
187	0x3d9a5297	0.07535284
188	0x3d9f5026	0.07778959
189	0x3c048558	0.008088432
190	0xbcfd5ec4	-0.030928977
191	0x3d3d228a	0.046175517
192	0x3c84b227	0.01619823
193	0xbcda431b	-0.026643327
194	0xbd644d0d	-0.055737544
195	0xbc31a261	-0.010841937
196	0x3becaa22	0.00722243
197	0x3dc50ad7	0.09621208
198	0xbcb25e2d	-0.021773422
199	0xbdaf2e5d	-0.08553765
200	0x3dcbcb1c	0.099508494
201	0x3d1289b4	0.035775855
202	0xbd8a7b25	-0.06761769
203	0xbd0dee13	-0.034650873
204	0x3ca8381a	0.020534564
205	0xbd89cf48	-0.06728989
206	0xbcedbd26	-0.029020857
207	0x3d839371	0.064246066
208	0x3d59c214	0.053163603
209	0xbde8de55	-0.113705315
210	0x3ce264ad	0.027635897
211	0xbd27371d	-0.040824044
212	0xbd45047b	-0.048099976
213	0x3a831b8a	0.0010002714
214	0x3d5b5b2b	0.05355374
215	0xbd041289	-0.03224424
216	0xbc8f4a69	-0.017491536
217	0x3d860b14	0.06545082
218	0xbda30d8a	-0.07961567
219	0x3ce80aec	0.02832552
220	0xbd662844	-0.056190744
221	0x3d4d1356	0.05006727
222	0xbc9097d2	-0.017650519
223	0xbbd9672f	-0.006634615
224	0xbcf16c80	-0.029470682
225	0x3d4d76e2	0.050162204
226	0x3d8da9c5	0.069171466
227	0x3d69eff9	0.05711362
228	0xbcb88355	-0.022523561
229	0x3c92957a	0.017893542
230	0xbccd71bf	-0.025078652
231	0x3d000667	0.031256106
232	0xbd9ab14f	-0.0755335
233	0xbd9cef8c	-0.076628774
234	0x3c79808b	0.015228401
235	0xbdae2cd7	-0.08504646
236	0x3d837b69	0.06420023
237	0xbc88b8f6	-0.016689759
238	0x3d670f5f	0.056411143
239	0x3cb7d9da	0.022442747
240	0x3daf6f56	0.085661575
241	0x3d2887bc	0.04114507
242	0xbcad618b	-0.021164676
243	0xbd10564e	-0.035238557
244	0xbd99b92a	-0.0750602
245	0xbc98e6ee	-0.018664803
246	0x3d894756	0.067030594
247	0xbd6e4100	-0.058167458
248	0x3d17b859	0.037041042
249	0xbd412fee	-0.04716485
250	0x3bfc53a9	0.0077004028
251	0x3b95fccd	0.0045772553
252	0xbda1467a	-0.078747705
253	0xbb777406	-0.0037758364
254	0x3d39588d	0.045250464
255	0xbcc43af6	-0.023953896

net.0.bias_hh_l0 f4 [300]
0	0x3dd6f953	0.104967736
1	0xbdb5b17f	-0.08871745
2	0x3c24d6b0	0.010060951
3	0xbd599e1b	-0.053129297
4	0xbdb944bf	-0.090463154
5	0xbdbb9fbd	-0.09161327
6	0x3c9cb9d8	0.019131586
7	0x3d6eb39d	0.05827676
8	0xbd0b4b3c	-0.034007296
9	0xbd2097af	-0.039207157
10	0xbd8e11e7	-0.06937008
11	0xbdba7f92	-0.09106363
12	0x3d298933	0.04139061
13	0xbda5ddd0	-0.08098948
14	0xbdf0c0a1	-0.11755491
15	0xbe10f05c	-0.1415419
16	0xbd004a43	-0.03132082
17	0x3d8ad7be	0.06779431
18	0x3dcc83a6	0.099860474
19	0x3d5604c5	0.052250642
20	0xbc23e171	-0.01000248
21	0x3cfcaeab	0.030845007
22	0xbc1e6d41	-0.009669603
23	0xbd31015a	-0.04321418
24	0xbdcc9acc	-0.09990463
25	0x3d936a66	0.07198028
26	0xbcd97c4f	-0.026548533
27	0x3d820daa	0.063502625
28	0x3b1f6cf1	0.0024326409
29	0x3d713917	0.058892336
30	0x3d54c4a1	0.051945332
31	0x3dc9ddfe	0.09856795
32	0xbdc37874	-0.09544459
33	0x3d07ac37	0.03312322
34	0x3d80df6e	0.06292616
35	0x3cca6def	0.024710624
36	0x3da0f701	0.07859612
37	0xbdc48908	-0.09596449
38	0xbd3666f3	-0.044531774
39	0xbd37077b	-0.04468487
40	0xbc92890b	-0.017887613
41	0xbdf64009	-0.120239325
42	0xbba42d24	-0.005010264
43	0xbe10323d	-0.14081664
44	0xbdd4be1f	-0.10387825
45	0xbc8271c5	-0.01592339
46	0xbd91ea56	-0.07124774
47	0x3d743a73	0.059626054
48	0x3d023499	0.031788442
49	0x3dc637e9	0.09678633
50	0x3d5fc71a	0.054633237
51	0xbc40a00e	-0.01175691
52	0x3dad2e46	0.084560916
53	0x3acf6182	0.0015821906
54	0xbb99e3df	-0.004696354
55	0xbd844855	-0.06459109
56	0x3c64c657	0.0139633035
57	0xbd425da2	-0.047452576
58	0xbd8d34ee	-0.06894861
59	0xbca66049	-0.020309584
60	0xbd9da2a8	-0.0769704
61	0xbd24208e	-0.04007011
62	0x3ca9b4d7	0.020716114
63	0xbbf5f58e	-0.007506079
64	0x3a12e86b	0.0005604091
65	0xbc04c99c	-0.008104708
66	0x3cb066be	0.021533366
67	0x3d0602f4	0.03271766
68	0x3ca97102	0.02068377
69	0x3c4031ae	0.011730595
70	0x3d0f9838	0.035057276
71	0x3c40860a	0.011750707
72	0xbcc3fa71	-0.02392313
73	0xbd970086	-0.07373147
74	0x3d4c50e4	0.04988183
75	0xba9c8403	-0.0011941198
76	0xbe2fc00b	-0.17163102
77	0xbcc7cefc	-0.02439069
78	0x3d37ebd1	0.044902626
79	0xbd93aab2	-0.07210292
80	0x3dc768cc	0.09736785
81	0x3d2f8fb5	0.04286166
82	0xbdb9f57b	-0.09080025
83	0xbde93736	-0.11387484
84	0x3dc7e57c	0.097605675
85	0xbd8728e2	-0.06599595
86	0xbe02b382	-0.1276379
87	0xbc180a07	-0.009279734
88	0xbddd6aca	-0.10811384
89	0xbdfcaddb	-0.12337848
90	0xbd19d76a	-0.03755895
91	0xbd7a6e3b	-0.06114028
92	0x3c4b5d05	0.012412314
93	0x3dd6b749	0.104841776
94	0xbe141f41	-0.14465047
95	0x3d540d01	0.051770214
96	0xbe132741	-0.14370443
97	0xbda05a51	-0.078297265
98	0xbcfc715f	-0.030815778
99	0xbdb4fb1e	-0.08836959
100	0xbd1e43c0	-0.03863883
101	0x3d6bf9b1	0.05761117
102	0xbd651d46	-0.05593612
103	0x3c4da763	0.012552115
104	0xbcbf8fc8	-0.02338399
105	0xbd2db611	-0.04240996
106	0xbd907281	-0.0705309
107	0xbdeb2098	-0.11480826
108	0xbdf4108f	-0.11917221
109	0xbd950b74	-0.07277575
110	0x3e39a524	0.18129402
111	0x3deacba6	0.11464624
112	0xbda0a30d	-0.078435995
113	0x3dc6c781	0.09706021
114	0x3e07aab6	0.13248715
115	0xbde00567	-0.109385304
116	0x3e2e232c	0.17005605
117	0xbdd2291b	-0.102617465
118	0xbbe0f868	-0.00686555
119	0xbd800c3d	-0.06252334
120	0x3ca21ccd	0.019789124
121	0xbcb95314	-0.022622623
122	0x3d8e39ac	0.06944594
123	0x3eb09d28	0.344949
124	0xbc1e9dda	-0.009681189
125	0x3c913315	0.017724553
126	0xbd912806	-0.07087712
127	0xbddb59f1	-0.10710514
128	0xbe12f99b	-0.1435303
129	0x3dfe254e	0.12409459
130	0xbdf2ddb2	-0.11858691
131	0xbe0384b5	-0.12843592
132	0xbdde0145	-0.10840086
133	0xbd986b43	-0.074423335
134	0xbddc2edd	-0.10751126
135	0x3c89cfb7	0.016822679
136	0x3da3d809	0.0800019
137	0x3ccfd993	0.025372302
138	0x3e4f115a	0.20221463
139	0xbca17403	-0.019708639
140	0x3d6f7e78	0.05847022
141	0x3d44937a	0.047992207
142	0x3da72a8e	0.081624135
143	0x3e9ee768	0.31035924
144	0x3dd16d33	0.10225906
145	0xbc5b974f	-0.013402774
146	0xbe1893d6	-0.14900145
147	0xbd896dc8	-0.06710392
148	0x3d98b80a	0.07456978
149	0xbd0160c3	-0.03158642
150	0x3dcdef9b	0.10055467
151	0xbdd8444b	-0.10559901
152	0xbcf9bc9e	-0.030485447
153	0x3e127b92	0.14304951
154	0xbca7eab5	-0.02049766
155	0x3d89592a	0.0670646
156	0xbc151a7e	-0.0091005545
157	0xbc889c32	-0.016676042
158	0x3dd58bea	0.10427077
159	0xbcefe7c9	-0.029285328
160	0xbd82633c	-0.06366584
161	0xbe0e49a4	-0.13895279
162	0xbd1e33ba	-0.03862355
163	0x3c27ab57	0.010233722
164	0x3b1970c6	0.0023413165
165	0xbb959341	-0.004564673
166	0xbde70ec9	-0.11282117
167	0xbc0f5553	-0.00874837
168	0xbdcf195a	-0.10112257
169	0x3d1c4e62	0.03816069
170	0x3e52e0bd	0.20593543
171	0xbcaef187	-0.021355404
172	0xbc4276a6	-0.011869108
173	0xbdee8889	-0.11647136
174	0x3e52b302	0.20576099
175	0xbd223800	-0.039604187
176	0x3dc15f6c	0.094420284
177	0xbe12bd1e	-0.14329955
178	0xbda48450	-0.08033049
179	0x3e0788bf	0.13235758
180	0xbba7803d	-0.0051117227
181	0x3a8f2532	0.0010921119
182	0x3dd9a31f	0.10626816
183	0x3cfef892	0.031124387
184	0x3e007ead	0.12548323
185	0x3dfec623	0.12440135
186	0xbd3cc35f	-0.046084758
187	0x3d62bd49	0.055356298
188	0xbc300b23	-0.010744843
189	0xbc41f731	-0.01183872
190	0xbc0e5b6e	-0.008688791
191	0x3e471b9e	0.19444129
192	0xbd7fb81e	-0.062431447
193	0xbcd427dc	-0.025897913
194	0xbddd32f6	-0.10800736
195	0xbd5f71ca	-0.054551877
196	0x3db022d9	0.08600397
197	0x3d831939	0.06401295
198	0xbccecd47	-0.025244368
199	0xbca54a0e	-0.020176914
200	0xbd81c242	-0.0633588
201	0x3c40045d	0.01171979
202	0xbbe5899b	-0.0070049292
203	0x3da8c660	0.08240962
204	0xbc9f24e1	-0.019426765
205	0x3dc3ca6a	0.09560092
206	0xbce84c28	-0.028356627
207	0x3a5e1c19	0.0008472815
208	0x3cd107bc	0.025516383
209	0xbdd628e7	-0.1045702
210	0xbd86b8cc	-0.06578216
211	0xbcdeadf8	-0.027182564
212	0x3ddd06bc	0.107923
213	0x3d6d3328	0.057910115
214	0xbd99068a	-0.0747195
215	0x3ccb44bb	0.024813047
216	0x3d609fee	0.05484002
217	0xbd372dfd	-0.044721592
218	0x3d339b20	0.04384911
219	0xbb97f1ca	-0.004636978
220	0xbdd61729	-0.10453636
221	0xbc9b9403	-0.018991476
222	0xbd4eb543	-0.050465833
223	0xbcbff081	-0.02343011
224	0x3d7579a2	0.05993045
225	0xbd39b394	-0.045337275
226	0xbced5421	-0.02897078
227	0x3dc4feba	0.09618898
228	0xbc9233e6	-0.017847013
229	0x3d16550a	0.036702193
230	0x3d9d66a9	0.076855965
231	0xbd5b6ee1	-0.05357254
232	0xbd7fe737	-0.062476363
233	0x3da72a15	0.081623234
234	0x3de0434a	0.10950334
235	0xbdc36be5	-0.095420636
236	0xbdc103e9	-0.09424574
237	0x3da799e2	0.08183648
238	0xbced00d0	-0.028931051
239	0xbd00c39b	-0.031436544
240	0xbd63ec86	-0.05564549
241	0x3d503531	0.050831977
242	0x3d776543	0.060399305
243	0xbc7261b1	-0.014793799
244	0xbc964408	-0.018342987
245	0x3bbe6889	0.0058108014
246	0x3d4178fa	0.047234513
247	0x3c4e59a8	0.012594618
248	0xbd39b962	-0.04534281
249	0x3de9586e	0.1139382
250	0xba638ec7	-0.0008680638
251	0x3c1638ac	0.009168785
252	0x3ccc3653	0.024928248
253	0x3dbf4a1f	0.09340309
254	0x3cd96724	0.02653844
255	0xbdad6626	-0.08466749

net.0.weight_ih_l1 f4 [300, 100]
0	0xbb36ef6b	-0.00279137
1	0xbb93b697	-0.0045078504
2	0xbc6d8e67	-0.014499283
3	0x3e1b5b0c	0.1517145
4	0x3dba2b62	0.09090306
5	0x3cac89cd	0.021061802
6	0xbd746d47	-0.059674527
7	0xbb3614af	-0.0027783324
8	0xb95b2567	-0.00020899401
9	0xbdbe96c7	-0.09306102
10	0x3d3ff3f4	0.04686351
11	0x3d9ce598	0.07660979
12	0xbc6467cb	-0.013940762
13	0xbd3f9c87	-0.046780135
14	0x3deb8e52	0.11501755
15	0x3d0eabd2	0.03483183
16	0x3d928bb3	0.07155552
17	0xbd2e935a	-0.042620994
18	0x3d9eda3f	0.07756471
19	0x3d886a68	0.066609204
20	0x3d5a23e0	0.05325687
21	0xbcca6a71	-0.024708958
22	0x3d8be1cc	0.06830177
23	0xbd0ca5eb	-0.03433792
24	0x3dd3562e	0.10319172
25	0x3d84a097	0.064759426
26	0x3d8fcc2d	0.07021365
27	0xbd4182cf	-0.04724389
28	0x3d336154	0.04379399
29	0xbda23353	-0.079199456
30	0x3d8467fd	0.06465147
31	0xbcb379ca	-0.02190866
32	0x3dcb0646	0.09913306
33	0x3daedcd4	0.08538213
34	0x3dab2e19	0.08358402
35	0xbadc2f41	-0.0016798751
36	0xbcface91	-0.030616077
37	0x3b29ad14	0.0025890516
38	0xbdb8b1df	-0.09018301
39	0xbc5ebe5e	-0.013595192
40	0x3d0bfcc7	0.034176614
41	0xbd5fad43	-0.054608595
42	0xbcde578b	-0.027141353
43	0xbdcccd7b	-0.1000013
44	0xbcd7e39c	-0.02635365
45	0xbe016801	-0.1263733
46	0xbdcdf9f8	-0.100574434
47	0xbd83bfd8	-0.06433076
48	0x3d6d59a4	0.057946816
49	0x3d3f76d8	0.046744198
50	0x3dc06575	0.093943514
51	0xbddfa176	-0.10919468
52	0x3b2746e5	0.0025524434
53	0x3de84447	0.11341148
54	0x3dd0d5bc	0.101970166
55	0xbd37a78e	-0.044837527
56	0x3cf2dae1	0.029645385
57	0x3ce5d433	0.028055286
58	0xbd46160d	-0.048360873
59	0xbd491b09	-0.04909805
60	0xbc243b10	-0.010023847
61	0x3e0b9b26	0.13633403
62	0x3d5d1e79	0.05398414
63	0x3e09e3ae	0.13465759
64	0xbd02af78	-0.03190562
65	0x3d2ec4e6	0.042668246
66	0x3b79005a	0.0037994594
67	0xbd092b4b	-0.033488553
68	0x3d29dbff	0.04146957
69	0x3b958d0c	0.0045639332
70	0xbc70624f	-0.014671876
71	0xbc50ff21	-0.01275614
72	0xbdcfd3fd	-0.101478554
73	0x3dc00aba	0.09377046
74	0xbda5384d	-0.08067379
75	0x3e12878f	0.14309524
76	0x3b76e8df	0.0037675423
77	0xbdfded05	-0.123987235
78	0xbd0cccda	-0.03437505
79	0x3cb78c17	0.022405667
80	0xbd158616	-0.036504827
81	0xbd508aa9	-0.050913487
82	0xbd623d69	-0.055234347
83	0xbde88dc4	-0.11355165
84	0xbd9a22ff	-0.07526206
85	0xbd4da95c	-0.05021034
86	0x3da9e772	0.08296098
87	0xbc5c86fc	-0.013459917
88	0xbdd39b1d	-0.1033232
89	0xbd3ca6e3	-0.046057593
90	0x3dccd48b	0.10001477
91	0x3dd5721e	0.10422157
92	0x3d48be41	0.049009565
93	0xb9e9a3bb	-0.00044563212
94	0x3d192147	0.03738525
95	0xbda90158	-0.082522094
96	0xbcc07ac5	-0.023496041
97	0x3dbd27da	0.09236117
98	0x3cce1d74	0.025160529
99	0x3d87324b	0.066013895
100	0x3d9a6c3c	0.07540175
101	0x3d0cc7a0	0.034370065
102	0xbe03bfa0	-0.12866068
103	0xbdf08b6a	-0.11745341
104	0xbdc8613f	-0.09784173
105	0xbd987485	-0.07444099
106	0xbcd32406	-0.025774013
107	0x3ca266da	0.019824434
108	0xbd367485	-0.044544715
109	0x3de3dd57	0.111262016
110	0x3d0c32d0	0.034228146
111	0xbd07bdb4	-0.0331399
112	0x3e018e3a	0.12651911
113	0xbe075ca7	-0.13218938
114	0x3d318f20	0.043349385
115	0xbdb7c333	-0.08972778
116	0xbcbe3455	-0.023218313
117	0xbe266702	-0.16250232
118	0x3e1698e8	0.14706767
119	0xbdbc2dc6	-0.09188418
120	0x3c0b967f	0.008519768
121	0xbd3f76b5	-0.046744067
122	0xbd8cacf6	-0.06868927
123	0xb9d08449	-0.00039771412
124	0xbd0d4afc	-0.03449534
125	0xba842ac6	-0.0010083548
126	0xbc37e0c1	-0.011223019
127	0xbe04d316	-0.12971148
128	0x3a8c9da2	0.0010728131
129	0xbcdd3403	-0.02700234
130	0x3d273514	0.040822104
131	0xbe025bd4	-0.12730342
132	0x3dda2e6a	0.10653384
133	0xbe129df0	-0.14318061
134	0x3dc531c6	0.09628634
135	0xbd416209	-0.047212634
136	0xbc1a9aad	-0.009436292
137	0x3d09ebf0	0.033672273
138	0x3d0184c4	0.031620756
139	0xbdac15ef	-0.08402621
140	0xbc93020b	-0.01794531
141	0xbd5ffd6b	-0.054685038
142	0x3ddbf845	0.10740713
143	0xbe052bf6	-0.13005051
144	0x3bd887a4	0.0066079665
145	0xbd3e2f55	-0.046431858
146	0x3e0a6050	0.13513303
147	0x3e0fca90	0.14042115
148	0x3d8fe5fe	0.070262894
149	0x3d4ee1e9	0.050508413
150	0x3c1cd071	0.009571181
151	0x3e25cd91	0.16191699
152	0xbd429bef	-0.04751199
153	0x3d946ec1	0.07247687
154	0xbd84ccd2	-0.06484379
155	0xbcd81ab6	-0.026379924
156	0x3c1173ba	0.008877689
157	0xbc983197	-0.018578334
158	0xbd26bb16	-0.040705763
159	0xbdbe4e3a	-0.09292264
160	0x3cd43cdd	0.025907928
161	0xbe2afb96	-0.16697535
162	0xbd90d4d4	-0.07071844
163	0x3c92e38c	0.017930768
164	0x3cf41021	0.029792847
165	0x3c8e531c	0.017373614
166	0xbdc3fb40	-0.095694065
167	0x3df7481f	0.12074303
168	0xbca7a9ce	-0.020466711
169	0xbe2474db	-0.16060202
170	0xbda7330d	-0.08164034
171	0x3d43e5c4	0.047826543
172	0xbd6c45c2	-0.057683714
173	0x3dbd232d	0.09235225
174	0x3d539b07	0.051661517
175	0xbcb67bd4	-0.022275843
176	0xbcc2860c	-0.02374556
177	0x3da5b896	0.080918476
178	0xbda942c5	-0.082646884
179	0x3d7b6935	0.06137963
180	0xbe2bc20a	-0.16773239
181	0x3db28a6c	0.08717808
182	0x3d33aa5c	0.04386364
183	0x3db8a8f8	0.09016603
184	0xbd974ff2	-0.07388295
185	0x3d47a26d	0.048738886
186	0xbd12e1b9	-0.035859797
187	0x3db36d45	0.08761076
188	0xbdcee34f	-0.101019494
189	0xbde13793	-0.10996928
190	0xbd243519	-0.0400897
191	0x3e143bf6	0.14475998
192	0xbd0b1949	-0.03395966
193	0xbd17ba95	-0.037043173
194	0xbd4b3ebe	-0.049620382
195	0xbcdc0853	-0.026859438
196	0xbdb1fe29	-0.08691055
197	0xbd004518	-0.031315893
198	0xbd0f1244	-0.03492953
199	0xbcc9da38	-0.024640188
200	0x3df71efd	0.120664574
201	0x3e1f8453	0.15577821
202	0xbd62017b	-0.055177193
203	0x3c3753e0	0.011189431
204	0xbd205449	-0.03914288
205	0xbd217b6d	-0.03942435
206	0xbc720556	-0.01477178
207	0x3c314352	0.010819273
208	0x3dde8158	0.10864514
209	0xbdd2c4b0	-0.102914214
210	0x3d06d8b5	0.03292151
211	0xbbf74247	-0.0075457427
212	0x3d5ec4c8	0.054386884
213	0x3d19e60a	0.037572898
214	0xbdca44f7	-0.09876435
215	0xbe5f0603	-0.21779637
216	0xbdc0d0d9	-0.094148345
217	0xbca71044	-0.020393498
218	0x3d8b679a	0.0680687
219	0x3c4c0348	0.012451954
220	0xbb9601d7	-0.004577856
221	0xbdb1bfdf	-0.08679175
222	0xbda6dde5	-0.08147792
223	0x3d4a3ddf	0.04937541
224	0xbcf2dbe0	-0.02964586
225	0xbc07e263	-0.008293721
226	0xbd8018b0	-0.06254709
227	0x3d97db9c	0.07414934
228	0xbd4407d1	-0.047859017
229	0x3e01b567	0.12666856
230	0x3d9e775c	0.0773761
231	0xbcf5fadf	-0.030026851
232	0x3d38fe82	0.045164593
233	0xbe229f62	-0.15881112
234	0x3e1757c9	0.14779581
235	0xbde98e93	-0.11404147
236	0xbe20ed39	-0.15715493
237	0x3b3033c5	0.0026886326
238	0x3c9ec76e	0.019382205
239	0x3cb9b01c	0.022666983
240	0x3c86d8d3	0.016460812
241	0xbd5f8f5b	-0.054580074
242	0xbc8f76e8	-0.017512754
243	0xbc550402	-0.013001444
244	0x3b8b7b19	0.0042566177
245	0xbdc3c815	-0.09559647
246	0xbca3f664	-0.02001495
247	0xbd03a269	-0.03213731
248	0xbd4314b9	-0.047627185
249	0x3d5748a5	0.052559514
250	0xbcd431ad	-0.025902594
251	0x3c78876b	0.015169005
252	0xbde77f64	-0.11303595
253	0x3cab1ed5	0.020888725
254	0x3d9cbe2a	0.076534584
255	0x3c91ba82	0.01778913

net.0.weight_hh_l1 f4 [300, 100]
0	0xbd9cb6d5	-0.0765206
1	0x3d7ef86e	0.06224864
2	0xbe061422	-0.13093618
3	0xbd7cf3ad	-0.061755825
4	0x3c044f45	0.00807554
5	0xbcf83005	-0.030296335
6	0x3dd098d8	0.10185403
7	0xbd43a9f7	-0.047769513
8	0x3db06e6b	0.086148106
9	0x3d8af39a	0.067847446
10	0x3d348e4b	0.044081014
11	0x3ce0ced6	0.027442377
12	0xbe11fa16	-0.14255556
13	0xbc7c14ed	-0.0153858485
14	0xbe26ac41	-0.16276647
15	0xbd3a6fdb	-0.04551683
16	0x3cb813ab	0.022470316
17	0x3c1f28fd	0.009714362
18	0x3d81070a	0.06300171
19	0x3d3e3d10	0.046444952
20	0x3e041a30	0.12900615
21	0xbcccbb27	-0.024991585
22	0xbdca1bb5	-0.09868566
23	0x3da31232	0.07962455
24	0x3e017f53	0.12646227
25	0x3dc1a9fd	0.09456251
26	0x3dec2e4e	0.115322694
27	0xbd8483de	-0.06470464
28	0x3e1ca535	0.15297396
29	0x3cb8d3f8	0.022562012
30	0xbdc88b93	-0.09792247
31	0x3db25a52	0.087086335
32	0xbd6097d2	-0.054832287
33	0xbd966265	-0.07342986
34	0xbde26a12	-0.110553876
35	0x3d71f4d4	0.059071377
36	0xbd00a3ca	-0.0314062
37	0xbd003a50	-0.03130561
38	0xbcf86eb3	-0.030326223
39	0x3da300a2	0.07959105
40	0xbd96a251	-0.07355178
41	0x3d14a8bf	0.03629374
42	0x3d5770eb	0.05259792
43	0x3bdcef4a	0.0067423927
44	0xbdda9b9c	-0.106742114
45	0xbd1096de	-0.03530013
46	0xbd1567cc	-0.03647594
47	0x3d607302	0.05479718
48	0xbe121f2e	-0.14269707
49	0xbc9cde50	-0.019148976
50	0xbca05d83	-0.01957584
51	0xbdbebd00	-0.09313393
52	0xbd8c870c	-0.06861696
53	0xbd60d012	-0.05488593
54	0x3d88023d	0.06641052
55	0x3dc8a8ba	0.09797807
56	0x3e1519a8	0.14560568
57	0xbd4e5459	-0.05037341
58	0xbd44da41	-0.048059706
59	0xbd3af9f6	-0.045648538
60	0x3cc68089	0.024231212
61	0x3d2531a0	0.04033053
62	0x3d483ea7	0.048887875
63	0x3d02e2c6	0.03195455
64	0x3d5a4ed1	0.05329782
65	0x3b9e7b90	0.004836507
66	0x3c31174b	0.010808776
67	0x3ddbd592	0.10734095
68	0x3e0e33cd	0.13886948
69	0x3c292ffc	0.010326382
70	0x3d823ea3	0.06359603
71	0x3d8f4a7a	0.06996627
72	0xbd92b146	-0.071627185
73	0x3cbbf238	0.022942647
74	0xbd63e3ef	-0.055637296
75	0x3dac2d41	0.08407069
76	0x3b103745	0.00220056
77	0x3d835a60	0.06413722
78	0x3da0fee5	0.07861117
79	0x3d01db71	0.031703416
80	0x3dc4049f	0.09571194
81	0x3e05b805	0.13058479
82	0x3db11e14	0.08648315
83	0x3df1bfbb	0.11804148
84	0xbd45cb76	-0.04828974
85	0x3d0fde81	0.035124306
86	0x3dc529a5	0.09627084
87	0xbda7d907	-0.081956916
88	0xbc22f088	-0.009945042
89	0xbd295b1d	-0.041346658
90	0x3dddd390	0.10831368
91	0xbd8e06c7	-0.069348864
92	0x3d3ca7bd	0.046058405
93	0xbde8a95f	-0.1136043
94	0xbe0829b7	-0.13297163
95	0x3b85cf7b	0.0040835715
96	0xbcc674e2	-0.024225656
97	0xbdae8ca6	-0.0852292
98	0xbd35481f	-0.044258233
99	0x3d2671e2	0.04063595
100	0x3c110aa9	0.008852639
101	0x3d01c8ad	0.03168552
102	0xbd227187	-0.03965905
103	0xbc553e9f	-0.013015418
104	0x3d85362a	0.065044716
105	0x3df38ed9	0.118924804
106	0x3ba9ac56	0.0051780147
107	0x3c4c5031	0.012470291
108	0xbe104d09	-0.14091887
109	0xbde1a4b8	-0.11017746
110	0xbcc1a440	-0.02363789
111	0xbda2742d	-0.07932315
112	0xbd3ec5d5	-0.046575386
113	0xbd31617c	-0.04330586
114	0x3d9607c7	0.07325702
115	0xbdac91ba	-0.08426233
116	0xbe0f0152	-0.13965347
117	0x3d62f961	0.055413608
118	0xbda46aac	-0.080281585
119	0xbd320c2e	-0.043468647
120	0x3ded87a9	0.11598141
121	0x3d929bf6	0.071586534
122	0x3ca1f39e	0.019769486
123	0x3c75a2ca	0.014992425
124	0xbdb5255f	-0.088450186
125	0xbcd85830	-0.026409239
126	0x3d29b17c	0.041429028
127	0xbd82fa12	-0.063953534
128	0xbc0876f3	-0.008329141
129	0xbc3c631a	-0.011498237
130	0x3d5d98fb	0.05410097
131	0x3cde9150	0.0271689
132	0xbc9bf178	-0.01903604
133	0x3d21fe44	0.039549127
134	0xbc160186	-0.009155637
135	0x3ca3f830	0.020015806
136	0x3b2f3864	0.0026736492
137	0x3d605b7f	0.054774757
138	0x3ded3352	0.11582054
139	0x3cd2a8cb	0.025715252
140	0x3caef32f	0.021356193
141	0xbda53799	-0.08067245
142	0x3cedafda	0.029014517
143	0xbb9c52fe	-0.0047706356
144	0x3db3dc48	0.0878225
145	0xbd712af1	-0.058878843
146	0xbd4f3291	-0.050585333
147	0xbc5d27d7	-0.013498268
148	0xbd2403cd	-0.040042687
149	0xbd9b5d3a	-0.07586141
150	0xbca0a391	-0.019609245
151	0xbcf12357	-0.029435797
152	0x3c981ad2	0.018567476
153	0x3dff1ade	0.124562964
154	0x3dc188c5	0.09449915
155	0xbd311223	-0.043230187
156	0xbd11b9fa	-0.03557775
157	0x3df0c903	0.1175709
158	0xbd04161c	-0.032247648
159	0x3dca6122	0.09881808
160	0xbde760da	-0.1129777
161	0x3d7db9af	0.06194466
162	0xbdf6b64b	-0.120464884
163	0x3d85cd9d	0.06533358
164	0x3d645b6f	0.05575126
165	0xbd8cbbd2	-0.068717614
166	0xbd80b628	-0.062847435
167	0xbd2166d5	-0.03940471
168	0x3da9a2f1	0.08283032
169	0xbc8c6085	-0.017135868
170	0x3db54162	0.088503614
171	0x3cf47933	0.029842949
172	0xbd6d5796	-0.057944857
173	0x3ccd512c	0.02506312
174	0xbca24c4a	-0.019811768
175	0x3d214c0c	0.039379165
176	0x3d21d546	0.039510034
177	0xbd1c8b00	-0.0382185
178	0x3d5df7c7	0.054191377
179	0xbd35b5e7	-0.04436293
180	0xbd8c1e4f	-0.068417184
181	0xbc39111b	-0.011295582
182	0x3d9a3482	0.07529546
183	0xbd077762	-0.033072837
184	0x3d9aead8	0.07564324
185	0x3cb0863b	0.021548381
186	0x3c06a0f2	0.008217083
187	0xbd0f794e	-0.035027795
188	0xbd285256	-0.041094147
189	0x3dda2336	0.10651247
190	0x3d8ecd4f	0.06972753
191	0xbdc3189a	-0.09526177
192	0xbddeceba	-0.10879274
193	0xbd88342e	-0.066505775
194	0x3d8641c5	0.06555513
195	0x3d4109f7	0.047128644
196	0xbda0f24c	-0.078587145
197	0x3dc85dc6	0.09783511
198	0xbdcdd995	-0.10051266
199	0xbdf9d328	-0.12198478
200	0x3d62f03f	0.055404898
201	0x3dcf9f5c	0.10137817
202	0xbc4f3df9	-0.012649053
203	0xbe013c0b	-0.12620561
204	0x3ba8b08d	0.0051479996
205	0x3e257346	0.16157255
206	0xbcaadc71	-0.020857068
207	0x3c0514c0	0.008122623
208	0xbd86c419	-0.065803714
209	0xbe02bd08	-0.12767422
210	0x3dbc3735	0.091902174
211	0xbd88c546	-0.06678252
212	0x3bb26ec6	0.005445334
213	0x3cc3077e	0.023807283
214	0xbddf3679	-0.10899062
215	0xbcb2bfbd	-0.021819944
216	0x3d559ae0	0.052149653
217	0x3df4e904	0.11958507
218	0xbd9fadf4	-0.07796851
219	0x3e109935	0.14120944
220	0x3db7f5c0	0.0898242
221	0x3b640c39	0.0034797324
222	0x3d44a2f8	0.04800698
223	0xbc97531a	-0.018472243
224	0xbd060a66	-0.03272476
225	0xbb3ed6b1	-0.0029119665
226	0x3c8aa6b6	0.016925197
227	0xbd6ca6cf	-0.05777627
228	0x3cc2b99d	0.023770148
229	0xbc976b75	-0.018483857
230	0xbc1d5904	-0.0096037425
231	0xbd8edc19	-0.06975574
232	0xbd00bac5	-0.031428117
233	0xbc82e1ce	-0.015976813
234	0xbddcad97	-0.10775297
235	0xbe0325f7	-0.12807451
236	0xbd57b58c	-0.05266337
237	0xbb23a91a	-0.0024972619
238	0xbaad2949	-0.0013211156
239	0x3dfc5e77	0.12322705
240	0x3afe1eb6	0.0019387815
241	0xbdf63f37	-0.12023776
242	0xbe026f2d	-0.12737723
243	0x3dba5199	0.09097595
244	0xbb918e5a	-0.0044420185
245	0xbdc79534	-0.09745255
246	0xbd05b6d9	-0.03264508
247	0x3ca2b602	0.019862179
248	0x3d0d0d78	0.034436673
249	0x3b357e7f	0.0027693806
250	0x3cd5a6c5	0.026080498
251	0xbdd469c3	-0.10371735
252	0xbd89bff1	-0.06726063
253	0x3e0007ba	0.12502947
254	0x3e1ec382	0.15504268
255	0xbd9d27de	-0.0767362

net.0.bias_ih_l1 f4 [300]
0	0xbdb6fea6	-0.08935289
1	0xbd938062	-0.072022215
2	0xbd1008ae	-0.035164528
3	0xbc634c1c	-0.013873126
4	0x3be17304	0.006880166
5	0x3c9798c8	0.018505469
6	0xbcae4af5	-0.021275977
7	0xbded9542	-0.11600734
8	0xbd93c8a1	-0.07216001
9	0x3c97f3a2	0.01854879
10	0xbc1a544c	-0.009419512
11	0xbd6b6014	-0.057464674
12	0xbd8314a8	-0.06400424
13	0xbd68e371	-0.05685753
14	0xbda63994	-0.08116451
15	0xbdb285a8	-0.08716899
16	0xbcd2d6bc	-0.025737159
17	0x3c68930e	0.014195217
18	0xbdae4547	-0.08509307
19	0xbe1293a9	-0.1431414
20	0xbdd532d5	-0.10410086
21	0x3cca8ce7	0.02472539
22	0xbd81f54a	-0.06345613
23	0x3d592659	0.053015087
24	0xbe13fee3	-0.144527
25	0xbbcbb845	-0.006217035
26	0x3d11f2e6	0.035632037
27	0x3dbb4477	0.09143918
28	0xbddf7196	-0.10910337
29	0x3d04074a	0.032233514
30	0x3caae8d1	0.020862969
31	0xbe226c96	-0.15861735
32	0xbca40f50	-0.020026833
33	0xbce9a39a	-0.028520394
34	0xbe14f800	-0.1454773
35	0xbdccd0f0	-0.10000789
36	0x3cff8009	0.031188982
37	0xbd087011	-0.03331
38	0xbd6284fe	-0.055302612
39	0x3bd80f91	0.0065936525
40	0xbd936528	-0.071970284
41	0x3cd29fab	0.025710901
42	0x3d692789	0.05692247
43	0xbde2a984	-0.11067489
44	0xbdb1d9c2	-0.08684112
45	0x3c7f6278	0.015587442
46	0xbd99f550	-0.07517493
47	0xbe24fbb6	-0.16111645
48	0xbe0b0d7f	-0.13579367
49	0xbe094983	-0.13406949
50	0x3d8c0ae2	0.06838013
51	0xbddcb226	-0.107761666
52	0x3d78faa5	0.06078591
53	0xbcba263a	-0.022723306
54	0x3c43b159	0.011944138
55	0x3cd21b7d	0.025647873
56	0x3bd88431	0.0066075553
57	0x3c0a4c6c	0.008441072
58	0xbc0a3d8f	-0.008437528
59	0xbe014ab1	-0.12626149
60	0x3cd45588	0.02591969
61	0xbd9d2ef1	-0.07674969
62	0xbd815bd6	-0.063163444
63	0x3b701d91	0.0036638717
64	0x3d1325b9	0.035924647
65	0x3d5ecf68	0.054397017
66	0x3d5245cd	0.0513361
67	0xbd851a4a	-0.06499155
68	0xbb40d62d	-0.0029424534
69	0x3c972ddd	0.018454487
70	0xbdd346d9	-0.103162475
71	0x3cc539f5	0.024075488
72	0xbb5f032f	-0.0034028997
73	0xbda23130	-0.07919538
74	0xbde05a70	-0.109547496
75	0x3adc9384	0.0016828631
76	0xbde36c59	-0.1110465
77	0xbd8b9973	-0.068163775
78	0xbda81da3	-0.08208778
79	0xbe2331e3	-0.15936999
80	0xbd8867c4	-0.06660417
81	0xbd31cf3d	-0.04341053
82	0xbc9db128	-0.019249514
83	0xbdf04f26	-0.11733846
84	0xbd6bd89f	-0.057579633
85	0xbcd89ca3	-0.026441878
86	0xbe1c71c0	-0.15277767
87	0xbdf86e35	-0.12130395
88	0xbce5f6d8	-0.028071806
89	0xbd6c0565	-0.057622332
90	0xbe2f6d57	-0.17131554
91	0xbd3f1493	-0.04665048
92	0xbddf48f5	-0.10902587
93	0xbe2169c4	-0.15763003
94	0x3c4a81d4	0.012360055
95	0xbcf509ce	-0.029911902
96	0xbd801ff5	-0.06256095
97	0xbd713c76	-0.05889555
98	0xbbb65cc8	-0.0055652596
99	0xbd7ae60c	-0.061254546
100	0x3c472a32	0.012156056
101	0x3db5f27a	0.08884139
102	0x3e12b09c	0.14325184
103	0x3da86cbd	0.08223865
104	0xbe4d16b3	-0.2002819
105	0x3cf83776	0.030299883
106	0xbdbcc1b2	-0.09216632
107	0x3dd02554	0.1016337
108	0xbd20b56f	-0.03923553
109	0x3e66f63e	0.22554871
110	0xbd4c0b12	-0.049815245
111	0x3de66485	0.11249641
112	0xbdb40173	-0.08789339
113	0x3d872389	0.06598575
114	0xbe241edc	-0.16027397
115	0x3e07c2d9	0.13257922
116	0x3c802ae5	0.015645454
117	0xbdbd2674	-0.0923585
118	0x3dfb65b4	0.12275258
119	0xbd41ea3f	-0.047342535
120	0xbd36d442	-0.04463602
121	0x3e2a2938	0.16617286
122	0x3db5f800	0.08885193
123	0xbcdf2ad7	-0.027242107
124	0xbe146074	-0.14489919
125	0x3e329000	0.17437744
126	0x3e2174c0	0.15767193
127	0xbd51760a	-0.05113796
128	0x3e586be9	0.21134914
129	0x3d005535	0.03133126
130	0x3e098439	0.13429345
131	0xbd9ba2df	-0.075994246
132	0xbdcbd573	-0.099528216
133	0xb9cd1d48	-0.00039122463
134	0xbdf6d4a2	-0.12052275
135	0xbdf64116	-0.12024133
136	0xbc29a9b4	-0.010355402
137	0x3df806f9	0.12110705
138	0x3dea6c7f	0.11446475
139	0x3a9b90aa	0.0011868675
140	0xbd9890fd	-0.07449529
141	0xbcab4f2f	-0.020911781
142	0x3bee590a	0.007273798
143	0xba89640f	-0.001048209
144	0xbd5c52c3	-0.053789865
145	0x3d667113	0.05626018
146	0xbb3492a6	-0.002755323
147	0xbe381d18	-0.17979848
148	0xbcdcc434	-0.026949026
149	0x3e064c2a	0.13114992
150	0x3d274db2	0.04084558
151	0xbdbaba9a	-0.09117623
152	0x3d5311e2	0.051530726
153	0xbda0b51e	-0.07847045
154	0xbdb9acc4	-0.090661556
155	0xbcc6fb61	-0.024289789
156	0x3e6d79d9	0.23191012
157	0x3db63062	0.08895947
158	0x3caaf6f1	0.020869704
159	0x3e313450	0.17305112
160	0x3dab8c05	0.08376316
161	0xbd738dbb	-0.059461337
162	0x3d87e1d6	0.06634872
163	0x3e44efd0	0.19232106
164	0x3e2a6995	0.16641839
165	0x3d9b5f8f	0.07586586
166	0xbda69f97	-0.08135908
167	0xbb3ef0a6	-0.0029135137
168	0x3e0d50d2	0.13800362
169	0xbcc78201	-0.024353983
170	0x3d049c2a	0.032375492
171	0xbcc1215c	-0.023575477
172	0x3c1781d2	0.00924726
173	0x3c883aef	0.016629664
174	0x3dec6372	0.11542405
175	0xbddf022e	-0.108890876
176	0xbdfcf95a	-0.123522475
177	0x3d4f77aa	0.05065123
178	0x3da85710	0.08219731
179	0x3e315859	0.17318858
180	0x3e55b29f	0.2086892
181	0x3dec23bf	0.115302555
182	0x3e15923d	0.14606567
183	0x3e20cc98	0.15703046
184	0x3e61416f	0.21997617
185	0x3b98857e	0.0046545854
186	0xbcba8241	-0.022767188
187	0x3c80be1a	0.015715647
188	0x3c451ad1	0.012030319
189	0xbc1e134f	-0.009648158
190	0x3ca19e41	0.019728782
191	0x3ba2fb47	0.0049738022
192	0x3e1634eb	0.14668624
193	0xbd930068	-0.07177812
194	0x3d054028	0.032531887
195	0x3d36a9e9	0.044595633
196	0x3e169225	0.14704187
197	0x3d2d7fde	0.04235827
198	0x3e8d4865	0.27594295
199	0x3dac5e83	0.08416464
200	0xbcaabd82	-0.020842317
201	0xbd8a8aa3	-0.06764724
202	0xbc8f39f7	-0.017483694
203	0x3cc1e1cb	0.023667237
204	0xbd3eb4c5	-0.046559114
205	0xbc37f048	-0.011226721
206	0x3dd90d46	0.10598235
207	0x3daffad5	0.08592764
208	0x3dd5ba72	0.10435952
209	0x3cac46af	0.021029798
210	0x3cf33f1c	0.029693179
211	0xbdb41fe4	-0.08795145
212	0xbc9f4926	-0.01944406
213	0x3c8dcce4	0.017309614
214	0x3d512f26	0.051070355
215	0xbc612e73	-0.0137439845
216	0x3cd52d2e	0.02602252
217	0x3d00c3a0	0.031436563
218	0x3a890d5a	0.001045625
219	0xbd10282a	-0.035194553
220	0xbde06a95	-0.10957829
221	0x3bb9d395	0.0056709745
222	0x3dc5e190	0.09662163
223	0xbdbb40cc	-0.091432184
224	0x3da09eb3	0.078427695
225	0xbd72d1e0	-0.059282184
226	0xbca2445f	-0.019807993
227	0x3c55b60d	0.013043893
228	0x3dfbddec	0.122981876
229	0xbd4205c5	-0.047368784
230	0xbd9f0fdd	-0.077666976
231	0xbd41012d	-0.047120262
232	0xbd747b5a	-0.05968795
233	0xbc397fe0	-0.011321992
234	0x3b1f5c9d	0.0024316676
235	0x3d28333d	0.04106449
236	0x3d1e57d7	0.03865799
237	0xbd82417d	-0.06360147
238	0xbd82da9d	-0.063893534
239	0x3dbed360	0.0931766
240	0x3bea70e4	0.007154571
241	0xbd3dbb05	-0.046320934
242	0xbc90f6e0	-0.017695844
243	0xbd3061dd	-0.04306208
244	0x3dc2264a	0.09479959
245	0xbd6d8d5c	-0.05799614
246	0xbdfa4a7a	-0.122212365
247	0x3d1fe4b1	0.039036456
248	0x3d4c0a36	0.049814425
249	0x3dc39189	0.09549243
250	0x3d0487b3	0.032355975
251	0xbd1498df	-0.0362786
252	0x3dcf7f92	0.10131754
253	0x3cb5c826	0.022190165
254	0x3d941d6f	0.072321765
255	0x3ce18a05	0.027531633
