vae_classification/state_dict_classifier_los_55.pt (torch, 617403 bytes, 14 tensors)

net.0.weight_ih_l0 f4 [300, 2]
000000 2e 8e 92 bd 1b 2f e7 bd ae 7e 8f 3d b2 3b 4c 3d
       -0.07156025 -0.112882815 0.07006584 0.049861617
000010 05 af 77 bd bd 1b 08 bd 2f 05 49 3d cf 6e 4d bc
       -0.060469646 -0.03322958 0.04907721 -0.012538626
000020 d5 48 0a 3d 88 b3 48 3d ab 69 cf 3c 82 d0 a7 3c
       0.033760864 0.04899934 0.025318941 0.020485166
000030 8c 9e b2 bd c8 8f 3e bd 6e a1 13 3d c7 0c c3 3d
       -0.08721647 -0.04652384 0.036042623 0.095239215
000040 90 d0 17 be c7 d6 4f bd 61 b0 e3 bd 44 93 2a be
       -0.14825654 -0.050741937 -0.11117626 -0.1665774
000050 00 5f 8d bd ee e4 eb bc f9 43 65 bd 85 ab ff bc
       -0.069028854 -0.028795686 -0.055973027 -0.031209717
000060 ed 2d 8a 3d 47 75 21 bd 5d e4 80 bd 35 97 94 3d
       0.06747041 -0.039418485 -0.06293557 0.07255403
000070 2b c2 d1 bd 1e 43 f2 bc 00 84 45 bd 02 6c 19 be
       -0.10242113 -0.02957302 -0.048221588 -0.14982608
000080 3e d1 e2 3d 9c 91 b4 3c 6b 60 08 bd 45 a2 46 bc
       0.11075066 0.022042088 -0.033295076 -0.012123649
000090 1f e0 d0 bd 81 b2 d2 bd 0c 14 ab 3d a1 d9 a9 bd
       -0.10198998 -0.10287953 0.08353433 -0.082934625
0000a0 45 d0 26 bb 6d d1 c8 3d 20 86 65 3d fc 9d 12 be
       -0.0025453728 0.0980557 0.056036115 -0.14318079
0000b0 9c 67 8a 3b de 6f 88 3d 00 98 b5 bd 89 d4 f4 bc
       0.004223777 0.06661962 -0.08866882 -0.0298865
0000c0 1d d9 8f 3d ce e1 36 3b 1c e1 d4 3d af cb 93 bd
       0.07023833 0.0027905586 0.10394499 -0.07216584
0000d0 c5 56 0b bb a8 b5 b3 3d de f8 8c bd ca 1d 9b 3d
       -0.0021261435 0.087748826 -0.06883405 0.07574041
0000e0 4b ce 77 3d ae 48 97 bd cb bb 45 bd 5c c1 31 3d
       0.06049947 -0.073869094 -0.048274796 0.043397292
0000f0 86 c4 25 be 99 59 05 bb ac 40 a4 3d 6e 6f 6d ba
       -0.16188249 -0.0020347594 0.08020148 -0.0009057437
000100 48 c1 81 3d 63 10 58 3d 3c b4 59 bd e6 f4 8e 3c
       0.063356936 0.052750003 -0.0531504 0.017450761
000110 d1 a0 9e bd 3b 25 1c be ad 4f 3f 3d 22 8f 9b 3d
       -0.07745517 -0.15248577 0.046706844 0.0759566
000120 30 7f 97 bd 55 1b da bd cd ab ec 3c cc e9 2a bb
       -0.07397306 -0.106497444 0.028890515 -0.0026079295
000130 c4 7a 02 3c ef 5c db bb 5f cf 97 bd f1 66 21 be
       0.00796384 -0.006694428 -0.074126 -0.15761925
000140 07 c3 73 bc bc 4d 2d bd 17 fe a6 3c ea 20 7b 3d
       -0.014878041 -0.04231046 0.020384831 0.061310686
000150 97 c2 4e bd a4 b7 a3 bd 4a aa c7 bd db 6e 9a 3d
       -0.050478544 -0.07994011 -0.09749277 0.07540675
000160 78 8c 17 3c 03 b5 1b 3c 84 5c c7 3d be 76 80 3c
       0.009249799 0.009503606 0.09734443 0.01568162
000170 3d 6d d1 3c 96 a4 0f be 01 19 0e be ea ff 01 be
       0.025564784 -0.14027628 -0.13876726 -0.1269528
000180 7d 45 02 3b bd 4d c3 bc c6 4c c1 3c ce f1 cb 3d
       0.0019877844 -0.02384078 0.023596179 0.0995823
000190 0a af 21 bd 8c b2 c5 bd eb c8 a3 bd 02 88 03 be
       -0.03947357 -0.09653196 -0.079973064 -0.12844852
0001a0 1e f7 9c 3d c0 ee 90 bc 3a 9a 96 bd 04 6a 8c bd
       0.07664321 -0.01769197 -0.07353635 -0.068561584
0001b0 5f b4 2e 3d f5 9c 63 bd 6d d5 a8 ba b1 6e 58 3c
       0.042652484 -0.055569608 -0.0012880989 0.013209985
0001c0 b0 1f 16 bd d6 f0 ec bd ec 83 bb bd 9b b8 1d 3c
       -0.036651313 -0.11569373 -0.091560215 0.009626533
0001d0 93 cf 3b bd d3 74 89 3d ce 92 11 bd 87 9c ea 3b
       -0.045852255 0.067117356 -0.035540394 0.007159773
0001e0 b4 97 c0 3d d9 ac 7f 3d 7b ed b8 bb 84 62 2a 3d
       0.09403935 0.0624207 -0.0056435443 0.041597858
0001f0 f6 0a 5c bd e5 89 11 be a5 5c c1 3d 80 ee d7 bd
       -0.05372139 -0.14212759 0.09441499 -0.10543537
000200 01 cd fe bd 10 cb 90 3b d3 21 1a 3d 9b ab d0 3d
       -0.12441445 0.004418738 0.037629914 0.10188981
000210 7f 27 c6 bd 26 18 2b 3d 2c ba 24 bd 65 5e 39 3c
       -0.09675502 0.041771077 -0.04021661 0.011314009
000220 0a 8d af bd 6b b5 c9 3d d1 97 9a bd 16 38 e3 bc
       -0.08571823 0.09849056 -0.07548488 -0.027736705
000230 09 12 9c bd 61 d2 f1 3c 10 4d 74 3d 16 44 70 bd
       -0.076206274 0.029519262 0.059643805 -0.05865868
000240 0a 0e 9b 3d 66 f0 92 3d bd 4e 94 bd 43 e1 e4 bd
       0.07571037 0.071747586 -0.07241581 -0.11175778
000250 db 5e bd bd 9d ec e8 bd dc fb eb bd d7 e1 c4 3d
       -0.09246608 -0.113732554 -0.11522648 0.09613388
000260 d9 7f 33 bd ae 30 c3 3d 7f e4 35 3d e7 b1 06 be
       -0.043823097 0.09530769 0.044407364 -0.13153802
000270 be d7 83 3d 39 59 e2 bd 74 9b 8e 3d df a2 5e 3c
       0.06437634 -0.11052174 0.06963244 0.013588636
000280 fe 91 38 3d 23 a2 b1 bd c8 ca c0 3d b4 5b d7 bd
       0.045061104 -0.08673503 0.094136775 -0.10515538
000290 9c ba 2b bc 4c 6d fc bd 92 a0 ca bd 1e dd 4b bd
       -0.010481503 -0.12325534 -0.098939076 -0.04977142
0002a0 51 d8 66 bb 7e d6 99 3d 5d 42 8a 3c 05 39 f1 3c
       -0.003522415 0.07511614 0.016877348 0.029446134
0002b0 90 39 f1 bd 5a 84 89 bd 0b 5f f7 bc 58 1f 04 bd
       -0.11778557 -0.06714697 -0.030196687 -0.032256454
0002c0 c1 d5 17 be 85 47 a0 bd 2f e7 6c bd 79 bd de bd
       -0.14827634 -0.07826141 -0.05783766 -0.10875983
0002d0 58 19 dc bd 5b 70 c8 3c b8 b6 6b 3d a1 d6 df 3c
       -0.107470214 0.024467638 0.0575473 0.027324023
0002e0 7f 43 54 bd b2 dc 8a 3d 2f f0 0f bc 84 83 07 be
       -0.05182218 0.067803755 -0.008785292 -0.13233763
0002f0 bc e5 67 bd 57 8b 9c 3d 6f 3f ec bd 0c ee f9 3c
       -0.056615576 0.076437645 -0.115355365 0.030509017
000300 2e f3 3b 3d 48 33 49 3d eb e2 69 bd 4b e0 b0 3c
       0.04588621 0.04912117 -0.05710117 0.021591326
000310 38 e2 d9 bc b0 c9 0f 3e 21 ab 9a 3d 66 c5 c8 bd
       -0.026597127 0.14041781 0.075521715 -0.09803276
000320 e6 c7 06 be d4 83 ba 3c 86 9b 00 be 1a 58 c4 bd
       -0.13162193 0.022767939 -0.12559327 -0.095871165
000330 47 9b 7c be ed f6 9d bc de 4b dc bc cc 7f 8f bd
       -0.24668609 -0.019282782 -0.026891645 -0.07006797
000340 96 62 a9 bc 80 bb b4 bd 2d 1b 84 bc ad d9 b5 bd
       -0.020676892 -0.08824825 -0.01612624 -0.08879409
000350 39 47 c2 bb e3 62 28 3e 91 db 3f bc 61 94 de 3d
       -0.0059289006 0.16443972 -0.011710064 0.10868145
000360 bf 70 54 be 77 94 93 bc e0 d6 91 bd cd a5 1c be
       -0.20746134 -0.01801513 -0.07121062 -0.15297623
000370 60 f5 a5 bd 48 6e f9 bd 52 f8 f9 bd 1f 23 2b bd
       -0.08103442 -0.121792376 -0.122055665 -0.04178154
000380 22 e4 72 3d fc a1 12 3d 5c 1b 94 be a7 80 71 bb
       0.059299596 0.03579901 -0.28927124 -0.0036850364
000390 b5 b7 26 be 3e 40 81 bd 76 87 45 be 05 c3 4e bd
       -0.16281016 -0.06311081 -0.19289955 -0.050478954
0003a0 36 3a 19 be 5a 20 02 bd 32 fb 8a bd 91 8b 54 be
       -0.14963612 -0.031769134 -0.06786193 -0.20756365
0003b0 81 b9 58 be 90 01 33 be f4 28 93 3d 05 12 e7 3b
       -0.21164514 -0.17481065 0.071855456 0.0070517086
0003c0 c3 72 44 be b4 3f 4a bd 74 39 1b be 8f 65 fa bd
       -0.19184403 -0.04937716 -0.15158635 -0.12226402
0003d0 af 48 26 be 61 99 64 be 34 fe 77 be 36 e3 86 bc
       -0.16238664 -0.22324134 -0.24218065 -0.016465764
0003e0 e7 4c 0f be 69 42 f2 3d 48 da 35 be 6b 14 81 3d
       -0.1399418 0.11829073 -0.17759049 0.063027225
0003f0 5a 51 3a be 45 80 07 be 73 2e 9b be ce 7a d6 bd
       -0.18195096 -0.13232525 -0.30308875 -0.10472642

net.0.weight_hh_l0 f4 [300, 100]
000000 1c 56 b4 3d 0f 1c 68 3d 58 b3 cb 3c 4d 9b 94 3c
       0.088054866 0.056667384 0.024865791 0.01814046
000010 f8 39 74 bd fc 6a 58 bd cf 39 3a 3d 53 4f a6 bc
       -0.059625596 -0.052836403 0.045465287 -0.020301497
000020 8a 4e 97 bc 27 1c 93 3c 33 9b cc bd a7 c3 89 bd
       -0.018470068 0.01795776 -0.099905394 -0.06726771
000030 79 9a 98 3d 72 7f 5e bd 50 80 b2 3c be 1f de bd
       0.07451338 -0.05432076 0.0217897 -0.10845898
000040 6a d6 0c 3d b8 50 5c 3d 8a 0a 54 bd 9c 91 34 bd
       0.03438417 0.053787917 -0.051767863 -0.044084176
000050 f1 98 b5 bd dd ac 99 bd ad b5 a2 3d a0 8b b8 ba
       -0.08867062 -0.07503674 0.07944808 -0.0014079697
000060 f4 27 48 bd 59 ed c3 3b 06 90 43 bb 84 74 07 bc
       -0.048866227 0.005979222 -0.0029840483 -0.008267526
000070 28 12 81 bd 2d 10 5c 3d b4 ec bc bd 0f e4 c3 bd
       -0.06302291 0.053726364 -0.09224835 -0.09564983
000080 14 5f 5f bd f3 3a 77 bd da f8 09 3d 0b a2 8f 3d
       -0.054534033 -0.060358953 0.03368459 0.07013329
000090 0a 81 ec 3d fa e5 85 bd f0 c2 d6 3d 50 4d 61 3c
       0.1154805 -0.06538005 0.104864 0.013751343
0000a0 76 ab 06 bd c0 e7 cb 3d 07 87 83 3d ac 9e 0f 3d
       -0.03287836 0.09956312 0.06422239 0.03506343
0000b0 f7 b9 3b 3d 4b 9e 3a 3d 1d 06 7c 3d 30 fa 04 bd
       0.045831647 0.045561116 0.061529268 -0.03246516
0000c0 0b b2 46 3d 7f 31 a6 bd 5d 39 1a 39 58 b1 c4 3c
       0.04850964 -0.081149094 0.00014707954 0.024010345
0000d0 e9 54 f9 bc e0 71 9e 3d 23 7d c9 bd 96 bd c5 3c
       -0.030435996 0.07736564 -0.09838321 0.024138253
0000e0 0e 1d 84 bd 1c 69 a1 bd f0 d7 3a 3d 09 00 87 3c
       -0.06450854 -0.07881376 0.04561609 0.016479509
0000f0 12 f5 9f bd 83 91 92 bb 0e 02 d9 3d ae fd 44 3c
       -0.07810415 -0.0044729128 0.10596095 0.012023373
000100 79 05 7f bc 57 bf 11 bd 32 d0 0d be 7e b9 ca bd
       -0.01556527 -0.035582867 -0.13848951 -0.09898661
000110 54 2c 89 bd 75 d8 e9 bb dc 52 87 3b 3f d8 53 bd
       -0.06697908 -0.0071363994 0.0041297507 -0.0517199
000120 62 7b a0 ba 3c f4 5a bd d0 a1 88 bd ce 49 b0 3d
       -0.0012243802 -0.053455576 -0.06671488 0.08607827
000130 9f bf 05 bd 4c ac ed bc 49 6f 97 3d bb 73 9b 3d
       -0.032653447 -0.029012822 0.07394273 0.07590433
000140 99 c3 8b 3d 32 36 06 3d 0b 60 83 3d 6d 8e 35 bc
       0.06824417 0.03276653 0.06414803 -0.01108132
000150 98 c0 49 bc b0 b7 95 bb 40 c8 88 bc e6 91 23 bd
       -0.012313984 -0.0045690164 -0.01669705 -0.03993406
000160 98 e2 03 3e 2a 1d 9f 3d 95 e7 80 bd d0 84 b2 3d
       0.12879407 0.077692345 -0.06294171 0.08716738
000170 ba 89 37 3d 9b 17 96 3d 17 ad 85 3c 52 33 42 3d
       0.04480908 0.07328721 0.016317887 0.047412224
000180 2a 3d cf 3d 91 23 26 be 64 9b ad bc 1d 47 eb 3c
       0.10119088 -0.16224505 -0.02119226 0.028720433
000190 3f 85 c2 bd 37 57 37 3d ab e5 bd 3b 21 65 19 bd
       -0.09498071 0.04476091 0.005795201 -0.03744996
0001a0 63 52 ba bc 1d 9d 17 bd 3e bc 54 bd 14 f2 b7 3d
       -0.022744363 -0.03701507 -0.051937334 0.089817196
0001b0 03 9b 71 bd 60 97 ed bb 84 34 9d 3d 7f 9c 31 3e
       -0.05898572 -0.0072507113 0.07676032 0.17344855
0001c0 d8 df dc 3d 27 6e 59 3b df 71 98 3d 44 ed 39 bc
       0.10784882 0.0033177228 0.07443594 -0.011348072
0001d0 06 ea 5a be 92 34 da 3d 0c e6 19 3c f5 6f 71 bd
       -0.21378335 0.10654558 0.009393226 -0.05894466
0001e0 e0 b3 4c bd 2e f5 d9 bc 17 f2 05 3d 01 99 ae bd
       -0.04997623 -0.026606169 0.032701578 -0.08525277
0001f0 dd 83 72 3b 16 06 02 bd f0 03 03 3d d5 33 b7 3d
       0.0037004866 -0.031744085 0.031986177 0.08945433
000200 9f f8 d3 3d e4 64 17 3c e2 b4 61 bd 0e 5d b8 bb
       0.10350155 0.009240363 -0.055104144 -0.0056263274
000210 db b3 be 3c 76 e1 4a 3d ea e4 ad 3b 88 9d 20 3d
       0.023279121 0.049531423 0.0053068297 0.039212734
000220 c9 a7 a3 3d 70 87 31 3d 41 b7 ec bc f2 f6 87 3d
       0.07990987 0.043342054 -0.028895976 0.06638898
000230 24 ae 12 be 56 65 d7 bc 7a fe 1c 3d ad 53 02 be
       -0.14324242 -0.026293438 0.038328625 -0.12727232
000240 61 60 66 3d 2a 75 4a 3d 63 86 b1 bc cb d8 ae bc
       0.056244258 0.049428143 -0.021670526 -0.02134361
000250 30 20 1e 3d 0c 55 aa bc 1c 65 ac 3d 52 f6 84 bd
       0.038604915 -0.020792507 0.084177226 -0.06492294
000260 08 68 84 3c 3f e3 ec 3c 37 62 28 3c 54 3c 30 bd
       0.016162887 0.028916953 0.0102773225 -0.043026283
000270 ba 9a 99 3d 79 dd d9 3d b0 a7 9d bc 3d b3 fc bd
       0.07500215 0.10637946 -0.019244999 -0.123388745
000280 dc ea 04 3d 09 9f 2d 3d 3c 0a ed 3d 0e 86 c5 3c
       0.03245054 0.042387996 0.11574218 0.024111774
000290 08 e1 3c 3d 1d 51 17 bd 30 b4 7c bc 45 bf 45 bd
       0.046113044 -0.03694259 -0.015423819 -0.048278112
0002a0 4a 71 85 bd d6 b4 b8 3d 9d 86 c2 3b 54 1d 42 3a
       -0.06515749 0.09018867 0.0059364573 0.0007404883
0002b0 6a 84 32 3d d4 07 19 bc 12 25 ed 3d 34 5a 4d bd
       0.04358331 -0.009340245 0.11579336 -0.050134853
0002c0 93 cc 7d bc 08 39 d7 bc fb dd af bc bc 41 aa bc
       -0.015490669 -0.026272312 -0.021468153 -0.020783298
0002d0 87 37 16 3d a2 fe 0b 3e 85 be 37 bd a6 7e 25 3d
       0.03667405 0.13671353 -0.044859428 0.040403984
0002e0 ea 89 81 bd 8a 78 4a 3d c8 14 8b 3d fc 9f 7a 3d
       -0.06325133 0.04943136 0.06791073 0.06118773
0002f0 5a 42 68 3b 29 41 9d bd 1e ca 36 3e c4 c2 cf bd
       0.003543994 -0.07678444 0.17850539 -0.101445705
000300 a1 c0 0d 3e 40 91 0b be 5e df f6 bb a0 1d 8f 3d
       0.13843013 -0.13629627 -0.0075339517 0.069880724
000310 d4 ba 09 bd e1 aa 00 3b 00 87 14 3e 0b 8c 37 3c
       -0.03362544 0.0019633102 0.14504623 0.011202822
000320 09 b5 7a 3c 19 77 a9 3d 56 a2 16 3d db 61 82 3d
       0.015301951 0.08274669 0.03677591 0.06366321
000330 bc 64 9c bc f9 07 c4 bd fe 9f ad 3d 2c 23 a9 3d
       -0.019091003 -0.09571833 0.08477782 0.08258662
000340 e1 6f 6f 3d e1 63 b9 bd 41 d3 ce 3c 8f 91 3f 3d
       0.058456305 -0.090522535 0.025247218 0.046769675
000350 a6 09 0b be fd 4e fc bb e9 bf 71 bc de 2e 50 bc
       -0.135779 -0.007699846 -0.014755228 -0.0127064865
000360 aa 61 bd 3d 85 a8 f2 bd 0e aa 3f bd ca d2 23 3c
       0.092471436 -0.11848549 -0.046793036 0.0099989865
000370 e0 4d 82 bc 1a 56 e2 bd d7 e4 1d 3c b0 a0 43 bd
       -0.015906274 -0.11051579 0.009637079 -0.047760665
000380 9a 08 a4 3d 3a 2c f8 3c 5e ea 6b 3d a1 b2 03 bd
       0.08009453 0.030294526 0.057596557 -0.032152776
000390 4b 6b 51 bd ef 3f 64 3c ff 29 f7 bc 78 dd 9a bd
       -0.051127713 0.013931259 -0.030171392 -0.07561773
0003a0 84 0b 78 3b 60 24 89 bd c5 35 a8 bd fb b0 91 bd
       0.003784866 -0.06696391 -0.08213381 -0.071138345
0003b0 44 15 59 3c ba 9d ab 3c ad f6 92 3d a7 99 03 be
       0.013249699 0.020949233 0.07175956 -0.12851582
0003c0 15 d8 84 3d a4 44 2e bd 6b b0 5e 3d d3 3c 18 3c
       0.06486527 -0.04254593 0.054367464 0.009291845
0003d0 78 63 36 bd ab 24 74 3d e2 d9 3d bc 9f 8e 90 3d
       -0.044528455 0.05960528 -0.011587592 0.07058453
0003e0 29 c7 72 3b 44 83 8c 3d 2c e0 5d 3d 47 28 d7 bd
       0.0037044978 0.068609744 0.054168865 -0.10505729
0003f0 94 bf 1f bd b0 dc 85 bd 75 b1 dd bd 3c ba 7d 3d
       -0.039001063 -0.065362334 -0.10824863 0.061945185

net.0.bias_ih_l0 f4 [300]
000000 10 54 a3 3d 5f 2d c6 3c b1 68 45 bd f5 5d e5 bd
       0.07975018 0.024191556 -0.048195545 -0.111995615
000010 da ef 12 bd d5 86 e2 bc aa be 8e 3a 91 de 3d bd
       -0.03587327 -0.027652184 0.0010890563 -0.046354834
000020 a4 94 be bb 01 86 52 bd 0b ea ac 3c 5f 55 b5 3c
       -0.005816059 -0.051397327 0.021107694 0.022135435
000030 77 ca 67 bd d8 f5 9b 3d a3 28 ae bd 01 0e a5 3d
       -0.05658957 0.0761525 -0.085038446 0.08059312
000040 bd 21 a2 bd 57 bf a8 3b 42 05 ad 3c 6a 5d c7 bd
       -0.07916591 0.0051497626 0.021120671 -0.09734614
000050 5a 3b 9a 3c f4 89 11 be e5 1a 18 be c9 78 02 bd
       0.01882713 -0.14212781 -0.1485401 -0.03185347
000060 55 8a 12 3b 24 a3 70 bd b3 02 03 3d 6b a6 ea bd
       0.0022360284 -0.058749333 0.031984996 -0.11457523
000070 bb 94 89 3d 75 7a 64 3d d0 9c 12 3d c7 e9 5c bd
       0.06717821 0.055780847 0.03579408 -0.053933885
000080 71 95 ca bd 19 c4 93 bd 20 3e 06 be 0f 34 30 3d
       -0.09891785 -0.07215137 -0.13109636 0.043018397
000090 00 50 88 bd 0c aa b9 3d 36 0c dd bd 9d 0c b4 bd
       -0.06655884 0.09065637 -0.10793345 -0.08791468
0000a0 50 d2 0e bd 21 f8 6f bd 00 4a 83 bc 93 3e 23 bd
       -0.03486854 -0.058586244 -0.016026497 -0.039854597
0000b0 19 a6 00 be 63 ca 27 3d a7 60 23 3d b5 e3 e7 bd
       -0.12563361 0.040964495 0.039887097 -0.113227285
0000c0 f6 9a d3 bd 3f 0a 75 bd 61 6b c5 ba f0 d9 70 bc
       -0.10332291 -0.059824225 -0.0015061909 -0.014700398
0000d0 a4 93 b2 bd 30 c4 d7 3b 2c 1b a9 bc b7 b0 55 bd
       -0.087195665 0.0065846667 -0.02064284 -0.05217048
0000e0 36 c8 05 3c 3b d9 ac bd c8 0c 8e 3d df 9b a9 3d
       0.00816541 -0.08439871 0.069360316 0.08281683
0000f0 7b b9 a6 3c 9a 39 cf bd bc 00 e4 3c 12 cc 25 3d
       0.020352116 -0.101184085 0.027832381 0.04047782
000100 88 c9 b2 3a 67 29 a4 bb 7b d9 f1 bd d4 a0 99 bd
       0.0013640383 -0.0050098184 -0.11809059 -0.07501379
000110 8e 79 d5 bd e9 ef 91 bd 3f c6 ab bd eb 85 96 3c
       -0.10423575 -0.07125837 -0.08387422 0.018374404
000120 c6 8c b4 3d 54 31 20 bc 3d 44 b5 bc 91 8a 06 3d
       0.08815913 -0.009777386 -0.022127265 0.03284699
000130 c7 93 54 bd 72 78 df 3b 99 6e f5 bd 3e f4 de bd
       -0.051898744 0.006819778 -0.119839855 -0.10886429
000140 38 56 db 3c e7 cf 38 bd a8 47 53 bb a2 43 80 bd
       0.02677451 -0.045120146 -0.0032238755 -0.062629
000150 9a 10 c4 bd a5 54 04 bd 08 10 8f 3d 0f 95 7d 3d
       -0.09573479 -0.032307286 0.069854796 0.06190973
000160 92 17 14 bd 3e 04 f9 3c 75 ea d9 3a 54 5c 44 bd
       -0.03615529 0.03039753 0.001662566 -0.047939613
000170 79 c9 56 bd 16 57 ba bd cc 0e 5a bd 13 d7 13 bd
       -0.052438233 -0.090986416 -0.053236768 -0.036093783
000180 03 4f 85 3d b8 b5 90 bd d7 b1 1d bd e4 19 70 bd
       0.06509211 -0.0706591 -0.03849968 -0.05861844
000190 9e 4d 11 be 68 ad 28 be b3 51 51 be 96 2c a6 bd
       -0.14189765 -0.16472399 -0.20441322 -0.08113973
0001a0 94 b6 ff bd 9b 1b db bd bc 30 44 bd e5 fb a0 3b
       -0.12485996 -0.10698625 -0.04789804 0.0049128407
0001b0 44 fe 0c be df a5 29 3d d7 6c a1 bd 65 4c 59 3c
       -0.1376887 0.041417953 -0.07882088 0.013262843
0001c0 df c9 b3 3d 32 26 25 be 99 5d a5 bd 6f 2b 09 be
       0.08778738 -0.16127852 -0.08074493 -0.13395475
0001d0 6f 21 99 bd 3f 99 97 bd 2b 4a 0f be c3 2b 9b 3b
       -0.0747708 -0.07402276 -0.13993137 0.0047354414
0001e0 22 5a 85 b8 6c 58 66 bc d4 26 60 be 54 1a b9 bd
       -6.358723e-05 -0.014059167 -0.21889812 -0.09038225
0001f0 ec 2c bb bd dd c8 25 be 78 fd 49 be b5 26 03 be
       -0.091394275 -0.16189905 -0.19725597 -0.12807734
000200 2b b4 af 3d a2 b1 8e bd d2 09 2b bc 95 4e 93 bd
       0.08579286 -0.069674745 -0.010439353 -0.07192723
000210 73 55 40 be 23 54 0c be 30 d7 24 bd 1b cc e1 bc
       -0.18782596 -0.1370397 -0.04024428 -0.027563145
000220 bd dc 18 be 22 06 51 be ec b0 7b bd 0a 79 a4 be
       -0.14927955 -0.20412496 -0.061448023 -0.32123595
000230 92 c3 c0 bd e4 ee 85 bd 28 a5 18 bd 7d 81 a2 bb
       -0.09412302 -0.065397054 -0.03726688 -0.004959284
000240 8b 69 0f 3d 29 8e 5e be 7f 4c 99 3d e5 8e bf 3c
       0.035012763 -0.21733917 0.074852936 0.023383567
000250 32 c1 38 be 9c bd 3a ba 0d ac 98 bd ad a1 1f be
       -0.18042448 -0.0007123591 -0.07454691 -0.15589018
000260 dd b3 44 be 2b 38 67 bd a0 fb 4a be 17 17 36 be
       -0.19209237 -0.05645005 -0.1982255 -0.17782246
000270 21 84 ac bb f2 e5 f2 bc 71 e6 46 3c fc 50 3c bd
       -0.0052647744 -0.029650662 0.012139902 -0.04597567
000280 df de c7 bd db 49 6e bb 5e d6 8e bc bb fd 1f bd
       -0.09759306 -0.003635994 -0.017436203 -0.039060336
000290 e4 47 a1 bd 3d 0c 71 be 06 ef c7 bd 46 9f 22 bd
       -0.0787504 -0.23539825 -0.09762387 -0.039702676
0002a0 6b 7f 67 be 95 71 db bd 94 73 16 be 10 48 89 bd
       -0.226072 -0.107150234 -0.14692527 -0.06703198
0002b0 83 92 4d bc 07 f7 ff bd 3e 47 e8 bd 04 2f d6 bd
       -0.012547138 -0.124982886 -0.11341713 -0.10458186
0002c0 18 f5 65 3c a2 f9 1b be 10 30 26 be c6 92 53 bd
       0.014035486 -0.15231946 -0.16229272 -0.051653646
0002d0 e7 de a4 bd d5 96 b7 bb 59 fd a3 bd 44 15 21 be
       -0.08050328 -0.0056026974 -0.080073066 -0.15730768
0002e0 9c d6 6c bd 94 56 f0 bd 33 48 0e be 7e 39 37 bd
       -0.057821855 -0.117352635 -0.1389473 -0.044732563
0002f0 63 49 82 bd ec 4d 35 bd b0 cc 27 be b0 39 31 be
       -0.06361654 -0.044263765 -0.16386676 -0.17307162
000300 7f 7d 10 be 67 29 0f bc ee fa 84 bd c5 ff a8 bd
       -0.14110373 -0.008737898 -0.064931735 -0.08251909
000310 ce c1 ae 3b 5d d5 10 be 21 80 9b bd 8e a1 cd bd
       0.005333162 -0.14143892 -0.07592798 -0.1004058
000320 d2 0a a4 bc 81 68 35 bd 5b e6 be bd 16 cb 4c bd
       -0.02002469 -0.044289116 -0.093212806 -0.049998365
000330 75 6f 98 bd bb 78 49 3d 00 52 f5 3b bf 6b 9c 3d
       -0.07443134 0.049187403 0.007486582 0.076377384
000340 8e fc 82 3d 5e e1 60 3d 8c 70 ac bd e4 bd 9a bc
       0.06395827 0.054902427 -0.08419904 -0.018889375
000350 f3 51 e1 bc 03 3b ad 3d 35 81 90 3d 5e f6 d6 bd
       -0.027504897 0.08458521 0.07055894 -0.104962096
000360 b8 30 ac 3d 66 da 65 3d 52 5f ed bc b3 91 b4 3d
       0.0840773 0.056116484 -0.028976116 0.088168524
000370 d3 90 18 bd 98 ed c7 3c e0 c1 10 bc df 63 be 3c
       -0.03724749 0.024405286 -0.008835286 0.023240982
000380 f0 dc a4 3d 6b e1 90 3d 02 40 df bd ae 77 e8 3c
       0.08049953 0.07074245 -0.109008804 0.02837738
000390 27 eb 8e bd 5a ef 85 3b 24 92 9a 3d c1 b9 a0 3d
       -0.069784455 0.004087371 0.07547405 0.0784793
0003a0 56 d4 30 3d 25 5c 82 bd 04 86 4f 3c 83 9c 05 3d
       0.04317125 -0.063652314 0.012666229 0.032619964
0003b0 24 b1 14 bd 90 99 15 bc 2d 4f 8a 3d 39 27 e8 bc
       -0.036301747 -0.00913085 0.06753383 -0.028339015
0003c0 16 0a dd bc ab d2 11 3d 6d 16 a4 bd 48 89 b5 3c
       -0.026982348 0.0356013 -0.0801209 0.022160187
0003d0 4e 36 47 3d d0 93 6e bd 6e 18 73 3d 92 2e 93 bc
       0.048635773 -0.058246434 0.05934947 -0.017966542
0003e0 0c f5 37 3d 61 6f b3 3d c0 1a 20 3d 67 0e d5 3c
       0.04491143 0.08761478 0.03908801 0.026007844
0003f0 6e c4 36 bd f0 16 87 3d 80 09 78 3c 32 00 53 bd
       -0.044620924 0.06596172 0.015138984 -0.05151386

net.0.bias_hh_l0 f4 [300]
000000 9f 3c d5 3d 7f bd 6b bd c6 40 4a bc df a0 ec bd
       0.10411953 -0.057553764 -0.012344545 -0.11554121
000010 33 7f 9f 3d e6 7b 21 bd 89 e7 46 bd 42 9c 51 3d
       0.07787933 -0.0394248 -0.048560653 0.05117441
000020 52 68 70 3c e0 ac 7f bd 70 3f 3a bd 7a 18 39 3d
       0.014673309 -0.062420726 -0.045470655 0.04518936
000030 b2 4d 0b 3d f8 fc 84 bd f1 75 11 bd 73 f0 22 3d
       0.034009643 -0.064935625 -0.03551287 0.03978009
000040 0c 45 8e bd 89 87 9f 3c 23 03 35 bd 21 63 bc bd
       -0.069467634 0.019473808 -0.044192445 -0.09198595
000050 9e c4 b9 bb 0c f3 a3 b8 b0 07 ba bc f2 15 1f bd
       -0.0056691905 -7.817717e-05 -0.022708744 -0.038839288
000060 bb 5c 91 3d 9e 3d 96 bd cc e2 22 3d 96 b7 7a 3d
       0.07097765 -0.07335971 0.03976707 0.061210237
000070 0d 4c 6f 3d 20 5d be bd bb 5c 93 bd b7 80 5b 3c
       0.058422137 -0.09295106 -0.07195421 0.013397387
000080 0b 8c 20 bd 13 69 49 bd 4b dc 94 bd 13 bb c0 3c
       -0.039196055 -0.049172472 -0.0726858 0.023526704
000090 e1 41 c1 bc 90 f8 b6 3c 5f 71 1c bd 66 7f be 3c
       -0.023590984 0.02233532 -0.038194057 0.023254108
0000a0 07 f2 6c 3d dd e9 0e 3d 75 3c 74 bd d0 65 e1 bc
       0.057848003 0.034891 -0.05962797 -0.027514368
0000b0 55 70 06 bd d6 cc 2d 3c 88 62 1d bd 5d 4c 0c bd
       -0.032821972 0.010607919 -0.038424045 -0.034252513
0000c0 30 19 5b 3c 31 ac ba bc 65 45 b6 bd ab 89 a5 bd
       0.013372704 -0.022787185 -0.08899955 -0.08082899
0000d0 43 f6 f5 bc b3 ed 25 bd 5f f1 c3 3d 36 74 9e 3c
       -0.030024653 -0.04050989 0.09567522 0.019342523
0000e0 38 e3 1a bd fb 91 aa bd dd fe ac bd f2 83 5d 3d
       -0.03781435 -0.08328625 -0.08447049 0.05408091
0000f0 6b ae 96 bc 82 0d 54 bd 2a f9 1a bc 16 75 0f 3c
       -0.018393716 -0.051770695 -0.009458819 0.008755943
000100 87 9c 94 3d 57 f7 92 bd ac 01 de bd 6d 71 92 3d
       0.07256418 -0.071760826 -0.10840163 0.071505405
000110 b6 ce 14 bd 3f 24 a1 bd 81 24 e7 bd 80 4b f0 bb
       -0.036329947 -0.078682415 -0.112862594 -0.007333219
000120 6d 3d 43 bd be 8e 23 bd a0 0e 25 3d 95 c2 b9 3d
       -0.047666002 -0.03993105 0.04029715 0.09070317
000130 be da 9e bd 4b 1a 3f bb ca 49 44 3d 4d f7 cb bd
       -0.077565655 -0.002915996 0.047921933 -0.09959278
000140 58 62 03 be 66 c8 44 3c c8 f3 d8 bd d5 2b 2e 3d
       -0.12830484 0.012010669 -0.105933726 0.04252227
000150 78 b2 09 3d e7 0a ee bd f5 3d 16 3d db c6 2d bd
       0.033617467 -0.11623173 0.03668018 -0.04242597
000160 f9 7d af ba 67 26 02 bd 4b 54 39 3d 1a de d7 3c
       -0.0013388983 -0.031774905 0.045246404 0.026351023
000170 ba 11 ce 3d 9d d9 c6 bc a7 c4 92 3d 69 67 8c bd
       0.10061975 -0.024273688 0.07166415 -0.068556614
000180 0e f0 92 3d 58 ae b9 bd 08 be 22 bd 65 db 5e bb
       0.07174693 -0.090664566 -0.03973201 -0.003400528
000190 17 ae 1a bd ed ec 46 be 20 45 5f be 31 ba 09 be
       -0.03776368 -0.19426318 -0.21803713 -0.13449933
0001a0 50 52 01 be 5b fe 0c be 59 32 97 bb 82 4e ac bc
       -0.12629056 -0.13768904 -0.004614156 -0.02103353
0001b0 66 f2 42 be 7f 1a a9 bd 4f 4d 9b bd a0 c8 07 3d
       -0.1903778 -0.08257007 -0.07583105 0.033150315
0001c0 b5 6d ac bd 34 46 fc bd 67 be 83 bd a2 75 30 be
       -0.084193625 -0.12318078 -0.06432801 -0.17232373
0001d0 25 45 01 be 8d 81 90 bd e6 a3 fa bd d5 59 f6 bc
       -0.12624033 -0.0705596 -0.122382924 -0.030072132
0001e0 f9 42 4f bb 8d 00 75 bd fb a5 ba bd 5e 3f 4d bd
       -0.0031625612 -0.05981498 -0.091136895 -0.05010926
0001f0 d8 24 3c 3d 4a bb 8b bc 60 bf c9 bd 75 d7 78 be
       0.045933574 -0.01705708 -0.09850955 -0.2430094
000200 5b 32 b9 bd 21 f1 ac bd d7 34 d6 bd a5 46 5a bd
       -0.09042808 -0.08444429 -0.10459297 -0.053290028
000210 af 8c 43 be d1 a0 87 bd b8 33 1e be fc 25 75 bd
       -0.19096635 -0.0662247 -0.15449417 -0.059850678
000220 6e 98 0b be 85 0c 74 be 9f 12 6e be 0c 11 9b be
       -0.13632366 -0.23832901 -0.23249291 -0.30286443
000230 0d 64 02 bd 5e 89 97 bd 86 a1 af 3c ec 9b 00 3d
       -0.031833697 -0.073992476 0.021439325 0.0313987
000240 59 8c 91 bd 8d b3 70 be ea f7 7d bb 51 bf 2c bd
       -0.07106847 -0.23505993 -0.0038752505 -0.04217464
000250 6b d8 43 be 9e a8 08 bd 8e 0d d2 bd 44 be 3b bd
       -0.19125526 -0.03336393 -0.102564916 -0.04583575
000260 38 7d 4d be bc 09 bd bd 74 24 0a be c7 d4 d0 bd
       -0.20067298 -0.09230372 -0.13490468 -0.10196834
000270 5d 85 b3 bd 58 e0 08 bd 56 6a 56 bd c1 4a 5f bd
       -0.087656714 -0.033417076 -0.052347504 -0.05451465
000280 9c f4 f8 bd 89 af 0e be 45 6d 15 3d 92 fe a8 bd
       -0.121560305 -0.13934149 0.03648116 -0.082516804
000290 ac 3f 19 be 8d 54 52 be b6 31 18 be 61 36 26 be
       -0.14965695 -0.20540066 -0.14862713 -0.16231681
0002a0 cd 7c 0d be 00 8f 24 be ce fe 22 bd e4 75 f8 bb
       -0.13817139 -0.16070175 -0.039793782 -0.007582413
0002b0 07 49 77 bd 54 11 17 be 53 1b d6 bc 13 b0 fc bd
       -0.06037238 -0.14752704 -0.026136076 -0.12338271
0002c0 4f 77 d2 bd c7 02 16 be 8a 0b 0c be 3b 68 c0 3d
       -0.102766626 -0.14649497 -0.13676277 0.093948804
0002d0 ec 66 ba bd 7a a0 aa 3d 16 e6 0d be 45 0b 11 bd
       -0.09101662 0.0833139 -0.13857302 -0.035411138
0002e0 5c f6 71 bc 10 64 b2 bc ba 01 19 be c8 00 6c be
       -0.014768209 -0.02177623 -0.14942065 -0.23047173
0002f0 b7 bb 03 be d2 9b a4 bd e2 81 29 be 6c e2 f6 bd
       -0.12864576 -0.08037533 -0.16553453 -0.12054905
000300 ea fc ea bd ec 96 02 bc 58 b3 87 bd 22 a7 03 be
       -0.11474021 -0.007970553 -0.06626004 -0.12856725
000310 39 00 6c 3d 6f 6c ea bd 79 84 85 3c bb a7 82 bd
       0.0576174 -0.11446463 0.01629852 -0.06379648
000320 44 37 c9 3d e3 f5 e4 3c b0 f2 02 3d 4e da 32 bc
       0.09824994 0.02794928 0.031969726 -0.010916306
000330 43 f9 2f 3d bb d5 89 bb d5 44 55 bd 8b 18 28 bc
       0.042962324 -0.004206387 -0.052067596 -0.010259758
000340 24 fb 92 3d e4 98 e7 3c 7a 44 48 bd 37 ef c2 bd
       0.071768075 0.028271146 -0.04889343 -0.09518283
000350 b7 b8 a7 3d 0b 51 92 3c 37 fc ce 3c ec 0f d7 bd
       0.081895284 0.01786091 0.02526675 -0.10501084
000360 69 93 11 bc 7f c9 88 bd d3 7e 53 3c 2d ed 43 3d
       -0.008885243 -0.06679057 0.012908655 0.04783361
000370 66 d8 0e bd 15 1b 16 3d 45 57 53 3d 60 54 14 3d
       -0.034874342 0.03664692 0.0515969 0.03621328
000380 ba ef ac bd 90 3e 89 bd 3a 1f b4 3c ab a8 26 bd
       -0.08444162 -0.06701386 0.021987546 -0.040688198
000390 6a 69 1b bd 0e de 67 bd 6f 1e ad bd bb 70 c2 bd
       -0.037942328 -0.056608252 -0.0845307 -0.09494158
0003a0 44 7b 86 3d 8b f2 6d bd 7a 1f 8e bd 78 89 88 3d
       0.0656648 -0.058092635 -0.069395974 0.06666845
0003b0 45 9c c8 3d e0 8a 49 bd b3 09 ba bd b2 86 9f bd
       0.09795431 -0.049204707 -0.09083881 -0.07789363
0003c0 a9 11 c3 3c 40 a0 bd b9 50 17 1e 3d d7 65 35 3d
       0.023812132 -0.00036168285 0.03859645 0.044286575
0003d0 a2 95 42 bd 68 8e ca 3d b7 06 98 3d aa 22 0e 3d
       -0.047505982 0.09890443 0.07423156 0.034701027
0003e0 45 ad 95 3d f4 b1 2a 3c ea b5 15 3d c3 7d 0c bd
       0.07308439 0.010418404 0.03655044 -0.034299623
0003f0 ae 5c 96 3d db 36 68 3d dc 76 d3 bd 65 f6 97 bd
       0.07341896 0.05669294 -0.10325405 -0.07420043

net.0.weight_ih_l1 f4 [300, 100]
000000 31 d6 45 be 7d c8 9f bd 52 97 79 bc 75 d2 81 bb
       -0.19319989 -0.07801912 -0.0152338315 -0.003961856
000010 58 a8 9a 3d 76 aa 80 bd 18 7f 80 bb 16 76 6e bc
       0.0755164 -0.06282513 -0.0039214008 -0.014554521
000020 9e d7 56 3d e9 69 fa 3c 7b 84 56 3d d9 fa 15 3e
       0.052451722 0.03056808 0.052372437 0.14646472
000030 6e 5a 14 3e c7 de ca bd f5 e2 0a be 78 30 9c 3d
       0.14487621 -0.09905773 -0.1356314 0.07626432
000040 95 da 39 be c3 12 f9 bb b3 45 6d 3d b2 d5 e8 3d
       -0.18149789 -0.0076011135 0.0579278 0.11368884
000050 22 40 7c 3d 67 23 c0 3d 97 2f 6b 3d dc dd f3 b9
       0.0615846 0.093817525 0.057418432 -0.0004651387
000060 7a 83 82 bb 27 b1 ed bd 1b 67 8d 3c d8 72 a9 3a
       -0.0039829584 -0.11606055 0.017261079 0.0012927903
000070 93 ed 1c bb 16 41 e5 3c 6e 63 59 3d 66 e2 a7 3d
       -0.0023945316 0.027985137 0.05307334 0.08197479
000080 ce 76 85 bd 7d b1 2e 3e fa d2 ec 3d b9 76 a2 bd
       -0.06516801 0.17059894 0.11563678 -0.07932801
000090 b6 2c 49 3c e8 63 2c 3c e1 f2 ac 3d 5e 2e ca 3d
       0.012278726 0.010521866 0.08444763 0.09872125
0000a0 a1 52 e6 bc ba 5e 7a bd 0f 12 40 3c e0 a7 ff bd
       -0.028115572 -0.061125495 0.0117230555 -0.124831915
0000b0 55 5b be bc 12 83 cd bd 8f 5d b2 3b 8c b5 c0 bd
       -0.02323691 -0.10034765 0.005443282 -0.09409627
0000c0 b8 8a 14 be c4 b8 d8 bd 4e 8c 6d bc 65 58 51 bd
       -0.14506042 -0.10582116 -0.014498783 -0.05110969
0000d0 e5 0d 9f 3d ea 45 15 3d d6 e0 cc 3d 00 66 2d 3d
       0.07766322 0.03644363 0.100038216 0.042333603
0000e0 2c 28 61 3c 55 63 36 3c 74 79 73 3a ed 32 e1 bd
       0.013742488 0.011132081 0.0009287812 -0.109960414
0000f0 9f e1 15 bd b7 b0 8e 3d 93 ef e0 3b 2f da 0e be
       -0.036592122 0.069672994 0.006864497 -0.13950418
000100 d0 f1 cf 3d e7 00 1d bd 77 d4 63 3d a6 c5 a9 3d
       0.10153544 -0.03833094 0.055622544 0.082896516
000110 da 98 a3 3d e5 ca f3 3d c7 e7 c2 bd 6a 0d 00 3e
       0.079881385 0.119039334 -0.09516864 0.12505117
000120 98 bf 8c 3d 0a 1a 95 3d 57 9f ea 3d a8 6c 80 be
       0.06872481 0.07280357 0.11456173 -0.25082898
000130 50 42 88 3c 6c e8 22 3d a1 44 1d 3d 07 41 ce bc
       0.016633183 0.039772436 0.038395528 -0.025177492
000140 67 94 b8 3c c5 73 b3 3d 8a fe 09 be 64 00 b6 bd
       0.022531701 0.08762316 -0.13476005 -0.08886793
000150 0b 3d a4 3d 0e 27 97 3d 0d 80 0c 3e 9a 76 1d 3e
       0.080194555 0.07380496 0.13720722 0.15377274
000160 25 33 d6 bd e9 d9 6e bc 51 5e 94 3e c8 50 2a 3d
       -0.10458974 -0.014578321 0.28978208 0.041580945
000170 e3 69 9f bd c0 fb b7 bd 2a ba c0 3c ba 74 ae 3c
       -0.07783868 -0.089835644 0.02352627 0.021295894
000180 15 c7 1d be 0a 1c f6 3d f3 ba 80 3d 0c 6e 01 bc
       -0.15407975 0.12017067 0.06285658 -0.007899772
000190 54 55 01 3d 7f 81 9a bd fc c3 f1 3b 59 b7 46 be
       0.031575516 -0.07544231 0.0073780995 -0.19405879
0001a0 46 d4 9c 3d 0a b7 cf 3c 39 6c 92 3c e8 a5 89 3b
       0.076576754 0.025355835 0.01787387 0.004200686
0001b0 50 7e 25 bd 6d e8 42 3c 06 79 8e bc 6e 31 91 3d
       -0.040403664 0.011896235 -0.017391693 0.07089506
0001c0 a9 cb 1d 3c 10 25 02 3b b0 7a a4 3c 8d 01 02 3e
       0.009631076 0.0019858517 0.020078033 0.12695904
0001d0 03 d0 61 bd 0f 98 91 3d 37 52 38 be 9b 3a c4 bd
       -0.055130016 0.07109081 -0.18000112 -0.095814906
0001e0 db d7 e3 3c c2 49 8b bc 7c 5f 14 be e4 aa 70 bd
       0.027812889 -0.017002944 -0.1448955 -0.058756724
0001f0 01 40 2a be cf 3e a3 bc 96 5e 86 bc b4 27 1c 3e
       -0.16625978 -0.01992741 -0.016402524 0.1524952
000200 42 5c 50 3d 4b 46 f4 bd 01 fa c0 bd 13 f9 1f 3c
       0.050869234 -0.1192747 -0.094226845 0.009763974
000210 8a aa af bd 29 a1 b1 bc b1 08 d6 3c 84 36 0c be
       -0.085774496 -0.021683292 0.026127191 -0.13692671
000220 65 84 5a 3e 7f 65 eb 3d 0d 3d f1 bc 99 6f 1f be
       0.21339567 0.11493968 -0.029448057 -0.15569915
000230 ca f2 0d be 13 f6 91 bd 1f 95 45 3d e1 ef 8a bd
       -0.13862148 -0.07127013 0.048237916 -0.067840345
000240 65 f9 c9 bc 4a 4d 5a 3e 8e 1d 1c bd 39 c8 aa bc
       -0.024655053 0.21318546 -0.038114123 -0.020847427
000250 9e 52 2a bd 23 0a 7b bc bc 9d fd bd 9a 21 33 bd
       -0.041582696 -0.015322241 -0.12383601 -0.043733217
000260 de 43 04 bd 64 e0 27 be b5 aa c4 bd a1 82 4b 3d
       -0.032291286 -0.16394192 -0.09602872 0.049685124
000270 e2 f7 80 3d af 4a 2b bd 95 b8 09 be 42 aa 42 bd
       0.0629728 -0.04181927 -0.13449319 -0.04752565
000280 e3 94 5a bd 12 ea a3 3c f3 11 db 3b a4 5c 64 3c
       -0.053364646 0.020009074 0.0066854893 0.013938103
000290 44 0b 08 bd a6 8d 3e 3d 6e 2f d1 3c a5 9c ab bd
       -0.03321387 0.046521805 0.025535312 -0.08379487
0002a0 0b 43 1f 3e e4 c0 ad bd 32 4d 92 3d 98 45 62 bd
       0.15552919 -0.084840566 0.0714363 -0.05524215
0002b0 63 48 0e 3e d8 a6 2e bd d4 2a 83 bd 24 b1 91 3d
       0.13894801 -0.042639583 -0.06404653 0.07113865
0002c0 a1 10 e2 bd 0d 7b b9 3c f4 d5 e4 bd 4a 5d 19 3e
       -0.11038328 0.022641683 -0.11173621 0.14976993
0002d0 66 8f c6 bc 33 9b 9c bd 59 df 76 bd c4 82 5e 3e
       -0.0242383 -0.076467894 -0.060271595 0.2172957
0002e0 2f 09 8f bd 99 25 44 bd c7 bb c1 bd 91 5c 60 be
       -0.069841735 -0.04788742 -0.09459644 -0.21910311
0002f0 b9 65 ca 3d 1e 68 21 bd e1 e4 c5 bd 8d a7 46 3d
       0.09882683 -0.039405935 -0.09662796 0.048499633
000300 af cf 56 3d 90 cf de 3d 88 e3 5a 3d a0 c5 ce 3d
       0.052444156 0.10879433 0.053439647 0.10096288
000310 ca 53 3e bd e0 91 2c be 52 fc 24 bd d8 a4 a2 bb
       -0.046466626 -0.16852522 -0.040279694 -0.0049634986
000320 0f 56 01 3d 10 69 88 3c ab 4f a2 3d 0f f1 69 3d
       0.031576212 0.01665166 0.07925352 0.057114657
000330 64 fa 06 bd bd 4b ac bd 51 a3 42 bd a3 9e 5d bc
       -0.032953635 -0.084128834 -0.047519032 -0.0135265915
000340 8f 78 d5 bd 2c b2 89 bd 3a a7 b6 bc eb f4 12 bd
       -0.10423385 -0.06723437 -0.022296537 -0.035878103
000350 1e 31 0f bd c6 b6 c9 3c 22 39 a2 3d b0 eb a3 bc
       -0.03495895 0.024623286 0.079210535 -0.020009845
000360 e4 06 8a 3d cb a4 16 3a 8e 21 9a 3d 79 32 6d 3c
       0.067395955 0.0005746602 0.07525931 0.014477366
000370 a4 9a 4a bc 8c bb 10 be 0e 98 6e 3c 77 7d 13 3d
       -0.012365971 -0.14134043 0.01456262 0.036008324
000380 fc f9 ab bd 54 8d bb 3c ed df b2 3d 51 57 c9 3a
       -0.0839729 0.022894539 0.08734117 0.0015361105
000390 e4 fd fe 3d 8f a9 0b be 33 6d 1f 3d 5a ad fb 3a
       0.124507695 -0.136389 0.0389225 0.0019201443
0003a0 a8 57 70 3d 21 9d 72 3d 79 db 2b 3d 5e 35 ba bd
       0.058677346 0.05923188 0.041957352 -0.0909221
0003b0 4d 1e 34 3d 55 80 46 bd c4 c8 9a 3d b7 a1 f2 3c
       0.04397421 -0.04846223 0.07557824 0.029618127
0003c0 9d 0a d1 bc 64 2a 85 bd 76 b2 4a 3d 89 57 5d bd
       -0.025517756 -0.06502226 0.0494866 -0.05403856
0003d0 b2 77 f4 bc a4 4b 67 3d db b1 03 bd c0 34 04 3e
       -0.029842231 0.05646862 -0.032152038 0.12910748
0003e0 e1 56 0f 3d 43 6f 0d be f4 66 09 be e6 30 b8 bd
       0.034994964 -0.13811974 -0.1341818 -0.08993702
0003f0 94 a2 9b bc 9a a3 d7 bc d9 04 c5 bd 7e 19 00 bd
       -0.018998422 -0.026323128 -0.09620065 -0.03127431

net.0.weight_hh_l1 f4 [300, 100]
000000 82 b9 5f bd b6 aa 9c bc 70 ba 8b 39 a4 ed 0e 3e
       -0.054620273 -0.01912437 0.00026651053 0.1395784
000010 7b a2 80 3d fd a6 9c 3d 29 6c a0 3d 2e fd a5 bc
       0.06280991 0.07649038 0.0783313 -0.020262327
000020 ca 6d 2a 3c e7 3e 56 3d e8 99 91 3d ea ed b0 3c
       0.010402152 0.052306082 0.071094334 0.021597821
000030 2b 41 55 3d d0 ca d5 3b 16 6d b3 bd fe cd a9 3d
       0.052064102 0.0065244213 -0.08761041 0.08291243
000040 5c af a4 bd ca 27 d5 3d 15 a7 46 3d a6 d7 08 bd
       -0.0804126 0.1040798 0.048499186 -0.033408783
000050 c8 bf f0 ba 7b 1c e9 3d 3b e3 ab 3c f6 9b 85 bd
       -0.0018367702 0.11382385 0.020982375 -0.06523888
000060 e1 52 99 bd 5d 2c 9c 3b c4 d4 0e be a3 e3 d9 bd
       -0.07486511 0.0047660307 -0.13948351 -0.106391214
000070 6c 4c 5b bd ef 1c af bd 0a 4f c7 bd e1 2b 86 3c
       -0.05353968 -0.085504405 -0.097318724 0.016378345
000080 6f 78 78 bc 29 10 2c bd 36 a6 80 bd d8 66 d6 3d
       -0.015165432 -0.0420076 -0.06281702 0.10468835
000090 b2 58 6f bd 48 4f d9 3d cb e4 80 bc f4 0b 47 3d
       -0.058434196 0.10610825 -0.015734097 0.048595384
0000a0 40 69 b9 3c 01 55 59 bb b7 29 94 3c 08 47 56 3d
       0.022633195 -0.0033162239 0.018086297 0.052313834
0000b0 66 d6 06 be bc 32 56 3d 2f c6 4e 3d e7 c6 58 3d
       -0.13167724 0.052294478 0.05048197 0.052924063
0000c0 47 ef c7 bc 00 1e be 3d 4c 2b ab 3d 45 20 ba bd
       -0.024406089 0.09283066 0.083578676 -0.09088186
0000d0 d7 d9 66 bb 78 5f e4 3d ec 36 c1 3c 00 69 0d 3d
       -0.0035225058 0.11151022 0.02358576 0.034523964
0000e0 7e ab c3 bb 7f a7 f1 bd d8 07 ab bd 95 34 4b bd
       -0.005971371 -0.117995255 -0.083511055 -0.049610693
0000f0 0b 5f fc 3c 98 a7 3f bd 82 82 9e 3d 8c eb be bd
       0.030807039 -0.04679069 0.07739736 -0.09322271
000100 d1 33 7c 3d 9c b6 84 bd 9b a6 23 bd c9 47 37 bd
       0.061572853 -0.064801425 -0.03995381 -0.044746194
000110 b4 ac 86 3d 25 43 f5 bc 8f 20 5b bd 2d 45 67 3c
       0.06575909 -0.029939244 -0.053497847 0.014115614
000120 ee 3e ac 3d 08 ee f3 3d 5c d4 8e 3d 3b 6f a2 3b
       0.084104404 0.11910635 0.06974098 0.0049571074
000130 c5 57 8f bd 20 ba 1d 3c 69 90 0b 3e e4 b2 9b 3c
       -0.069991626 0.009626895 0.13629307 0.0190062
000140 9c fd ca 3d 4e 34 67 3d ed 5e a9 3d 96 18 0d bb
       0.099116534 0.056446366 0.08270059 -0.0021529547
000150 93 cb 9f bd 14 80 99 3d b7 e2 78 3c 62 63 d8 3d
       -0.078025006 0.07495132 0.015190772 0.10565831
000160 90 c8 b6 bd 9e c2 40 bd b3 e3 35 3d a5 f0 f7 bd
       -0.08924973 -0.0470606 0.044406604 -0.12106446
000170 b8 09 1d be 9a 77 13 3d fd ff 98 bd d6 45 ea 3d
       -0.15335739 0.036002733 -0.07470701 0.114391014
000180 7c 3f f2 3b 3c 01 59 3c fa 7e 17 bd 6b f2 26 bd
       0.007392822 0.013244923 -0.03698633 -0.04075853
000190 70 93 30 3e 9d 83 35 bd 7f bc 97 bd b0 18 ec bb
       0.17243743 -0.04431497 -0.07409 -0.0072050914
0001a0 2b e3 06 3e 7c d1 87 3b 6c 21 48 bd 56 68 e0 bd
       0.13172595 0.0041448455 -0.04886 -0.109574005
0001b0 43 56 b8 3d 14 79 be bc 8d 11 8f 3b f0 5d 94 3d
       0.09000828 -0.023251094 0.004366106 0.0724448
0001c0 c2 03 b3 bd 5b 3e 51 be 44 3a f8 3d d4 db 39 be
       -0.08740951 -0.20433943 0.12120488 -0.18150264
0001d0 1f 5d b4 3d 17 30 14 be 69 9b 04 3d 45 16 05 3d
       0.08806824 -0.1447147 0.032374773 0.03249194
0001e0 66 a6 2b 3e 8e a1 a3 bd 2a c8 d0 bc 33 71 bb 3d
       0.16762695 -0.079897985 -0.02548607 0.091524504
0001f0 5e 4b ce bd d2 d6 88 3d 7c a4 9e 3c ca 8b c4 3d
       -0.10072969 0.06681599 0.019365542 0.09596975
000200 5b f3 cb 3c 2d b8 05 bd 6a 65 93 bd 55 c9 1a be
       0.024896314 -0.032646347 -0.071970776 -0.15115865
000210 fb 09 e2 bb 82 e3 58 bd ef b9 e5 bd 97 f4 d1 bc
       -0.0068981624 -0.052951343 -0.11217105 -0.025629325
000220 4e f3 b9 3c cd 95 a1 bc b2 51 03 3e 7a 95 a7 3d
       0.022699025 -0.01972475 0.12824133 0.08182807
000230 25 5b d4 3d 16 05 c6 3d f4 f7 80 3d 55 be 5e 3d
       0.10368947 0.09668939 0.06297293 0.054380734
000240 a7 94 0e bd 2f 5b f5 3d 81 ec 04 3d c4 a6 5e bd
       -0.034809735 0.119802825 0.03245211 -0.05435826
000250 9a 6e 8b 3c 01 44 db bb 38 01 e7 3d ee e9 ea 3b
       0.017020512 -0.0066914563 0.11279529 0.007169
000260 6c 31 90 bd 9a 41 10 be c0 77 d8 3b e9 b5 1d 3d
       -0.070406765 -0.14087525 0.006606072 0.03850356
000270 74 11 ce bc da c3 2f bd c1 ab ca 3c f5 91 a1 bd
       -0.025154807 -0.042911388 0.024740102 -0.07889167
000280 5c 17 dd bd 3d 5b 1f bc d3 87 ae bd 88 ec 17 be
       -0.10795471 -0.009726343 -0.08522 -0.14836323
000290 00 7a 28 3e 63 b2 18 3d 38 f6 04 be 62 23 81 3d
       0.1645279 0.037279498 -0.1298455 0.06305577
0002a0 4d 68 f3 3d e0 d1 ef bd 33 f9 c4 3d 26 ef b1 3c
       0.11885128 -0.11709952 0.096178435 0.02172048
0002b0 69 d9 16 3c a1 e0 e0 3a 4d 4a 47 3d 0b ab 5a bd
       0.009207108 0.0017156788 0.048654843 -0.053385776
0002c0 91 6c ed 3c 51 a4 e3 3d 0c 5f 9a 3d 9f c4 23 3d
       0.028982433 0.11115325 0.0753766 0.039982434
0002d0 eb 61 80 3c 62 77 6a 3d 86 66 15 bd 40 d2 68 3d
       0.01567169 0.05724276 -0.036474727 0.056841135
0002e0 c6 f8 ff bd a9 d6 85 3b e2 00 c6 3d 38 61 42 3d
       -0.12498622 0.0040844274 0.09668137 0.047455996
0002f0 a6 78 5e 3d 3a 0e f2 3b 1e dd ba bd f5 50 c1 bc
       0.054314278 0.00738695 -0.09124206 -0.023598174
000300 2a f1 15 bd 54 73 85 3c 61 5b 76 3d e5 b5 8d bd
       -0.036606945 0.016290344 0.06014574 -0.06919459
000310 6f 45 27 3d 12 69 23 be 01 5b 44 3d 9e 85 7e 3d
       0.0408377 -0.1595805 0.04793835 0.062139146
000320 9c b5 84 bc 31 8e 72 3d 29 59 be bd 3d 37 ce 3b
       -0.01619988 0.059217636 -0.0929435 0.006293206
000330 bd 04 8a 3d a7 cc b4 3c 55 63 1f bc 07 aa 0f bb
       0.06739185 0.022070242 -0.009728272 -0.0021921413
000340 96 16 81 3d 89 61 1c be ad bd 7c bb fe 07 ea 3d
       0.06303136 -0.15271582 -0.0038565204 0.11427306
000350 ed 54 ae bd 0a 2b 1f be e5 aa 01 3e 3c a3 c4 3c
       -0.08512292 -0.15543762 0.12662847 0.024003617
000360 32 30 f8 bc ff ce 67 3d 13 68 6e bc 0f ee 8b 3d
       -0.030296419 0.05659389 -0.01455118 0.068325154
000370 d7 bd b3 bd 36 63 f8 bd 79 fa ec 3d bf 86 9d 3c
       -0.087764435 -0.12128298 0.11571211 0.019229291
000380 e5 92 a5 3c d5 03 22 bd 5f 6c ba bd 26 d4 5f bd
       0.020211646 -0.039554436 -0.091027014 -0.05464568
000390 92 96 47 3d 38 67 22 bc 07 1e 7e 3d 7a 25 55 bd
       0.04872758 -0.009912305 0.062040355 -0.052037694
0003a0 44 c6 0e 3d b2 22 bf 3c bc 2b 6a bd 18 54 6c 39
       0.03485705 0.023331974 -0.057170615 0.00022538041
0003b0 68 d2 b7 bb 2b ee cd 3c 18 56 41 bd 60 ea ff 3d
       -0.005609799 0.025137981 -0.047201246 0.12495875
0003c0 20 67 d2 3d 23 65 88 bc d3 ba 9d 3c 52 f8 80 3d
       0.10273576 -0.016649788 0.019254124 0.06297363
0003d0 7a ee 1a 3d d7 fe 01 bd 89 28 0d bb 25 09 b2 bd
       0.037825085 -0.031737175 -0.0021539053 -0.086931504
0003e0 0c e2 f7 3c 2d 4b c6 bc 0f e3 7b bd db ac eb 3c
       0.030259155 -0.024205768 -0.061495837 0.028768947
0003f0 a2 b4 bb bd 9f 59 cd bd 1c 1e 6e bd 8d 57 f7 bc
       -0.09165312 -0.100268595 -0.058134183 -0.030193115

net.0.bias_ih_l1 f4 [300]
000000 b5 70 bf bd b7 f6 59 bc 77 a6 7e 3c cb de ba bb
       -0.09347669 -0.01330345 0.015542618 -0.0057028285
000010 0e 4c c5 3d a9 5f 0e be 41 6c b1 bc 00 31 04 3c
       0.09633647 -0.13903679 -0.021658065 0.008068323
000020 75 21 1d bd dc 7d 61 be 5f 62 70 bd bb 5e ee bd
       -0.038361985 -0.22020668 -0.058687564 -0.11639162
000030 00 1e 3d be a1 1b 57 be 77 f3 97 3c 86 89 00 be
       -0.18468475 -0.21006633 0.01854871 -0.12552461
000040 d5 80 27 bc c1 0f b6 bd 66 be 15 ba 7f 17 bf ba
       -0.010223587 -0.088897236 -0.00057122705 -0.0014579146
000050 c6 9e be bc 48 88 ba bc 1a 75 16 be 17 b4 0e bd
       -0.023269068 -0.022770062 -0.14693108 -0.034839716
000060 59 8d 57 3d d8 f7 0e 3d d7 1a f7 bd 53 fb d4 bd
       0.052625034 0.03490433 -0.12065666 -0.10399499
000070 4c da 6b bd 0a 50 1b be f1 13 c3 3c be d4 3c be
       -0.05758123 -0.15167251 0.02381322 -0.1844053
000080 87 4a b3 bd 63 90 00 bd ce 14 76 bd c5 66 27 3d
       -0.08754449 -0.031387698 -0.060078435 0.040869493
000090 1f 13 42 bd 1d ea 92 3d 00 bb a6 3c 8b 15 e1 bd
       -0.047381517 0.0717356 0.02035284 -0.10990437
0000a0 40 04 39 3d 36 22 a3 3b 89 96 ba bc 3a 54 47 bd
       0.04517007 0.0049784435 -0.022776859 -0.04866431
0000b0 b7 c1 b8 bd ef 5e c9 bc a8 fa 85 bd 47 7f 86 bd
       -0.09021323 -0.0245814 -0.065419495 -0.06567245
0000c0 70 30 1c bd 6d 4a 3a 3c e6 59 4e 3d c4 3b 52 b9
       -0.03813213 0.011370284 0.050378703 -0.00020049425
0000d0 34 f1 04 be e2 97 e7 bd f6 4d 8b bd 8e 35 eb bb
       -0.12982637 -0.11308266 -0.06801979 -0.007178015
0000e0 8e 69 f9 bd 08 2a 90 3c 15 28 db bd 17 74 1a 3b
       -0.12178336 0.017598167 -0.107010044 0.002356773
0000f0 7b 9c d2 bd 65 69 27 be 06 0f 4d 3d 03 cb 13 3e
       -0.102837525 -0.16348799 0.050063156 0.14432912
000100 4d 5b 65 bd 8f d3 5b 3d fb 0b b9 bd 1a 8f c0 bd
       -0.055995274 0.053668555 -0.09035488 -0.094022945
000110 5e 23 92 3c 1a c5 43 bd 13 85 1e bd ad 19 9a bd
       0.01783913 -0.047795393 -0.03870113 -0.075244285
000120 a4 0d df 3c 5a f0 18 be 35 75 02 be 38 b0 17 bc
       0.027228184 -0.14935437 -0.12740023 -0.009258322
000130 39 78 22 bd 1c dd d4 bc 46 1f 82 3d 77 92 21 3d
       -0.039665435 -0.02598434 0.06353621 0.03944632
000140 d9 7d 2b 3d 7a d4 88 3d 22 86 25 be 98 6b 1d 3c
       0.041868065 0.06681152 -0.16164449 0.009608172
000150 d3 c4 00 3d 47 a2 bb bd 36 34 44 3c be cf 4c be
       0.031437706 -0.09161811 0.011975339 -0.20001122
000160 13 d2 6f 3d 31 dc 99 bd 15 e2 15 bd 5c a9 9c bd
       0.05854995 -0.07512701 -0.03659256 -0.0764949
000170 27 2b 11 3b d3 4f 0f bd 4c a9 e5 bd e7 ac e9 3d
       0.0022150965 -0.034988236 -0.112139314 0.11409932
000180 54 2b d8 bd ab f2 91 3c 0f 70 e8 bc 77 bf d4 3c
       -0.10555139 0.017815908 -0.028373746 0.025970204
000190 5c fc 38 3c cd 39 2a be bd 47 2b 3e ce 02 e2 3b
       0.011290636 -0.16623612 0.16726585 0.006897307
0001a0 0c 16 18 3e 2c fd 9e 3c 58 85 c2 bc c2 07 11 3e
       0.1485216 0.019407831 -0.023745224 0.14163116
0001b0 57 86 6a 3e ee 22 0c bd b2 0a 27 3b b7 0a 81 3a
       0.22902809 -0.034213 0.0025488553 0.0009845112
0001c0 f2 72 1d bd 6e ac a9 3b 77 83 73 bd 63 68 ed bd
       -0.0384397 0.005178026 -0.059451547 -0.11592176
0001d0 31 0d 51 be 2a 91 46 be 9a ff 62 bc c5 4c 16 be
       -0.20415188 -0.19391313 -0.0138548855 -0.14677723
0001e0 33 59 8f 3c fe 1f e5 3d 0a 43 e6 bc f3 7e 56 3e
       0.017498588 0.11187743 -0.028108139 0.20946865
0001f0 e0 0b 1d bd be 2a a6 3d 83 bf 5e bc 6c 57 22 3b
       -0.038341403 0.08113621 -0.013595465 0.0024771346
000200 6b 6a e6 bb 68 e8 7b bd 7e 04 2c be e9 5c 02 3e
       -0.007031729 -0.061500937 -0.16798589 0.12730755
000210 07 80 ea 3b f9 f2 86 3d 84 aa 8e bd c9 2b 49 3d
       0.0071563753 0.06589312 -0.06966117 0.049114022
000220 5f 56 82 3c 4b 05 b8 bd cd 0b 4b 3d 6a 1d b3 bd
       0.015910326 -0.089853846 0.0495718 -0.08745845
000230 26 58 66 bc c4 ae 91 bc d8 a9 e3 ba 03 c4 d8 3b
       -0.014059102 -0.01778353 -0.0017369343 0.0066151633
000240 25 8c 0b 3d 46 77 eb 3c 84 a2 96 3d 2d 4e 5b bd
       0.0340692 0.028743397 0.07355216 -0.05354135
000250 0c 8e a7 3d 29 6a 80 3d 94 ef 87 bd 69 3a 59 3c
       0.0818139 0.062702484 -0.06637493 0.013258555
000260 a4 49 06 bd e4 33 24 3e 3b 87 18 bd d9 e7 b7 bc
       -0.032785073 0.1603542 -0.03723834 -0.02244942
000270 90 86 02 bd 09 29 8b 3d 20 f8 92 bd c2 e6 9b 3d
       -0.03186661 0.06794936 -0.07176232 0.07612373
000280 7d 15 29 bd ea c3 c7 bc ac 65 24 bd fd ee 06 3e
       -0.04128026 -0.024385411 -0.040136024 0.13177104
000290 42 45 80 3d eb 84 3a be f1 cd d4 3c 17 a0 9e bd
       0.0626321 -0.18214767 0.025977107 -0.077453785
0002a0 c1 28 cb bd a1 87 f4 bd df 29 05 3e 43 06 de 3d
       -0.099198826 -0.11939932 0.13004254 0.10841038
0002b0 b6 44 32 bd 25 e7 98 bc 61 54 8d bb 0d b5 7a 3e
       -0.04352256 -0.018664906 -0.0043130373 0.24483128
0002c0 13 ed b2 3c e9 18 cc bd ce b8 be bc 2f 4a 4d 3d
       0.021841561 -0.09965689 -0.023281481 0.050119575
0002d0 00 16 75 bd aa e4 9a bd ee c0 0a be 64 02 90 3c
       -0.059835434 -0.075631455 -0.1355016 0.017579265
0002e0 03 cc a6 bd d2 81 4e bd 32 2e 45 3c af 10 15 3d
       -0.08144381 -0.050416775 0.01203494 0.036392864
0002f0 cd 2e 27 3c eb 99 b1 3d 8e 78 3e bd 5f 39 18 3e
       0.010204029 0.08671936 -0.04650169 0.14865635
000300 5a b3 37 3e e2 c6 0a 3e 5c 5a 91 bc 40 66 d5 bc
       0.17939511 0.1355243 -0.017743282 -0.026049733
000310 c4 a9 59 3d b3 2d 2b 3d f3 6d b1 3c 67 9f d5 3d
       0.053140417 0.04179163 0.021658873 0.10430794
000320 93 36 73 3d ae ad 49 3c 20 b1 7b 3d bb be 3c bd
       0.059378218 0.012309475 0.061448216 -0.046080332
000330 88 a0 91 bd 90 41 84 3d ec 80 90 3c 50 eb 9c 3d
       -0.07110697 0.064578176 0.0176396 0.0766207
000340 19 a9 62 3d 58 cb b5 3d de 52 2b 3d 7d 0a 1b bd
       0.055337045 0.08876675 0.041827075 -0.0378518
000350 a7 44 a5 3d 60 c4 b0 3d df 97 ee bb 64 39 bf bd
       0.08069735 0.086312056 -0.007281288 -0.09337118
000360 75 22 00 3d 86 57 ac 3d 28 d6 2a bd 43 d5 4e bc
       0.03128286 0.08415131 -0.04170814 -0.012624088
000370 51 20 2a bd 9d e0 a1 3d c6 c7 d8 bd a0 32 8b bc
       -0.041534726 0.0790417 -0.10584979 -0.016991913
000380 1e a7 d9 3d 1b c1 8f bd f4 10 19 3c 66 3b 59 bd
       0.10627578 -0.07019254 0.009342421 -0.053035162
000390 84 32 02 3e 77 55 97 bc ef 33 e8 3d c5 5a 88 3d
       0.12714583 -0.01847337 0.113380305 0.06657938
0003a0 55 66 7d 3d c3 96 d1 bd 1d be 4b 3d f2 7c 7a bd
       0.06186517 -0.10233834 0.049741853 -0.061154313
0003b0 f2 ed c8 3c 57 53 88 bd 03 57 6c bd ff dd a5 bd
       0.024527524 -0.06656521 -0.05770017 -0.08098983
0003c0 2a 01 46 bd 2c cf 36 3d 01 27 3a 3d b8 be ba bd
       -0.048340954 0.04463117 0.045447353 -0.09118408
0003d0 ba 71 4d 3c b4 03 96 bd a7 94 c8 bd d4 9e 35 3d
       0.012539322 -0.07324925 -0.09793978 0.044340923
0003e0 24 9a a8 bc 78 f7 34 3d 2f 82 de bd f1 85 a5 3d
       -0.020581312 0.044181317 -0.10864674 0.08082188
0003f0 1a 4b 79 bd 52 3b be 3d 91 cf a7 bc aa 23 d0 bc
       -0.060862638 0.09288658 -0.020484718 -0.025407631
