vae_classification/state_dict_classifier.pt (torch, 617403 bytes, 14 tensors)

net.0.weight_ih_l0 f4 [300, 2]
-0.062657975 -0.11316735 -0.048231184 0.11313592 -0.062349327 0.017960103 -0.02381623 -0.03840679
-0.01635712 -0.0012299877 -0.032609526 0.029626101 0.08669719 0.08419757 -0.022789499 -0.05006096
0.022235371 -0.0065906635 -0.008620757 0.07625737 0.0045727366 -0.080672614 0.050344765 0.010365383
-0.11300621 0.00017428407 -0.06941961 0.11012154 -0.071337774 -0.038564056 -0.027833832 -0.03364619
-0.12203961 0.014565706 0.012934701 0.13367105 -0.046236023 -0.024415035 -0.07154212 -0.09269508
-0.055134203 -0.011715103 0.043340687 -0.02757393 -0.008515531 -0.006533401 0.013887465 0.0489928
-0.06928236 -0.070400424 -0.016140675 0.055432312 -0.13366482 0.0765794 0.0063007427 -0.026102442
-0.11400487 -0.06363329 0.0665217 -0.121097684 0.0074077025 0.081423044 -0.07241112 0.08189505
-0.04785828 -0.13933896 -0.14309473 -0.05125092 -0.0053613735 0.13774244 0.028744694 0.016236745
-0.0015400705 0.044468928 0.02977781 -0.114569984 0.026049826 -0.012069105 -0.05610481 -0.047309823
0.024285158 -0.13953604 0.001259301 0.07550018 -0.09201749 -0.07164408 0.024935912 -0.08678463
-0.024429154 0.088218525 -0.11470203 0.0061359666 -0.08920835 -0.06547112 -0.08518604 -0.09225655
0.09186685 -0.122042626 0.043487944 -0.041342676 -0.023216292 -0.12283296 0.015538489 -0.08210364
-0.091861285 -0.060215857 -0.111104086 0.043219063 0.0569111 0.02525125 0.0784359 0.11799223
-0.019000238 -0.08367401 -0.0065259472 -0.11253663 -0.0070979213 0.017706653 -0.04966861 0.08054802
0.08277372 0.023056094 0.023768643 0.072514884 -0.052955337 -0.02082475 -0.05929498 -0.0813786
-0.005994713 0.08477954 -0.01464361 -0.10531597 0.123679794 -0.06380885 -0.13276955 -0.10728871
-0.06657613 -0.14050004 -0.08329224 0.030435396 -0.0673037 0.0044848854 0.0061542974 -0.08898752
0.05843491 -0.061406005 -0.079504475 -0.097202234 -0.04400859 -0.083556466 0.039246622 -0.009962622
-0.027714625 -0.046445005 0.05314177 -0.04651558 -0.060627203 -0.12617621 0.029311066 0.0020389063
0.086258076 0.012072131 -0.10082288 -0.06719796 -0.10821404 -0.098847255 -0.09163198 0.016150862
-0.094174646 0.024025736 -0.013829646 0.07367403 0.08539665 -0.033041015 -0.07692761 0.008682055
0.055300985 0.09467686 -0.08792672 0.05657202 0.058841314 -0.019994374 -0.04148849 0.09359978
-0.09084592 0.10902152 -0.04329964 -0.014886395 0.12081125 -0.030648518 -0.01768936 0.056561016
-0.16304109 0.025905166 -0.0736342 -0.08486429 0.09026854 0.024281947 -0.09102798 0.0014653645
0.10255256 2.7001763e-05 -0.038943056 0.13206387 0.15115753 0.10454252 0.100069255 0.20844781
-0.008411823 0.044715263 -0.10541914 0.045813616 0.15916573 0.07000533 -0.1315144 0.006137367
-0.054691363 0.15263018 0.027395321 0.068780676 0.08581661 0.06625471 -0.15867098 0.025134567
0.11014312 0.1257818 0.082852416 -0.03708822 -0.12073174 0.067078926 0.09822831 0.07153643
0.028418368 0.028509362 -0.06600867 0.022715058 0.1351992 0.10508263 0.14225294 0.130686
0.23346311 0.047259618 0.12690422 0.18517514 0.1417541 0.14060956 0.055637162 0.21092488
0.14254792 0.27490404 -0.104941465 0.1440739 0.1398664 0.11784879 0.15943159 0.25253996
00000000: d352 80bd 49c4 e7bd 108e 45bd ceb3 e73d
00000010: 0262 7fbd 1121 933c 411a c3bc 7050 1dbd
00000020: 5eff 85bc 8a37 a1ba 9191 05bd 70b2 f23c
00000030: 4c8e b13d c76f ac3d 0bb1 babc b90c 4dbd
00000040: f426 b63c 7ef6 d7bb 133e 0dbc d32c 9c3d
00000050: e5d6 953b af37 a5bd 5036 4e3d 91d3 293c
00000060: cd6f e7bd 06c0 3639 de2b 8ebd 6787 e13d
00000070: 8a19 92bd 58f5 1dbd c703 e4bc 96d0 09bd
00000080: e7ef f9bd 00a5 6e3c 11ec 533c 10e1 083e
00000090: fc61 3dbd 0a02 c8bc ad84 92bd ebd6 bdbd
000000a0: 67d4 61bd b4f0 3fbc 0186 313d b9e2 e1bc
000000b0: ba84 0bbc 2416 d6bb 4088 633c adac 483d
000000c0: e9e3 8dbd 192e 90bd 7339 84bc fe0c 633d
000000d0: 6edf 08be a9d5 9c3d 7676 ce3b cad4 d5bc
000000e0: 637b e9bd 2c52 82bd 873c 883d 1002 f8bd
000000f0: 50bc f23b 20c1 a63d 484c 94bd 98b8 a73d
00000100: 0b07 44bd dfae 0ebe 6d87 12be 7cec 51bd
00000110: 76ae afbb 5b0c 0d3e fe79 eb3c ec02 853c
00000120: 31dc c9ba 0d25 363d 98f0 f33c aba3 eabd
00000130: 7266 d53c 7fbd 45bc 28ce 65bd f2c7 41bd
00000140: abf1 c63c 89e2 0ebe 210f a53a d79f 9a3d
00000150: aa73 bcbd 22ba 92bd 6646 cc3c 24bc b1bd
00000160: a61f c8bc eaab b43d e6e8 eabd 3810 c93b
00000170: deb2 b6bd b915 86bd 0576 aebd 01f1 bcbd
00000180: b024 bc3d 7cf1 f9bd 6a20 323d f056 29bd
00000190: 1830 bebc d98f fbbd 2695 7e3c f425 a8bd
000001a0: c521 bcbd e7a4 76bd 8a8a e3bd 7906 313d
000001b0: 9d1b 693d b6db ce3c 00a3 a03d e9a5 f13d
000001c0: 63a6 9bbc 485d abbd 9dd7 d5bb 9b79 e6bd
000001d0: ae95 e8bb 8b0d 913c 5071 4bbd 5cf6 a43d
000001e0: 4585 a93d 22e0 bc3c 75b6 c23c af82 943d
000001f0: b2e7 58bd ab98 aabc 4bdf 72bd d3a9 a6bd
00000200: 4c6f c4bb e5a0 ad3d c1eb 6fbc e6af d7bd
00000210: d54b fd3d 37ae 82bd bef4 07be 2fba dbbd
00000220: 1159 88bd 3edf 0fbe 1f95 aabd a753 f93c
00000230: 86d6 89bd f2f5 923b fda9 c93b 173f b6bd
00000240: 7259 6f3d dd84 7bbd 3ed3 a2bd f711 c7bd
00000250: 5a42 34bd a71f abbd 11c1 203d 443a 23bc
00000260: c809 e3bc 1e3d 3ebd 2fab 593d 1f87 3ebd
00000270: 3b54 78bd 5634 01be c31d f03c 2c9f 053b
00000280: 13a8 b03d 30ca 453c 3a7c cebd 169f 89bd
00000290: 539f ddbd 6e70 cabd 8ca9 bbbd d04e 843c
000002a0: a3de c0bd 9fd1 c43c bd95 62bc 69e2 963d
000002b0: 70e4 ae3d 0456 07bd 398c 9dbd 2e3f 0e3c
000002c0: 4983 623d f1e5 c13d ed12 b4bd 10b8 673d
000002d0: 9703 713d 3ecb a3bc d6ef 29bd 3eb1 bf3d
000002e0: 6d0d babd ad46 df3d f75a 31bd 11e6 73bc
000002f0: e36b f73d 9a12 fbbc 47e9 90bc 86ac 673d
00000300: 3ef4 26be 1237 d43c 87cd 96bd 54cd adbd
00000310: b6de b83d efea c63c e16c babd 7911 c03a
00000320: 1407 d23d d881 e237 c182 1fbd c03b 073e
00000330: 0ac9 1a3e 641a d63d 1cf1 cc3d 5873 553e
00000340: bed1 09bc 5a27 373d fde5 d7bd 0fa7 3b3d
00000350: 57fc 223e f45e 8f3d b6ab 06be f71b c93b
00000360: 0d04 60bd 164b 1c3e 276c e03c e2dc 8c3d
00000370: 9ec0 af3d 8db0 873d a57a 22be 02e7 cd3c
00000380: b792 e13d f2cc 003e 87ae a93d d1e9 17bd
00000390: 3442 f7bd ad60 893d ed2b c93d b181 923d
000003a0: a3cd e83c 778c e93c 8e2f 87bd ee14 ba3c
000003b0: a971 0a3e 9035 d73d c1aa 113e 8dd2 053e
000003c0: f410 6f3e 4d93 413d 2ef3 013e 8d9e 3d3e
000003d0: fd27 113e f4fb 0f3e cbe3 633d b1fc 573e
000003e0: 15f8 113e 39c0 8c3e 8deb d6bd 1c88 133e
000003f0: 2339 0f3e b55a f13d 0942 233e eb4c 813e

net.0.weight_hh_l0 f4 [300, 100]
0.09768953 -0.074818455 0.045260884 0.01127629 0.07260524 0.06918247 -0.059637737 0.11030804
-0.111200646 0.06931265 0.014982633 -0.019811906 2.5724716e-05 0.02288302 -0.07949597 0.003163819
0.057068698 0.01848667 -0.07724349 -0.12573269 0.09001386 -0.045635253 -0.094562575 0.07081462
0.08471357 0.054964416 -0.055478197 -0.064961575 -0.05065528 -0.01241413 -0.05522344 0.01366669
0.008420299 0.10197295 -0.017073875 0.06920721 0.06435228 0.030682122 0.05999485 0.051190365
-0.023712112 0.0111212 -0.04668402 -0.10168403 0.078052245 0.11784299 0.029970761 -0.078968786
-0.09704156 -0.006254016 -0.013720761 -0.06079283 -0.067610435 0.08598798 -0.007824876 -0.027985409
0.10293444 0.016307905 -0.048277896 0.09044047 0.043207046 -0.052048694 0.054397535 -0.005416972
-0.09796788 -0.017614972 0.06897759 0.028415594 -0.08264386 -0.06128516 -0.014145585 -0.051635522
0.11049394 0.0019245371 -0.06166331 -0.07648075 -0.058344673 0.07108265 -0.05572777 -0.07132937
-0.10356036 -0.02827109 -0.05230281 0.103731275 -0.044770602 0.10265922 0.0016658653 0.0071168807
0.035596512 0.0023504703 0.0091368165 0.009554392 0.049088683 -0.04942589 0.045003656 0.021079116
0.006026673 0.008757583 -0.094124794 0.087070055 0.033684928 -0.048477985 -0.09138724 0.02684933
0.07071942 0.04725483 -0.043664772 0.042928938 0.1012889 -0.013084785 -0.027756268 -0.059506282
0.014900253 -0.043999467 -0.0039590816 0.023829695 0.044320792 0.025556276 -0.08691267 -0.047831267
-0.06651001 -0.07238713 -0.057131723 -0.053906962 0.004232904 -0.05202878 -0.005248679 -0.042014636
-0.0053031016 -0.0014577255 0.05874684 -0.062266488 0.02220141 -0.016644485 -0.011953301 -0.038504187
0.057657644 -0.07680426 -0.020354139 -0.09622336 0.08083977 -0.08990274 -0.038262807 -0.046299543
-0.09251856 -0.06782303 -0.10374824 -0.02582644 -0.0454064 -0.03347346 -0.024206884 0.10558601
0.06369314 0.015172586 -0.031043168 0.025437566 0.036446698 -0.03336525 0.07064259 0.037244678
0.017503923 0.03907954 0.034676928 -0.020714339 0.036384955 -0.10088904 0.06503428 -0.043456562
0.06704067 0.053854294 0.03373523 0.115430646 0.21493247 0.0038085314 -0.05503015 -0.037710313
0.024793185 -0.11260634 0.07789805 0.009968972 -0.11501909 0.058201425 -0.059648715 -0.039766252
0.11345503 -0.06991491 0.046281192 -0.050486304 -0.0109608425 0.05040552 -0.02048121 -0.0681922
0.08253649 -0.023748089 0.05136418 0.07498106 -0.011260358 0.018297799 -0.09136147 -0.042197578
-0.030726748 -0.09056056 -0.028098788 -0.052260347 -0.06842279 0.09919874 0.063883886 0.024986275
0.03781612 -0.075917654 -0.07334973 0.0026957127 -0.00031972205 0.061082248 0.010735318 0.040621024
0.02970202 -0.10275224 -0.03944584 0.027115365 0.06839923 0.1004287 -0.067518026 -0.05730337
0.1109701 -0.05559299 -0.018816903 0.11644963 -0.07698115 0.030959088 -0.107831426 0.08212585
-0.05494316 -0.07745506 0.007840987 0.050995197 -0.023020945 -0.07873976 0.03590367 -0.008553143
0.055369537 0.08688152 -0.026065376 0.022588147 -0.05087261 -0.07752613 0.049896844 -0.03960123
-0.07907847 -0.07763038 0.035105173 0.060934275 -0.036328055 0.08995554 -0.02497459 -0.091014415
00000000: 7311 c83d 6b3a 99bd 7a63 393d 30c0 383c
00000010: 0eb2 943d 8aaf 8d3d b346 74bd 2fe9 e13d
00000020: 2abd e3bd caf3 8d3d b879 753c 944c a2bc
00000030: 68cb d737 2c75 bb3c c8ce a2bd 1358 4f3b
00000040: dec0 693d 5b71 973c d631 9ebd 12c0 00be
00000050: 3059 b83d 08ec 3abd 06aa c1bd 4107 913d
00000060: 4f7e ad3d 5e22 613d 1b3d 63bd 930a 85bd
00000070: e97b 4fbd a364 4bbc f931 62bd 41ea 5f3c
00000080: 4bf5 093c 32d7 d03d 83de 8bbc 82bc 8d3d
00000090: 21cb 833d 1359 fb3c 29bd 753d fdac 513d
000000a0: e73f c2bc b235 363c be37 3fbd b73f d0bd
000000b0: dbd9 9f3d aa57 f13d 3e85 f53c 63ba a1bd
000000c0: babd c6bd 7dee ccbb 0bcd 60bc e701 79bd
000000d0: 5777 8abd 771a b03d e933 00bc a841 e5bc
000000e0: 4bcf d23d 2898 853c 0bbf 45bd da38 b93d
000000f0: dff9 303d 0331 55bd f3cf 5e3d db80 b1bb
00000100: 62a3 c8bd 464d 90bc 1f44 8d3d d2c7 e83c
00000110: 2f41 a9bd 2606 7bbd e2c2 67bc c57f 53bd
00000120: a64a e23d c040 fc3a ab92 7cbd f1a1 9cbd
00000130: d3fa 6ebd c893 913d cd42 64bd 2215 92bd
00000140: 7417 d4bd c698 e7bc 793b 56bd 1071 d43d
00000150: 6161 37bd ff3e d23d 2a59 da3a b934 e93b
00000160: a6cd 113d 590a 1a3b 96b2 153c 068a 1c3c
00000170: 3711 493d cd72 4abd c155 383d 1cae ac3c
00000180: 667b c53b f77b 0f3c 80c4 c0bd c951 b23d
00000190: 35f9 093d da90 46bd 3c29 bbbd 20f3 db3c
000001a0: 58d5 903d 488e 413d d5d9 32bd 41d6 2f3d
000001b0: 8e70 cf3d 9161 56bc 1d61 e3bc dcbc 73bd
000001c0: 3120 743c c938 34bd 2fbb 81bb 7e36 c33c
000001d0: b889 353d 655b d13c 45ff b1bd b8ea 43bd
000001e0: 6636 88bd b43f 94bd f402 6abd 8ccd 5cbd
000001f0: 2cb4 8a3b 211c 55bd 1cfd abbb 8a17 2cbd
00000200: a4c5 adbb 2711 bfba 87a0 703d 250b 7fbd
00000210: bbdf b53c 045a 88bc c7d7 43bc 91b6 1dbd
00000220: 6c2a 6c3d 8d4b 9dbd b9bd a6bc c110 c5bd
00000230: 528f a53d ee1e b8bd 76b9 1cbd 97a4 3dbd
00000240: 5f7a bdbd cde6 8abd f579 d4bd f891 d3bc
00000250: 10fc 39bd 771b 09bd 844d c6bc 7a3d d83d
00000260: 8d71 823d 7096 783c 3e4e febc 7162 d03c
00000270: 2249 153d 00aa 08bd 10ad 903d e08d 183d
00000280: 6364 8f3c de11 203d 6509 0e3d 1eb1 a9bc
00000290: 6408 153d ea9e cebd b130 853d 82ff 31bd
000002a0: 9e4c 893d 5296 5c3d f42d 0a3d e766 ec3d
000002b0: 4217 5c3e 8e98 793b 4b67 61bd 2176 1abd
000002c0: 141b cb3c 279e e6bd 0389 9f3d e654 233c
000002d0: 218f ebbd 9e64 6e3d 3652 74bd f0e1 22bd
000002e0: 1c5b e83d 8c2f 8fbd 5991 3d3d baca 4ebd
000002f0: 1b95 33bc 0576 4e3d 36c8 a7bc 5aa8 8bbd
00000300: e408 a93d 5a8b c2bc 3f63 523d ac8f 993d
00000310: 5d7d 38bc 44e5 953c b91b bbbd 5ed7 2cbd
00000320: a9b6 fbbc d177 b9bd 6e2f e6bc f20e 56bd
00000330: 3f21 8cbd b628 cb3d 8ed5 823d 04b0 cc3c
00000340: 13e5 1a3d b77a 9bbd 6238 96bd 8eaa 303b
00000350: 5ea0 a7b9 6131 7a3d 30e3 2f3c 3b62 263d
00000360: a751 f33c c46f d2bd f691 21bd 0b21 de3c
00000370: e514 8c3d 90ad cd3d e446 8abd f0b6 6abd
00000380: 4b44 e33d 7ab5 63bd e825 9abc 257d ee3d
00000390: 4ba8 9dbd ea9d fd3c b9d6 dcbd 9931 a83d
000003a0: 140c 61bd c2a0 9ebd 7c77 003c 57e0 503d
000003b0: 6c96 bcbc 5042 a1bd ba0f 133d 7b22 0cbc
000003c0: 2bcb 623d f0ee b13d 0e87 d5bc c70a b93c
000003d0: cc5f 50bd 05c6 9ebd a260 4c3d e634 22bd
000003e0: e5f3 a1bd adfc 9ebd 71ca 0f3d 3896 793d
000003f0: bacc 14bd 9c3a b83d 8397 ccbc c465 babd

net.0.bias_ih_l0 f4 [300]
0.05087587 -0.060071122 0.043235093 0.03325622 -0.08108673 -0.076454796 -0.0702944 -0.009940984
-0.03738661 0.06422437 -0.023852592 0.038429964 -0.09378861 -0.04524819 -0.08562572 -0.018226992
0.07339112 -0.057361577 -0.07787379 -0.00842426 -0.047190707 0.035867196 -0.042683728 -0.06506715
-0.084127076 0.09801842 0.0020178873 -0.025375538 -0.032283626 0.027197713 -0.062511615 -0.03641161
-0.0019004042 -0.11938834 -0.032712564 -0.12058812 0.034267638 -0.10035702 -0.043346558 0.07183751
-0.120384835 0.00704162 0.026581949 -0.07837832 -0.11842527 0.025273396 0.00740016 -0.07799491
0.07968436 -0.05934087 0.074515216 -0.11823964 -0.07214107 -0.09071295 0.08154306 0.061725847
0.08379821 0.008718174 -0.06781613 0.003920051 0.003020231 -0.109721996 -0.035838526 -0.059228722
0.09623218 0.094123185 -0.03270157 -0.078482546 0.0020123394 0.0958854 -0.040595327 0.017496593
0.09395141 -0.08898107 -0.105148174 -0.02069414 0.050029457 -0.05208863 0.055488836 -0.09668667
-0.07782118 0.024180416 0.04734257 0.06599568 -0.091578186 0.070915475 0.038347185 -0.06596169
0.101161055 -0.084580585 0.09157409 0.058719266 -0.07440371 -0.059875175 0.10600317 0.1148574
0.029837998 -0.088897854 -0.09626572 -0.0024819546 -0.057768513 -0.0078150965 0.119721405 0.044415813
-0.076548465 0.08746438 -0.04957861 -0.08550264 0.15590674 0.06390968 0.09467422 -0.1267013
0.05508229 0.025990747 0.03251603 0.07232825 0.17559241 -0.0615155 -0.016987892 0.09811668
0.11696106 0.0872292 0.016647365 0.13745075 0.09408141 0.008100373 0.09517423 0.1660311
0.066103056 0.06904634 0.065259516 0.00455088 0.18414292 0.12067487 -0.101997174 0.00096477073
0.016342197 0.022264564 0.14167178 0.0530804 -0.07244351 -0.17286569 -0.07590309 0.025679313
-0.17373927 0.08333246 0.008963479 0.08425117 0.1770934 0.17438003 -0.023278294 0.07443003
0.0036932176 0.107753076 0.2091191 -0.058649752 0.063087635 0.107369624 0.118855454 -0.02707109
-0.012447108 0.054528788 0.13203065 0.13601191 0.1529901 0.15434128 0.030417347 0.004501108
0.18366086 0.0030500377 0.14141828 0.0011274836 -0.0029636212 0.08229785 -0.046689652 -0.052070037
0.042171616 -0.021105329 -0.062429145 0.11401192 0.09502308 0.025957884 -0.036475703 0.10751662
0.06276498 0.017944843 0.024751466 0.14590453 0.12132093 0.07756733 0.035643913 0.17693688
-0.0384846 -0.16615124 0.050012324 0.10802515 0.23304838 0.13667217 -0.08998829 -0.042289183
-0.0038922324 0.06414019 -0.04252413 -0.02443359 -0.08999782 -0.094506666 0.012684236 -0.06951193
0.03868957 -0.054123893 -0.060071588 -0.041401025 0.07305512 -0.053879622 0.04740265 0.077008106
-0.059622 -0.091716014 0.059496246 -0.008767294 -0.043784615 0.052183356 -0.07358257 -0.077446386
-0.02968079 -0.08215127 0.075416975 -0.0815734 0.016697539 -0.09225881 0.07156003 0.06592679
0.034847073 0.041900907 0.005434612 -0.0014137826 -0.05602028 0.07020721 0.11710997 -0.027571633
-0.08088131 -0.024323216 -0.06042676 0.00919764 0.054982472 -0.04963292 -0.05849621 0.04129095
-0.045454767 -0.025081515 0.008790895 -0.048372958 0.012762545 -0.052987628 0.03699373 0.06626266
00000000: 3763 503d 230d 76bd 4817 313d ad37 083d
00000010: cd10 a6bd 5594 9cbd 83f6 8fbd 82df 22bc
00000020: b422 19bd 1188 833d 8366 c3bc bd68 1d3d
00000030: 3e14 c0bd 2b56 39bd 8a5c afbd c650 95bc
00000040: 154e 963d f9f3 6abd 4b7c 9fbd e805 0abc
00000050: 0b4b 41bd 7be9 123d 22d5 2ebd ed41 85bd
00000060: d14a acbd e2bd c83d 883e 043b 5ce0 cfbc
00000070: d63b 04bd bdcd de3c 1706 80bd 5724 15bd
00000080: fc16 f9ba e081 f4bd 9cfd 05bd e7f6 f6bd
00000090: 395c 0c3d fb87 cdbd 298c 31bd 8b1f 933d
000000a0: 538c f6bd 64bd e63b 63c2 d93c d084 a0bd
000000b0: f388 f2bd 270a cf3c 0b7d f23b ccbb 9fbd
000000c0: 8e31 a33d 690f 73bd 6f9b 983d a027 f2bd
000000d0: b3be 93bd b6c7 b9bd 0c00 a73d 3ed4 7c3d
000000e0: 659e ab3d acd6 0e3c 2fe3 8abd c573 803b
000000f0: 11ef 453b edb5 e0bd 6bcb 12bd d199 72bd
00000100: 6115 c53d a8c3 c03d 15f2 05bd 75bb a0bd
00000110: 74e1 033b 915f c43d 4947 26bd 0455 8f3c
00000120: 9969 c03d b53b b6bd ed57 d7bd c286 a9bc
00000130: b0eb 4c3d e35a 55bd 4348 633d a903 c6bd
00000140: b660 9fbd 0216 c63c 48ea 413d be28 873d
00000150: 588d bbbd 223c 913d f011 1d3d ec16 87bd
00000160: 872d cf3d 9638 adbd 328b bb3d 9d83 703d
00000170: f960 98bd ac3f 75bd 3118 d93d 5b3a eb3d
00000180: d16e f43c 1410 b6bd f626 c5bd 4aa8 22bb
00000190: ad9e 6cbd e40a 00bc 7f30 f53d 5bed 353d
000001a0: 71c5 9cbd 8620 b33d f112 4bbd 021c afbd
000001b0: 04a6 1f3e 14e3 823d 8fe4 c13d fcbd 01be
000001c0: f89d 613d 8cea d43c 872f 053d d520 943d
000001d0: 7fce 333e adf7 7bbd 312a 8bbc 66f1 c83d
000001e0: 4889 ef3d 39a5 b23d 0e60 883c e4bf 0c3e
000001f0: c1ad c03d 6db7 043c b5ea c23d 0f04 2a3e
00000200: 0a61 873d 2b68 8d3d c8a6 853d 8c1f 953b
00000210: f68f 3c3e 6324 f73d e5e3 d0bd abe8 7c3a
00000220: 12e0 853c 2d64 b63c 6812 113e d56a 593d
00000230: 435d 94bd b403 31be 1473 9bbd 6c5d d23c
00000240: b5e8 31be 35aa aa3d 8edb 123c e18b ac3d
00000250: f957 353e ae90 323e 1fb2 bebc c66e 983d
00000260: e909 723b a5ad dc3d 5123 563e b93a 70bd
00000270: 1734 813d 9be4 db3d 7d6a f33d 31c4 ddbc
00000280: f4ee 4bbc 9459 5f3d 0b33 073e b546 0b3e
00000290: 70a9 1c3e a40b 1e3e cd2d f93c 087e 933b
000002a0: 9811 3c3e 24e3 473b f4cf 103e 12c8 933a
000002b0: 5039 42bb c68b a83d a63d 3fbd 6447 55bd
000002c0: 25bc 2c3d 15e5 acbc b4b5 7fbd 157f e93d
000002d0: 769b c23d a1a5 d43c 8c67 15bd ac31 dc3d
000002e0: ed8a 803d 1001 933c 96c3 ca3c ff67 153e
000002f0: 1c77 f83d 9fdb 9e3d 5aff 113d f12e 353e
00000300: 07a2 1dbd 8d23 2abe b9d9 4c3d 4a3c dd3d
00000310: 3ca4 6e3e caf3 0b3e c84b b8bd 6c37 2dbd
00000320: d314 7fbb ef5b 833d c82d 2ebd f428 c8bc
00000330: c750 b8bd b68c c1bd 8bd1 4f3c 455c 8ebd
00000340: f478 1e3d 04b1 5dbd a00d 76bd 1f94 29bd
00000350: ec9d 953d e1b0 5cbd 4829 423d 6db6 9d3d
00000360: 3336 74bd 9bd5 bbbd 56b2 733d b2a4 0fbc
00000370: 7f57 33bd 37be 553d 75b2 96bd 369c 9ebd
00000380: 2125 f3bc ed3e a8bd 3774 9a3d f40f a7bd
00000390: 47c9 883c 30f2 bcbd 118e 923d a004 873d
000003a0: cebb 0e3d 49a0 2b3d d414 b23b ac4e b9ba
000003b0: 8575 65bd ccc8 8f3d 5ad7 ef3d e8dd e1bc
000003c0: 1aa5 a5bd 7b41 c7bc 0d82 77bd b3b1 163c
000003d0: 4d35 613d e44b 4bbd b999 6fbd b320 293d
000003e0: c72e 3abd c077 cdbc b007 103c b922 46bd
000003f0: fe19 513c 8e09 59bd bd86 173d b8b4 873d

net.0.bias_hh_l0 f4 [300]
-0.11170128 -0.049489982 -0.12357354 -0.08437904 0.013100672 -0.09788697 0.025763799 -0.062126122
0.04826637 -0.07845801 -0.12137169 -0.030110529 0.06680612 0.05093296 0.017454494 -0.074616335
-0.07925087 0.0036693064 -0.020484524 0.014585601 -0.15875894 0.031543646 0.07521553 0.076227196
-0.14492385 -0.031462874 -0.070003025 -0.051208574 -0.10465442 -0.057493232 -0.084783144 -0.010582254
0.021699186 -0.04832224 -0.08675581 0.005704063 -0.053002473 0.036316346 -0.013147333 -0.12390745
-0.1500107 0.04297951 -0.019998806 -0.002134958 -0.08387419 -0.05195375 0.030276302 0.011293972
-0.09878254 -0.016260114 -0.019454245 -0.013543981 0.01961188 0.0017504054 -0.026617566 0.08013897
0.042951945 0.05670442 -0.07376757 0.060383726 -0.05907286 -0.027184298 -0.04833551 -0.021717798
0.014544659 0.012679043 0.032789044 0.02540983 -0.051330786 -0.0062407525 -0.09518418 -0.0279521
-0.078945816 -0.051476043 -0.14996189 -0.024599457 0.010112046 -0.056410164 -0.07795996 0.06468881
0.03052274 0.053674687 0.02333263 0.07550979 0.08075974 0.03256296 -0.016497731 -0.069285035
0.067293786 -0.11345967 0.023356752 0.049195465 -0.036531143 -0.029547984 0.055398874 -0.046577588
-0.12347999 0.031938303 0.015141817 -0.043873984 -0.049462337 0.07708681 0.055323083 0.03640113
-0.025054937 0.06524968 0.030761484 0.022968609 0.113291405 0.08874635 0.014952848 -0.028488357
0.10977389 -0.043971777 -0.1113432 0.0038839437 -0.0034039684 -0.13704814 0.004967015 0.18885998
0.17640364 -0.04916685 0.10441915 -0.019245101 0.15237944 0.03273483 0.13708207 0.057345796
0.087484695 -0.04970356 0.06761464 0.15181537 0.10527068 0.088690594 -0.010033149 0.040720977
0.15592872 0.07069498 0.19378288 0.029995171 -0.005074702 -0.14461665 -0.08267295 -0.06174432
-8.315273e-05 0.012335367 -0.108456165 0.10511874 0.10332199 0.16617808 -0.110560566 0.04497783
0.022774307 0.0018437813 0.16397241 0.010642633 -0.02556474 0.016882766 0.1358674 0.004514785
0.023095258 0.032561343 0.05453027 0.077073485 0.094431944 0.13786247 0.10871621 -0.06157999
0.03775209 0.06464001 0.07107737 -0.073263295 0.051679615 0.17383115 -0.05278303 -0.084689885
0.100446485 0.12055109 7.501499e-05 -0.037225924 0.03391667 0.08966855 -0.03675596 0.05557795
0.084945746 -0.019995952 -0.010688465 0.22552906 0.1347942 0.1660994 0.14625898 0.22192371
-0.05923491 -0.17684262 0.12817775 -0.021961572 0.117007054 0.106483884 -0.073081955 0.008069411
-0.026791178 0.007932195 0.078906514 -0.029367335 0.032741193 -0.00608731 -0.010786217 0.11125412
-0.02079851 0.06416777 -0.055474058 0.029826688 -0.02390306 -0.04907866 -0.07932295 0.007050599
-0.0659431 0.010996595 0.048673093 -0.038233753 -0.03183296 -0.102954045 0.098873295 0.06513783
-0.051857404 -0.086507685 0.0015541181 -0.059688725 -0.0043241633 -0.09924588 0.052692994 -0.057770688
0.07644609 -0.033121943 -0.045357242 -0.045284808 0.00046856428 0.0006533008 0.019928617 0.037716933
0.08535009 0.0686904 -0.068578355 0.005681145 -0.053681497 -0.041954655 0.04533051 0.048925605
0.022727013 0.0845397 -0.08707036 0.030403208 0.048978135 -0.059328757 -0.036871683 -0.005272326
00000000: a4c3 e4bd 02b6 4abd 2014 fdbd ebce acbd
00000010: 33a4 563c f778 c8bd 9a0e d33c f677 7ebd
00000020: f5b2 453d 98ae a0bd b891 f8bd 5baa f6bc
00000030: a6d1 883d 149f 503d bafc 8e3c 73d0 98bd
00000040: 484e a2bd bf78 703b 29cf a7bc 72f8 6e3c
00000050: b491 22be e933 013d 9a0a 9a3d 011d 9c3d
00000060: eb66 14be 37df 00bd bf5d 8fbd 15c0 51bd
00000070: 0e55 d6bd 067e 6bbd c9a2 adbd 3161 2dbc
00000080: 7ec2 b13c 8bed 45bd 08ad b1bd 26e9 ba3b
00000090: 1f19 59bd 73c0 143d e967 57bc 30c3 fdbd
000000a0: 689c 19be 480b 303d 89d4 a3bc a7ea 0bbb
000000b0: 3bc6 abbd 75cd 54bd 0206 f83c 5a0a 393c
000000c0: 804e cabd ee33 85bc 825e 9fbc 93e7 5dbc
000000d0: 18a9 a03c dc6d e53a 150d dabc e61f a43d
000000e0: 61ee 2f3d e542 683d 7413 97bd ed54 773d
000000f0: 62f6 71bd 9bb1 debc 75fb 45bd 86e9 b1bc
00000100: b94c 6e3c c3bb 4f3c ce4d 063d 4728 d03c
00000110: 3b40 52bd 3a7f ccbb ecef c2bd cdfb e4bc
00000120: 58ae a1bd 8bd8 52bd 9c8f 19be cd84 c9bc
00000130: ffac 253c 580e 67bd 79a9 9fbd 917b 843d
00000140: d30a fa3c fdd9 5b3d 1224 bf3c e0a4 9a3d
00000150: 5d65 a53d bd60 053d 4026 87bc 50e5 8dbd
00000160: 53d1 893d 8b5d e8bd a956 bf3c 2f81 493d
00000170: aea1 15bd 9d0e f2bc eee9 623d 24c8 3ebd
00000180: 14e3 fcbd bdd1 023d 6215 783c 35b5 33bd
00000190: 0599 4abd b0df 9d3d 759a 623d 5a19 153d
000001a0: 0340 cdbc a0a1 853d 82ff fb3c aa28 bc3c
000001b0: 5305 e83d a5c0 b53d cafc 743c 6a60 e9bc
000001c0: 22d1 e03d c01b 34bd e707 e4bd c389 7e3b
000001d0: 1d15 5fbb 5956 0cbe 57c2 a23b 8364 413e
000001e0: 28a3 343e 2e63 49bd b5d9 d53d e7a7 9dbc
000001f0: 5b09 1c3e f514 063d 3e5f 0c3e 6de3 6a3d
00000200: 2d2b b33d f695 4bbd 8b79 8a3d 7d75 1b3e
00000210: 2798 d73d 6aa3 b53d 1462 24bc 0acb 263d
00000220: c7ab 1f3e 88c8 903d 056f 463e 6fb8 f53c
00000230: b049 a6bb 6316 14be 7050 a9bd 9de7 7cbd
00000240: 4862 aeb8 471a 4a3c 441e debd 7e48 d73d
00000250: 7b9a d33d 962a 2a3e 946d e2bd ac3a 383d
00000260: 2f91 ba3c 09ab f13a 62e8 273e 705e 2e3c
00000270: 256d d1bc ba4d 8a3c d320 0b3e c3f0 933b
00000280: 4432 bd3c 0b5f 053d 225b 5f3d b4d8 9d3d
00000290: 8965 c13d d22b 0d3e 9ba6 de3d 4d3b 7cbd
000002a0: efa1 1a3d fb61 843d 0391 913d 110b 96bd
000002b0: 01ae 533d cb00 323e 0533 58bd e471 adbd
000002c0: e3b6 cd3d 7de3 f63d 5e51 9d38 367a 18bd
000002d0: 35ec 0a3d 25a4 b73d 6b8d 16bd b4a5 633d
000002e0: 09f8 ad3d 8dce a3bc ac1e 2fbc 17f1 663e
000002f0: 7e07 0a3e f615 2a3e eac4 153e f83f 633e
00000300: 4ea0 72bd 3b16 35be 0741 033e c1e8 b3bc
00000310: 65a1 ef3d 3914 da3d feab 95bd 9035 043c
00000320: 2c79 dbbc 0af6 013c bd99 a13d c493 f0bc
00000330: a11b 063d 0f78 c7bb acb8 30bc 33d9 e33d
00000340: a361 aabc 646a 833d c438 63bd 1957 f43c
00000350: 5ad0 c3bc b406 49bd 1274 a2bd b608 e73b
00000360: 2d0d 87bd 102b 343c 705d 473d ff9a 1cbd
00000370: 4763 02bd 92d9 d2bd 157e ca3d fc66 853d
00000380: 6e68 54bd f12a b1bd 8db3 cb3a 2a7c 74bd
00000390: b6b1 8dbb 6d41 cbbd 9cd4 573d f5a0 6cbd
000003a0: c58f 9c3d e0aa 07bd 84c8 39bd 907c 39bd
000003b0: a2a9 f539 4642 2b3a 5741 a33c 127d 1a3d
000003c0: 07cc ae3d 8dad 8c3d cf72 8cbd e628 ba3b
000003d0: 21e1 5bbd a5d8 2bbd 7cac 393d 3766 483d
000003e0: 002e ba3c 2623 ad3d f251 b2bd 2610 f93c
000003f0: 4c9d 483d b602 73bd c306 17bd 7ac3 acbb

net.0.weight_ih_l1 f4 [300, 100]
-0.096719526 -0.13631842 0.051701307 -0.068367854 0.06550013 0.0715666 -0.017288204 0.11031911
0.014196503 0.07153684 0.043115996 -0.035518765 -0.044144444 -0.040034994 -0.029036073 -0.06432786
0.061380252 0.077001095 -0.15607135 -0.10712243 0.12079177 -0.10091393 0.06510072 0.029808778
0.12084044 0.10214431 0.12908207 0.09630388 0.011131175 -0.043795075 -0.0016700767 -0.096375324
-0.11646977 0.073254816 0.098446146 -0.049898006 0.124515735 -0.13154534 -0.087071285 0.074236095
-0.028066909 -0.030993484 -0.0045958785 -0.092214525 0.044049475 0.102570064 0.0479315 0.07593915
0.028971203 -0.08650437 -0.13338833 0.036257457 -0.107969254 -0.0074072033 0.005685457 -0.104966015
0.13314866 0.026784027 -0.010160359 -0.0012983534 0.006200771 0.0032929129 -0.13863966 -0.11719743
-0.1145782 0.0004956292 0.027135886 -0.04906972 -0.10616816 0.08632536 -0.13734739 0.028227188
0.09580919 -0.04822922 -0.01693073 0.029034123 -0.051304188 0.053625572 -0.12181052 0.004640393
0.06665781 -0.06715715 0.02538327 0.08559357 -0.03809863 0.0064016436 -0.08009 -0.10173045
-0.04664264 -0.104713865 0.12770914 -0.026329005 -0.13184902 -0.030850867 -0.020091118 0.03783433
-0.0470263 -0.019918058 0.002578358 -0.05020731 -0.076873474 0.0805102 -0.019625636 -0.011463448
-0.10282116 -0.07574314 -0.12352238 0.011630225 -0.054850757 0.029861784 -0.077954 0.05469043
-0.0005084325 -0.061126072 -0.035160206 0.03164959 0.001679046 -0.122120775 -0.088399395 0.004955667
0.073563315 -0.14846794 -0.028356561 -0.081374235 -0.033852354 0.042970702 0.14392236 0.008175404
-0.013625793 -0.003591017 0.017802872 0.09208685 0.07166394 0.038360383 0.0427611 -0.012735212
-0.00701246 0.0082756365 0.12014735 -0.050986987 -0.022236222 0.10189821 -0.07312524 -0.11974537
0.114820376 -0.061444007 0.025406543 -0.033285532 0.006786959 -0.061355706 -0.046616092 -0.015544089
0.047742594 -0.012061012 -0.035995904 0.04632083 0.07026612 0.020733548 0.04475945 0.0044084783
0.06314039 -0.018352231 0.0061550965 -0.005971415 -0.063202634 -0.07881969 0.014737617 0.07805368
0.07950647 -0.095190026 0.02245414 -0.047945723 0.024970734 0.06858269 0.024026522 0.04237197
-0.043136775 0.083676584 -0.034080938 0.028106533 -0.11416211 0.031648554 -0.050079517 -0.10538606
0.020891365 0.08458558 0.0012068411 -0.07842664 -0.10814072 0.0031575807 0.10482216 0.07433042
-0.15220432 -0.017557679 0.030832373 0.0438736 -0.008060479 -0.053166706 -0.031722244 -0.009093461
-0.0360031 0.022871768 -0.04998489 0.085179366 0.02056472 -0.058910895 -0.09484574 -0.020130264
-0.0572967 -0.0179151 -0.020706804 0.11001097 -0.017565213 -0.036731873 -0.079205595 -0.019236896
0.097915486 -0.04628058 0.08385929 0.07666516 -0.036731508 0.040048137 -0.018912151 -0.101841174
0.03672972 0.08403951 0.067571215 0.08753783 -0.08849274 0.045941234 0.019777153 -0.058719255
-0.05077541 -0.018756483 -0.017606001 -0.01134066 0.07657275 -0.09728021 0.020012757 0.06256219
0.026821535 -0.088726126 0.09608222 -0.07644466 -0.0134022515 -0.029802995 -0.0019857173 0.05442958
0.102075905 -0.04149783 0.021875435 0.0026066718 -0.030593237 0.018834494 -0.009919032 0.0069516683
00000000: e314 c6bd 0e97 0bbe c0c4 533d 7204 8cbd
00000010: ef24 863d 8291 923d fe9f 8dbc fcee e13d
00000020: 7398 683c e881 923d 669a 303d 207c 11bd
00000030: ced0 34bd bcfb 23bd 0fdd edbc 53be 83bd
00000040: dc69 7b3d c0b2 9d3d 2bd1 1fbe 0163 dbbd
00000050: ad61 f73d f6ab cebd 8753 853d 8a31 f43c
00000060: 317b f73d 0931 d13d 172e 043e f83a c53d
00000070: 885f 363c 7762 33bd 7ae6 daba 6d60 c5bd
00000080: b487 eebd 9f06 963d 229e c93d da61 4cbd
00000090: 1b02 ff3d d2b3 06be 6e52 b2bd 1809 983d
000000a0: 93ec e5bc 0ce6 fdbc 0699 96bb f8da bcbd
000000b0: 396d 343d 4110 d23d d253 443d fc85 9b3d
000000c0: 0455 ed3c 3429 b1bd f396 08be b382 143d
000000d0: fc1e ddbd 20b8 f2bb 124d ba3b 6cf8 d6bd
000000e0: 1f58 083e 2d6a db3c a277 26bc 832d aaba
000000f0: d62f cb3b e9cd 573b 8ef7 0dbe 3505 f0bd
00000100: faa7 eabd 1ded 013a 144c de3c 55fd 48bd
00000110: b16e d9bd 5acb b03d cba4 0cbe b43c e73c
00000120: 9c37 c43d 018c 45bd 50b2 8abc f8d8 ed3c
00000130: 5724 52bd 7da6 5b3d cb77 f9bd 700e 983b
00000140: e483 883d b089 89bd 93f0 cf3c ae4b af3d
00000150: 4f0d 1cbd e1c4 d13b 3a06 a4bd 0e58 d0bd
00000160: 5a0c 3fbd 3974 d6bd 2fc6 023e edaf d7bc
00000170: 6e03 07be f5ba fcbc 2196 a4bc 2cf8 1a3d
00000180: a69e 40bd 322b a3bc abf9 283b 2ea6 4dbd
00000190: d76f 9dbd 88e2 a43d f1c5 a0bc 30d1 3bbc
000001a0: e693 d2bd 381f 9bbd 4df9 fcbd b38c 3e3c
000001b0: 30ab 60bd b3a0 f43c 59a6 9fbd 1303 603d
000001c0: 5448 05ba 555f 7abd 2604 10bd 00a3 013d
000001d0: 6f13 dc3a 751a fabd be0a b5bd 2663 a23b
000001e0: 5da8 963d fb07 18be 054c e8bc 89a7 a6bd
000001f0: c4a8 0abd 0c02 303d 6260 133e 21f2 053c
00000200: b83e 5fbc 4557 6bbb 54d7 913c 0898 bc3d
00000210: 8bc4 923d c71f 1d3d 4326 2f3d 5aa7 50bc
00000220: c7c8 e5bb 8996 073c d00f f63d bbd7 50bd
00000230: bd28 b6bc 02b0 d03d b0c2 95bd 0f3d f5bd
00000240: f226 eb3d b6ac 7bbd 6221 d03c 6956 08bd
00000250: 2365 de3b 1f50 7bbd 84f0 3ebd a2ac 7ebc
00000260: bd8d 433d 8d9b 45bc 7170 13bd e9ba 3d3d
00000270: afe7 8f3d 67d9 a93c af55 373d ff74 903b
00000280: c04f 813d 6b57 96bc b1b0 c93b dcab c3bb
00000290: 6270 81bd 386c a1bd 0c76 713c 9cda 9f3d
000002a0: 4ad4 a23d fdf2 c2bd bff1 b73c bc62 44bd
000002b0: 6d8f cc3c 1575 8c3d 45d3 c43c 3b8e 2d3d
000002c0: 30b0 30bd a15e ab3d 7498 0bbd ac3f e63c
000002d0: d3cd e9bd eaa1 013d 2e20 4dbd a6d4 d7bd
000002e0: 5e24 ab3c 343b ad3d de2e 9e3a 259e a0bd
000002f0: e278 ddbd 6aef 4e3b 00ad d63d 8c3a 983d
00000300: 73db 1bbe 1fd5 8fbc 2c94 fc3c ceb4 333d
00000310: 1910 04bc 55c5 59bd 2fef 01bd bdfc 14bc
00000320: fd77 13bd 935d bb3c f5bc 4cbd 8572 ae3d
00000330: 5877 a83c 8d4c 71bd 7c3e c2bd 39e8 a4bc
00000340: f2af 6abd b0c2 92bc 51a1 a9bc 6e4d e13d
00000350: ece4 8fbc 2974 16bd 8b36 a2bd b296 9dbc
00000360: ea87 c83d b590 3dbd 6bbe ab3d a002 9d3d
00000370: c773 16bd 8409 243d a8ed 9abc 1b92 d0bd
00000380: e771 163d e81c ac3d c762 8a3d 0947 b33d
00000390: af3b b5bd e02c 3c3d b203 a23c 9a83 70bd
000003a0: e0f9 4fbd 32a7 99bc 763a 90bc 2dce 39bc
000003b0: 2dd2 9c3d d93a c7bd cbf1 a33c 9b20 803d
000003c0: d6b8 db3c 0bb6 b5bd c1c6 c43d 058f 9cbd
000003d0: 1e95 5bbc 6925 f4bc cf22 02bb 8df1 5e3d
000003e0: 2c0d d13d a1f9 29bd 1d34 b33c b2d4 2a3b
000003f0: ab9e fabc cc4a 9a3c 7083 22bc d2ca e33b

net.0.weight_hh_l1 f4 [300, 100]
-0.068644874 0.009040746 0.08858838 -0.14210337 0.15869495 0.06389472 -0.071554 -0.057142258
0.021085655 0.026608659 0.03575745 -0.046366762 0.036935307 -0.018750308 0.06768316 0.04797159
-0.12928483 0.02545025 -0.082360975 -0.1666376 -0.028804082 -0.047951546 0.016317723 -0.16444051
0.13828611 0.07002525 0.029582728 0.0440045 0.007700295 -0.023023961 0.03793554 0.01768101
0.1369955 -0.044019595 -0.07476894 -0.04273861 -0.055589046 0.078460954 0.012573225 0.04433378
-0.12480866 -0.01595583 0.09831994 0.13443503 -0.19906425 0.046084654 0.045128044 -0.05708707
0.06628778 0.008295218 -0.030835021 -0.07493269 0.024159033 -0.0030352 -0.088960595 -0.04868789
-0.06016485 -0.05462797 -0.03821636 -0.13423748 0.017203217 0.038438898 0.016052192 0.06762663
0.013622702 -0.02769483 0.1120251 -0.056712825 0.03895111 0.108070605 -0.0075878226 0.055425607
-0.04065285 -0.051442407 -0.11198311 -0.16213746 -0.03961986 0.1320041 -0.08140103 -0.22934064
-0.027079947 -0.1407572 0.13548681 0.03428013 0.052664407 -0.102733284 0.023309825 0.10410165
0.02152928 -0.0038571076 -0.00011751042 0.16540134 0.017166499 -0.016839022 0.09370755 0.06610814
0.07829215 0.0016744357 0.051516254 -0.058160868 0.02276922 -0.03117227 0.050794084 0.0018700707
-0.08397025 0.023953952 -0.04631401 0.018878032 -0.0821424 -0.028946687 -0.09283167 0.08127267
0.06505795 0.089032724 0.025793653 -0.06999442 0.029331118 0.033910543 0.0728734 0.04895374
-0.043397903 -0.052581195 0.09657498 0.05102425 -0.07374997 0.04297656 -0.017575992 0.04295777
0.014702879 0.12993126 0.069672585 -0.00846031 -0.019324712 -0.043936975 0.08951904 -0.028066061
-0.07148804 0.0026746406 0.016694702 0.0012455274 0.07431199 -0.10680124 -0.00014786111 0.013092593
0.11375566 0.0023727263 -0.08039251 -0.028653212 -0.08115401 0.09853493 -0.047989395 0.043538634
0.058770604 -0.015267731 0.045226842 -0.04983902 -0.13263398 0.078135006 0.11101418 -0.067542195
-0.01432441 0.062595 -0.04189187 -0.108323015 -0.05871121 0.09172434 -0.040953025 -0.13604352
-0.009360981 -0.023588303 0.031381752 -0.008757509 -0.038840253 -0.068971 0.08277618 0.018355712
-0.08895022 -0.08096996 0.0102079 0.087408684 0.079785936 -0.02612886 0.08670489 0.018061135
0.02670044 -0.018946335 -0.076206036 0.028490776 -0.07798114 0.07074718 -0.0621089 -0.11190161
-0.004171012 -0.09434727 0.00465438 -0.10109479 -0.11674859 0.011871412 -0.04268162 0.0053750454
-0.089904144 0.019837847 0.08800547 -0.077934034 0.058599308 -0.028372828 0.05860288 0.009830048
-0.0844612 -0.043324288 -0.017874438 0.08575604 0.084205106 0.06562965 0.10242635 0.07543758
0.09490842 -0.07137902 0.14971931 0.0026425 -0.0076955985 -0.080583915 0.032134753 0.031581514
0.06831696 0.10467109 -0.07316572 -0.10601167 0.0711661 -0.00850604 0.058640964 -0.08296154
0.13963586 -0.08855811 -0.057899766 0.09807102 -0.06739646 -0.044718325 -0.02896328 0.020134911
-0.02495501 0.018083783 -0.082383044 0.041127924 -0.07777067 -0.08303631 -0.019262632 -0.06412029
0.004427162 -0.07785025 -0.034822416 0.057553437 -0.052389298 -0.10071481 -0.029381296 0.07854675
00000000: af95 8cbd a31f 143c d36d b53d 8c83 11be
00000010: ee80 223e 3cdb 823d e78a 92bd 000e 6abd
00000020: d3bb ac3c 67fa d93c 6776 123d 13eb 3dbd
00000030: 7a49 173d 3f9a 99bc 789d 8a3d dc7d 443d
00000040: 3e63 04be 0b7d d03c dfac a8bd 0ca3 2abe
00000050: 8af6 ebbc d768 44bd bfac 853c 1863 28be
00000060: e09a 0d3e 6669 8f3d 7a57 f23c 103e 343d
00000070: c252 fc3b bf9c bcbc 4c62 1b3d c4d7 903c
00000080: 8c48 0c3e e44d 34bd 7520 99bd ae0e 2fbd
00000090: 57b1 63bd 23b0 a03d eeff 4d3c 5697 353d
000000a0: af9b ffbd cdb5 82bc f75b c93d 56a9 093e
000000b0: 80d7 4bbe 43c3 3c3d 2fd8 383d 22d4 69bd
000000c0: e3c1 873d abe8 073c ba99 fcbc 4f76 99bd
000000d0: 2ae9 c53c 35ea 46bb f930 b6bd f46c 47bd
000000e0: 6b6f 76bd 94c1 5fbd c288 1cbd 8d75 09be
000000f0: c3ed 8c3c 1b72 1d3d e37f 833c d57f 8a3d
00000100: c131 5f3c 45e0 e2bc 6a6d e53d b54b 68bd
00000110: 338b 1f3d 1f54 dd3d 45a3 f8bb f605 633d
00000120: 9a83 26bd 46b5 52bd 6757 e5bd 5d07 26be
00000130: 6f48 22bd 152c 073e 95b5 a6bd 46d8 6abe
00000140: c4d6 ddbc a822 10be 0ebd 0a3e 5269 0c3d
00000150: a2b6 573d d465 d2bd 3ff4 be3c 3f33 d53d
00000160: 2c5e b03c 87c7 7cbb ed6f f6b8 f85e 293e
00000170: c2a0 8c3c fdf1 89bc bee9 bf3d b463 873d
00000180: a257 a03d bd78 db3a b502 533d 173a 6ebd
00000190: 8486 ba3c fd5c ffbc 750d 503d 291d f53a
000001a0: 98f8 abbd 143b c43c c2b3 3dbd 1aa6 9a3c
000001b0: 463a a8bd 9a21 edbc 881e bebd 4972 a63d
000001c0: 1a3d 853d ca56 b63d 364d d33c 3c59 8fbd
000001d0: d047 f03c c8e5 0a3d a63e 953d b883 483d
000001e0: 00c2 31bd 615f 57bd 1ac9 c53d cefe 503d
000001f0: 390a 97bd 3008 303d 87fb 8fbc 7df4 2f3d
00000200: 58e4 703c b30c 053e 80b0 8e3d 1d9d 0abc
00000210: dc4e 9ebc 42f7 33bd c255 b73d ccea e5bc
00000220: 5268 92bd 0649 2f3b 54c3 883c f740 a33a
00000230: e230 983d 9cba dabd 2a0b 1bb9 5182 563c
00000240: baf8 e83d be7f 1b3b d4a4 a4bd 24ba eabc
00000250: 1334 a6bd aecc c93d 8790 44bd 9155 323d
00000260: 72b9 703d 8125 7abc c83f 393d 0024 4cbd
00000270: 34d1 07be 3f05 a03d 675b e33d 9053 8abd
00000280: eeb0 6abc cf31 803d cf96 2bbd 75d8 ddbd
00000290: 2a7b 70bd f9d9 bb3d 5cbe 27bd fe4e 0bbe
000002a0: cd5e 19bc 423c c1bc 278a 003d a87b 0fbc
000002b0: f516 1fbd ab40 8dbd 8f86 a93d b85e 963c
000002c0: 882b b6bd 94d3 a5bd 093f 273c 5303 b33d
000002d0: cf66 a33d 310c d6bc 5592 b13d f2f4 933c
000002e0: e2ba da3c 5835 9bbc e911 9cbd 7d65 e93c
000002f0: 93b4 9fbd e6e3 903d e765 7ebd ac2c e5bd
00000300: fcac 88bb 2439 c1bd c583 983b c90a cfbd
00000310: e219 efbd 5080 423c ecd2 2ebd 2621 b03b
00000320: aa1f b8bd fb82 a23c 363c b43d e19b 9fbd
00000330: d405 703d 226e e8bc 9309 703d 360e 213c
00000340: fef9 acbd cf74 31bd 6a6d 92bc dda0 af3d
00000350: ba73 ac3d d768 863d e8c4 d13d 057f 9a3d
00000360: 595f c23d 2a2f 92bd 0550 193e cb2d 2d3b
00000370: 5c2b fcbb 2e09 a5bd bb9f 033d 9e5b 013d
00000380: c3e9 8b3d cc5d d63d e9d7 95bd a51c d9bd
00000390: 88bf 913d eb5c 0bbc 8231 703d bde7 a9bd
000003a0: b4fc 0e3e f45d b5bd 4e28 6dbd 75d9 c83d
000003b0: 2807 8abd 902a 37bd 6744 edbc f8f1 a43c
000003c0: 736e ccbc 7124 943c 71b8 a8bd c175 283d
000003d0: 3b46 9fbd f10e aabd abcc 9dbc 8051 83bd
000003e0: ba11 913b f46f 9fbd f3a1 0ebd 27bd 6b3d
000003f0: 2996 56bd 9143 cebd 0bb1 f0bc 1edd a03d

net.0.bias_ih_l1 f4 [300]
0.032741506 0.081004195 -0.11900153 -0.06872769 0.06144452 -0.08503808 0.0521557 0.09292474
0.018532954 -0.065971255 -0.1701811 0.017676964 0.02418017 -0.124182075 -0.12921637 -0.0045701917
-0.0021376498 -0.108006954 -0.07153701 -0.047914673 0.08750001 -0.06914819 0.050612975 -0.02934376
-0.107179575 -0.12824674 -0.010531162 -0.030962666 0.10062416 -0.10947189 0.026658926 0.04162074
-0.10574451 -0.0915659 0.00012952293 -0.07761291 -0.04724694 -0.051362418 0.04901493 -0.025681097
0.032469 -0.08120899 -0.025091188 0.02977641 -0.03886819 -0.083258 -0.11545717 -0.075693294
-0.032570943 -0.024182847 0.018230159 -0.039963204 0.015950369 -0.15181184 -0.057006117 0.010543118
0.031362865 0.045277793 0.09100419 -0.04876029 0.09801854 -0.014949672 -0.024218814 -0.04479801
-0.026560012 0.09275123 -0.059132446 -0.07945651 0.039266743 0.044266544 -0.11625493 -0.038730673
-0.124459855 -0.12620258 -0.113427304 0.028363952 0.013084541 -0.023689881 0.0024106863 0.06083486
-0.05376617 0.03612483 -0.042601906 -0.049116407 -0.038765877 -0.06455732 0.022262583 -0.08215863
0.060156364 -0.02500859 -0.08937426 -0.008587783 0.18615595 0.036951806 -0.04782877 -0.0003753288
-0.03697542 -0.09050403 0.016979652 -0.032739077 -0.07171699 0.066613294 0.117260456 0.09726089
0.056759335 0.0486771 0.09118585 0.21809867 -0.027194453 0.05726612 0.022017784 -0.120988496
0.13360976 -0.028667739 0.142529 0.09187311 -0.12375623 0.05944531 -0.10976485 0.04226812
0.17166884 0.08498803 -0.0890592 0.10457662 -0.0019171035 0.15068157 0.044442546 0.13153715
0.18543904 -0.015357331 0.07515098 -0.002074632 -0.014028541 0.18520053 0.06519891 0.0019026975
-0.026737887 0.06774995 0.019948538 -0.20988174 0.16348478 0.12875468 0.07940248 0.13443518
0.20233469 -0.034110207 0.06270803 -0.020720832 0.0022844202 -0.12189656 -0.03514479 0.058980286
0.05282262 -0.005007316 0.12645137 0.07326542 -0.09507037 -0.10857635 0.26406416 0.077793226
-0.053588208 0.096561864 0.10625663 0.13267784 0.010731624 -0.032124612 0.043022588 -0.078356594
0.014271997 0.15592657 -0.014143292 0.139389 -0.06730602 -0.042813707 -0.029886855 0.14724532
-0.17197214 -0.008553749 0.063007 0.09265001 0.022037312 0.12861982 0.009915363 -0.08660498
-0.060135756 0.033717666 -0.06582676 0.08799877 0.10294422 0.23193379 0.030919448 0.106786326
-0.069813274 0.18074374 0.21968901 0.103792466 -0.08526301 -0.14063329 -0.07605824 0.148997
0.0023280971 0.08369037 0.058677327 0.020139782 0.002116358 -0.08205267 -0.06304064 0.004199053
-0.056555923 -0.05445218 0.068384506 -0.052806683 -0.094899885 -0.008770017 -0.0039647114 -0.0688108
0.0647736 -0.051528584 0.04179834 0.08581807 -0.062216032 0.070652284 -0.03239498 0.046262857
-0.019065429 0.033212055 0.021890113 -0.024614837 0.0354018 0.02045298 0.06772768 0.061371997
-0.06779535 0.033564985 -0.052950718 0.053529747 -0.043924436 0.026827738 -0.0048550414 -0.012456999
0.07145083 -0.03369087 0.07723792 -0.09146966 0.07319545 -0.003200683 -0.0062659807 -0.0501637
0.049041465 0.035452724 0.032501597 0.08480692 0.049607128 0.04660548 0.003334403 -0.018243473
00000000: f51b 063d 87e5 a53d 13b7 f3bd 1ac1 8cbd
00000010: 40ad 7b3d 7228 aebd 37a1 553d 534f be3d
00000020: 6cd2 973c f01b 87bd f443 2ebe 48cf 903c
00000030: 7e15 c63c 2c53 febd 4c51 04be 8cc1 95bb
00000040: d017 0cbb c032 ddbd ff81 92bd 2d42 44bd
00000050: 3533 b33d 919d 8dbd 8d4f 4f3d 5362 f0bc
00000060: f780 dbbd 1d53 03be e58a 2cbc 6ba5 fdbc
00000070: 0a14 ce3d cc32 e0bd d263 da3c 827a 2a3d
00000080: 9490 d8bd e786 bbbd 8cd0 0739 84f3 9ebd
00000090: 0286 41bd 6661 52bd e1c3 483d 2a61 d2bc
000000a0: 37fe 043d e650 a6bd 098c cdbc a8ed f33c
000000b0: 4034 1fbd 2c83 aabd cf74 ecbd 1605 9bbd
000000c0: 1c69 05bd 1b1b c6bc 6a57 953c 75b0 23bd
000000d0: 59aa 823c 9074 1bbe 3f7f 69bd 0bbd 2c3c
000000e0: 5976 003d 3575 393d 6860 ba3d dfb8 47bd
000000f0: f2bd c83d 78ef 74bc 8966 c6bc 1e7e 37bd
00000100: 6294 d9bc 5bf4 bd3d dd34 72bd 18ba a2bd
00000110: 2ad6 203d d650 353d 1117 eebd 0ea4 1ebd
00000120: cfe4 febd 403b 01be 934c e8bd 855b e83c
00000130: 8b60 563c 4811 c2bc 9bfc 1d3b f92d 793d
00000140: ea39 5cbd a1f7 133d 567f 2ebd 492e 49bd
00000150: f8c8 1ebd a136 84bd 0560 b63c c942 a8bd
00000160: 8566 763d d1de ccbc da09 b7bd c6b3 0cbc
00000170: aa9f 3e3e c75a 173d 1ae8 43bd c7c7 c4b9
00000180: 8a73 17bd 2d5a b9bd e918 8b3c 6919 06bd
00000190: 5be0 92bd 8d6c 883d 4026 f03d b830 c73d
000001a0: 7a7c 683d a461 473d a6bf ba3d 4255 5f3e
000001b0: e7c6 debc e18f 6a3d a45e b43c d1c8 f7bd
000001c0: ffd0 083e 9bd8 eabc 1ff3 113e f827 bc3d
000001d0: e873 fdbd ed7c 733d 65cc e0bd 5621 2d3d
000001e0: f5c9 2f3e 340e ae3d ab64 b6bd 442c d63d
000001f0: 5247 fbba 454c 1a3e 6309 363d adb1 063e
00000200: bbe3 3d3e 519d 7bbc c2e8 993d 8df6 07bb
00000210: f7d7 65bc 35a5 3d3e 0287 853d ef63 f93a
00000220: 6a09 dbbc 7cc0 8a3d 1e6b a33c 3deb 56be
00000230: 8e68 273e 44d8 033e c49d a23d 60a9 093e
00000240: d330 4f3e 25b7 0bbd 116d 803d bcbe a9bc
00000250: 36b6 153b e7a4 f9bd fcf3 0fbd 5095 713d
00000260: 885c 583d 6914 a4bb 787c 013e 2e0c 963d
00000270: 41b4 c2bd 475d debd 6b33 873e 0e52 9f3d
00000280: 4f7f 5bbd 3ac2 c53d 139d d93d b3dc 073e
00000290: b2d3 2f3c 1995 03bd 7438 303d 6c79 a0bd
000002a0: 18d5 693c 37ab 1f3e 44b9 67bc fdbb 0e3e
000002b0: bdd7 89bd 6d5d 2fbd 47d5 f4bc 7ac7 163e
000002c0: 7719 30be 0625 0cbc d009 813d 4abf bd3d
000002d0: 9887 b43c eab4 033e 0c74 223c f45d b1bd
000002e0: e950 76bd 891b 0a3d 2ed0 86bd b338 b43d
000002f0: 6bd4 d23d 0d80 6d3e c84a fd3c cab2 da3d
00000300: 43fa 8ebd e314 393e 28f6 603e 2591 d43d
00000310: 5f9e aebd 2c02 10be 6cc4 9bbd ab92 183e
00000320: fd92 183b db65 ab3d a357 703d 2ffc a43c
00000330: 98b2 0a3b 3b0b a8bd 731b 81bd 3698 893b
00000340: 2fa7 67bd 4009 5fbd 2d0d 8c3d d24b 58bd
00000350: df5a c2bd 1eb0 0fbc 69ea 81bb adec 8cbd
00000360: 05a8 843d a30f 53bd bc34 2b3d 62c1 af3d
00000370: 3dd6 7ebd 25b2 903d 99b0 04bd 1f7e 3d3d
00000380: 1a2f 9cbc 5d09 083d e552 b33c 0ea5 c9bc
00000390: 7a01 113d 028d a73c cfb4 8a3d 3461 7b3d
000003a0: 4ad8 8abd 707b 093d dae2 58bd 0242 5b3d
000003b0: 1cea 33bd d8c5 db3c 0a17 9fbb 7118 4cbc
000003c0: d054 923d 70ff 09bd ea2e 9e3d 7254 bbbd
000003d0: 7fe7 953d 8dc2 51bb db52 cdbb 7478 4dbd
000003e0: b4df 483d e036 113d 6520 053d 40af ad3d
000003f0: d830 4b3d 63e5 3e3d 0086 5a3b 5673 95bc
