vae_classification/state_dict_classifier_conv2d.pt (torch, 77583 bytes, 8 tensors)

net.0.weight f4 [16, 1, 1, 7]
000000 9e fe a7 be 35 34 5b be a2 9b 15 3e 1d ad 9b 3e
       -0.32811445 -0.21406634 0.1461015 0.30405512
000010 3f 80 b9 be 2a 71 22 be d0 95 97 be 4f 2f 8f 3e
       -0.36230657 -0.15863481 -0.29606485 0.2796578
000020 10 5b 56 3e 60 28 ad be 03 78 a0 3d 56 18 9c bb
       0.20933175 -0.33819866 0.078353904 -0.0047636433
000030 47 d0 87 be 4a d7 61 3e b7 9b 0f 3e 10 53 94 3d
       -0.2652609 0.22054783 0.14024244 0.072424054
000040 df 0f 3b be a5 5b ac 3e 99 04 9b be 69 f5 53 be
       -0.18267773 0.3366367 -0.30276945 -0.20699085
000050 72 e9 95 be 75 4c 3e 3e 39 15 d0 bd 34 7d 20 bd
       -0.29279667 0.18583854 -0.10160298 -0.039181903
000060 63 f9 cf bd 8e 84 8f be d9 9c 9c be bb e5 81 be
       -0.101549886 -0.2803082 -0.30588415 -0.25370583
000070 22 1f a2 3e 19 8f 51 be 45 bb 74 3e 6c c0 cb 3e
       0.31664377 -0.20464744 0.23899563 0.39795244
000080 84 ad 8e 3d ff ec de bc 15 0f cd 3e d9 2d 01 3c
       0.06966689 -0.027212618 0.4005057 0.007884466
000090 e7 18 1f 3e c0 30 8d 3e b5 1a 34 3e 46 05 15 be
       0.15536843 0.27576256 0.17588313 -0.14552793
0000a0 78 0d c8 be 48 4c 67 be b6 fd 7e 3e 42 8f 99 be
       -0.39072776 -0.22587693 0.2490147 -0.2999211
0000b0 1e 3b 9a be 69 c5 84 be 60 0d 0c 3c 50 99 67 be
       -0.30123228 -0.25931862 0.008548111 -0.22617078
0000c0 c8 39 3d be f7 67 61 3e 36 c9 b9 3d 7f 12 01 3f
       -0.18479073 0.22012316 0.09071581 0.5041885
0000d0 d4 f0 cc 3e 2a 0c 81 3e 7b 33 0a 3f 4e ba 1b be
       0.40027487 0.25204593 0.539848 -0.15207788
0000e0 a8 bd fb bd 84 4d f5 bd 4f 40 ba 3e 64 6c a2 be
       -0.122920334 -0.119776756 0.3637719 -0.3172332
0000f0 37 be c0 be 83 ff 1c be 36 c6 ad be dc b9 e8 3e
       -0.37645122 -0.15331845 -0.33940285 0.454543
000100 78 a6 e5 3d c3 d9 69 3e e3 71 0e 3e 88 ad 80 be
       0.11213392 0.22836976 0.13910632 -0.25132394
000110 98 7f 86 b8 c6 3f bb 3e 9e 8b e3 3e 6e 37 d9 3e
       -6.413384e-05 0.36572093 0.44442457 0.42425102
000120 f9 11 ac bd 16 b6 95 3d c4 9f 83 3e cb 0a f0 3e
       -0.084018655 0.07310121 0.2570783 0.46883234
000130 fa 38 33 bd f1 cf bf bd 86 4e 7a be e7 10 b1 3d
       -0.04375551 -0.093658336 -0.24444017 0.08645802
000140 21 36 7e 3e 5d 4d 8d 3e 91 87 0c 3e 07 42 59 3e
       0.24825336 0.27598086 0.1372359 0.21216594
000150 a8 76 b4 be c0 20 a9 bc 08 88 c9 3d 00 a0 07 3d
       -0.35246778 -0.0206455 0.09840399 0.033111572
000160 4d eb 92 3e e9 26 bf be 40 7e a8 be c1 41 01 be
       0.28695145 -0.37334374 -0.3290882 -0.1262274
000170 99 d9 59 3e 4e 8f a9 be 60 ab 84 3e 0e f6 c6 bd
       0.21274413 -0.33117145 0.25912 -0.097149
000180 7c 29 d9 bd de dc 67 bd 44 1d a6 3e ce 7f 3e 3e
       -0.10603616 -0.05660712 0.32444203 0.18603441
000190 d8 ac 98 bc a3 3e d0 3e 5e 97 ed 3e 83 b1 8a 3d
       -0.018637106 0.40672788 0.46404546 0.06772139
0001a0 c4 b2 79 3e 80 d1 68 3d 3c ad e9 bd 6a fd 0d 3e
       0.243846 0.05684042 -0.11409995 0.13866201
0001b0 fc 47 ce bd 6d 19 82 be 08 cd b7 bd 18 9b 4b be
       -0.10072324 -0.25410023 -0.089746535 -0.19883382

net.0.bias f4 [16]
000000 00 ad 9e bd 5e 6a a3 3e 8f 61 93 3e 0d f2 ae bd
       -0.07747841 0.3191709 0.2878537 -0.08542261
000010 35 a4 0e be d0 ea 33 3e 7e 9e 9c be 15 6c 66 3d
       -0.13929828 0.17570043 -0.3058967 0.05625542
000020 84 fa f0 bd 40 06 ec bd 80 ac ac 3e 9f 57 af bd
       -0.11766532 -0.115246296 0.33725357 -0.08561634
000030 69 1b 1e be 26 d2 1d bd 35 9e 65 3d db 96 55 be
       -0.15440144 -0.03853049 0.05605908 -0.20858328

net.3.weight f4 [32, 16, 1, 7]
000000 09 01 86 3d 7d 22 3b bd 4f 4e 94 3d 90 87 db 3b
       0.06543166 -0.045687187 0.07241499 0.00669951
000010 8c 43 cf 3c 3a a1 57 bd 0c c4 72 bd bd 96 42 bd
       0.025300764 -0.052643992 -0.059268996 -0.047507036
000020 c0 c3 b1 bb f8 46 ae 3c c7 ea 8e bd bb b1 88 3d
       -0.0054249465 0.021274075 -0.06978374 0.066745244
000030 67 91 8f 3d 73 30 bd bd 9e 74 75 bd 1a 0f 4f 3d
       0.07010155 -0.092377566 -0.059925668 0.05055151
000040 78 b6 3c 3c 22 be 00 3d 1c fd a2 bc 3d eb 5e bd
       0.011518113 0.031431325 -0.019896083 -0.05442356
000050 3e 7a 0c 3d 00 2d b2 39 db 1d b4 3d a8 96 23 3c
       0.034296267 0.00033984333 0.08794757 0.00998465
000060 2b ac 8d 3d e0 0c e4 3b 00 23 b7 bb df 25 aa bd
       0.06917604 0.0069595426 -0.005588889 -0.083080046
000070 bb 35 60 bd 80 36 ac bd 9b 8e 84 3d 90 0c 28 3c
       -0.05473874 -0.084088326 0.06472512 0.010256901
000080 88 8b 9f bd cc 55 99 bd b1 3a b4 3d ae 9d 0b 3d
       -0.07790285 -0.074870676 0.08800257 0.034085922
000090 62 b6 b1 bd f2 1a 76 3d 9a 10 81 bd 36 eb 6b 3d
       -0.08677365 0.06008429 -0.063019946 0.05759736
0000a0 bc 0d 34 bd 89 98 8f bd 33 d9 b3 3d 58 34 05 3c
       -0.04395841 -0.07011516 0.08781662 0.0081301555
0000b0 92 f5 ab bd 30 94 6c bc 2d f4 33 bd ea 15 48 3d
       -0.08396448 -0.0144396275 -0.043934036 0.048849024
0000c0 2e b5 1b 3d 30 c5 9e bc de 80 37 3d f0 45 b6 bc
       0.038014583 -0.019381136 0.04480063 -0.022250146
0000d0 bc 85 9d bc 1e c8 7b 3d 5c 3c 83 bc 25 ce 54 bd
       -0.019228809 0.061470143 -0.016019993 -0.051954407
0000e0 44 ef 94 3c 95 93 2f bd f0 d4 65 bc d4 6a d4 3c
       0.018180497 -0.042865355 -0.014027819 0.025929846
0000f0 c8 ca ab 3c 3e 5e 57 3d 7e fa 26 3d 6a f4 4a bd
       0.020970717 0.05258011 0.04076623 -0.049549498
000100 bd 94 26 bd 90 a2 90 bc 24 d2 b0 bc 99 4a 15 bd
       -0.04066919 -0.01765564 -0.021584578 -0.036448095
000110 44 2a 85 bc 58 06 40 bd 76 dc 63 bd b0 ad 99 bc
       -0.016255505 -0.04688105 -0.05563017 -0.018759578
000120 66 68 5b 3d 5c da b0 bd c0 fd bf ba 36 d9 7f 3d
       0.05356636 -0.08635399 -0.0014647767 0.062463008
000130 ed cc b8 bd f6 2d 08 3d 75 e1 8e 3d e2 54 15 3d
       -0.090234615 0.033246957 0.06976596 0.036457904
000140 fd 8b b5 bd 4b c7 83 3d ce 2c 73 bd c1 15 2c bd
       -0.08864591 0.064344965 -0.0593689 -0.042012934
000150 8b 63 90 3d 20 27 5a 3c 29 73 44 bd 5d ef 96 3d
       0.07050236 0.013314992 -0.047961388 0.07369874
000160 99 56 aa bd be 91 5a 3d 11 8a 8e bd 48 6e ad bd
       -0.083172984 0.053361647 -0.06959928 -0.084683
000170 d4 9b e1 bc b7 c0 9b 3d c0 28 8a bc 2b 54 8c 3d
       -0.027540125 0.07605117 -0.016865134 0.06851991
000180 18 e3 82 bd ec 4a 66 bd a2 1b 4f 3d 69 ff b9 bd
       -0.06390971 -0.056223795 0.050563462 -0.09081919
000190 b0 ea 3e 3c ff 35 81 3d 08 d3 65 3c ff 83 a6 bd
       0.011652634 0.06309127 0.014027365 -0.08130645
0001a0 2f b2 81 bd 96 72 87 bd 50 53 d2 3b ee 33 60 3d
       -0.06332814 -0.066136524 0.006418623 0.054737024
0001b0 62 ca 46 3d 77 e9 bf 3d 9f 94 14 bd 80 aa 4b 3c
       0.04853285 0.09370702 -0.03627455 0.012430787
0001c0 23 e3 ad bd 58 ac bc bd 70 33 98 bc b2 32 08 3d
       -0.084905885 -0.092125595 -0.018579215 0.03325147
0001d0 47 97 ac bd f8 4f 89 3c b0 87 b9 bd 3a 8c 0e 3e
       -0.08427291 0.016761765 -0.090590835 0.1392068
0001e0 b4 9e 3e 3d a3 41 8b bc ae 0c c5 3d 8c c3 0d 3e
       0.04653807 -0.016999071 0.09621559 0.13844126
0001f0 62 80 19 3e a1 2c e4 3c 35 55 17 3e ab d1 34 3d
       0.1499038 0.027853312 0.14778598 0.044145267
000200 44 d0 44 3e da 4c 80 3d 06 e7 eb 3d 7b bd 33 3e
       0.19220072 0.06264658 0.115186736 0.1755275
000210 5b 56 ca 3d 50 19 da bb 0a bf 0c 3d fd c0 be 3d
       0.09879752 -0.0066558495 0.034361877 0.09314153
000220 a8 0a 8d bc 20 2a f5 3b 59 f3 a7 bd 7e 36 29 3d
       -0.017216995 0.0074818283 -0.08200712 0.041311733
000230 ff 0f c8 bd 39 a4 a0 bd 11 de d1 bd 01 1c f0 bc
       -0.09768676 -0.07843823 -0.10247434 -0.029310228
000240 40 c0 c8 bd 0c 58 15 bd 05 49 ba bd 21 e4 09 3c
       -0.09802294 -0.03646092 -0.090959586 0.008416207
000250 fb 98 8d 3d 83 e0 80 3c 7b 12 10 3e fc e9 1f 3e
       0.06913944 0.015732056 0.1406955 0.15616602
000260 6a 7d 2e 3d 28 29 af 3d a6 f8 7a 3d 0e 73 12 3d
       0.042600073 0.08552772 0.061272286 0.035754256
000270 f2 af 16 3d cc 59 f9 bc 71 6f 72 bd f8 39 61 3c
       0.03678889 -0.030438326 -0.05918831 0.013746731
000280 63 0d ba 3d 24 b0 86 bd c8 6f 3d 3b d4 ec a6 3d
       0.090845846 -0.06576565 0.0028905738 0.0815064
000290 4a 43 61 3d a7 a1 3a bd 1a 24 9e 3d 93 63 b0 3d
       0.054995812 -0.04556432 0.077217296 0.08612742
0002a0 f0 2f a2 bb 56 5d 24 3d 25 3c 5f bd 75 43 a8 bd
       -0.0049495623 0.040128075 -0.054500718 -0.082159914
0002b0 e5 f1 a5 3d 4b 39 07 bd 62 39 63 bd 3e 6c 07 be
       0.08102778 -0.033013623 -0.055474646 -0.13224885
0002c0 2d 49 03 be 15 c8 8d bd b1 05 16 bd 6e 54 ed bd
       -0.12820883 -0.06922928 -0.03662652 -0.11588369
0002d0 31 57 9b bd 56 8a 16 3d c8 1a 05 bd 64 23 3a 3d
       -0.0758499 0.03675302 -0.032496244 0.045443907
0002e0 5f ac 9b bc 9d 9a ca bc 06 62 c6 3b c5 5a d9 3d
       -0.019003091 -0.024731928 0.006054166 0.10613016
0002f0 e2 7b e7 3c c3 0f b9 bd 7c 49 4a 3d a1 3b bf bd
       0.028257314 -0.090362094 0.049386486 -0.09337545
000300 dc 8b 07 3d 04 84 e9 bd a5 41 6c 3d 9d 0d 53 bc
       0.033092365 -0.11402133 0.05767979 -0.012881664
000310 d4 b3 ef bc 9d 23 99 3d 1a e6 87 bd 2a fb 49 3d
       -0.029260553 0.07477496 -0.06635685 0.049311794
000320 0e 61 0a 3d fe a9 06 3d ff 6b 8d 3d b0 46 e2 bc
       0.033783965 0.03287696 0.06905364 -0.027621597
000330 5a 4d 4b bd 8d 8c 90 bd f2 ab 07 3d 27 89 30 bd
       -0.049634315 -0.07058058 0.033122964 -0.04309955
000340 a0 2b 81 bb 7e 2d 3f 3d 36 c7 19 bd 74 6d b7 3d
       -0.003941968 0.046674244 -0.037543498 0.089564234
000350 57 16 8a 3d 74 c5 10 bd a2 5e 7d 3c 59 ae 06 bd
       0.06742542 -0.035344556 0.015464457 -0.032881115
000360 b1 29 81 bd e0 3e 79 3b b4 cf c7 3c a6 40 30 3d
       -0.0630678 0.0038031861 0.024391033 0.043030404
000370 d8 fe 5b 3c a0 1c 41 3b f0 47 bb bc a8 71 96 bc
       0.013427459 0.0029466525 -0.02286145 -0.018364742
000380 3c bd d4 bc 0b f4 27 bd 19 6e a0 bd ec 70 c7 bc
       -0.02596914 -0.041004222 -0.078334995 -0.024345838
000390 79 00 ab 3d de 9a 35 3d 14 a3 ff bc 54 26 1c 3e
       0.083496995 0.044337146 -0.031205691 0.15248996
0003a0 b5 1b d4 3d 9b c8 05 3e 4e 4f 05 3c 99 e7 c9 3b
       0.10356847 0.13064806 0.0081365835 0.006161642
0003b0 e8 18 6f 3c f3 fb ec 3d 28 eb da 3d b6 ed 93 3d
       0.01459334 0.11571493 0.10689384 0.07223074
0003c0 f3 07 10 3d 78 0c 3b 3e 6b 7a 7d 3e ad 53 ad 3d
       0.03516383 0.18266475 0.2475373 0.084632255
0003d0 1a da 65 3e e0 0c 7b 3b b6 45 18 3d 26 4c 43 3d
       0.2244648 0.0038307235 0.037175857 0.047680043
0003e0 22 03 11 3d f8 1d 6e bd 9d ae 96 3d 98 b3 40 3c
       0.03540338 -0.05813405 0.073575236 0.0117615685
0003f0 aa 6f be 3b 12 7f ce bd 77 3b d3 3d 22 75 f3 3c
       0.0058116512 -0.100828305 0.103140764 0.02971894

net.3.bias f4 [32]
000000 6d cc c0 bd 8d 6b 1b 3e 53 ea 19 3e 87 73 4f 3d
       -0.09413991 0.15177746 0.15030794 0.050647285
000010 df 4a 07 3e fa 0b a7 bd 57 a2 e5 bd 3f 5d fd bd
       0.13212155 -0.08156581 -0.112126045 -0.12371301
000020 78 ef 90 bd 6c 71 83 bc 4a 0f 7a 3d be c9 4d bc
       -0.07076925 -0.016045295 0.061049737 -0.012560306
000030 47 e1 26 bd 04 b4 10 3d de 16 07 bd 5a 50 65 bd
       -0.040742185 0.035327926 -0.032980792 -0.055984832
000040 c8 5a 17 bd 96 78 de bd 8c 2d 24 be 86 53 a0 bd
       -0.03695181 -0.10862844 -0.16033 -0.07828431
000050 1f b4 1d 3e 0f 31 2d 3d cc 94 9f 3d bf c8 65 bd
       0.15400742 0.042283114 0.077920526 -0.05609965
000060 6b 5b 55 3d 1e 2f 88 bd 0f fd 0b 3e f9 e9 9c 3d
       0.052089136 -0.06649612 0.13670753 0.07661814
000070 45 c7 a6 3c c6 7c 9f 3d 31 ce 13 bd 4f fd db bd
       0.020358691 0.077874705 -0.03608531 -0.10741674

net.6.weight f4 [64, 32, 1, 7]
000000 7a 9d 45 bd 66 e0 78 3d 20 6c 22 3c 0c 2b 54 3d
       -0.048245884 0.060760878 0.009913474 0.051798865
000010 00 32 34 39 48 af ff bc e4 1e 35 bd 6a 6f 14 bd
       0.00017184764 -0.03121151 -0.044218913 -0.036239065
000020 40 65 c5 3a 23 d4 88 3d 06 4e 8c bc 2d ef 81 3d
       0.0015060082 0.06681087 -0.017127048 0.06344447
000030 a0 0e bf 3b fc c6 6d bd 90 55 0c 3d e8 22 2b 3c
       0.005830601 -0.058051094 0.034261286 0.010445334
000040 de 14 21 3d 3c fe e3 3c a0 36 f3 3c 1e 22 fd bc
       0.03932654 0.02783119 0.029689133 -0.030900057
000050 3d ae 88 bd 5c 57 1a 3d aa b0 ef bc 17 8b d8 3b
       -0.06673858 0.03768097 -0.029259045 0.0066083777
000060 d5 68 d3 38 24 3b a0 bc 32 a6 69 bd 80 fc 8f bd
       0.000100807905 -0.01955945 -0.05704326 -0.070305824
000070 07 7d 6e bd 8b a6 f5 bc 00 1a 87 bd 1c 40 22 bd
       -0.058224704 -0.02998664 -0.06596756 -0.03961192
000080 2c 93 28 3b 8c 09 82 bd fe 3b 71 bb 80 10 0d bd
       0.0025722487 -0.06349477 -0.003680944 -0.034439564
000090 05 7c 0e 3d f4 63 35 bc 1b f3 1e bd 04 0e 52 3c
       0.034786243 -0.011071194 -0.038806062 0.012820724
0000a0 17 26 a7 3c ba e6 98 bd 01 e0 7b bd 3c fe 27 bd
       0.020403905 -0.074658826 -0.061492924 -0.04101394
0000b0 30 28 3e bd 1c 34 5c 3d e8 36 aa 3c 40 ac 34 bb
       -0.046425045 0.053760633 0.020778134 -0.002756849
0000c0 8a 4d 07 3d c5 76 e0 3c 7d c1 c9 3c 3a f5 45 3d
       0.03303293 0.027400384 0.024628395 0.04832957
0000d0 c9 1e 5b bd 42 21 b8 3c 29 ac 40 3d 22 00 0f bd
       -0.053496156 0.022476796 0.047039185 -0.034912236
0000e0 a1 af 89 3c be 56 08 bd b8 6e b8 3c 10 12 36 3c
       0.01680738 -0.03328585 0.022513732 0.011112705
0000f0 35 ee ef bc 0f 09 fe bb 88 f5 8a bd ab 19 a8 bd
       -0.02928839 -0.0077525447 -0.067851126 -0.08208021
000100 3e dc ed 3b 78 c8 40 3d 3f 9a f7 3c a4 a6 92 bd
       0.007258921 0.047066182 0.030224917 -0.071606904
000110 af 08 1f bd a6 63 ab bd 90 68 12 3d 13 26 88 bd
       -0.03882664 -0.08368616 0.03574425 -0.06647887
000120 55 e2 62 bd fc 72 f7 3c 76 cc 7b bd c2 33 a8 bc
       -0.05539163 0.030206196 -0.061474286 -0.020532493
000130 9a 50 c2 bc e8 f8 1f 3d 99 3a 0a 3d 79 a5 8d bd
       -0.023720074 0.039055735 0.03374729 -0.06916327
000140 ca 11 24 3d a8 c9 89 bd 48 23 f8 bc f5 c4 c0 3b
       0.040056027 -0.06727916 -0.03029026 0.005882854
000150 99 91 0f bd b4 e6 31 3d 9c 93 08 bd e8 02 2d 3c
       -0.035050962 0.043432906 -0.033343896 0.010559775
000160 98 54 62 bc 3f d9 81 3d 6c 35 48 bd ba 61 44 bd
       -0.013814114 0.063402645 -0.048879072 -0.04794476
000170 ae 76 ef 3c b7 46 8b bc 53 73 1e bd e1 01 42 bd
       0.029231396 -0.017001493 -0.0386842 -0.047365073
000180 ce 28 27 bc 52 19 97 bc a6 51 ce bc c8 21 f0 3c
       -0.0102026 -0.01844469 -0.025185417 0.029312983
000190 74 57 c0 3c e8 39 e3 3c a0 b3 aa 3b 18 ec 66 3c
       0.0234792 0.027737573 0.0052094012 0.014094375
0001a0 df 69 87 3d 1e 67 4e bd be f5 28 bd a0 89 82 bd
       0.0661199 -0.05039131 -0.041249983 -0.06373906
0001b0 1c 05 a9 3a 9a c9 15 3d 76 24 5e 3d c0 21 fe ba
       0.00128952 0.036569215 0.05423399 -0.001938872
0001c0 69 e3 84 3d ce f7 64 3d b6 9e 05 3d 80 92 b0 ba
       0.064886875 0.055900387 0.03262206 -0.0013471395
0001d0 4e cd 18 3d d8 a2 86 bd 8c 49 f5 3c 95 f7 d3 3c
       0.03730517 -0.06574029 0.029942296 0.025874892
0001e0 fc 45 23 3d 1e b8 58 bd 20 7a 7d 3c b8 34 d7 3c
       0.039861664 -0.052909963 0.015471011 0.026270255
0001f0 31 a8 14 bd 3f 5a 82 bc 48 4c 63 bc ba 7a cf bc
       -0.036293212 -0.015912173 -0.013873167 -0.025327075
000200 52 39 9a bc be 6c 8d bc e8 25 39 bd ec cb d9 3c
       -0.01882616 -0.017263766 -0.045202166 0.026586495
000210 2c 04 2f bc e8 d7 e6 bc f3 2a 97 3b ac 9c a2 bd
       -0.010682147 -0.028179124 0.0046132742 -0.07940039
000220 36 b2 52 3d 90 ed 47 bd 70 4c 00 3c 3f cc 03 bd
       0.051439486 -0.04881054 0.007830724 -0.032177206
000230 38 13 e5 3c 39 1b 3c 3b 96 f6 fd 3c d8 f6 4a bd
       0.027963266 0.002870275 0.03100137 -0.049551815
000240 cf 80 7d bd 4e c6 27 bd 52 7f 89 bc 9e 9e 37 bd
       -0.06189042 -0.040960602 -0.016784344 -0.044829004
000250 eb 26 b0 3c aa a5 50 bd 2f a2 3b bc 9a 98 08 3b
       0.021502933 -0.05093924 -0.011452242 0.002084291
000260 3c c3 4e bd 96 67 57 3c 20 df bb 3c 84 64 09 bc
       -0.05047916 0.013147255 0.022933543 -0.008385781
000270 70 2e d1 3c 51 7d 63 bd c0 65 a9 3b 1a 8c 32 3d
       0.025534838 -0.055539433 0.0051696002 0.043590643
000280 80 92 7c 3b a8 b6 5a bd fd 03 32 bd 08 39 84 bd
       0.003853947 -0.05339685 -0.043460835 -0.0645619
000290 77 5e e8 bc f0 49 a5 bd 28 8e dc 3c 57 63 13 3d
       -0.028365357 -0.08070743 0.026923254 0.03598341
0002a0 65 23 ab bc 50 0e a5 ba f8 61 97 bd d3 86 bc bc
       -0.0208909 -0.0012592766 -0.07391733 -0.023013508
0002b0 6f 50 c5 3c 53 01 a5 bc d0 93 4d bd 41 cc 5b bd
       0.024086205 -0.020142233 -0.050189793 -0.05366159
0002c0 48 99 f0 3c 94 af ba 3c 98 c3 c3 3c e8 9e e5 3c
       0.029369965 0.0227888 0.023896977 0.028029874
0002d0 b8 84 e5 3c aa ec 76 3d 2c af 17 bd 86 97 1f 3d
       0.028017387 0.060284294 -0.03703229 0.038962863
0002e0 ee 01 3c bd d9 f0 7a bd 60 e3 62 3d 6c 16 ce bc
       -0.045900278 -0.061264846 0.055392623 -0.025157176
0002f0 50 05 ff 3c 00 aa 7c 3b a4 56 bb 3c 0c 18 18 bc
       0.031130463 0.0038553476 0.022868462 -0.009283077
000300 b7 41 84 3d d2 8a 0e 3d 88 64 76 bd b2 b7 20 bd
       0.064578466 0.034800358 -0.060154468 -0.039237686
000310 79 2b 42 3b 6b f0 02 3c 27 85 50 bd b8 c2 54 bd
       0.0029627963 0.00799189 -0.050908234 -0.05194351
000320 5a a9 83 bd 30 ca db bc 7b 4b 04 bd 21 48 0d bb
       -0.064287856 -0.026829809 -0.032298546 -0.0021557885
000330 8b 61 8d 3c c2 0a 3c bd 32 b6 1e bd 99 2c 4d bd
       0.017258426 -0.045908697 -0.038747974 -0.05009136
000340 02 89 d6 3c d1 ba e5 39 ff 58 89 bd cb 95 3c 3d
       0.026188377 0.00043817473 -0.06706428 0.04604129
000350 ad 93 34 3d 57 4f 9f 3c 9e fc 87 bd c6 db 07 bd
       0.044086147 0.019447012 -0.0663998 -0.033168577
000360 5d c1 b5 3c fa 4c 4f 3d 00 2e bb 3b ee b1 1f bd
       0.02218693 0.05061052 0.0057122707 -0.038988046
000370 a0 b5 63 3b d6 44 36 bd c4 28 0c 3d 00 32 3a 3d
       0.0034745708 -0.04449924 0.034218565 0.04545784
000380 ea 41 85 bd 66 cb 2f 3d f0 a5 60 3d 01 9a 81 3d
       -0.06506713 0.042918585 0.05484575 0.06328202
000390 16 ca 57 bd 75 ba 84 3d f4 a2 7c bc 31 0a 08 3e
       -0.05268296 0.06480876 -0.01541971 0.13285138
0003a0 18 ee a5 3c 89 65 3a 3d a0 b2 95 3c b9 b1 0b bd
       0.020255134 0.045506988 0.018273652 -0.034105036
0003b0 c6 2d 07 3c 95 37 12 3d 66 e1 96 ba f5 7e 2d bd
       0.008250659 0.03569754 -0.0011511266 -0.042357404
0003c0 e6 f3 a0 bc 28 09 81 bd a1 d7 84 3d 06 f7 02 3c
       -0.01964755 -0.063005745 0.064864404 0.007993465
0003d0 bb f7 4e 3e 73 13 f8 bb c9 02 af 3d b9 d0 64 3d
       0.20211689 -0.007570678 0.08545453 0.055863116
0003e0 5b df 83 bd e4 1f b4 3a 5a b4 ea 3c c0 3d 31 3d
       -0.06439086 0.0013742414 0.028650451 0.04327178
0003f0 3c 02 0a 3d 11 50 e4 bc a6 84 49 3c d0 18 44 bc
       0.033693537 -0.02787021 0.012299692 -0.011968806

net.6.bias f4 [64]
000000 7d e1 80 bd 62 35 49 bd 14 41 4a bd 6c 18 d5 3d
       -0.062930085 -0.049123175 -0.04937847 0.10405049
000010 60 f7 07 3d b1 05 99 3d 52 80 d5 bd 37 03 4f bd
       0.0331949 0.07471789 -0.10424866 -0.050540175
000020 0a 2f e2 bd cb a9 58 3d 39 23 0c 3d c1 bd 45 3c
       -0.11044128 0.052896302 0.03421328 0.012069167
000030 f3 27 e2 3d fa 3f e6 bc e1 62 63 bd 11 94 8e bd
       0.11042776 -0.028106678 -0.05551422 -0.06961835
000040 6a 84 29 3d c9 88 e2 3d bc 24 18 3c d6 5f f2 3c
       0.041386046 0.11061246 0.009286102 0.029586714
000050 fa 8b 9a bd de 39 32 bd 23 a6 22 3d 7f b9 d8 3c
       -0.0754623 -0.043512218 0.03970922 0.026455639
000060 1d 4c f9 3d 92 ae 40 bd 03 17 1f bd c2 b2 1d bd
       0.121727206 -0.047041483 -0.038840305 -0.038500555
000070 71 ba f0 bd 68 ef 9e bd 92 5b 7c 3d 11 98 8e 3d
       -0.11754311 -0.07760507 0.061610766 0.06962598
000080 2c f9 38 3c de a3 07 3a 80 cf 3e 3d 42 23 81 3d
       0.011289876 0.00051742594 0.046584606 0.06305553
000090 aa d2 60 b9 ec c0 a5 3d 80 88 b9 bc 2b a0 51 bc
       -0.00021440783 0.080934376 -0.022648096 -0.012794535
0000a0 56 2b 9c bc 7f 96 f2 3c 13 2f 4a 3d 6a 6d fa 3c
       -0.019063633 0.029612778 0.0493613 0.03056975
0000b0 f5 dc b7 bc 1b 74 c1 bc ef ee 22 bd 44 f2 ac bd
       -0.022444228 -0.023614934 -0.039778646 -0.08444646
0000c0 6e 8b de bc 80 c2 ff ba 19 e5 d0 3d df 8c bd bc
       -0.027166095 -0.0019512922 0.10199947 -0.023138462
0000d0 b9 20 ce 3d 93 ae 3c bd 3e c2 1f 3d 23 bf 8d bd
       0.10064835 -0.046064924 0.039003603 -0.06921222
0000e0 48 97 ab bc 8d eb ea 3b 05 90 6d bd e2 a7 f4 3d
       -0.02094616 0.007169193 -0.057998676 0.119460836
0000f0 d8 67 1b 3c 54 f1 ab 3d da 82 0c 3d 06 26 28 bb
       0.0094852075 0.08395639 0.034304477 -0.002565743

net.10.weight f4 [10, 64]
000000 a4 3a 73 bd 4a ba 44 3e f6 30 72 3d 62 fe 57 bd
       -0.059382096 0.19211689 0.059128724 -0.052732833
000010 a0 02 fa bc 06 b0 df bc 8e 0c ab 3d 0e 0e bc bd
       -0.03051883 -0.027305614 0.08352004 -0.09182368
000020 3c 55 26 3e aa 7f be 3e a7 62 fe 3d 07 01 8c 3d
       0.16243452 0.37206775 0.1242116 0.068361335
000030 37 40 8c 3d 3a ee ef bd 90 63 b9 3d b2 e4 8a 3c
       0.068481855 -0.1171536 0.09052193 0.016954754
000040 58 9d 3c bd e1 7f 0b 3c 51 71 74 3d 1e c7 cf bd
       -0.046048492 0.008514375 0.05967838 -0.101454005
000050 38 25 c1 3d e8 79 8d bc e2 a2 8e 3d 4e 36 b2 bd
       0.09430927 -0.017270043 0.06964661 -0.08701764
000060 b6 ad 8f bd f1 ba a9 3d f5 37 2b 3c e1 bd 9e 3d
       -0.070155546 0.08287609 0.010450353 0.0775106
000070 87 78 2c 3d 94 02 7f 3d 10 3a ad be f0 f6 09 3e
       0.04210713 0.062258318 -0.3383336 0.13473105
000080 a5 fb 68 bc 60 c6 e2 3b 96 4f 20 be a2 3d c7 3d
       -0.014220153 0.006920621 -0.1565536 0.097285524
000090 e3 b5 d3 3d 94 10 48 be 83 21 2b bb 87 f2 93 3d
       0.103374265 -0.19537574 -0.0026112504 0.07223993
0000a0 fc f4 f3 bd c2 db 1a 3e 79 90 0a 3c 38 ca 7d 3d
       -0.119119614 0.15122893 0.0084572965 0.06196043
0000b0 5e fd f5 3c 71 93 09 be aa 2e f1 3c c9 09 54 be
       0.030028041 -0.1343515 0.029441196 -0.20706858
0000c0 40 9d 26 bd d0 b5 4d 3e dc de 3e be f6 47 b5 bd
       -0.04067731 0.20088887 -0.18639702 -0.08851616
0000d0 98 5f 3c 3d 6c 7a 03 3e 07 7d dc 3d 0f e2 40 bb
       0.045989603 0.12839669 0.107660346 -0.0029431616
0000e0 fa 95 f2 3d 59 d6 89 3c d0 00 a6 3d 1e 42 85 be
       0.11845012 0.016825842 0.08105624 -0.26027006
0000f0 9c d4 b1 3d 5d 36 21 bd 65 4d 03 be c5 61 13 be
       0.0868313 -0.039358485 -0.12822492 -0.14392765
000100 73 fa e9 3b b1 fb 60 bd f7 83 6d bd 94 2a a5 bd
       0.0071404516 -0.05492753 -0.05798718 -0.08064762
000110 6c e9 87 bd 1b fe f0 bd 78 69 c7 bb 0c bc c1 bd
       -0.066363186 -0.11767217 -0.006085571 -0.09459695
000120 8f 49 e4 3d 1c 60 4a 3e f7 d0 31 3e a5 04 9c 3d
       0.11146843 0.19763225 0.1736487 0.076180734
000130 e0 b4 0e bd ce 1f 0f 3e bd db 06 be 54 19 6f 3d
       -0.034840465 0.13976976 -0.13169761 0.058373764
000140 6b b8 8e bb f4 1a 81 be 15 b7 d5 bd 5b 12 0a 3d
       -0.0043554804 -0.25215876 -0.10435311 0.03370891
000150 18 8d cd bc 1c c6 ea bd 0c 68 70 bd 20 6b 8c 3d
       -0.025091693 -0.114635676 -0.058692977 0.0685637
000160 b9 f6 5a 3d 3e 8f 8a bd 63 da 06 bc 65 46 98 3d
       0.05345795 -0.067656025 -0.008230778 0.07435302
000170 91 8f ac bd a4 4d b8 3d 9e 98 3b 3e d8 11 d8 3c
       -0.084258206 0.08999184 0.18319938 0.026375696
000180 f6 61 17 bd b8 12 75 bc 5c 9d 30 3e f1 98 00 be
       -0.036958657 -0.014958076 0.17247528 -0.12558343
000190 8e 72 68 3d d9 eb 61 bd f6 f8 63 bd 7d 46 a3 3d
       0.056749873 -0.055156562 -0.05565735 0.07972429
0001a0 b6 5a ac bd 89 b8 a0 be f7 ac 3d be cc 15 8b 3d
       -0.08415739 -0.3139079 -0.18523012 0.06791267
0001b0 53 19 79 3d 9a c0 39 3d 33 64 8d 3d 4c 4d 44 be
       0.060815167 0.045349695 0.06903877 -0.19170111
0001c0 e0 c7 2f 3d 2c 24 d2 3d 22 a2 8f 3c fd 77 d8 3d
       0.042915225 0.102608055 0.017533366 0.10569761
0001d0 b1 3c e3 bd cc aa 40 be a1 68 1d 3e 6b 0a 63 3d
       -0.1109556 -0.18815154 0.15371944 0.055429857
0001e0 4b ae 5b 3d 74 7f d6 bd 59 74 c9 bc 36 31 56 3e
       0.053633016 -0.104735285 -0.024591612 0.2091721
0001f0 ae 5c b2 3d ac 34 b4 3c fc 93 3b 3e 49 08 f2 3b
       0.087090835 0.021997772 0.1831817 0.0073862416
000200 08 a3 90 bd 8a 92 fb 3b ba 0f bc 3d 42 16 2e 3c
       -0.07062346 0.007677381 0.09182687 0.010625424
000210 70 74 c5 bd 9f c4 a8 bd ec 34 9a 3c 8b 90 4b bd
       -0.09641349 -0.082406275 0.018824063 -0.049698394
000220 cf 62 c0 3d ad 3b 93 bd 77 72 24 be a3 93 c3 bd
       0.09393846 -0.071891166 -0.1605929 -0.09549644
000230 60 02 be bd 0b 62 46 3d 57 d5 07 bc 0d 77 d9 3d
       -0.09277797 0.048433345 -0.00829061 0.1061841
000240 b8 b3 8b bc 61 6c dc bc 40 50 1f bc 0d 0f d7 3d
       -0.01705347 -0.026907148 -0.009723723 0.105009176
000250 65 df 8d bb ee db 95 bd 16 5d 36 3e ef d8 68 3d
       -0.004329609 -0.07317339 0.17808947 0.05684751
000260 0a 3a 1e bc 3b 85 36 3e f8 32 ea 3d be 5e 3d 3d
       -0.009657392 0.17824261 0.11435503 0.04623293
000270 57 5b 0f 3d 41 42 72 bd d5 8f 04 3e fd 1b 22 3d
       0.034999218 -0.059145216 0.12945493 0.039577473
000280 b3 c3 c3 3d 7c a7 e0 bd aa 7c 1f be 4c 51 cd 3d
       0.09558811 -0.10969445 -0.155749 0.10025272
000290 70 07 8c bd b6 79 ca 3d db f7 b6 bd 01 fc 3b bd
       -0.06837356 0.09886496 -0.089339934 -0.045894627
0002a0 d4 0f 81 3d 5f 03 52 be b2 a9 37 3e a0 89 9f bb
       0.06301847 -0.20509098 0.17935827 -0.004868701
0002b0 fb 29 b3 3d a3 0b dd 3a 26 cf a3 3c e4 a5 61 3e
       0.087482415 0.001686443 0.019996237 0.22035939
0002c0 8c 62 5b 3d b3 8c 72 be 12 d7 97 3c 44 4e 85 3d
       0.05356078 -0.23686485 0.01853517 0.065090686
0002d0 f6 2e 3b be 05 c4 d5 3d 12 ec f9 3d 75 62 d8 3d
       -0.18279633 0.104377784 0.1220323 0.10565654
0002e0 99 c4 0a 3d 62 d3 7f 3d 83 80 42 bc 48 00 c6 3d
       0.033878896 0.06245745 -0.01187146 0.096680224
0002f0 b0 e7 70 3d e4 55 32 be ba c5 00 be 38 30 07 3e
       0.058814704 -0.17415577 -0.12575427 0.13201988
000300 71 d3 82 bc 8d 06 87 3d b0 49 52 3d 9b 93 ae 3d
       -0.015969964 0.06593046 0.051339805 0.08524247
000310 4c 1b 47 3d ab 34 f1 3d a6 3b 64 3c b6 18 7e 3d
       0.048610017 0.11777624 0.013930237 0.062035285
000320 27 d2 de bc 82 7b f9 bd 81 24 f5 3c 60 6a 61 bd
       -0.027199818 -0.1218176 0.029924633 -0.055033088
000330 6e 05 d0 bd d6 20 93 3d 9c bd ba bd dd 85 1c 3e
       -0.10157286 0.07183997 -0.09118196 0.1528544
000340 4b a0 01 be 46 b7 fd 3c c0 b7 cb bb 31 6f 53 bd
       -0.12658803 0.03097118 -0.006216973 -0.051619712
000350 fd 7d 89 bd c0 d4 ed 3d 55 cd 31 bd d1 71 92 3b
       -0.067134835 0.116128445 -0.04340871 0.0044691344
000360 00 c3 0d be 63 7b ae 3d 92 e9 d4 3d 1a 68 f6 bc
       -0.13843918 0.08519628 0.103961125 -0.030078936
000370 7e 60 9c bd 64 79 8c bd d8 28 ca bd 9f e3 02 be
       -0.07635592 -0.06859091 -0.098710716 -0.12782143
000380 24 e7 d0 bd 48 7a 04 3e de 72 64 bd 0c 5a ae 3d
       -0.102003366 0.12937272 -0.05577361 0.08513269
000390 2f c6 95 3d c2 12 56 bd b6 6c 27 3d 83 9b 07 3e
       0.07313191 -0.052263983 0.04087516 0.13242917
0003a0 4f c3 b6 3d 05 6c 3e 3d 37 6b f5 3d be 49 39 3d
       0.08923971 0.046489734 0.1198334 0.04523634
0003b0 aa cd b7 bd 4d ba d5 3d 5d b8 bb bd 4b 5c 56 bd
       -0.08974774 0.10435925 -0.09166024 -0.05233411
0003c0 0c 80 03 3d 32 55 01 3d 67 4d 03 3d 84 20 12 be
       0.032104537 0.03157539 0.03205624 -0.14270216
0003d0 94 c7 47 be 84 7c b8 3d 53 f8 fb bc 0c 55 80 3c
       -0.19509727 0.090081245 -0.030758059 0.015665554
0003e0 fc 2e c4 3d 7f 52 3c bc 4f fe c2 bd 51 bf 53 be
       0.09579274 -0.011494278 -0.09521162 -0.2067845
0003f0 80 50 e0 3b de 71 19 be be b3 be 3b ec f5 fc 3d
       0.006845534 -0.14984843 0.005819767 0.123515934

net.10.bias f4 [10]
000000 fc a4 23 be 00 0a ee 3d 8f c5 31 be a3 ba 20 bd
       -0.15980905 0.11623001 -0.17360519 -0.03924049
000010 d0 5f 84 3d 54 0f 2e 3d 84 d1 0c 3e 17 af 88 3c
       0.06463587 0.042495087 0.13751799 0.016685052
000020 4c c7 06 3e 95 73 12 3e
       0.13161963 0.14301904
