vae_classification/state_dict_classifier_200_87.74_new.pt (torch, 617403 bytes, 14 tensors)

net.0.weight_ih_l0 f4 [300, 2]
0.013491822 0.072252095 -0.03468969 0.014179557 0.07025925 0.07860065 -0.026128137 -0.05037678
0.10316958 0.07734592 -0.052048575 -0.024047364 0.031129716 0.0062537147 -0.015756601 0.032079384
-0.0826172 -0.024212167 0.09917875 0.046089165 0.08851142 -0.05171979 -0.050920606 0.038396757
0.086761415 0.0051840656 -0.027581861 -0.048677128 0.05430121 -0.0375907 -0.074360766 -0.050218105
0.0066331807 -0.05584008 0.0210113 -0.05913629 0.02444984 -0.016899936 0.052394126 0.06946557
0.10491624 0.025135206 -0.025374841 0.034890715 -0.0036861326 0.019061586 -0.13747461 -0.15126748
-0.0055286987 0.06286088 0.10986337 0.068346545 -0.030906348 0.08535856 0.0036234767 0.07040344
-0.011297551 0.08455299 0.08286354 0.0045548463 -0.08637861 0.103341356 0.04329103 -0.016483521
-0.087561555 -0.026532585 0.03469302 -0.06928014 -0.026155831 0.071358524 -0.07427123 -0.1348896
-0.09884071 -0.026553217 0.050055973 0.01650302 -0.046010863 -0.09103185 0.076063596 -0.041471716
0.040565755 0.03667492 -0.064946875 0.076708026 0.023799665 0.113894716 0.063870676 -0.034029286
-0.0319918 0.06518188 0.0994138 0.049192995 0.031923212 0.061806712 0.02040928 0.083985105
0.063334845 -0.0057280636 0.061579287 -0.021186313 -0.044541754 0.07005083 0.04572952 0.06822617
0.109483816 -0.0016060167 0.10010599 -0.061351623 0.022020403 -0.01847165 0.10199266 0.051396385
0.08444663 -0.0035310392 -0.06463001 -0.004326042 -0.13368502 -0.10931244 0.061717413 -0.07620601
0.12785357 -0.0053449576 0.11288331 -0.0056601167 -0.055034794 0.012928942 0.09308886 0.10195099
0.03157117 -0.030775003 -0.11059216 -0.13118024 0.044211518 0.06632953 -0.031645734 0.07611871
0.046773247 -0.03177285 0.064867705 -0.04488302 -0.085444234 0.0006951324 0.10714703 -0.03717177
-0.13128926 0.0019535143 0.082971655 -0.036515318 0.07441924 0.073464535 -0.05900887 -0.082327634
0.094883434 0.021972755 -0.053639464 0.020789469 0.056366757 0.060942024 -0.037089515 0.05356298
-0.112341076 0.0022193962 0.043240502 0.07188446 -0.032951485 0.021242226 0.029383345 0.07512772
0.030831218 -0.10228492 -0.05220307 -0.08976366 -0.07886609 0.013406762 0.015784733 0.01582237
0.064504735 -0.10417116 -0.008162111 0.01490458 0.077032 -0.049755033 0.07406457 -0.01575575
-0.043507658 -0.069977514 -0.017713254 0.0824772 0.071208715 -0.019330164 -0.021418134 -0.13266675
-0.0555756 -0.020669779 -0.06992427 -0.006937375 -0.056371152 -0.015106035 0.06404115 0.0018152733
0.1581809 0.09587492 -0.05202871 -0.14000355 0.017765062 -0.11877857 -0.02728967 -0.23120609
-0.07404717 -0.0022426853 0.0903148 0.14036034 0.0042209704 -0.048608862 -0.07039665 -0.06792841
-0.017810622 -0.1532099 -0.030172117 -0.25741604 -0.014756559 -0.028962247 0.050016418 0.20514746
-0.13943627 -0.06733705 -0.034191374 0.17938177 -0.1656536 -0.032962654 0.04906494 -0.20614418
-0.022931747 0.11981813 -0.053125028 0.008063825 0.1937076 -0.02416237 0.04128392 0.116188526
0.020747978 0.057448383 0.089576274 0.120630704 0.10488228 0.0982733 -0.17099746 -0.15885967
0.07514649 -0.16787538 -0.035324667 -0.13329019 0.03469325 -0.11050038 -0.024633009 0.23775633
00000000: ce0c 5d3c e8f8 933d c716 0ebd 5f51 683c
00000010: 15e4 8f3d 61f9 a03d ad0a d6bc e257 4ebd
00000020: 934a d33d 8a67 9e3d e330 55bd fafe c4bc
00000030: bf03 ff3c f6eb cc3b fd13 81bc ac65 033d
00000040: 3533 a9bd 9858 c6bc 3a1e cb3d fec7 3c3d
00000050: 7a45 b53d 21d8 53bd 2092 50bd eb45 1d3d
00000060: f8af b13d 18df a93b 5bf3 e1bc ab61 47bd
00000070: f26a 5e3d b5f8 19bd 754a 98bd 80b1 4dbd
00000080: 275b d93b 91b8 64bd e41f ac3c e538 72bd
00000090: 084b c83c bc71 8abc 399b 563d f743 8e3d
000000a0: 53de d63d 59e8 cd3c e6de cfbc 91e9 0e3d
000000b0: 0b93 71bb 0b27 9c3c 25c6 0cbe dde5 1abe
000000c0: 162a b5bb 34bd 803d 0c00 e13d 46f9 8b3d
000000d0: 4f2f fdbc 78d0 ae3d da77 6d3b ae2f 903d
000000e0: 5d19 39bc 1e2a ad3d 5cb4 a93d d240 953b
000000f0: 45e7 b0bd a2a4 d33d ef51 313d 7308 87bc
00000100: 7953 b3bd dd5a d9bc 451a 0e3d bfe2 8dbd
00000110: c144 d6bc 6b24 923d 841b 98bd 8020 0abe
00000120: 006d cabd 2286 d9bc 7e07 4d3d 5731 873c
00000130: e375 3cbd e86e babd 3bc7 9b3d 3fde 29bd
00000140: 4728 263d 7138 163d de02 85bd 1919 9d3d
00000150: 84f7 c23c a241 e93d a1ce 823d 4b62 0bbd
00000160: d509 03bd 147e 853d 7699 cb3d 987e 493d
00000170: eac1 023d 0929 7d3d 5d31 a73c 6200 ac3d
00000180: b3b5 813d 7bb2 bbbb 903a 7c3d eb8e adbc
00000190: 6a71 36bd cf76 8f3d e14e 3b3d 2aba 8b3d
000001a0: 0d39 e03d fa80 d2ba 5f04 cd3d d74b 7bbd
000001b0: 2264 b43c dc51 97bc 87e1 d03d 0485 523d
000001c0: 5bf2 ac3d 0269 67bb bd5c 84bd 78c1 8dbb
000001d0: bae4 08be 33df dfbd 66cb 7c3d e611 9cbd
000001e0: 0cec 023e c124 afbb 5d2f e73d 8078 b9bb
000001f0: 2a6c 61bd ead3 533c 5fa5 be3d aecb d03d
00000200: c550 013d dc1b fcbc 247e e2bd 1d54 06be
00000210: 2317 353d c7d7 873d f59e 01bd 20e4 9b3d
00000220: 4e95 3f3d 3f24 02bd 5cd9 843d 42d7 37bd
00000230: 63fd aebd 8c39 363a e76f db3d 6d41 18bd
00000240: b170 06be 8806 003b 0bed a93d 1691 15bd
00000250: 1d69 983d 9374 963d 49b3 71bd 649b a8bd
00000260: 3f52 c23d 3500 b43c 0eb5 5bbd ad4e aa3c
00000270: d4e0 663d 589e 793d 2deb 17bd db64 5b3d
00000280: 1413 e6bd 4a73 113b f41c 313d 2938 933d
00000290: 23f8 06bd 2d04 ae3c 57b5 f03c 90dc 993d
000002a0: c091 fc3c c27a d1bd e3d2 55bd 03d6 b7bd
000002b0: 8b84 a1bd 09a8 5b3c fc4e 813c ea9d 813c
000002c0: 0f1b 843d b057 d5bd 60ba 05bc 5732 743c
000002d0: f4c2 9d3d efcb 4bbd 2aaf 973d 3412 81bc
000002e0: 1635 32bd 5f50 8fbd 631b 91bc cee9 a83d
000002f0: e0d5 913d 4b5a 9ebc 1575 afbc cbd9 07be
00000300: 3ea3 63bd ab53 a9bc 7534 8fbd eb52 e3bb
00000310: 70e5 66bd 4e7f 77bc 0228 833d 77ee ed3a
00000320: 2dfa 213e 125a c43d 0e1c 55bd 175d 0fbe
00000330: 0988 913c 2e42 f3bd 968e dfbc 4ac1 6cbe
00000340: 0ba6 97bd 04fa 12bb f7f6 b83d 9fba 0f3e
00000350: 1150 8a3b 161a 47bd 1e2c 90bd 0d1e 8bbd
00000360: 95e7 91bc 0ee3 1cbe 842b f7bc 09cc 83be
00000370: 7fc5 71bc 3c42 edbc 04de 4c3d 2d12 523e
00000380: 62c8 0ebe 02e8 89bd 410c 0cbd dbaf 373e
00000390: 19a1 29be d903 07bd 52f8 483d 7617 53be
000003a0: 5cdb bbbc 3563 f53d a199 59bd 221e 043c
000003b0: 495b 463e 2af0 c5bc 5419 293d 40f4 ed3d
000003c0: aaf7 a93c ff4e 6b3d c473 b73d 3b0d f73d
000003d0: 85cc d63d 8343 c93d f519 2fbe 1cac 22be
000003e0: 67e6 993d 86e7 2bbe 99b0 10bd 397d 08be
000003f0: 821a 0e3d 064e e2bd 2acb c9bc 6576 733e

net.0.weight_hh_l0 f4 [300, 100]
-0.0021657948 -0.06694474 0.10752406 0.05037479 -0.013238506 0.048297416 -0.008499783 0.05880915
-0.023405036 -0.03585731 0.025713578 -0.017662566 0.11107042 -0.06494929 -0.08453099 0.022057192
-0.020714387 0.012127088 0.040643994 -0.08012745 -0.036142446 -0.07597423 0.10990725 0.044757705
0.08523676 -0.014569851 0.054036494 0.07782536 -0.03218648 0.0078063374 0.022770552 -0.01667017
0.07604992 0.040260106 0.01830208 0.015614498 0.047873598 0.061034236 0.058557812 0.05882874
-0.0006095037 0.048368942 -0.07141633 -0.0012085931 0.07230228 -0.07415107 0.0036986466 0.067402706
-0.0394841 -0.051013127 0.01853639 -0.08724908 -0.05072502 0.0755613 0.011194879 0.1148196
-0.036997877 -0.014915512 0.029474063 -0.0708216 -0.026677527 0.013495924 0.038218305 0.012896215
-0.032874364 -0.09614656 -0.10248833 -0.095504306 0.057004627 -0.07967685 -0.081720784 -0.017294087
0.066558965 -0.04762629 0.010508098 0.033344112 -0.033741385 -0.00070776016 -0.08479116 0.022155683
0.0758402 0.06219304 -0.07044013 0.042597268 -0.056822132 -0.083232366 0.1031329 -0.051061317
0.102491334 0.025900878 0.014312774 0.09447304 0.07499063 0.011856814 0.08624153 -0.058283284
0.10992446 -0.091127306 0.078499354 0.009009884 0.056615602 -0.03663595 0.07267995 0.06964185
0.034236882 0.026897425 -0.05947934 -0.061386738 -0.05339338 -0.025796425 -0.060458392 -0.089005455
-0.06343987 0.08532745 0.08578642 0.040982608 -0.066237144 -0.06722234 0.022966672 -0.063324064
-0.06412261 0.035668146 0.07359564 -0.08213969 0.009837698 -0.033075232 0.025698217 -0.011978395
0.03618845 0.077246934 -0.0048382008 -0.04656085 0.08721221 -0.047017887 -0.038214024 -0.06756016
-0.07766634 0.08009686 0.012527314 -0.007916821 0.015346131 -0.022914851 -0.07688083 -0.08028555
-0.0788895 0.05381116 0.06809404 0.011258908 0.011659987 -0.06277643 -0.10549805 -0.07179889
0.091826156 0.09675414 -0.055665784 0.003862578 0.014129196 -0.08997295 0.031398553 0.087066814
-0.04722115 -0.06728929 0.04620721 -0.079296894 -0.07081437 -0.034406837 -0.07839152 -0.082212076
-0.0066761067 0.03329776 -0.055101894 0.021264587 0.0055490984 0.086311415 -0.0049163834 -0.04593472
-0.016042532 -0.0060112253 0.0028436102 0.0076959734 -0.04658746 0.044169705 0.11359565 0.100036845
-0.06663546 0.041915894 0.01418136 -0.04737018 -0.011934214 0.011865289 0.09148271 -0.020225978
0.06630028 -0.022601306 -0.09150444 0.07488388 -0.06564472 0.113726735 0.10849903 0.003994382
0.006377069 -0.012968582 0.07381662 0.0161941 -0.075587116 0.07858736 0.04363609 0.08621804
0.0067887213 0.07228209 -0.050719824 -0.044622723 -0.025713384 -0.035226293 0.025979063 0.039356384
-2.2190085e-05 -0.00881177 0.02661703 0.07063434 0.11433124 -0.042347327 0.0071270755 -0.0066824034
-0.06167329 0.0041083945 0.10381146 0.0069788536 -0.04863256 -0.00010901259 -0.05843714 -0.013769096
0.06710264 -0.07241709 -0.030655066 0.08312443 -0.05171761 0.068794124 -0.031221988 0.022564942
0.10551975 -0.11269194 -0.067772456 -0.060459476 -0.0081796395 -0.052812546 0.089791924 -0.09452133
0.008150595 0.07916115 0.020405516 0.08745496 0.074465334 0.030013746 0.097427875 0.011201652
00000000: 02f0 0dbb 531a 89bd 9335 dc3d cc55 4e3d
00000010: 52e6 58bc 83d3 453d ad42 0bbc dde1 703d
00000020: ebbb bfbc 1ddf 12bd 48a5 d23c 16b1 90bc
00000030: e378 e33d 2204 85bd 951e adbd 49b1 b43c
00000040: 38b1 a9bc b2b0 463c 517a 263d dc19 a4bd
00000050: 1a0a 14bd 6198 9bbd 0d17 e13d db53 373d
00000060: 9c90 ae3d 62b6 6ebc 5f55 5d3d e762 9f3d
00000070: f8d5 03bd 4ecc ff3b 4f89 ba3c e18f 88bc
00000080: 0fc0 9b3d c8e7 243d 3eee 953c f4d3 7f3c
00000090: 1b17 443d 09ff 793d 51da 6f3d 68f6 703d
000000a0: 1ac7 1fba 831e 463d ba42 92bd a869 9eba
000000b0: 3813 943d 84dc 97bd fe64 723b 6e0a 8a3d
000000c0: 14ba 21bd 24f3 50bd a1d9 973c a5af b2bd
000000d0: 0ac5 4fbd e2bf 9a3d ba6a 373c 8a26 eb3d
000000e0: 168b 17bd 3160 74bc 9773 f13c ea0a 91bd
000000f0: d48a dabc 021e 5d3c cc8a 1c3d a54a 533c
00000100: 45a7 06bd 7de8 c4bd 67e5 d1bd c397 c3bd
00000110: af7d 693d 9e2d a3bd 3a5d a7bd 54ac 8dbc
00000120: 1150 883d c913 43bd 282a 2c3c d693 083d
00000130: 6834 0abd fb88 39ba fda6 adbd d67f b53c
00000140: 1b52 9b3d 21be 7e3d ea42 90bd 797a 2e3d
00000150: 53be 68bd bb75 aabd 5837 d33d ac25 51bd
00000160: fae6 d13d 142e d43c 2080 6a3c 157b c13d
00000170: b094 993d 1543 423c 669f b03d 74ba 6ebd
00000180: 1320 e13d f4a0 babd 45c4 a03d 319e 133c
00000190: c3e5 673d 940f 16bd 3ad9 943d 63a0 8e3d
000001a0: f93b 0c3d fd57 dc3c 9ca0 73bd a970 7bbd
000001b0: 04b3 5abd 0653 d3bc 38a3 77bd 7e48 b6bd
000001c0: c3ec 81bd 28c0 ae3d cab0 af3d 61dd 273d
000001d0: 57a7 87bd deab 89bd 9a24 bc3c 0cb0 81bd
000001e0: b752 83bd c318 123d 50b9 963d db38 a8bd
000001f0: 4c2e 213c e579 07bd 1185 d23c 0841 44bc
00000200: 573a 143d a433 9e3d c589 9ebb 97b6 3ebd
00000210: 519c b23d d495 40bd 4f86 1cbd fb5c 8abd
00000220: 880f 9fbd d309 a43d 5d3f 4d3c 8eb5 01bc
00000230: 576e 7b3c edb7 bbbc b273 9dbd c06c a4bd
00000240: d190 a1bd 1769 5c3d e374 8b3d 4877 383c
00000250: 8809 3f3c ee90 80bd 5d0f d8bd 4c0b 93bd
00000260: 5a0f bc3d 0927 c63d ce01 64bd 4e23 7d3b
00000270: 257e 673c bd43 b8bd c59b 003d 1650 b23d
00000280: f76a 41bd f8ce 89bd c543 3d3d 6966 a2bd
00000290: 2007 91bd 2fee 0cbd bc8b a0bd ce5e a8bd
000002a0: 3ec3 dabb 3b63 083d 86b2 61bd 1233 ae3c
000002b0: 36d5 b53b 0ac4 b03d 9d19 a1bb 0c26 3cbd
000002c0: a16b 83bc d0f9 c4bb dd5b 3a3b 812e fc3b
000002d0: 7ed2 3ebd 4beb 343d d6a4 e83d 1ee0 cc3d
000002e0: 2c78 88bd 00b0 2b3d ef58 683c 3c07 42bd
000002f0: b987 43bc a166 423c 495b bb3d f3b0 a5bc
00000300: 71c8 873d 6026 b9bc ae66 bbbd b85c 993d
00000310: bd70 86bd 90e9 e83d bd34 de3d 4ee3 823b
00000320: bbf6 d03b 2d7a 54bc 2b2d 973d 7da9 843c
00000330: 6bcd 9abd 69f2 a03d c2bb 323d 1593 b03d
00000340: ec73 de3b a208 943d 97bf 4fbd 51c6 36bd
00000350: e0a4 d2bc 7249 10bd 0bd2 d43c 2934 213d
00000360: d824 bab7 3e5f 10bc f50b da3c bda8 903d
00000370: 7f26 ea3d 6474 2dbd 3e8a e93b 10f8 dabb
00000380: 229d 7cbd b69f 863b 1a9b d43d deae e43b
00000390: ef32 47bd b09d e4b8 c85b 6fbd c697 61bc
000003a0: 1c6d 893d 694f 94bd 5520 fbbc 243d aa3d
000003b0: d8d5 53bd efe3 8c3d 41c5 ffbc 1dda b83c
000003c0: bd1a d83d 08cb e6bd 49cc 8abd 5ba4 77bd
000003d0: e503 06bc f851 58bd d4e4 b73d 6694 c1bd
000003e0: 138a 053c 3e1f a23d 7829 a73c 961b b33d
000003f0: 4881 983d 63df f53c 4488 c73d 2287 373c

net.0.bias_ih_l0 f4 [300]
-0.01946475 0.03695566 0.062273543 0.067226306 -0.046342093 0.06437904 -0.009615615 0.0050735897
0.05076836 -0.06041236 0.04642321 0.08276342 0.03709483 -0.050260805 -0.05161297 0.039233238
-0.0059971656 -0.05382782 -0.035547227 0.0027646492 0.014068545 0.06540441 -0.0909059 -0.13356535
0.08439301 -0.10753517 -0.060287166 -0.027876718 -0.015305518 -0.0193165 -0.05228871 0.055744205
0.066200316 0.09290547 -0.0029738224 -0.0054870956 0.011938314 -0.012703334 0.030513478 -0.061469883
0.009601315 -0.043242563 -0.08429656 -0.027798792 0.013581283 -0.011329409 -0.01573741 -0.030531282
-0.0759016 -0.014774249 -0.07805363 -0.09465163 -0.085396774 -0.008629179 -0.040942654 0.027785225
0.121347405 -0.004410808 0.019081403 0.042387344 -0.06737562 -0.075973995 -0.0073408843 0.011673374
0.05052765 -0.06813538 0.10442663 0.02209537 -0.018319588 -0.026944939 0.05601476 -0.026663087
0.01690781 -0.08740743 0.0342715 -0.04476767 0.029170739 -0.05391943 -0.011535382 -0.09034668
-0.06718052 -0.10247566 -0.027140068 -0.026080346 -0.04888662 0.027783124 0.08220114 -0.050165486
0.052382566 -0.05312823 -0.07046668 0.05935855 0.05439525 0.016532363 0.10848398 0.023474567
-0.018956544 -0.033740386 0.027436111 0.07910093 -0.02110129 -0.14037094 -0.0924229 -0.18343362
-0.0171801 -0.0018319943 -0.13747454 -0.022479754 -0.092288665 -0.102805875 -0.167215 0.06585538
-0.27240548 -0.051937886 -0.013609108 -0.13108604 -0.016672298 -0.09866162 0.16409612 0.0046403077
0.027019698 0.14078286 0.10880405 -0.17818931 -0.043074787 -0.18526743 -0.11435442 0.07770866
-0.30268836 0.13563101 0.1327252 -0.041477703 0.0721619 -0.10057352 -0.11753349 -0.007919156
-0.23260456 0.038190134 0.10621098 0.031183481 -0.02259718 -0.13965671 -0.06132704 -0.009863117
0.08722162 0.09130745 -0.16571143 0.16085833 0.06982598 -0.024502104 0.06911797 -0.16167349
-0.025194721 -0.015891932 -0.033122763 -0.044747815 -0.21505837 0.04043585 0.08793029 0.03007152
0.13733466 -0.05242022 0.03013616 0.0052246125 0.24834764 -0.13973792 -0.055125326 -0.03917062
-0.026002742 -0.049023926 0.036793523 -0.108138844 -0.1208009 -0.09113078 -0.22104417 -0.054621823
-0.17604372 -0.13835606 0.03128187 -0.12772812 0.021871397 -0.11008968 -0.051959492 -0.16389595
0.054729395 0.0794982 0.1040703 -0.1014199 -0.10187081 0.019605838 -0.14499179 -0.09900006
-0.07165412 -0.10399346 -0.035027478 -0.13780586 -0.10679174 -0.18015859 -0.04282692 -0.19086343
-0.017668998 -0.062151533 -0.038971543 -0.09717099 0.021112986 -0.04940143 0.06308583 0.0763327
0.051588524 -0.06909172 -0.043055423 -0.06845501 -0.04178209 0.019371577 -0.050898023 -0.034420177
0.013488158 -0.054506358 0.014466016 -0.0016612037 0.0049053053 0.059808478 0.024580238 0.09934864
0.06760754 -0.026340205 0.006209425 -0.06820862 0.0898794 -0.084733054 0.044600926 0.024728218
-0.035732664 -0.0079629645 0.09546456 -0.012721817 0.07289744 -0.056141704 -0.07310344 0.040129323
0.057715427 -0.0797724 0.012227155 -0.022185333 -0.050167467 0.013400404 0.05580629 -0.07729997
0.01773325 -0.038919844 0.019197498 -0.021242378 0.019492518 0.0800759 0.031465482 0.038608164
00000000: 8a74 9fbc d15e 173d 8b12 7f3d f2ad 893d
00000010: 35d1 3dbd 28d9 833d d08a 1dbc 5b40 a63b
00000020: 7cf2 4f3d f372 77bd 4426 3e3d de7f a93d
00000030: c0f0 173d 46de 4dbd 1f68 53bd 08b3 203d
00000040: df83 c4bb 8f7a 5cbd f899 11bd 1e2f 353b
00000050: c17f 663c bff2 853d df2c babd 5bc5 08be
00000060: 3ed6 ac3d 663b dcbd adef 76bd b75d e4bc
00000070: ffc3 7abc a33d 9ebc b02c 56bd 0954 643d
00000080: 0894 873d 3945 be3d 76e4 42bb 18cd b3bb
00000090: eb98 433c a521 50bc 67f7 f93c d8c7 7bbd
000000a0: d54e 1d3c 1d1f 31bd ada3 acbd 4bba e3bc
000000b0: 0884 5e3c fc9e 39bc beeb 80bc bd1c fabc
000000c0: 4c72 9bbd b10f 72bc 95da 9fbd b7d8 c1bd
000000d0: 81e4 aebd 6661 0dbc 7cb3 27bd d79d e33c
000000e0: fd84 f83d 8a88 90bb 9a50 9c3c 5a9e 2d3d
000000f0: 3bfc 89bd 4198 9bbd cd8b f0bb ae41 3f3c
00000100: 15f6 4e3d 908a 8bbd a1dd d53d 5901 b53c
00000110: f612 96bc a2bb dcbc bc6f 653d 8c6c dabc
00000120: 3f82 8a3c ab02 b3bd 4660 0c3d 4e5e 37bd
00000130: 79f7 ee3c 9fda 5cbd e6fe 3cbc ae07 b9bd
00000140: f195 89bd c2de d1bd d954 debc 73a6 d5bc
00000150: 563d 48bd 6f99 e33c 1259 a83d 537a 4dbd
00000160: 1a8f 563d fd9c 59bd d650 90bd f321 733d
00000170: 8ecd 5e3d e16e 873c d92c de3d bc4d c03c
00000180: c14a 9bbc 5c33 0abd b2c1 e03c abff a13d
00000190: 9ddc acbc 66bd 0fbe 3848 bdbd 06d6 3bbe
000001a0: 48bd 8cbc 871f f0ba 20c6 0cbe 7627 b8bc
000001b0: d701 bdbd e38b d2bd 693a 2bbe 2fdf 863d
000001c0: bb78 8bbe d2bc 54bd bcf8 5ebc 6b3b 06be
000001d0: 5894 88bc 1a0f cabd d008 283e b90d 983b
000001e0: 6a58 dd3c 6229 103e a8d4 de3d 4277 36be
000001f0: 306f 30bd bfb6 3dbe a632 eabd b825 9f3d
00000200: f8f9 9abe dbe2 0a3e 1de9 073e 86e4 29bd
00000210: 9ec9 933d 7df9 cdbd 66b5 f0bd 59bf 01bc
00000220: e42f 6ebe 426d 1c3d 2485 d93d 8074 ff3c
00000230: b91d b9bc 2b02 0fbe 1032 7bbd e998 21bc
00000240: 40a1 b23d 66ff ba3d 42b0 29be 0cb8 243e
00000250: ec00 8f3d a3b8 c8bc b98d 8d3d bc8d 25be
00000260: 2965 cebc cc2f 82bc bcab 07bd 7c49 37bd
00000270: 4338 5cbe 10a0 253d cc14 b43d 8c58 f63c
00000280: 75a1 0c3e 96b6 56bd 1ce0 f63c 3a33 ab3b
00000290: d84e 7e3e 7517 0fbe 18cb 61bd 5f71 20bd
000002a0: b403 d5bc 50cd 48bd ceb4 163d e677 ddbd
000002b0: 7666 f7bd c6a2 babd 6759 62be 22bb 5fbd
000002c0: ce44 34be 36ad 0dbe 6b21 003d 29cb 02be
000002d0: a52b b33c b376 e1bd 7ad3 54bd 57d4 27be
000002e0: ee2b 603d f4cf a23d cf22 d53d 3db5 cfbd
000002f0: a5a1 d0bd 6c9c a03c ba78 14be 8bc0 cabd
00000300: 65bf 92bd 86fa d4bd f978 0fbd fb1c 0dbe
00000310: a1b5 dabd 7e7b 38be 486b 2fbd b471 43be
00000320: 93be 90bc 9b92 7ebd a0a0 1fbd 9601 c7bd
00000330: 24f5 ac3c 2759 4abd 2533 813d 5254 9c3d
00000340: 7d4e 533d f67f 8dbd e25a 30bd 2432 8cbd
00000350: b223 2bbd 24b1 9e3c 727a 50bd 2cfc 0cbd
00000360: 6ffd 5c3c 0f42 5fbd de02 6d3c bfbc d9ba
00000370: afbc a03b bcf9 743d 7f5c c93c 4d77 cb3d
00000380: d275 8a3d 6ac7 d7bc 6f78 cb3b f6b0 8bbd
00000390: b112 b83d 8688 adbd 76af 363d d592 ca3c
000003a0: 6a5c 12bd 1877 02bc ec82 c33d 2b6f 50bc
000003b0: 414b 953d d8f4 65bd 42b7 95bd a55e 243d
000003c0: 0367 6c3d b65f a3bd 6854 483c 04be b5bc
000003d0: 677c 4dbd 5e8d 5b3c 2395 643d 724f 9ebd
000003e0: 5245 913c 6a6a 1fbd 1244 9d3c 7f04 aebc
000003f0: c6ae 9f3c d5fe a33d f3e1 003d 9823 1e3d

net.0.bias_hh_l0 f4 [300]
-0.0421215 -0.04258207 0.05395956 0.005310852 -0.042119764 0.05515033 0.04033895 0.06187178
0.08893509 -0.034934226 -0.05075124 0.10695511 0.107436866 -0.061774787 -0.087518506 0.051593043
0.103515476 -0.07994318 0.10919491 0.08257585 0.017489959 0.09647511 -0.0066806683 0.029546931
-0.014792324 -0.106313184 0.010841223 -0.11279181 -0.10162697 0.010259057 0.10987277 0.08373061
0.013803627 -0.086186506 -0.018585814 -0.07975764 0.06625197 -0.011977568 -0.08048632 0.061587606
-0.072820365 -0.010365463 -0.072662935 -0.04273334 -0.06372578 0.08220819 -0.09326065 0.021828221
0.028952982 -0.010338659 -0.053949375 -0.011551001 -0.093267165 0.08204026 -0.087720625 -0.054213732
-0.06780896 0.04032033 -0.005298175 -0.017353924 0.086774044 0.075213894 0.016232824 0.031570006
0.025857039 -0.0797796 -0.011383679 0.07731124 0.06447495 -0.0013985664 0.010070272 0.056298036
-0.0032608253 0.03386444 0.029984891 -0.039963942 0.060961608 0.03910558 -0.077075936 -0.06405496
0.007600475 -0.061011262 0.04388001 -0.072236 0.0388383 -0.10689809 -0.0033472844 -0.08247433
-0.0727229 -0.046538174 0.013384039 0.022654448 0.013254914 0.020566393 0.09091337 0.056465726
0.07603501 0.03695207 0.035309736 0.055590414 -0.038522568 -0.22461428 -0.13621518 -0.1068705
-0.09695176 0.13929892 -0.15602167 -0.01847583 -0.06692164 -0.11170417 -0.031666473 0.09969855
-0.1871131 0.086238705 0.043027982 -0.18415199 0.0564769 -0.068138905 0.071458444 0.14287467
0.086730085 0.10903497 -0.013049894 -0.11586692 -0.07905519 -0.12000795 -0.035619766 0.0010512373
-0.23629232 0.019050412 0.07066815 -0.031822532 0.004715707 0.062763445 -0.27566335 0.12559426
-0.16753094 -0.12681396 0.22448182 0.017885147 0.05066785 -0.10692456 -0.089904666 -0.07335681
-0.019609444 -0.030017858 -0.051465116 -0.004162855 -0.020188585 0.0037968738 0.008483294 -0.088084035
-0.007932518 -0.026501473 -0.040450107 -0.03154417 -0.18157126 0.0032362165 0.085960776 0.029242748
0.023803376 -0.18559153 0.0040277033 0.097003706 0.12090776 -0.15897825 -0.032208238 -0.03836761
-0.058077563 0.06193299 0.03552055 -0.07354674 -0.003974042 -0.06526544 -0.19304596 -0.059164543
-0.095602214 -0.07295941 0.10787755 -0.12153841 0.16833685 -0.1980347 0.062270623 -0.057109114
-0.04719747 0.08342703 0.12810957 -0.07036932 -0.14730157 0.119093075 -0.081932135 -0.2245579
-0.14710146 -0.12448726 0.045871124 -0.23901872 -0.04925217 -0.18074484 0.021472197 -0.19787952
0.042885274 -0.07177854 0.039142553 0.0046571176 0.019554881 -0.009278652 0.018472688 -0.096295856
-0.009881637 0.11535277 -0.016267903 -0.04232291 0.10444707 -0.036241855 -0.08911984 -0.051325645
0.019165099 0.014342032 -0.036150564 -0.030899948 0.023390627 -0.049483743 0.0024797623 -0.058634218
0.07343075 0.0010144546 -0.005401403 -0.012639107 -0.03024059 0.065691665 0.044252638 0.0113585135
0.03467276 0.015636351 -0.046012398 0.069740474 0.09218565 -0.013398281 -0.06175808 -0.06181929
0.055675067 -0.017720614 -0.04684301 -0.085760206 0.06087441 -0.036647387 0.025944375 0.08162542
0.039986465 0.035169885 0.021430323 -0.01995317 -0.06719745 -0.022721173 0.060703065 -0.09000564
00000000: 9887 2cbd 896a 2ebd b304 5d3d a806 ae3b
00000010: c685 2cbd 50e5 613d 743a 253d 436d 7d3d
00000020: 9a23 b63d 3117 0fbd 88e0 4fbd 480b db3d
00000030: dc07 dc3d 8f07 7dbd e73c b3bd 3a53 533d
00000040: ecff d33d 40b9 a3bd 95a1 df3d 871d a93d
00000050: 1a47 8f3c be94 c53d 82e9 dabb 680c f23c
00000060: 815b 72bc baba d9bd 639f 313c 64ff e6bd
00000070: cd21 d0bd 9b15 283c fa04 e13d f47a ab3d
00000080: 9c28 623c 8d82 b0bd 4741 98bc f957 a3bd
00000090: 1daf 873d 903d 44bc 03d6 a4bd 4943 7c3d
000000a0: d822 95bd e7d3 29bc 4ed0 94bd 2809 2fbd
000000b0: a982 82bd c45c a83d 71ff bebd 19d1 b23c
000000c0: ce2e ed3c 7b63 29bc 05fa 5cbd 6940 3dbc
000000d0: db02 bfbd b904 a83d dfa6 b3bd 380f 5ebd
000000e0: 6ddf 8abd ee26 253d 509c adbb d129 8ebc
000000f0: 97b6 b13d be09 9a3d b3fa 843c 8d4f 013d
00000100: 24d2 d33c 7d63 a3bd 9c82 3abc 5b55 9e3d
00000110: 710b 843d 1a50 b7ba c8fd 243c c598 663d
00000120: 92b3 55bb 70b5 0a3d e0a2 f53c 3bb1 23bd
00000130: e1b2 793d 2c2d 203d fdd9 9dbd 3f2f 83bd
00000140: 680d f93b f2e6 79bd 86bb 333d 78f0 93bd
00000150: e914 1f3d 63ed dabd 1d5e 5bbb 4de8 a8bd
00000160: beef 94bd d09e 3ebd ba48 5b3c d295 b93c
00000170: 242b 593c da7a a83c ca30 ba3d 9b48 673d
00000180: 3eb8 9b3d 0e5b 173d f1a0 103d c6b2 633d
00000190: d7c9 1dbd 4901 66be fe7b 0bbe ecde dabd
000001a0: a58e c6bd 60a4 0e3e 25c4 1fbe a05a 97bc
000001b0: 360e 89bd 28c5 e4bd b4b4 01bd c12e cc3d
000001c0: 949a 3fbe eb9d b03d 1c3e 303d 5792 3cbe
000001d0: 5254 673d 698c 8bbd ce58 923d bd4d 123e
000001e0: 8b9f b13d ba4d df3d 39cf 55bc a34b edbd
000001f0: b0e7 a1bd bac6 f5bd 08e6 11bd acc9 893a
00000200: 9df6 71be 9c0f 9c3c 77ba 903d 5858 02bd
00000210: 3886 9a3b 1f8a 803d bf23 8dbe c89b 003e
00000220: 3b8d 2bbe 85db 01be 90de 653e df83 923c
00000230: 1789 4f3d 44fb dabd f01f b8bd 183c 96bd
00000240: fca3 a0bc 03e8 f5bc 16cd 52bd 8f68 88bb
00000250: 8862 a5bc f9d4 783b 84fd 0a3c 6765 b4bd
00000260: 64f7 01bc 9e19 d9bc 03af 25bd 7634 01bd
00000270: d1ed 39be b416 543b 340c b03d 7d8e ef3c
00000280: 4cff c23c b50b 3ebe d3fa 833b e1a9 c63d
00000290: 7d9e f73d 32cb 22be c9ec 03bd 5b27 1dbd
000002a0: bde2 6dbd 72ad 7d3d ff7d 113d ac9f 96bd
000002b0: ae38 82bb e3a9 85bd d7ad 45be 8556 72bd
000002c0: 18cb c3bd be6b 95bd e8ee dc3d 21e9 f8bd
000002d0: 7f60 2c3e 9cc9 4abe 7b0f 7f3d 3feb 69bd
000002e0: 2252 41bd cadb aa3d 282f 033e ca1d 90bd
000002f0: 39d6 16be 12e7 f33d 09cc a7bd 82f2 65be
00000300: c4a1 16be 2df3 febd 5ce3 3b3d 53c1 74be
00000310: a5bc 49bd 2d15 39be 76e6 af3c eea0 4abe
00000320: 78a8 2f3d a100 93bd f153 203d bc9a 983b
00000330: 8f31 a03c 7d05 18bc 0954 973c c336 c5bd
00000340: 97e6 21bc 133e ec3d 4444 85bc ca5a 2dbd
00000350: 58e8 d53d 5772 14bd 7684 b6bd d73a 52bd
00000360: 2000 9d3c d8fa 6a3c 9d12 14bd e321 fdbc
00000370: b39d bf3c 77af 4abd 8283 223b 6f2a 70bd
00000380: dc62 963d 73f7 843a 41fe b0bb 4214 4fbc
00000390: 1dbb f7bc 5a89 863d 4142 353d 0f19 3a3c
000003a0: 0605 0e3d ce17 803c 7f77 3cbd 18d4 8e3d
000003b0: d4cb bc3d 7784 5bbc 0af6 7cbd 3936 7dbd
000003c0: 8a0b 643d d22a 91bc 75de 3fbd 0ca3 afbd
000003d0: 7257 793d 921b 16bd 4c89 d43c 3a2b a73d
000003e0: d9c8 233d 4c0e 103d a58e af3c d574 a3bc
000003f0: d19e 89bd c121 babc c7a3 783d e154 b8bd

net.0.weight_ih_l1 f4 [300, 100]
0.025082082 -0.07632245 -0.067754254 -0.057043888 0.17192592 -0.062995374 0.021302598 -0.03138849
-0.03539267 0.04133169 -0.016192902 -0.0472087 -0.0040860632 -0.018079806 0.05012438 -0.09724464
-0.16869797 -0.048408 0.056666266 0.10214091 -0.02974203 0.022688292 -0.10721078 0.10355799
0.02036336 0.03963714 0.03559306 0.017044498 0.004587614 -0.05217721 0.057439614 -0.093527585
-0.07867523 0.11658996 0.105590366 0.085719794 -0.009228025 -0.07607939 -0.103684336 0.016663196
-0.041395247 -0.019264473 0.01459423 0.07651139 -0.095909685 -0.09274665 0.052320514 -0.024351854
0.050630655 -0.06092671 -0.13789922 -0.04355808 0.044177707 0.04828519 0.09186603 0.020993466
0.031041209 -0.01710752 -0.063436136 -0.14393699 0.07567266 0.03404423 -0.03855993 -0.07768829
-0.078902334 -0.032565296 -0.09940428 0.057987813 0.013798859 -0.04139932 -0.031898037 -0.09460603
0.035575822 -0.1778196 0.022375869 0.0072402754 -0.029220244 0.077088535 0.016751498 -0.07792766
-0.047974937 0.04528346 0.039542764 -0.041896656 0.08272633 -0.1274072 0.038477205 -0.10742387
0.07700838 -0.10521853 0.08843874 -0.041289773 0.017895376 -0.014960757 -0.13798109 -0.12715067
0.1736593 0.057852134 0.019541688 -0.108304895 0.100337714 0.002524397 0.01008178 -0.037553646
0.074822895 0.0070965705 0.10924091 -0.08890026 -0.08515117 0.05717195 -0.095151074 -0.03746698
0.084992014 -0.028980447 -0.0639663 -0.014901779 0.01483741 -0.09302319 -0.039627794 0.07354314
-0.079373784 -0.030419612 -0.035726584 0.043844778 0.15958613 -0.067919835 0.013842385 0.019616028
0.007417098 -0.07276803 0.03227215 0.06499502 0.094640695 0.14277038 0.10958405 0.03716467
0.05554055 -0.11046015 0.013231691 -0.036462583 0.06423331 0.03721358 0.02075873 -0.011966826
0.069414 -0.04686312 -0.031523857 -0.021529429 -0.006001533 0.04898931 0.08994254 -0.10922771
0.06377063 0.14966567 0.11157343 0.028018396 0.08992861 0.096809156 0.14207444 0.0102152275
0.0069695585 -0.047036223 -0.029271241 -0.023179429 -0.042884007 -0.02122802 -0.03417674 -0.10051507
0.07058321 0.09733928 -0.043467306 -0.14738195 -0.019999003 -0.028274624 0.047044065 0.037742566
0.07713465 0.03332651 0.016500661 -0.120904684 0.06269136 -0.03819201 0.051365927 -0.076610446
0.014193437 0.019293016 0.0023223066 -0.109183304 0.09979129 0.016338648 0.09749771 -0.019196857
0.119017035 0.055698764 -0.03940477 -0.050139688 -0.072728075 0.08962616 0.07299453 -0.036778774
0.0395202 -0.096609026 -0.043841105 0.0047296477 0.08833926 0.08448075 -0.050707925 0.0703309
-0.009199959 0.038613208 -0.09421302 0.027423121 0.07852806 -0.12137142 -0.032695185 -0.05074712
-0.013073996 0.032106895 -0.08039908 -0.055984903 0.08099935 0.009543967 -0.0017210054 0.011653813
0.007864234 0.099306695 0.05828223 0.062482838 -0.022691272 0.015778989 0.11231458 -0.056178983
-0.07826759 0.0014359845 0.07965466 -0.03178318 -0.009285118 0.07686183 0.09313401 0.09710719
0.043092106 -0.0011773442 -0.038313903 0.065891996 -0.020363638 0.005527676 0.04471653 -0.046406373
0.12885556 -0.046216264 -0.055364024 -0.13363001 -0.0710886 -0.07198547 0.028134886 0.059113983
00000000: f078 cd3c f24e 9cbd bec2 8abd daa6 69bd
00000010: 590d 303e b803 81bd c982 ae3c 3891 00bd
00000020: e8f7 10bd 6b4b 293d faa6 84bc e95d 41bd
00000030: 62e4 85bb 1a1c 94bc 394f 4d3d 3328 c7bd
00000040: 29bf 2cbe 7847 46bd e31a 683d 412f d13d
00000050: 8fa5 f3bc ccdc b93c 5391 dbbd 3616 d43d
00000060: 10d1 a63c 8e5a 223d 07ca 113d e7a0 8b3c
00000070: b253 963b c5b7 55bd cd45 6b3d 648b bfbd
00000080: 7b20 a1bd b8c6 ee3d c33f d83d dc8d af3d
00000090: 2431 17bc 83cf 9bbd 7458 d4bd 4181 883c
000000a0: 108e 29bd 87d0 9dbc a31c 6f3c 01b2 9c3d
000000b0: 4c6c c4bd f5f1 bdbd 094e 563d 8a7d c7bc
000000c0: 1762 4f3d 498e 79bd 7435 0dbe f569 32bd
000000d0: aff3 343d b1c6 453d 4224 bc3d 7dfa ab3c
000000e0: 224a fe3c 1225 8cbc ceea 81bd 3864 13be
000000f0: 44fa 9a3d f671 0b3d 04f1 1dbd 0a1b 9fbd
00000100: 8c97 a1bd 3063 05bd 7994 cbbd a184 6d3d
00000110: 9c14 623c 5592 29bd 84a7 02bd cec0 c1bd
00000120: f4b7 113d 5716 36be 994d b73c d53f ed3b
00000130: 4b5f efbc 98e0 9d3d 703a 893c 8998 9fbd
00000140: 5e81 44bd 267b 393d 98f7 213d d49b 2bbd
00000150: 6c6c a93d 0877 02be 469a 1d3d 0c01 dcbd
00000160: 92b6 9d3d d07c d7bd 5f1f b53d 771f 29bd
00000170: 5399 923c f71d 75bc ea4a 0dbe c933 02be
00000180: bed3 313e 5cf6 6c3d e415 a03c f5ce ddbd
00000190: dc7d cd3d 5b70 253b 0d2e 253c dad1 19bd
000001a0: bf3c 993d 598a e83b b3b9 df3d 5711 b6bd
000001b0: bd63 aebd 222d 6a3d 91de c2bd fa76 19bd
000001c0: 4b10 ae3d 6768 edbc c300 83bd 9726 74bc
000001d0: 9c18 733c f182 bebd c150 22bd c99d 963d
000001e0: b98e a2bd 8d32 f9bc 0a56 12bd 9596 333d
000001f0: 8c6a 233e 8e19 8bbd 2ccb 623c cbb1 a03c
00000200: 210b f33b 6807 95bd cd2f 043d 1c1c 853d
00000210: fbd2 c13d 6632 123e 9a6d e03d fb39 183d
00000220: 7d7e 633d ee38 e2bd bcc9 583c ca59 15bd
00000230: c18c 833d 446d 183d 360e aa3c 8210 44bc
00000240: ed28 8e3d 8bf3 3fbd 291f 01bd 7c5e b0bc
00000250: 82a8 c4bb 04a9 483d cb33 b83d c7b2 dfbd
00000260: 2d9a 823d f541 193e 9c80 e43d d686 e53c
00000270: 7e2c b83d e143 c63d f67b 113e c55d 273c
00000280: e560 e43b 0ea9 40bd 3eca efbc c9e2 bdbc
00000290: 24a7 2fbd 62e6 adbc e9fc 0bbd d8da cdbd
000002a0: ee8d 903d d159 c73d c60a 32bd 4beb 16be
000002b0: f3d4 a3bc 2fa0 e7bc 47b1 403d f397 1a3d
000002c0: c5f8 9d3d 6181 083d 652c 873c e09c f7bd
000002d0: 5464 803d 3a6f 1cbd 1465 523d f0e5 9cbd
000002e0: 978b 683c 630c 9e3c d731 183b 7f9b dfbd
000002f0: 605f cc3d a1d8 853c e1ac c73d ba42 9dbc
00000300: 34bf f33d 6324 643d e566 21bd 465f 4dbd
00000310: 75f2 94bd ec8d b73d 287e 953d 57a5 16bd
00000320: efdf 213d f4da c5bd bb92 33bd 29fb 9a3b
00000330: 37eb b43d 3e04 ad3d 1db3 4fbd a609 903d
00000340: 6dbb 16bc e228 1e3d c1f2 c0bd 74a6 e03c
00000350: 52d3 a03d 9491 f8bd 63eb 05bd 36dc 4fbd
00000360: 5034 56bc 8582 033d 46a8 a4bd 6d50 65bd
00000370: fde2 a53d 4d5e 1c3c 5c93 e1ba a2ef 3e3c
00000380: fdd8 003c 4f61 cb3d 59b9 6e3d 01ee 7f3d
00000390: 0ce3 b9bc f042 813c 3005 e63d ef1b 66bd
000003a0: c24a a0bd a537 bc3a fb21 a33d 142f 02bd
000003b0: 9c20 18bc bc69 9d3d 0bbd be3d 22e0 c63d
000003c0: 5981 303d 1e51 9aba 0aef 1cbd 62f2 863d
000003d0: a5d1 a6bc 8221 b53b ae28 373d 9c14 3ebd
000003e0: b6f2 033e 444d 3dbd 63c5 62bd 4ed6 08be
000003f0: e696 91bd 1e6d 93bd 227b e63c 8121 723d

net.0.weight_hh_l1 f4 [300, 100]
0.029260188 0.032106683 -0.13845097 -0.14589845 0.02248823 0.07136318 0.118453905 0.062424745
-0.054612003 -0.078602396 0.02110803 0.073349774 0.09976689 -0.016720392 0.060183227 0.0116531085
0.007983431 0.022764023 0.06588465 -0.11938636 0.07352265 0.04851418 0.06449072 -0.07410541
0.15115425 0.020591635 -0.013964365 -0.054872107 0.13959152 0.0016906678 0.032771643 -0.04120334
-0.07238781 0.017529935 -0.14414418 0.07419341 -0.06373412 -0.13271017 0.009431114 -0.11718028
-0.08549038 0.0887105 0.060177647 -0.14761886 0.11097592 -0.06083613 0.12882756 -0.011283011
0.107942924 -0.046446025 0.05582697 -0.030923044 -0.024615197 -0.14652734 0.083667465 0.037904777
-0.15494934 0.09538478 0.019036327 -0.13200308 -0.056820117 -0.06358179 0.122875094 -0.01387188
-0.0481553 0.05299932 0.14113301 0.041450143 0.024368932 0.021416578 -0.139603 -0.10829888
0.019690435 0.06261538 -0.0740402 -0.07876778 0.022801226 -0.0110849785 -0.061129596 -0.05595792
-0.07593382 0.041931707 -0.020676695 0.11122165 0.013590884 -0.028134722 0.053680222 0.018276026
-0.022912411 0.12432989 -0.053562693 0.019064547 -0.036193646 -0.0803359 -0.08110835 0.10179029
-0.057014804 0.072398394 -0.10430543 -0.14625421 0.044742458 -0.04780356 -0.07798885 -0.07735891
-0.026551249 0.025489312 0.029549014 -0.043965448 -0.07255347 -0.07267045 -0.054363992 -0.016406612
0.04330564 0.062866166 0.12533973 -0.07907063 0.041920163 -0.020999698 0.11302518 -0.023568349
-0.07018888 0.037291307 -0.097704016 0.033486277 0.018030252 0.07699317 0.021876577 0.007538805
-0.026051546 0.07195035 -0.04144717 0.12607671 -0.13906011 -0.060609177 -0.023631645 0.026056545
0.07167998 0.08065487 -0.10409523 -0.008011121 0.07810248 0.056693647 0.022713412 0.057939883
0.093988135 -0.09413181 -0.018878393 -0.02212136 0.091638856 0.07284032 -0.12888078 -0.15181191
-0.13153055 -0.16516171 -0.056533117 -0.023330897 -0.035638213 -0.031948056 0.14163387 0.08228654
0.0764183 0.09254169 0.03093475 0.040505618 0.07074244 -0.03128039 0.05889348 0.070062995
0.042394865 0.019956198 -0.05787529 0.085396506 -0.020467335 0.06418621 0.010337945 -0.1196388
-0.05001241 -0.027887406 -0.08507224 0.0021922574 -0.042774092 0.026170693 -0.04460286 0.13230962
0.010103283 0.05824402 0.008405112 0.028393714 0.0944179 -0.0064534014 0.12906955 -0.11213254
-0.12250682 -0.112847745 -0.01797391 0.019725733 -0.0044722822 0.014034302 -0.07097736 -0.023803791
0.034856193 0.009896532 -0.028734006 0.07681228 0.0030345442 -0.11445605 -0.014194062 -0.060826372
0.046140246 -0.021396475 0.099308565 -0.11467821 -0.050827775 -0.065408714 -0.045039445 0.04495978
-0.049263217 0.074299805 -0.043671794 0.03287445 -0.12456014 0.021358604 0.03456348 0.048993684
0.027508456 0.067882575 -0.0125271315 0.036131307 -0.059138972 -0.09330794 0.07118452 -0.02278165
0.061458062 -0.04577088 0.09685497 -0.07707847 -0.0014284393 -0.10543628 0.08383672 -0.056170903
0.020897128 0.02832377 -0.07424652 0.080719054 -0.061437793 -0.03758646 0.025924081 -0.013745395
-0.005832024 -0.1145573 -0.07280136 0.071633734 0.03486764 0.018234 -0.01610424 -0.046368398
00000000: 10b3 ef3c 4c82 033d 17c6 0dbe 6766 15be
00000010: 3d39 b83c dc26 923d f697 f23d 17b1 7f3d
00000020: d6b0 5fbd 4bfa a0bd bfea ac3c 6838 963d
00000030: 9552 cc3d 34f9 88bc b082 763d aeec 3e3c
00000040: f0cc 023c 9e7b ba3c 88ee 863d d680 f4bd
00000050: 0b93 963d ceb6 463d b613 843d 94c4 97bd
00000060: 2ec8 1a3e caaf a83c cbca 64bc 93c1 60bd
00000070: 14f1 0e3e 6699 dd3a 8f3b 063d d5c4 28bd
00000080: 0f40 94bd f09a 8f3c 889a 13be b7f2 973d
00000090: 0987 82bd 2de5 07be f684 1a3c 37fc efbd
000000a0: 9515 afbd daad b53d d67c 763d 6629 17be
000000b0: 5847 e33d 4e2f 79bd 5feb 033e 61dc 38bc
000000c0: 2e11 dd3d 303e 3ebd d2aa 643d 5352 fdbc
000000d0: cfa5 c9bc 430b 16be d959 ab3d 0a42 1b3d
000000e0: 0aab 1ebe 1859 c33d 12f2 9b3c d12b 07be
000000f0: 36bc 68bd 2b37 82bd f0a5 fb3d e246 63bc
00000100: 7e3e 45bd d115 593d 2c85 103e a0c7 293d
00000110: 5ba1 c73c d271 af3c 17f4 0ebe cecb ddbd
00000120: d64d a13c 7e3c 803d 63a2 97bd 0051 a1bd
00000130: a3c9 ba3c c59d 35bc 0763 7abd 2234 65bd
00000140: 3183 9bbd 95c0 2b3d 2c62 a9bc 2dc8 e33d
00000150: 4dac 5e3c ca7a e6bc cbdf 5b3d 9bb7 953c
00000160: cfb2 bbbc aba0 fe3d 8e64 5bbd 412d 9c3c
00000170: ca3f 14bd 2687 a4bd 221c a6bd 6d77 d03d
00000180: 5b88 69bd 9c45 943d 169e d5bd aac3 15be
00000190: de43 373d aacd 43bd 9eb8 9fbd 596e 9ebd
000001a0: 0182 d9bc f6ce d03c c610 f23c 1d15 34bd
000001b0: ea96 94bd 3fd4 94bd c7ac 5ebd 2967 86bc
000001c0: 4161 313d fabf 803d 0f59 003e c8ef a1bd
000001d0: 7ab4 2b3d 8f07 acbc bf79 e73d 6912 c1bc
000001e0: 30bf 8fbd c5be 183d 0b19 c8bd e828 093d
000001f0: 2eb4 933c 98ae 9d3d 8236 b33c 1408 f73b
00000200: 0d6a d5bc b55a 933d 82c4 29bd 411a 013e
00000210: c665 0ebe 5441 78bd 2797 c1bc 8974 d53c
00000220: f4cc 923d 612e a53d e12f d5bd 1441 03bc
00000230: 31f4 9f3d 9937 683d 7a11 ba3c 5f52 6d3d
00000240: da7c c03d 2ec8 c0bd dca6 9abc db37 b5bc
00000250: 27ad bb3d 4e2d 953d 53f9 03be 9574 1bbe
00000260: f2af 06be 2720 29be 458f 67bd 7020 bfbc
00000270: 60f9 11bd f7db 02bd 7808 113e d885 a83d
00000280: 3381 9c3d 7f86 bd3d df6a fd3c 38e9 253d
00000290: 6ae1 903d de1f 00bd 4a3a 713d 307d 8f3d
000002a0: 3da6 2d3d 2e7b a33c a40e 6dbd 5de4 ae3d
000002b0: 1dab a7bc 0f74 833d 7c60 293c 3005 f5bd
000002c0: d0d9 4cbd 2174 e4bc 5b3a aebd faab 0f3b
000002d0: e333 2fbd ec63 d63c 7db1 36bd 2c7c 073e
000002e0: 3e88 253c 4891 6e3d 98b5 093c ef99 e83c
000002f0: 2c5e c13d 0e77 d3bb cf2a 043e bfa5 e5bd
00000300: dbe4 fabd b81c e7bd 053e 93bc dc97 a13c
00000310: 398c 92bb 21f0 653c 945c 91bd 2b00 c3bc
00000320: 5ec5 0e3d 1025 223c 9463 ebbc c24f 9d3d
00000330: 34df 463b ef67 eabd 368e 68bc 1325 79bd
00000340: 8efd 3c3d a947 afbc 4a62 cb3d 69dc eabd
00000350: c930 50bd 01f5 85bd 487b 38bd bf27 383d
00000360: 3ac8 49bd 7f2a 983d 32e1 32bd 5ca7 063d
00000370: 6319 ffbd 3df8 ae3c 7092 0d3d 9aad 483d
00000380: 6a59 e13c 0506 8b3d 993e 4dbc 6cfe 133d
00000390: b53b 72bd 3c18 bfbd 31c9 913d 95a0 babc
000003a0: 73bb 7b3d 3f7a 3bbd e65b c63d 51db 9dbd
000003b0: 783a bbba faee d7bd 96b2 ab3d 7613 66bd
000003c0: 7430 ab3c 4007 e83c 8f0e 98bd 0850 a53d
000003d0: 32a6 7bbd 43f4 19bd bd5e d43c 5d34 61bc
000003e0: 901a bfbb 059d eabd e118 95bd b5b4 923d
000003f0: 5fd1 0e3d 785f 953c 0aed 83bc caec 3dbd

net.0.bias_ih_l1 f4 [300]
0.06466654 0.0951117 -0.0001375 0.078800276 -0.0667639 0.049550336 0.032068774 0.02461584
0.0011787285 -0.022406777 0.067720845 -0.05695077 0.024757534 0.033307318 0.0535776 -0.09690161
-0.012686889 -0.038051154 0.08560084 0.003827067 0.04449029 -0.123420425 0.045169853 0.010763454
-0.0036292928 0.06533403 -0.031079005 0.091244884 -0.008369826 0.012090419 0.094767 0.0930183
-0.010471461 -0.11203475 -0.10516017 -0.036354654 0.025430955 -0.0057926034 0.0045231204 0.04428194
0.02002298 0.052843645 -0.009287735 0.07788423 0.08088893 -0.085468076 -0.043859154 -0.0519817
0.0029103619 0.016248632 -0.07619311 -0.093287 -0.012151254 0.04640156 0.09153907 -0.12110377
-0.093517706 0.031676486 -0.078957915 -0.00049484463 -0.09841546 0.118595526 0.03603214 0.045303494
-0.028557427 0.055601843 -0.010801246 0.06952087 0.000139372 -0.013611528 -0.09971554 -0.04476403
0.029851139 -0.07088245 0.03830163 0.041360322 0.10828426 -0.09995614 0.07045678 -0.06804172
-0.06633915 0.044454753 0.09142488 0.04996423 -0.06333616 0.053406216 -0.12624617 -0.042684246
0.00059799664 0.06664376 0.010867648 0.090751015 0.04477691 -0.06768397 -0.11057665 0.080617666
-0.09857449 0.032689616 -0.019965116 -0.09373653 0.017598994 0.05423529 0.08108388 -0.1141833
-0.0032380915 -0.07791956 -0.0852908 0.00814008 0.041109767 -0.03215695 -0.08770584 0.045340344
0.023774032 0.055531524 -0.02776177 0.06524899 0.002675536 0.050713632 0.025149906 -0.00701726
0.0591229 -0.028452212 0.12239351 0.21940115 -0.07027884 -0.17815317 -0.08986633 -0.020110812
-0.038343806 -0.15355489 -0.020045232 0.12894093 0.0049561528 0.011531859 -0.030113887 0.0952513
0.009236577 -0.10037893 -0.012139196 -0.038515802 0.115175925 -0.10531326 0.043945935 -0.01046331
0.09796972 -0.15156016 -0.059550475 -0.05408474 -0.17398073 0.06554525 0.08781771 -0.0009821062
0.03160918 -0.0455763 -0.0013831696 0.002611998 -0.17318593 0.0034670124 -0.022173299 0.10289405
0.07553837 0.15596259 -0.08867666 -0.07417741 0.010676209 0.1076321 0.08168554 0.17836821
-0.015977886 -0.08555059 0.07615993 0.024807313 0.0072953836 -0.0437773 0.11008006 -0.17721087
-0.037538335 -0.13187265 -0.04726446 -0.03639704 0.10356417 -0.008661637 0.068687536 -0.025666818
0.008254703 -0.103611834 -0.011476489 -0.026889984 -0.00234739 0.021466918 0.065306075 0.023880022
-0.022988064 -0.14867291 0.06504417 0.061701685 -0.046266075 -0.08465228 0.09527322 0.05742816
0.06965751 0.083139166 -0.025589935 0.054180995 -0.071336895 0.06292048 -0.038057838 -0.087614566
0.051670723 0.0028230965 -0.059761096 0.0488128 0.10105761 0.103064395 0.09511344 0.02172446
0.04669049 -0.01915383 0.051966414 -0.09885733 -0.07758735 0.05893302 -0.043128178 -0.0454306
0.045387 0.0093714055 -0.06712717 0.01920334 -0.08403929 0.008798076 0.02113698 0.052621804
-0.00875463 -0.02336643 -0.026309485 0.04848526 0.034429546 -0.0068674576 -0.06839752 -0.020000659
0.06568216 0.07351308 -0.097896695 0.013011798 -0.026008338 0.03742604 0.089299984 0.0077114794
0.0007049444 0.022351691 0.030238224 0.082453914 -0.04708901 -0.055273913 -0.0879633 0.074641146
00000000: e46f 843d ecc9 c23d e02d 10b9 0a62 a13d
00000010: 83bb 88bd 4bf5 4a3d 8c5a 033d 28a7 c93c
00000020: 917f 9a3a 6b8e b7bc 3ab1 8a3d 3645 69bd
00000030: 50d0 ca3c 416d 083d 2f74 5b3d 5a74 c6bd
00000040: abdc 4fbc 87db 1bbd 7e4f af3d 88cf 7a3b
00000050: 733b 363d d9c3 fcbd 0604 393d 3359 303c
00000060: 6ed9 6dbb d9cd 853d 6699 febc 99de ba3d
00000070: 9821 09bc e516 463c 3315 c23d 6180 be3d
00000080: 7e90 2bbc 7a72 e5bd 375e d7bd 9ee8 14bd
00000090: 9454 d03c e1cf bdbb af36 943b fb60 353d
000000a0: 3c07 a43c 9472 583d 962b 18bc c481 9f3d
000000b0: 18a9 a53d e309 afbd a8a5 33bd c3ea 54bd
000000c0: c5bb 3e3b da1b 853c 220b 9cbd 410d bfbd
000000d0: 0e16 47bc 900f 3e3d d678 bb3d 4105 f8bd
000000e0: 3686 bfbd 34bf 013d b0b4 a1bd 76b8 01ba
000000f0: 0b8e c9bd 36e2 f23d 7096 133d 2890 393d
00000100: 44f1 e9bc c2be 633d b6f7 30bc f560 8e3d
00000110: 6324 1239 e302 5fbc a937 ccbd 7d5a 37bd
00000120: 608a f43c d12a 91bd 2ce2 1c3d 7169 293d
00000130: 23c4 dd3d ceb5 ccbd a54b 903d 7559 8bbd
00000140: d2dc 87bd 3016 363d f83c bb3d 4ba7 4c3d
00000150: 63b6 81bd 7ac0 5a3d ad46 01be add5 2ebd
00000160: e0c2 1c3a 867c 883d 380e 323c abdb b93d
00000170: fe67 373d e59d 8abd 0376 e2bd e01a a53d
00000180: 6ce1 c9bd 8ce5 053d e28d a3bc f0f8 bfbd
00000190: c42b 903c d325 5e3d 4e0f a63d efd8 e9bd
000001a0: 2936 54bb 4a94 9fbd f1ac aebd f85d 053c
000001b0: b762 283d 02b7 03bd 1f9f b3bd ccb6 393d
000001c0: c2c1 c23c 0675 633d a76c e3bc 43a1 853d
000001d0: 0c58 2f3b 19b9 4f3d 2d07 ce3c 0bf1 e5bb
000001e0: db2a 723d 9d14 e9bc 73a9 fa3d b2aa 603e
000001f0: 5aee 8fbd c96d 36be d70b b8bd 6ebf a4bc
00000200: 650e 1dbd 7e3d 1dbe e635 a4bc 1709 043e
00000210: 3967 a23b 1ff0 3c3c 66b1 f6bc 1d13 c33d
00000220: 0355 173c 7893 cdbd 7ae3 46bc bfc2 1dbd
00000230: 5be1 eb3d 7aae d7bd a700 343d 4e6e 2bbc
00000240: 59a4 c83d 9632 1bbe 33eb 73bd f687 5dbd
00000250: 0128 32be 973c 863d c6d9 b33d 04ba 80ba
00000260: a178 013d 37ae 3abd 784b b5ba 0e2e 2b3b
00000270: a757 31be d136 633b c7a4 b5bc 1eba d23d
00000280: dcb3 9a3d a8b4 1f3e 1c9c b5bd 53ea 97bd
00000290: 44eb 2e3c 386e dc3d c04a a73d 28a6 363e
000002a0: 0ee4 82bc 2635 afbd bdf9 9b3d b538 cb3c
000002b0: 1d0e ef3b d34f 33bd a871 e13d c476 35be
000002c0: ccc1 19bd a009 07be 6198 41bd 1015 15bd
000002d0: 7419 d43d 8ae9 0dbc 0dac 8c3d 3843 d2bc
000002e0: bc3e 073c 7132 d4bd e207 3cbc 6248 dcbc
000002f0: abd6 19bb 64db af3c 31bf 853d 09a0 c33c
00000300: 7751 bcbc b63d 18be e135 853d e8ba 7c3d
00000310: 7f81 3dbd 2d5e adbd 9b1e c33d ca39 6b3d
00000320: 99a8 8e3d de44 aa3d fca1 d1bc e4ec 5d3d
00000330: 1419 92bd 74dc 803d 89e2 1bbd 446f b3bd
00000340: aea4 533d b303 393b 0dc8 74bd eeef 473d
00000350: 4bf7 ce3d 6d13 d33d d6ca c23d 7ff7 b13c
00000360: 873e 3f3d 7ee8 9cbc bcda 543d b675 cabd
00000370: 1ee6 9ebd c063 713d 2ca7 30bd 7015 3abd
00000380: b8e7 393d 868a 193c f879 89bd 5350 9d3c
00000390: cb1c acbd ce25 103c 7627 ad3c f689 573d
000003a0: 946f 0fbc f56a bfbc fd86 d7bc 7b98 463d
000003b0: ff05 0d3d 6908 e1bb 0014 8cbd 6cd8 a3bc
000003c0: 5e84 863d 078e 963d 107e c8bd 702f 553c
000003d0: 700f d5bc 0c4c 193d e9e2 b63d 94b0 fc3b
000003e0: 05cc 383a e51a b73c 27b6 f73c 99dd a83d
000003f0: 68e0 40bd e666 62bd 1a26 b4bd 75dd 983d
