vae_classification/state_dict_classifier_100_79.25.pt (torch, 617403 bytes, 14 tensors)

net.0.weight_ih_l0 f4 [300, 2]
000000 6f 95 85 bd d4 95 4d 3d 43 ca 89 3c c3 84 90 3d
       -0.06522643 0.050191715 0.016820079 0.07056572
000010 e1 d5 d1 3c 44 42 cc 3d 4d c2 d3 3c 83 5f ce 3d
       0.02561468 0.09973577 0.025849486 0.10076811
000020 e1 0a 9e bc 83 4f b6 bd 62 87 df bd 00 26 17 3c
       -0.019292297 -0.089018844 -0.10914494 0.0092253685
000030 5e 46 c1 bb 6a 9d a4 bd df 1a 64 3d 54 ff dd bd
       -0.005898281 -0.08037837 0.05568969 -0.108397156
000040 60 52 49 bd df da 68 3d 8a b8 19 bb d9 7a 75 bd
       -0.049150825 0.056849357 -0.002345594 -0.05993161
000050 a3 38 b0 3c 5a ee 1e bd 99 f6 fe bd b3 dd 05 be
       0.021511381 -0.03880153 -0.124493785 -0.13072853
000060 82 c5 4f 3c dc 9d 84 bd 28 06 b6 3c 2a 7d 6e bd
       0.012681367 -0.06475422 0.022219732 -0.058224835
000070 e0 eb d3 3d d1 ad 8e 3d 18 93 af 3d b8 81 6d 3d
       0.10347724 0.069667466 0.08572978 0.057985038
000080 e3 cd a5 bd 03 3a 71 bc b8 ba c0 3d 6a 0a 9c bd
       -0.080959104 -0.014723304 0.09410614 -0.07619174
000090 6d d9 56 bd 4b 31 05 bd e6 88 18 3c 56 6a fc 3c
       -0.052453447 -0.032517713 0.009309983 0.030812424
0000a0 3b db b7 3d 81 33 bd 3b a5 f3 98 3d 44 a9 0e be
       0.08977362 0.005773962 0.074683465 -0.13931757
0000b0 ee 5b 26 3d b7 de 95 bd f6 ac ef bc d7 b4 ed 3c
       0.040615015 -0.0731787 -0.029257279 0.029016895
0000c0 3f b1 1c bd 10 43 2d bd 00 28 5d bb 31 8c f7 3d
       -0.038254973 -0.042300284 -0.0033745766 0.12087286
0000d0 33 b9 2e 3c b3 8d d4 bd 97 72 a6 3d c6 1a d4 3d
       0.010664272 -0.103785895 0.08127325 0.10356669
0000e0 c0 d5 9c 3d 2c 33 ab 3d a3 a6 a1 3b b4 f3 9c bd
       0.07657957 0.0835937 0.0049331947 -0.0766367
0000f0 c0 a6 3a bd df 00 da 3d c8 45 69 bd 71 8e cb bd
       -0.04556918 0.106446974 -0.056951314 -0.09939278
000100 ad 11 9d bc f9 09 a3 bd f4 41 eb bd 52 29 1d 3d
       -0.019173468 -0.079608865 -0.11487189 0.038369484
000110 82 b8 1b 3d c0 e1 aa 3d be 5f c2 3d 8d 6c d3 bc
       0.038017757 0.0834384 0.094909176 -0.025808597
000120 97 f6 0e bc 78 10 4f bc 4d b2 6f bd 53 e0 e4 bd
       -0.008725784 -0.012638204 -0.05851965 -0.11175599
000130 00 0b eb 3c 87 0e 4b bd 28 1d a8 3c 6f c4 c5 bc
       0.028691769 -0.0495744 0.020521715 -0.024141518
000140 e9 76 65 bd a7 95 92 bb 6b d7 b1 3d 33 5e 01 3e
       -0.056021605 -0.0044734064 0.08683666 0.1263359
000150 5b bf a7 bd 74 f9 f5 bd b8 6b 3c bd f7 bd 4b bd
       -0.08190795 -0.1201047 -0.046001166 -0.04974171
000160 e9 33 a7 3c bb 09 81 bd 0d d2 31 bd ae a3 b5 3d
       0.020410495 -0.06300684 -0.04341321 0.0886911
000170 de a5 aa bd ff 3a 2a 3d a1 bd e1 3c 9d 7e a4 3d
       -0.08332418 0.04156017 0.027556242 0.08031962
000180 91 ee 1a bd 80 38 d0 bc 6f 5f 99 bb e0 12 d5 3b
       -0.03782517 -0.025417566 -0.004680566 0.006502494
000190 1e 12 a0 bd 33 eb b8 bd d8 d1 92 3d 50 9d 93 bd
       -0.078159556 -0.09029236 0.07168931 -0.07207739
0001a0 9c f5 7e bd d2 fd a6 bc 7e c3 ee 3c 61 13 fd bd
       -0.06224595 -0.020384703 0.029145952 -0.12357212
0001b0 53 ef af 3b b6 8c fc bb 90 e2 89 3c 85 f5 04 be
       0.005369106 -0.0077072037 0.016831666 -0.12984283
0001c0 6b 71 48 3d ce c2 a9 3d 5f 7a b5 3b 36 9e 4a bc
       0.04893629 0.08289109 0.0055382694 -0.012366822
0001d0 3d 2b f6 3c a6 ec 46 bd 44 35 aa 3d 81 ad 9d 3c
       0.030049914 -0.04856553 0.08310941 0.019247772
0001e0 20 a3 a7 3d c9 03 cd 3d 4b 3c a2 3c 3d 5b e3 3c
       0.081854105 0.100104876 0.01980414 0.027753467
0001f0 ae 4e 08 bd bf 55 51 bd e6 3c b0 3d b7 78 02 3d
       -0.03327816 -0.051107164 0.086053655 0.031853404
000200 fa e4 99 bd 6b c9 90 bd 77 55 fb 3b 32 ac 72 3b
       -0.07514377 -0.070696674 0.0076701003 0.0037028906
000210 43 d7 9c bd 4f 8f f2 bd 60 70 51 3d 71 3a 99 bd
       -0.076582454 -0.1184374 0.05113256 -0.0748185
000220 74 54 65 bb 34 fd 9f bd 42 72 fb 3d 53 3a 8b 3d
       -0.0034992965 -0.078119665 0.12277652 0.06798234
000230 34 24 f6 3d 1a 85 68 3d a3 a7 32 bd 41 25 44 bd
       0.12018624 0.05676756 -0.043616902 -0.04788709
000240 40 16 00 bd 2e 0d 74 3c 76 8b 1f 3d 05 b2 2f 3d
       -0.03127122 0.01489572 0.03895136 0.042894382
000250 a7 3f 9f 3d f5 08 be bb 12 47 1b 3d e2 49 68 3c
       0.077758126 -0.0057994076 0.037909575 0.014177771
000260 ea f3 74 bd 23 62 6a 3d 29 90 f1 bd 93 67 83 bd
       -0.059802927 0.057222497 -0.117950745 -0.064162396
000270 e3 a6 b6 3d 0e b6 87 bd 6f fb 9f 3c 38 89 d4 bc
       0.0891855 -0.06626521 0.019529073 -0.025944337
000280 4c 57 e3 bb 81 4b b7 bd 9a 5b 6e bd bf da d0 bd
       -0.006937897 -0.08949948 -0.058192827 -0.101979725
000290 ff 4d 8d 3c 31 14 70 3d a6 95 c4 bc 1e df d5 3b
       0.017249105 0.058613006 -0.02399714 0.006526842
0002a0 92 c3 a1 bc 4c 08 23 3c b5 ac 3b be 1e 2d 06 be
       -0.019746576 0.009950709 -0.18327601 -0.13103148
0002b0 48 d5 01 3d e8 9c de bd 0d eb 4b 3d bd 80 5d bc
       0.03169754 -0.10869771 0.04978471 -0.013519463
0002c0 b3 eb 5a 3d 13 b4 a6 bd 3f 9d 7c bc 12 87 09 be
       0.053447437 -0.08139815 -0.01541835 -0.13430431
0002d0 4e d7 b1 bd 98 f7 c9 bd 95 de c1 bd 23 6b 8a bd
       -0.08683644 -0.09861678 -0.09466282 -0.06758716
0002e0 1b af 1e bb 8f b6 91 3c 65 7b 06 3d 42 34 6e ba
       -0.0024213258 0.017787246 0.032832522 -0.00090867665
0002f0 a5 63 a0 bd dd 9f 0a 3d f8 50 4e 3d 93 5c 27 bd
       -0.07831506 0.033843864 0.050370187 -0.04085977
000300 78 53 b6 bc 7e a8 0d bd 3e a0 92 3d 6e eb 38 bb
       -0.022256598 -0.034584515 0.0715947 -0.00282165
000310 dd 00 88 bc 53 d2 eb 3d dd f3 9c 3b fd b7 b4 3d
       -0.016601974 0.115147255 0.004789813 0.088241555
000320 6d e6 85 bc 28 00 90 3c 6c 31 40 be 79 9d 0d be
       -0.016345227 0.0175782 -0.18768853 -0.13829602
000330 b3 10 87 3e 79 a9 4f 3e b4 47 08 3d ba 99 42 3d
       0.26379928 0.20279492 0.033271506 0.047509886
000340 5b 3d 8c bd 07 3c 99 bd 47 0b 78 bd 6b 15 27 be
       -0.0684764 -0.074821524 -0.06055763 -0.16316764
000350 24 64 2b 3e f1 2a 77 3e 5f 37 a2 3d 9b 13 28 3e
       0.1673742 0.24137475 0.079207174 0.16413729
000360 db 58 2d ba 44 96 ca 3d 58 a7 8a bd df 3e 06 3d
       -0.0006612667 0.09891942 -0.067701995 0.032774802
000370 bd 60 7f 3d 1a 76 1a be de c0 6b 3c bc 98 5e 3c
       0.062348116 -0.15084115 0.014389245 0.013586219
000380 1e 8d b3 bd 18 98 92 3d 51 3f 9a 3e 81 fe 89 3e
       -0.0876715 0.07157916 0.30126432 0.26951984
000390 d8 a5 02 be d7 a5 36 be a7 65 34 3e d8 74 0b 3e
       -0.12758577 -0.178367 0.17616902 0.13618791
0003a0 f4 57 fb 3d 06 cb 71 3e 10 b3 21 3e 24 ca 83 3e
       0.12272635 0.23612604 0.15790963 0.2574016
0003b0 86 49 31 bd 7a 8d 8a bd ff a2 c0 bd cc 26 c6 3b
       -0.043283008 -0.06765266 -0.09406089 0.0060471054
0003c0 58 80 98 3d 95 e4 17 3e 8a 59 21 3d 91 48 b8 3d
       0.07446355 0.14833291 0.03939203 0.08998216
0003d0 59 ae d6 bc d7 9b 13 3e 3e ec 05 be 75 15 1d be
       -0.026206182 0.14414917 -0.130784 -0.15340216
0003e0 40 62 b5 3d 39 d4 33 3e 2f 82 51 3d b7 18 95 3d
       0.0885663 0.17561425 0.051149543 0.072801046
0003f0 92 3f 53 3e be 81 27 3e b2 3a 60 bb 7c 27 27 3e
       0.20629719 0.16358086 -0.0034214673 0.16323656

net.0.weight_hh_l0 f4 [300, 100]
000000 13 2b 95 3d ee 8a e0 3c 4c fa b5 bc 92 18 8b bd
       0.072836064 0.027409997 -0.022214077 -0.06791796
000010 29 27 f9 3d 3a ed 0b 3c df af 5a 3d 08 92 ec bb
       0.12165672 0.008540446 0.05339038 -0.0072195567
000020 69 ba ec bd 93 6f e3 bd 8a 9f 19 bd 77 a4 ae 3c
       -0.115589924 -0.111052655 -0.037505664 0.021318657
000030 92 c0 1a 3d 2b 6b 9b bd 72 c1 4f bd 8a 1d 93 3c
       0.037781306 -0.075888 -0.050721593 0.017958421
000040 33 a9 9f bd c6 69 52 bd ba c6 d8 bd 34 b4 9f bc
       -0.07795944 -0.051370405 -0.10584779 -0.019495107
000050 61 41 f2 bc 07 41 68 bd b7 f0 26 bd d3 30 6d 3c
       -0.02957219 -0.05670264 -0.040756907 0.014476973
000060 e0 f7 ea 3d 2d 3b fb bd e9 53 04 3d cf 23 b6 3d
       0.1147306 -0.12267146 0.032306585 0.08893549
000070 31 3f 8b 3d b6 65 5d 3d ee e7 e6 bd ca f4 6c bd
       0.06799162 0.054052077 -0.11274706 -0.057850637
000080 83 fd 22 bd 50 b6 b7 bd 8b 93 37 3d c1 c3 00 3d
       -0.03979255 -0.0897032 0.044818442 0.031436685
000090 bb 6f 11 3e 8d a6 f2 3c b7 21 c3 3d 93 58 8f bd
       0.14202778 0.029620433 0.09527915 -0.06999316
0000a0 94 11 71 bd 1d 56 76 bd b5 ee 7f bd 62 2e a4 3d
       -0.058854654 -0.060140718 -0.06248351 0.08016659
0000b0 0b 27 a6 3d e7 7c 08 3d 77 1d 82 3c 25 1c 27 3d
       0.081129156 0.03332224 0.01588319 0.040798325
0000c0 84 cc 10 3a 05 9e d9 3d 6f f7 bb 3c f3 7e f2 3c
       0.0005523639 0.10625843 0.022945134 0.02960155
0000d0 a7 f2 38 bd f7 fb db bc f9 ac a9 bc cc 56 42 bc
       -0.045153286 -0.026853545 -0.020712363 -0.011861514
0000e0 fa e6 8c bd 6e 0e 89 bc 1d ed 90 3d 6d 46 64 bd
       -0.06879993 -0.016730513 0.07076476 -0.055731226
0000f0 f1 b6 aa bc 36 5f bd bd 8b 2c a7 3d 50 e9 12 3c
       -0.020839186 -0.09246676 0.08162793 0.008966759
000100 a2 72 41 bd d8 42 45 bd e4 70 83 bd 35 ab 54 bd
       -0.047228463 -0.04815945 -0.064180166 -0.05192109
000110 7d 80 e2 b9 0d d8 90 bd 80 22 66 bb cf f2 ab 3c
       -0.0004320181 -0.070724584 -0.0035115778 0.020989804
000120 04 6e 37 3c 27 04 84 3d a3 2f f9 3b e8 10 ad bc
       0.011195663 0.064461045 0.0076045557 -0.021126226
000130 50 37 9c bc af 8d 7b bc ac e5 f8 bd ce 8d a2 bc
       -0.019069344 -0.015353604 -0.121531814 -0.019843008
000140 af 82 7a bd 8b 97 bb 3d 0a a7 ba bd 95 6f 0e bd
       -0.061159786 0.09159764 -0.091138914 -0.03477438
000150 9f 30 3e 3d 53 3a 88 bd d4 6d 59 3d b5 a0 a7 bc
       0.046433087 -0.066517495 0.053083256 -0.020462373
000160 a4 88 d0 bd e3 43 99 bc 1e cb 96 bc 68 77 cc 3b
       -0.10182312 -0.018709129 -0.0184074 0.0062398203
000170 1e 78 fd 3a 5c 70 10 3e 85 40 df 3d ee 5a 3d bd
       0.0019338166 0.14105362 0.10900978 -0.046229295
000180 7f a3 64 3d 05 ae f7 3b 3c 39 c3 bd 1c b6 48 3d
       0.055819985 0.0075585865 -0.09532401 0.049001798
000190 26 b3 d8 bc dc 17 ab bd 97 33 66 bc f8 2f 05 3d
       -0.026452612 -0.0835416 -0.014050386 0.03251645
0001a0 22 fd b8 3d ff 6f b4 3d e7 01 30 bc ab a7 ff bc
       0.09032656 0.08810424 -0.010742641 -0.03120788
0001b0 8d d4 79 bc 16 2d ad bd ce f2 c3 3d 59 90 97 3c
       -0.01524843 -0.08455865 0.09567796 0.018501448
0001c0 85 8b b2 3d 41 88 9b bb 46 9a 78 3d fd 0b b0 bd
       0.087180175 -0.0047464673 0.060694 -0.085960366
0001d0 27 cb 4e 3d 7f b8 49 3d 39 e6 47 bd 71 2a be 3d
       0.05048671 0.049248215 -0.04880354 0.09285439
0001e0 00 4e a2 bd e9 22 a4 3d a7 b3 8a bd 59 71 cb bd
       -0.079250336 0.08014471 -0.06772547 -0.09933729
0001f0 95 67 91 3d eb 5b 7a bb 3d fd 8d 3d 85 94 d1 bc
       0.07099835 -0.003820176 0.06933067 -0.025583515
000200 b1 54 ed ba a0 16 1a 3c 02 d8 1c 3d bd 5f ca bc
       -0.0018106905 0.009404808 0.03829194 -0.024703855
000210 98 bf d3 bd 3f 5b 83 bd fa ac 93 3d 2b 0d 49 bd
       -0.10339278 -0.06413888 0.07210727 -0.049084824
000220 b2 39 0a 3d 96 3c d5 3d c6 76 29 bd 33 ce 50 3c
       0.03374643 0.104119465 -0.041373037 0.012744474
000230 e9 28 68 bc 6c 40 ae bc 63 36 ca bc 64 5f 59 3c
       -0.01416991 -0.021270953 -0.024684137 0.013267372
000240 45 a0 9c bd 70 fc b3 3d 5b 2d 10 bb f5 23 1d 3c
       -0.076477565 0.08788383 -0.002199969 0.009591092
000250 dd 39 19 bd 8e a7 06 3d aa 79 cc 3c 9b b4 22 bd
       -0.0374087 0.032874636 0.024960358 -0.03972302
000260 f1 56 7f 3c 32 eb 98 3b 4b fe f8 3c 2b 7b 1a 3d
       0.015584693 0.0046667093 0.030394694 0.03771512
000270 bb a1 5f bd 53 e7 8a bc 1d 41 7d bd 77 90 b1 3c
       -0.054597598 -0.016956007 -0.061829675 0.021675332
000280 e6 72 da 3d 24 ac dc 3d b2 df a3 3c 54 07 cc bd
       0.106664464 0.10775021 0.020004127 -0.09962335
000290 01 b6 51 3d 14 11 28 3d ad f6 b7 3d 25 0b 85 3d
       0.051198963 0.041031912 0.089825965 0.06496266
0002a0 a2 02 57 3d eb 3f 93 3d 54 9b cf 3d da 9f 9d bd
       0.052492745 0.07189926 0.10137048 -0.07696505
0002b0 41 68 8d bc df 35 cb 3c 46 3b 56 3d 85 c3 c7 3c
       -0.017261626 0.024805961 0.05230262 0.024385223
0002c0 c3 a9 1b 3c 50 19 8c 3d e6 34 f7 bc ac 65 92 3d
       0.009500924 0.068407655 -0.030176591 0.071482986
0002d0 69 f7 83 3d a5 40 a5 3d 90 5d b6 bb 48 51 96 3d
       0.06443674 0.080689706 -0.0055653527 0.07339722
0002e0 12 b5 ea bb f0 ae 55 3d a9 53 22 bc e5 12 8f bb
       -0.0071626985 0.052168787 -0.009907641 -0.004366266
0002f0 65 6d 06 bd 87 4e 6f 3d 71 9b a3 3d 3d f6 6d bd
       -0.03281917 0.0584245 0.079886325 -0.05809616
000300 3d 96 72 bd 16 18 b9 bd a0 7a c1 3c f5 04 53 3d
       -0.05922531 -0.09037797 0.023618042 0.0515184
000310 38 c2 d4 3a 6a 7b 23 bc 0b 0a 8c 3d 3a 4c 68 bd
       0.0016232198 -0.009978155 0.06837853 -0.05671332
000320 7d af 38 bd 37 b7 0d 3d fe 12 dd bc 2e a6 b0 3c
       -0.045089234 0.034598555 -0.026986595 0.021563616
000330 4b 6c 08 3e ce 22 68 bd e4 f1 81 3c 25 29 b6 3d
       0.1332256 -0.056673817 0.015862413 0.088945664
000340 51 f9 0a 3c 73 c2 4b 3e 19 3b ec bd cf ca bb 3d
       0.008482293 0.19898395 -0.115347095 0.09169542
000350 d0 31 e0 3a ef ca 2f 3d 5f 4a 23 be f4 16 f9 bc
       0.0017104689 0.042918142 -0.15946339 -0.030406453
000360 4d c1 a2 3d 49 46 17 3d 3b b4 0a 3e 0a 74 dd bd
       0.079470254 0.036932264 0.13545315 -0.10813148
000370 99 5c 5d bc a7 57 55 bc 3e d1 af 3d 5d 56 6c bd
       -0.0135108465 -0.013021386 0.08584832 -0.05769955
000380 66 bd 1c bd 52 32 9f 3d a6 07 28 3e fd ad 1f 3d
       -0.038266562 0.0777327 0.16409168 0.038984288
000390 a8 8c e5 3c 64 08 11 3d db 76 15 3e cd 3b cf 3b
       0.028021172 0.035408393 0.14596121 0.0063242675
0003a0 5e 78 b1 3d ec 02 bc bb 50 71 df 3c 14 ab b0 3d
       0.08665536 -0.005737653 0.027275711 0.086263806
0003b0 15 37 58 bc 1d 07 2e bd 84 41 9b bd bc 6a b6 3d
       -0.013196726 -0.042487253 -0.075808555 0.08907077
0003c0 b8 45 3d be 37 ee 92 bd 40 9b 5c bd 95 00 d0 bc
       -0.18483627 -0.07174342 -0.053858995 -0.025390903
0003d0 e4 41 f1 bd 9e 15 fe 3d fa c0 80 bc 85 0f 47 bd
       -0.11780146 0.12406467 -0.015717018 -0.048598785
0003e0 15 99 b9 3b 95 cb cd bd 33 1f 27 be 38 1a 8b bd
       0.0056640008 -0.10048596 -0.16320495 -0.0679211
0003f0 ad de 13 be dc e5 73 3d 04 07 49 bc 50 e7 03 bd
       -0.14440413 0.059545383 -0.012269739 -0.03220302

net.0.bias_ih_l0 f4 [300]
000000 ae 22 bd 3c c3 8f 8e 3d a8 53 c7 bb fb 6a 22 3d
       0.023087826 0.06961014 -0.0060829706 0.039652806
000010 78 42 d7 ba 1c a3 06 bc c2 fa 19 3d fc bd 2e bd
       -0.0016423007 -0.008217599 0.037592657 -0.042661652
000020 b6 b6 63 bd b1 09 83 bc 18 a6 25 bb 60 d1 e5 bd
       -0.05559417 -0.015995832 -0.0025276002 -0.11221576
000030 c6 d2 a3 3d 94 88 95 3d 1d 6c c1 3c be 8a a3 bc
       0.07999186 0.07301441 0.023611123 -0.019963618
000040 6b ee 7b 3c 9b cf 57 3d f0 c1 d3 bd f2 49 b5 3d
       0.0153766675 0.052688222 -0.10339725 0.088519946
000050 52 63 df 3d 85 12 9e 3d d0 f6 d2 3c dc 76 0d 3d
       0.10907616 0.07718376 0.025752455 0.03453718
000060 56 ff a2 bd 41 1b 3f bd b8 bc 8f 3d 5b c6 9a 3d
       -0.07958858 -0.04665685 0.07018417 0.075573646
000070 f2 0e bd bd 3a 77 44 bc b9 b9 97 bd 2e 22 e6 bd
       -0.09231366 -0.011991316 -0.07408471 -0.11236988
000080 12 49 fa bd 59 92 06 bd ba 5d 92 3c af 10 09 bd
       -0.12220968 -0.03285441 0.017866958 -0.033463176
000090 1e 80 04 3d c7 4d 8f bd 22 b1 af bd 3f 60 c4 bd
       0.032348745 -0.06997257 -0.08578707 -0.0958867
0000a0 fc 2a c2 bd 3d b7 7f bd 97 9d 05 be a0 bd 76 bd
       -0.09480855 -0.06243061 -0.13048397 -0.060239434
0000b0 4e f4 b6 bd 1f d6 1f bd fd dd d7 bb b0 0d d6 bc
       -0.08933316 -0.03902256 -0.0065877424 -0.026129574
0000c0 b1 56 a5 bd 40 6a 5c bc ea 48 89 bd 30 41 23 bc
       -0.08073176 -0.013453066 -0.067033604 -0.009964272
0000d0 a1 66 3f 3c 20 00 44 3d d5 94 9a 3d 15 b1 80 bd
       0.0116821835 0.04785168 0.07547919 -0.06283776
0000e0 c3 d3 2b 3d ca ae f6 bd 47 1c 5f 3d 88 f3 73 3d
       0.04195 -0.12045057 0.054470327 0.05955842
0000f0 22 5f b4 3d 4b 66 59 bd d9 08 1a be 73 69 12 bc
       0.08807208 -0.05307607 -0.15042438 -0.008936274
000100 80 7a e4 bd 07 b3 70 bd 68 c7 c7 bd 62 f1 9e 3d
       -0.111561775 -0.058764484 -0.097548306 0.07760884
000110 13 0e 79 bd 13 4b fc 3c e7 ce 52 bd 5a b5 3e bc
       -0.060804438 0.030797517 -0.05146685 -0.011639917
000120 5f 53 8d bb 69 5e 1a 3d 86 4a c0 3d 6b 5e fb 3c
       -0.004312917 0.037687693 0.09389214 0.03068467
000130 05 cd 49 bc 98 52 8c 3d b3 7a a1 bd be bc e3 3c
       -0.012316947 0.06851691 -0.07884731 0.02779996
000140 ad af 41 bd b2 5f fd bc 25 54 17 3d 51 8e a1 3d
       -0.047286678 -0.03092942 0.03694548 0.07888473
000150 d4 66 d1 3c ab 76 ba bd dd bd c1 3d dc ad 49 bc
       0.025561728 -0.09104665 0.09460042 -0.012309518
000160 80 2d 83 3c 32 83 26 bd c8 5a c5 bd cd 90 22 be
       0.016012907 -0.04065246 -0.09636456 -0.1587555
000170 bb 3c 3b 3d b2 47 68 bd fd 82 0c 3c 22 66 d0 3d
       0.045712214 -0.056709 0.008576152 0.1017573
000180 24 ad 83 bd 38 c0 f7 bb 11 73 db 3d e1 38 ba bd
       -0.06429508 -0.007560756 0.107153066 -0.0909288
000190 58 5d c6 bb 96 93 42 be 30 b0 03 3e 1a 68 3e be
       -0.006053608 -0.19001612 0.12860179 -0.18594399
0001a0 84 41 8d bd 37 54 4b be d8 34 3f 3e e1 4c 9b 3d
       -0.06897262 -0.19856344 0.18672502 0.07583023
0001b0 1f f5 93 3c 33 82 c7 3c fa 45 5f 3c c9 4e d9 bd
       0.018061219 0.024354076 0.013627524 -0.1061073
0001c0 ec 1d 1f 3c ad 73 82 3e 97 33 17 be 4d 30 32 3e
       0.009711724 0.2547888 -0.14765774 0.17401238
0001d0 71 89 1c 3e d1 3f cf 3d 37 66 bf bd 3c e8 cb 3b
       0.15286805 0.10119594 -0.09345668 0.006222753
0001e0 ce 73 27 3e fc 38 8c bd cd ac 5c 3d 70 fb 68 be
       0.1635277 -0.068468064 0.053875733 -0.22752166
0001f0 4a 83 3c bd a2 9b fe 3d ca c2 58 3e 0c c3 be 3d
       -0.046023645 0.12432028 0.21168056 0.09314546
000200 1f d3 5b bd 16 f0 71 3d 2c d4 e9 3d dd 8d 15 bd
       -0.053668138 0.059066854 0.11417422 -0.036512244
000210 75 da 43 3d 8a ba 9d bc 26 9c da 3c 33 e3 62 3e
       0.04781576 -0.019253988 0.026685786 0.22156982
000220 4d b9 79 3e 8f a0 b3 bd 49 c5 77 3d 95 75 ae bd
       0.24387093 -0.087708585 0.06049088 -0.08518521
000230 d1 29 7a bd d4 81 32 be 6f 0a b7 bd 65 b8 a0 bd
       -0.061075035 -0.17432338 -0.08937537 -0.078476705
000240 cf 30 d4 bd 5f 6d 66 3d d7 83 4b 3e 58 9f 45 bd
       -0.10360872 0.05625665 0.19874512 -0.048247665
000250 d3 60 1d 3d 98 3f c6 3a 35 e7 18 be 9e 72 45 3e
       0.038422417 0.0015125154 -0.14931948 0.19282004
000260 56 d8 cb bc b3 4d 0a bd b0 2b bc 3c 57 f8 3e 3d
       -0.02488343 -0.033765506 0.02297005 0.046623554
000270 b4 c3 37 be e6 e7 51 3d 37 53 79 bd 55 ab fe bd
       -0.17945749 0.051246546 -0.060870375 -0.12435023
000280 1d 21 e6 3e 65 89 05 3e 68 a8 56 bd 20 bf b3 bd
       0.44947138 0.13040693 -0.0524067 -0.087766886
000290 45 17 42 bc 32 40 a9 bc 39 0c 02 3d 86 d4 10 3c
       -0.011846368 -0.020660494 0.031749938 0.008839732
0002a0 24 39 53 3e 0c 5b 13 3d 51 fe 2d 3e 60 87 73 be
       0.20627266 0.0359755 0.16991545 -0.2378211
0002b0 4c 36 51 3d 5c 06 80 3d 82 d2 4b 3e d8 b5 f4 bd
       0.051077172 0.06251213 0.19904521 -0.119487464
0002c0 d5 8a 8e 3d fd 06 2e be c7 00 46 bd fe be 85 bc
       0.06960074 -0.16994853 -0.048340585 -0.016326424
0002d0 c8 41 91 3d 4b e0 c3 bc e4 90 70 3e 73 1d fc 3d
       0.07092625 -0.023910662 0.23492771 0.123103045
0002e0 c6 62 c2 bd 7f 9e 7b bd 9b cf b8 bd a4 f3 bd 3d
       -0.09491496 -0.06143045 -0.090239726 0.092749864
0002f0 e1 85 15 be 1e 51 28 be aa 42 7e 3e b3 d1 69 be
       -0.14601852 -0.16437194 0.24830118 -0.228339
000300 d4 19 24 bd c4 2d 6e 3d ed 41 90 bd ea 2c 8c bd
       -0.040063694 0.058149114 -0.07043824 -0.06844504
000310 38 1e 6a 3e f5 ad c3 3c 58 dd ed bc 0d 29 2f 3d
       0.2286309 0.02388666 -0.029036209 0.04276376
000320 26 d8 ec 3c b9 c6 ca bd e4 e6 4b bd da 3f 35 3b
       0.028911661 -0.099011846 -0.04978074 0.0027656467
000330 cb e7 e0 bd 5a ee 43 bd 84 17 80 bb 2e f1 63 3d
       -0.10981711 -0.04783473 -0.0039090533 0.05564993
000340 3e 0a 4c 3d be fe e6 3c 29 ba 13 bc 75 10 df bd
       0.049814455 0.028197642 -0.009016552 -0.10891811
000350 18 b3 6f bd ec e0 8f 3d 47 aa df 3d 51 12 60 bb
       -0.058520406 0.07025322 0.1092115 -0.0034190605
000360 94 d5 82 bd 13 7c ba bd 07 d9 9b bd dc 07 9e bc
       -0.06388393 -0.091056965 -0.07609754 -0.019290857
000370 25 43 a4 3d ea 14 a9 bd 0c 66 54 3b 85 c7 71 3d
       0.08020619 -0.08255942 0.0032409457 0.059028167
000380 3a bc 18 3c a7 ad 37 3d 23 64 06 3d ed fa c5 3c
       0.00932222 0.044843342 0.03281034 0.024167502
000390 cc e8 25 bd b0 d0 5c 3d 49 0f 35 3d a2 92 df bd
       -0.040505216 0.053909957 0.04420403 -0.1091664
0003a0 2a b6 f2 bb ab aa d6 bd 0e 00 81 3b 30 ea 83 ba
       -0.0074069696 -0.10481771 0.003936774 -0.00100643
0003b0 56 c1 3c bd cb 91 b0 3c aa cc ba 3c b8 d8 ec bc
       -0.046082817 0.021553895 0.02280267 -0.028911933
0003c0 d1 94 30 3d d3 b4 5e 3d 10 18 da 3c fe 88 33 3d
       0.043110672 0.054371666 0.026622802 0.043831818
0003d0 90 d6 8a bd 2f 12 72 bd ce 80 5d bd b3 2a 8c 3c
       -0.06779206 -0.059099372 -0.054077916 0.017110204
0003e0 4c f7 22 bd 72 07 14 3d c2 33 ba bc dc f2 43 3c
       -0.039786622 0.036139913 -0.022729758 0.011959758
0003f0 da 79 80 3d 45 17 42 3d 2d 0d 0b ba b5 18 2f bd
       0.06273241 0.047385473 -0.00053043925 -0.04274817

net.0.bias_hh_l0 f4 [300]
000000 f5 ac ef bd 5a d7 9e 3d 59 14 93 bc 5e 06 0d bc
       -0.11702911 0.07755919 -0.017954038 -0.008607475
000010 92 f1 ce bd a6 bf 16 bd af ca 8a bd 03 4e bc 3b
       -0.1010467 -0.036803864 -0.0677694 0.0057466044
000020 37 64 92 3d a9 c4 d1 3d a3 03 06 be 42 5e a2 bc
       0.07148021 0.10242588 -0.13087325 -0.019820336
000030 4e 29 86 ba f5 e2 26 3b c3 33 e2 bb 09 0c 98 bc
       -0.0010235698 0.0025464867 -0.006903143 -0.018560426
000040 27 be 17 bd ab 02 83 3d 0f 68 26 bd 65 63 16 3d
       -0.037046578 0.06396993 -0.04062658 0.036715884
000050 42 2a 16 3d 0f 12 cd bd 22 81 97 3c cb aa 3c 3c
       0.036661394 -0.1001321 0.018494193 0.01151533
000060 d7 64 05 be 01 fc 82 bd 30 4c bf bb 4c 01 99 bd
       -0.13026749 -0.06395722 -0.0058379397 -0.074709505
000070 47 6b 95 bd c4 9f 38 3d 47 fd 8f bd a1 26 59 bd
       -0.07295852 0.04507424 -0.07030731 -0.053015355
000080 ad f4 ca bd 21 be 1e 3d 30 49 36 bd 12 c6 42 bc
       -0.099099495 0.03875554 -0.04450339 -0.011888044
000090 00 9b 1b 3d e8 3d 93 3d 69 c7 fc bc 57 9f 12 bd
       0.037989616 0.07189542 -0.030856805 -0.03579649
0000a0 61 77 79 bd 4b 0f a1 3d 0c 1a 29 be 3c dd 0e 3d
       -0.060904864 0.07864245 -0.16513842 0.034878954
0000b0 0f ad 21 3d 19 d8 22 bd f0 76 b2 3d 00 75 d3 b6
       0.039471682 -0.039756868 0.08714092 -6.3019106e-06
0000c0 d2 5f 99 3d 21 6e 9f 3c 9d c9 6b 3d b0 28 c7 bd
       0.074889794 0.019461693 0.05756532 -0.097245574
0000d0 fa 73 c8 bd 0b e6 cc bd b2 ff 4f bd 34 ac a0 bd
       -0.09787746 -0.10004815 -0.05078096 -0.07845345
0000e0 4f d3 73 bd 20 f2 03 be 79 f7 87 3d f9 f6 ab 3d
       -0.05952769 -0.12885332 0.066389985 0.08396716
0000f0 b4 0b 92 bd 99 28 06 be 2c fd 28 be 6e d3 9f 3c
       -0.071311384 -0.13101424 -0.16502827 0.019509997
000100 e8 77 7d bd 99 9b 46 bd 9d 8b 03 3d a5 52 8b bd
       -0.06188193 -0.048488233 0.032115567 -0.068028726
000110 83 b9 30 bd 6d 8d ae bd 50 4b 81 bd 77 52 36 bd
       -0.043145668 -0.085230686 -0.06313193 -0.04451224
000120 d5 e0 20 bd 55 e8 b5 bd 8b 2b 98 3d 17 8e 69 bd
       -0.039276917 -0.088822044 0.0743018 -0.057020273
000130 d5 8e 65 3d 5e b4 4e bc ef d8 b7 bd 13 78 6e bd
       0.05604442 -0.012616245 -0.08976924 -0.05821998
000140 43 50 5b bd 13 51 b2 3d 0e 3f 0a bd 22 d6 6f 3d
       -0.05354334 0.0870687 -0.03375154 0.058553822
000150 58 ac 58 3d d1 d8 ef bd 8a be 03 3d 0a c3 37 3d
       0.052898735 -0.11711276 0.032164134 0.044863738
000160 a8 a4 18 3d 70 1b 95 3d 7c b7 83 3d dc 01 7e bd
       0.037266403 0.07280624 0.06431481 -0.062013492
000170 c7 d9 a0 3d a5 d9 b8 bd e0 ec f4 bc 85 cb 6d 3c
       0.07854038 -0.090258874 -0.029898107 0.014513855
000180 fe 59 ee bc e4 25 38 bc ec 16 95 3b 31 8d f4 3c
       -0.029095646 -0.011239503 0.0045498516 0.029852482
000190 37 7b 8c bd f5 c5 5e be 2a 64 69 3e 89 78 64 bd
       -0.06859439 -0.21755202 0.22792116 -0.055779014
0001a0 a4 f1 44 bd 32 71 33 be 4b 4e 3e 3e 4c 54 0d 3e
       -0.04808201 -0.1752365 0.18584554 0.13801688
0001b0 1e 2a 99 3d 9a 65 2f bd 46 db d3 bd a0 cd d5 bd
       0.07478736 -0.042821504 -0.103445575 -0.104396105
0001c0 c4 08 88 bd 4a de 83 3e f3 0f 3d be 35 34 c1 3d
       -0.06642297 0.2575553 -0.18463115 0.09433786
0001d0 ec 46 9c 3d ca 9c 3b 3e 85 e0 bd bd 91 35 33 3d
       0.07630715 0.18321529 -0.09271339 0.043752257
0001e0 4e 54 a8 3d 4e a8 73 3d 6b 69 b5 3c ca 64 9b bd
       0.08219205 0.05948668 0.022144994 -0.07587583
0001f0 55 c7 a5 3d 5e 4c 43 3b ff 7a 6b 3d 6e be 8c 3d
       0.0809466 0.0029800157 0.057490345 0.06872259
000200 b1 bc 14 bd 9d 11 05 bd 90 50 00 3e c3 7b 7c bc
       -0.036312763 -0.0324875 0.12530732 -0.0154103665
000210 e8 d2 4b 3d 9e 06 85 3d b3 0c 0c 3e 7e 9e af 3d
       0.049761683 0.06495403 0.1367672 0.08575152
000220 02 93 58 3e e7 d5 68 bd 0c e0 d0 3d 8f 73 a0 bc
       0.21149829 -0.05684462 0.101989836 -0.019586353
000230 b5 80 37 be c3 09 ab bd 2a 98 1f be 7d 12 21 bd
       -0.17920192 -0.08351471 -0.1558539 -0.039324272
000240 fa c6 b8 3c 8b 62 1c 3e e8 0d 94 3e bc f3 c2 bd
       0.022555817 0.15271966 0.2891686 -0.09519145
000250 39 de f5 bc 57 5a 46 bd 52 e1 13 be e0 10 c8 3d
       -0.03001319 -0.048426 -0.14441422 0.09768844
000260 26 c3 ad bb 1b 71 8c 3a 14 69 38 3d 82 bc 9c 3c
       -0.0053028045 0.001071486 0.045022085 0.019132856
000270 c1 4a 08 be dc 28 0b 3c 34 6c d3 bd be 5a 19 bd
       -0.13309766 0.008493628 -0.103233725 -0.037440054
000280 bf 43 c4 3e d3 57 24 3e 66 dc 87 bd c7 a1 37 bd
       0.38332936 0.16049127 -0.066338345 -0.044832017
000290 51 91 a6 bd c7 d3 e8 bd 8b 6f 08 bd ad a2 1a 3d
       -0.08133186 -0.11368518 -0.0333095 0.037752796
0002a0 b4 3f 9a 3d b6 57 b0 3d 7b ea 26 3d a7 ae 63 be
       0.07531682 0.086104795 0.04075096 -0.22234593
0002b0 00 82 69 3a 03 da 18 3e 37 c1 e1 3d 70 42 d3 bd
       0.0008907616 0.14926915 0.11023181 -0.10315406
0002c0 c8 3e a1 3d 01 5d 8d bd 14 c6 80 bc f2 57 7f bc
       0.07873303 -0.06902505 -0.015719451 -0.015584933
0002d0 cf 17 f3 3d 85 47 4c 3d 63 6e 3c 3e 99 eb 0e 3e
       0.118697755 0.049872894 0.18401484 0.13957061
0002e0 3f 58 01 3d 66 07 31 be fa 4c 50 be f2 77 b1 bc
       0.0315783 -0.17287979 -0.20341864 -0.02166364
0002f0 76 37 17 bd 56 98 30 be 08 45 1e 3e f1 83 58 be
       -0.036918126 -0.17245612 0.15456021 -0.21144082
000300 72 52 9e bd b7 51 02 bd 94 09 fb bd 84 d1 13 bd
       -0.07730569 -0.03181621 -0.12257686 -0.03608848
000310 7b 57 17 3e ba 70 f6 3c b6 c0 7d 3b 29 ce 0a 3e
       0.14779465 0.03008305 0.00387196 0.13555206
000320 6c 20 69 3c 88 fc 76 3d 3d ce c6 bc 8a 07 f7 3b
       0.014228921 0.060299426 -0.024268264 0.0075387405
000330 b8 b2 2c 3d c2 50 81 bd a8 b1 66 3d 39 c6 79 3c
       0.042162627 -0.063142315 0.05632177 0.015245014
000340 05 31 d2 3d 16 87 d5 bd 11 ed 28 bd b0 f9 23 3d
       0.10263256 -0.10426156 -0.04124171 0.040033042
000350 6d 13 b2 bd dd e8 c5 bd c1 ea 9e bd 22 8a 18 3d
       -0.086951114 -0.09663556 -0.077596195 0.03724111
000360 a2 d8 93 3d 3e 30 0f 3c 1a 04 6a 3d 23 6d ad bd
       0.07219054 0.008739529 0.057132818 -0.08468082
000370 c9 b6 8a bd 48 de 95 bd 5b 26 12 3d fb db d3 3b
       -0.06773145 -0.073177874 0.03568111 0.0064654327
000380 b2 1e 0c bc 7f 65 72 bd 48 15 a7 bd 50 71 ff bb
       -0.00855224 -0.059178825 -0.08158356 -0.0077954903
000390 cc d9 61 3c 53 64 1b 3d d5 cd 5e bd a7 c2 99 3d
       0.013784837 0.037937474 -0.054395515 0.0750783
0003a0 ee 3f 97 bb 31 04 71 bc 45 80 65 bd e8 46 c9 bc
       -0.0046157753 -0.014710472 -0.05603053 -0.024569944
0003b0 70 0b af bc 7e 4d 02 bd 52 fa ff bc a8 74 3a 3d
       -0.021367759 -0.031812184 -0.031247292 0.04552141
0003c0 b5 26 43 3d 82 40 35 bd 8e e0 33 bd 91 89 94 bd
       0.047644336 -0.044250973 -0.043915324 -0.07252801
0003d0 98 f5 17 3b 46 08 ba 3d 9a ce 64 bd e2 c7 98 3d
       0.0023187157 0.09083609 -0.055861093 0.074599996
0003e0 af 8d f0 bc a6 e8 8a 3d 1e a5 92 3d ac b1 20 bc
       -0.029364435 0.067826554 0.071604 -0.009807985
0003f0 3c e6 5d bd 1f d8 9f 3d 75 28 a4 3c aa c5 4c bd
       -0.054174647 0.07804894 0.020038823 -0.049993195

net.0.weight_ih_l1 f4 [300, 100]
000000 24 2f a3 bd 49 b9 11 bd 0b 57 54 3d 01 76 08 3e
       -0.07967976 -0.035577092 0.051840823 0.13326265
000010 c0 34 33 3d d7 00 ec 3d f0 f8 a1 bc f8 5c 57 bd
       0.04375148 0.11523598 -0.019772023 -0.052578896
000020 5f 68 85 bb 9c 56 f3 3d 07 3b 43 3d e8 7a d0 bb
       -0.00407128 0.11881754 0.047663715 -0.006362308
000030 f7 c2 5c 3d 73 a4 22 3d 7b 3e a4 bd e3 47 f7 bd
       0.05389687 0.039707612 -0.0801973 -0.12074258
000040 85 4c 67 bc 15 9c 89 bd de 25 8c 3c c8 59 02 3e
       -0.014117365 -0.067192234 0.0171079 0.12729561
000050 37 4a cf bd 12 df 84 3d 5e 21 08 3e c5 03 05 be
       -0.10121577 0.0648786 0.13293979 -0.12989719
000060 b4 b6 d6 bd 7c 6c 27 3d 1e aa 56 3d 0a 6f 8d bd
       -0.104840666 0.040874943 0.05240833 -0.06905945
000070 f2 71 0d bc c1 34 5e 3c 14 0a b6 bd d6 2b 7a bd
       -0.008633124 0.013562382 -0.08888641 -0.06107696
000080 67 9d 83 bd f8 04 bf 3d 7b 5e a1 bc 0f 09 de 3d
       -0.064265065 0.093271196 -0.019698372 0.108415715
000090 cb d3 03 bd d6 82 91 bb 64 81 a0 3d b7 59 3b bd
       -0.032184403 -0.0044406457 0.07837179 -0.045739856
0000a0 03 ad 74 bc 97 4e 8e 3c 9d b3 ff bc d2 69 cb 3d
       -0.014933827 0.017371459 -0.031213576 0.09932293
0000b0 1b 51 2b bc 04 b9 83 bd ff 25 12 bc 74 62 17 be
       -0.010456349 -0.06431773 -0.008920192 -0.1478365
0000c0 db b4 95 bd 31 ac ac 3d 71 d3 f4 bd 63 b4 b4 3d
       -0.07309886 0.084312804 -0.11954392 0.088234685
0000d0 0b f3 d2 bd bb 84 8a bc 2b bb c1 3d 3e 28 6d bd
       -0.10300263 -0.016908994 0.094595276 -0.057899706
0000e0 4a 8c 54 be 72 8c 42 3c 86 c0 b7 bd 05 8a 8c bc
       -0.20756641 0.011874305 -0.08972268 -0.017155657
0000f0 48 40 96 3c ad fe 57 3c f1 59 f5 bd 6a 75 1c be
       0.018341199 0.013183278 -0.119800456 -0.15279165
000100 73 9a c9 3c 32 ab 40 3d cf e0 8f 3d 16 77 7f bd
       0.02460978 0.047038265 0.07025301 -0.06236943
000110 93 69 8a bd 2b 6d 7a 3b 3f 73 01 be 1c c9 e4 3d
       -0.06758418 0.0038212042 -0.12641619 0.11171171
000120 3e 28 18 bc 9d 93 72 3b dd 16 dd 3c 02 7a e2 bd
       -0.009286938 0.0037014254 0.026988441 -0.110584274
000130 a3 47 99 ba ab e8 4c 3e bf 3b 24 3e 64 5d a5 bc
       -0.0011694323 0.20010631 0.16038416 -0.020186134
000140 f2 b2 e1 bc ac df 21 be bd cd 89 3d 31 01 11 3e
       -0.027551148 -0.1580798 0.067286946 0.1416061
000150 9b 3e 0f 3c 53 bb f2 bd b6 b7 07 3b 44 d3 bc 3d
       0.008742954 -0.118521355 0.0020708865 0.09219983
000160 0e 0b 23 3e d9 d9 72 bd 3d 63 64 3d ba 4e 82 3d
       0.15922186 -0.059289787 0.055758704 0.06362672
000170 75 64 92 bd 95 b8 92 3b 95 f1 a9 bc f8 5f 1a 3d
       -0.07148067 0.0044775703 -0.020745078 0.03768918
000180 9e 01 49 be 61 7c a4 bd 78 ff 4b 3d 97 7f b3 bd
       -0.19629523 -0.08031536 0.04980418 -0.0876457
000190 71 e1 3a bd 42 c1 d8 3d 65 be f8 bc 46 98 7d 3c
       -0.045625154 0.10583736 -0.030364225 0.015478199
0001a0 b0 1a f3 3d 58 a2 cb 3d 8f 15 01 3d 56 f4 b4 bd
       0.118703246 0.09943074 0.0315147 -0.08835666
0001b0 85 a3 a4 bd 10 eb d9 bc 2e 42 9f bc ca 7a 4f 3d
       -0.080390014 -0.026601344 -0.019440737 0.05065421
0001c0 3f 1b c0 bb 86 dd 54 bd 2b 2b f8 bd 84 c9 fa bc
       -0.005862623 -0.051969074 -0.12117609 -0.030613668
0001d0 49 f2 b0 3d 5d e3 18 bd 5c 4e aa 3d 7f c0 b0 3d
       0.08639962 -0.037326206 0.08315727 0.08630466
0001e0 33 27 37 bc a3 88 e0 bc 98 ad d9 bc 77 87 73 3c
       -0.011178779 -0.027408903 -0.026572034 0.01486384
0001f0 63 13 82 bd a8 54 85 3c d6 94 04 be 2b d3 a3 3d
       -0.06351354 0.016275719 -0.12947401 0.079992615
000200 0b 8b a1 3d f5 4f bc bd 7c 06 1a 3d 15 08 8d 3d
       0.078878485 -0.09194938 0.03760384 0.06886307
000210 5e 73 5a bd a1 44 ea 3c a8 39 01 3d ec 7e 8f bd
       -0.05333268 0.028597178 0.031549126 -0.0700663
000220 c7 ed ca 3d 24 d3 a4 bc d4 0d 9c bd 48 df 1f bd
       0.09908634 -0.020120211 -0.07619825 -0.039031297
000230 ee 99 cf bd ab 49 56 3d a1 30 a5 bd 93 e1 98 3d
       -0.10136782 0.05231635 -0.08065916 0.074649
000240 14 10 65 3c e9 9d 8b 3d d0 ac f6 bc 1d 6a 35 bc
       0.013980884 0.06817228 -0.0301117 -0.011072663
000250 4f 8a 84 3d 7c 93 9a 3d c2 9a 3c bd 96 82 77 3d
       0.06471693 0.07547662 -0.046046026 0.06042727
000260 94 a0 07 3d 36 09 72 bd 7a 37 c8 bd 2f e5 44 3d
       0.033112124 -0.059090815 -0.09776206 0.04807013
000270 13 07 bb 3b a7 5f 00 bd da 06 bc bd eb 9d 77 bc
       0.0057076304 -0.03134122 -0.09180994 -0.015113334
000280 b5 27 dd bd 8a 43 bf bd f9 14 b1 3d 31 a4 5c bd
       -0.10798589 -0.09339054 0.08646578 -0.053867523
000290 97 92 d1 bc c2 a8 22 3d 93 fc 72 3d 62 29 17 3e
       -0.025582595 0.03971172 0.059322905 0.1476188
0002a0 3c f3 3c bd 69 db 35 bc 2c 13 36 3d 59 6c a5 bc
       -0.046130404 -0.011099675 0.044451877 -0.020193266
0002b0 79 9e f6 bb 61 3d aa 3d a7 c0 af bb ec 59 8b bd
       -0.0075262156 0.08312488 -0.005363542 -0.068042606
0002c0 ab 27 88 3d 5b 6d 0d 3c c6 4d 1e 3a c9 76 02 bd
       0.06648191 0.008632029 0.0006038811 -0.031851564
0002d0 0b 80 17 3d da 38 b1 bc ef 14 d9 bc cc c3 61 bd
       0.036987346 -0.021633554 -0.02649924 -0.055118367
0002e0 c8 7a 13 bd da b9 5c 3d e6 ff cc 3d b2 37 f0 3c
       -0.036005765 0.05388818 0.10009746 0.029323433
0002f0 bc 7e cd 3c 5b cb b3 bd da c5 9e bd 36 34 b4 bd
       0.025084846 -0.08779021 -0.07752581 -0.08799021
000300 f6 2e 50 3c de 19 7c bd bc 96 1b 3c d2 cf b0 3d
       0.012706509 -0.061548106 0.009496387 0.086333886
000310 fa b0 71 3d e3 63 58 bd a2 7f 0e be ef 02 3f 3d
       0.05900667 -0.052829634 -0.13915876 0.046633657
000320 71 13 4c 3d da 62 43 bc c7 15 3d 3c 5e 50 de 3d
       0.04982323 -0.0119254235 0.011540837 0.108551726
000330 82 2b 1c 3e f0 1f 01 bc b2 dd 0f bd 17 17 86 bd
       0.15250972 -0.00788115 -0.035123535 -0.06547373
000340 2f c8 a9 bc 66 2b bd bd 3f 06 89 3d 71 ba 4e 3d
       -0.020725338 -0.09236793 0.066906445 0.050470773
000350 ac f8 ab 3d aa 4a e6 b8 1d 2b 86 bd 5f 2c 37 bd
       0.0839704 -0.00010981162 -0.06551192 -0.04472005
000360 93 1c 7c bd ff 45 e8 bb 5c b6 8b 3d 87 e0 c2 3d
       -0.061550688 -0.0070884223 0.06821892 0.095154814
000370 84 15 90 3c fb f1 e6 3c ef 9b 7c 3d 59 27 b3 3d
       0.017588384 0.028191557 0.061672147 0.08747739
000380 3f 7c 79 3b ca 9a 41 bd 05 de 2c bd 3f 7b f3 3c
       0.0038068441 -0.04726676 -0.04220392 0.029721854
000390 7b 6f b2 bd ab 54 98 bd 81 5a 84 bd ae bb 12 3e
       -0.087126695 -0.07438024 -0.06462575 0.14329407
0003a0 bf ef b9 bc 67 21 99 3d f6 89 29 3d 01 8f ee 3c
       -0.022697328 0.07477074 0.041391335 0.029120924
0003b0 74 e0 9a 3d e7 b9 91 bd ea 65 2a bd 71 4e a3 3d
       0.07562342 -0.07115536 -0.0416011 0.07973946
0003c0 90 8f 6d bc 99 0b aa 3d e4 4c 31 3c 0e 37 b9 3c
       -0.01449956 0.08302993 0.010821555 0.02260926
0003d0 6c 19 c9 3d 26 4a 4a 3d 7d 88 9c 3c d8 38 de bc
       0.09819302 0.04938712 0.019108051 -0.027126715
0003e0 b2 93 22 bd 8e 41 91 3c 37 5a 96 3d 87 e3 f6 3d
       -0.039691634 0.017731454 0.07341426 0.12055116
0003f0 ce 43 ce bd 65 c5 02 bc 1a 07 e8 bd ed 47 96 bc
       -0.100715265 -0.007981633 -0.113294795 -0.018344844

net.0.weight_hh_l1 f4 [300, 100]
000000 c9 08 1a 3c cc b1 a0 bd f7 7b a5 3d a0 a1 19 bc
       0.009401509 -0.07846412 0.08080285 -0.009376913
000010 d2 e3 3b 3d 40 49 08 be a6 f3 9b bd b7 1d 85 bc
       0.045871563 -0.13309193 -0.076148316 -0.01624952
000020 18 71 52 3d 88 f3 ad bc 0e 8f 64 bd 8a ec 6e 3d
       0.051377386 -0.021234289 -0.05580049 0.05833105
000030 f3 65 91 3d 93 34 21 3d f5 77 a8 3d e4 be 78 3d
       0.070995234 0.03935678 0.08226005 0.060728922
000040 17 83 3a 3e 59 c7 8d bd 31 81 89 bc ea a5 3a bc
       0.1821407 -0.06922788 -0.016785236 -0.011392096
000050 e0 38 bc 3b 77 e0 ad 3d eb 52 9b 3d 42 cb 26 bd
       0.0057440847 0.08490079 0.07584175 -0.040721186
000060 5c ad 93 3d 68 1e f8 bd 02 94 45 bd 93 df e1 bc
       0.072108 -0.121151745 -0.048236854 -0.027572429
000070 c1 9d c0 3d 90 11 8f 3d 07 e4 a7 3d 53 10 a1 3c
       0.09405089 0.06985772 0.0819779 0.019661104
000080 7e 39 83 3e 8d 2b c7 bd 2b e4 80 3c c2 26 ca 3c
       0.256298 -0.097251035 0.015733799 0.024676684
000090 c0 bd 25 3d 86 c4 cb 3b d7 79 f1 bc 06 8e 03 bd
       0.040464163 0.006218496 -0.029477043 -0.032117866
0000a0 50 ae a3 ba 8b 40 90 bc 88 6d 01 3e 18 7f 49 bc
       -0.0012487862 -0.017608901 0.12639439 -0.012298368
0000b0 8e 2e 38 bc 37 1e e4 3c 1c 66 3d 3c 89 bb 0c bc
       -0.011241568 0.027846439 0.011559989 -0.008589634
0000c0 66 f4 ed bd a5 48 90 bd 49 1d 16 3e 3e 60 86 3d
       -0.11618881 -0.07045106 0.14659609 0.065613255
0000d0 13 40 15 3e c9 d4 3f 3d bf f5 c0 3d e4 49 c3 3c
       0.14575224 0.046833787 0.09421872 0.023838945
0000e0 69 04 f4 bd 0b 05 10 be 3f a4 88 3d 37 4f c2 bd
       -0.11914904 -0.14064424 0.066719525 -0.09487765
0000f0 01 75 41 3c ba 5f 52 3d 94 be 6d 3d eb 12 02 be
       0.011807681 0.051360823 0.058043078 -0.12702529
000100 86 99 37 be 5f 77 bd bb 25 bf 54 bd a1 1c aa bc
       -0.17929658 -0.0057820524 -0.051940102 -0.020765604
000110 32 91 a6 3d 29 02 94 3d cb 0c af 3d 98 f3 04 3d
       0.081331626 0.072269745 0.08547362 0.03245887
000120 48 79 f6 3c da 2d c0 bb f1 ad 74 3c 94 cf 71 3d
       0.030087128 -0.005864841 0.014934049 0.059035853
000130 ac fc bf bd 49 55 a1 3d cc ab 7f bc 59 ba 3e bc
       -0.09374365 0.07877595 -0.015604924 -0.011641108
000140 0d 94 b9 3c 43 4b cb 3d e1 7f 4e be 46 f4 4b 3d
       0.022653604 0.099264644 -0.2016597 0.049793504
000150 8d 4b 59 3c 44 2b 33 be a8 ef f7 3c 01 2d ee bd
       0.013262642 -0.17496973 0.030265644 -0.116296776
000160 45 ce d4 3d 7e 2a 9a bb 9c 62 a9 3d 0f d7 47 bd
       0.10390905 -0.0047047725 0.08270761 -0.04878908
000170 06 6a bb 3d 2e fe e7 3d 0b 5e 5c 3d 64 7d b5 bd
       0.09151082 0.11327778 0.053800624 -0.08861807
000180 99 a1 9d bd a3 7b c8 bb 2f 5d 5f 3c 4c 9f 03 3e
       -0.07696838 -0.0061182543 0.013633057 0.12853736
000190 f7 f1 12 bd f9 c6 c2 3b ec 5f 5d 3c 92 6b 67 bd
       -0.035875287 0.0059441295 0.013511639 -0.05649907
0001a0 41 8e 36 bd 6e ca a6 3d c7 93 cb bd 1a de be 3d
       -0.044569258 0.08144079 -0.09940296 0.09319706
0001b0 f6 fa 02 bd 23 b9 ed 3c f1 16 98 3d ad 4e 2e bd
       -0.031977616 0.029018944 0.07426251 -0.0425555
0001c0 99 bf 66 3d 7f 01 d6 3c 08 d5 d0 3c 0f 2e bc bd
       0.056335066 0.02612376 0.025492206 -0.091884725
0001d0 7b 93 b1 3b e8 06 8b 3d d2 8b 90 3d 27 de 18 bd
       0.0054191924 0.06788427 0.070579186 -0.037321236
0001e0 70 79 94 bc 02 6e ad bd bf 2c c0 bd 2e e8 18 3c
       -0.018124312 -0.08468248 -0.09383535 0.0093327
0001f0 de 4e c1 3d 9d 98 95 3d dc 6e 2d 3a 6c 01 22 3d
       0.09438871 0.07304499 0.00066159456 0.039552137
000200 ea ab 1b 3d 59 cd cd 3c 62 48 58 3c b7 b6 52 bd
       0.038005747 0.025122331 0.013200851 -0.05144378
000210 0e 79 99 3d 92 22 2d 3d ff 32 8d 3c d8 85 25 3d
       0.074937925 0.042269297 0.01723623 0.040410846
000220 ac de e2 bd 91 31 52 3d 31 95 87 3d 17 02 8f 3d
       -0.110776275 0.0513168 0.06620253 0.069828205
000230 b7 cf ae 3d 6a 62 aa bd 36 50 0c bd 0c 0e d6 3c
       0.08535712 -0.08319552 -0.034256183 0.026129745
000240 4f 46 3f 3d d9 63 f4 3d 62 a4 db 3b 02 a5 7e 3d
       0.04669791 0.11933107 0.0067029456 0.062169082
000250 15 14 bc bd 8f 94 37 3d 99 b5 1d 3b 06 a1 f3 3d
       -0.09183518 0.04481941 0.002406454 0.11895947
000260 3f 2c 2d bd 10 e4 64 bd a2 4a 37 bc 14 e6 82 3d
       -0.042278524 -0.05588156 -0.011187227 0.0639154
000270 7f ac 6a bd a3 ba 19 3d dc 2f 5d 3c b9 d5 dc bd
       -0.05729341 0.037531506 0.01350018 -0.10782952
000280 44 0e a5 3d 24 61 6e bd cc 84 2f 3d aa 84 a7 bd
       0.080593616 -0.05819811 0.042851254 -0.081796005
000290 86 7d 63 3d 45 ca b3 bc e0 b6 2e bc 0a 1e 9a 3d
       0.05553963 -0.021947036 -0.010663718 0.07525261
0002a0 f6 ab 4e bd c7 46 a7 bc 1a ea ca 3c c8 9d 4b bd
       -0.050456963 -0.020419491 0.024769831 -0.04971102
0002b0 5a 3b 99 bd b0 51 67 3d 3c 29 71 3d 26 d8 6b 3d
       -0.074820235 0.056474388 0.058877215 0.057579182
0002c0 2e d2 47 3d 8d 49 8e 3c 1f b9 3a 3d c5 32 44 3d
       0.048784427 0.017369056 0.0455867 0.04789998
0002d0 b7 40 7c bc 4d 23 ef 3d f0 56 a4 bd 88 fa c4 bc
       -0.015396289 0.11676655 -0.080243945 -0.024045244
0002e0 ce f9 0e 3e 67 64 d4 3c 22 84 b1 3d 39 39 a3 bd
       0.1396248 0.025926782 0.086677805 -0.07969899
0002f0 53 dc 01 3e 94 7f 5f bd 90 93 2c 3a 91 db 53 bd
       0.12681703 -0.054565027 0.0006583268 -0.051723067
000300 43 00 67 bd e3 b1 da bd 28 82 26 3d e2 78 8c 3d
       -0.056396734 -0.106784604 0.04065147 0.06858994
000310 f6 5d 91 3d 80 1f 19 bb 17 88 da bc be 52 04 bd
       0.07098 -0.0023364723 -0.02667622 -0.03230547
000320 c4 5f 8b bd 9e cf 88 bd 6d 9a e9 bc 23 ca 0d bd
       -0.06805375 -0.06680225 -0.028516019 -0.0346166
000330 96 fc 67 3b b7 11 bb 3a a0 17 50 bd 5b 39 d5 bd
       0.0035398356 0.0014272247 -0.05080378 -0.1041133
000340 44 67 0d bd 42 51 c5 bd 2d aa 8f bd d5 27 f4 3d
       -0.03452231 -0.09634639 -0.0701488 0.1192166
000350 68 0a c9 ba 8e 6f 91 3d d6 82 ce bd bf 01 c0 bd
       -0.0015338184 0.071013555 -0.10083549 -0.09375333
000360 f4 7e 47 bd c4 4a 15 3c 26 08 32 bb 2c ce 96 3d
       -0.048705056 0.009112064 -0.0027165501 0.07363543
000370 ec 60 95 3d 27 d2 dc bd a5 e6 e0 bd 12 87 f9 3d
       0.07293877 -0.10782271 -0.10981492 0.12183966
000380 20 d8 81 3d 90 6a 89 bd b8 27 a8 bc da a6 85 3d
       0.06340051 -0.06709778 -0.020526752 0.06525965
000390 fb 26 39 bc a0 31 67 bd 07 f1 c6 3d 57 b1 67 3d
       -0.011300798 -0.05644381 0.09713941 0.05656561
0003a0 04 76 c7 3d cf c3 72 3d 1c 72 e0 bd 41 2a ca 3d
       0.097393066 0.05926877 -0.10959265 0.098713405
0003b0 53 73 97 bd 9b 2a 5a 3d 5e 4f b4 bd ef 42 98 3c
       -0.07395043 0.053263288 -0.088042006 0.018586604
0003c0 9c 42 ee 3b 6a f2 77 bd d0 3b 80 3d 4e 89 a8 3d
       0.007271124 -0.06053392 0.06261408 0.08229314
0003d0 d5 ef 8f bd 61 40 a6 3d 92 e5 79 bd 13 6d 81 bb
       -0.07028166 0.08117748 -0.06100995 -0.0039497702
0003e0 54 06 bc 3d d4 61 bb bd 56 da 37 bb 8b 55 a0 bd
       0.091808945 -0.091495186 -0.0028053722 -0.07828816
0003f0 1c 30 05 bd 4e 1d 1f bd 2f a3 87 bd 77 cd cd 3c
       -0.032516584 -0.038846307 -0.06622922 0.025122387

net.0.bias_ih_l1 f4 [300]
000000 00 44 a5 3c 5b 13 0d 3c 6e 65 c5 bd f0 dd 79 bc
       0.020174026 0.008610572 -0.09638487 -0.015250668
000010 ba a4 67 bd d2 bf 30 bc 01 fb 10 bd ba e5 3d bd
       -0.05655358 -0.010787921 -0.035395626 -0.046361662
000020 34 ef a6 3b c4 3e 16 3d ad d8 02 be bb 9c a8 bd
       0.005094433 0.03668095 -0.12777968 -0.08233019
000030 73 f3 22 bc ce 02 ef bc 55 88 cb bc c0 80 1e 3c
       -0.009945738 -0.029176142 -0.024845282 0.009674251
000040 28 0e 8e bd 95 57 06 3d f5 ad 79 bd de 0e 1a bd
       -0.06936294 0.03279837 -0.060956914 -0.037611835
000050 d7 69 a1 bc 0f a1 57 bd 8e 70 af bd af 88 1d bd
       -0.019703789 -0.05264383 -0.0856639 -0.03846043
000060 ea c0 60 3d 8f 0d 7d 3d b4 02 b8 bb a7 68 16 bd
       0.054871477 0.06178051 -0.0056155566 -0.036720898
000070 1f ce b6 bd b9 1f 89 bd c5 66 cf 3c 93 37 d8 bd
       -0.08926033 -0.06695504 0.025317559 -0.10557475
000080 64 cf e1 3b 7e 7a 14 3b cd 92 d8 bc aa 2d f9 bb
       0.006891178 0.002265602 -0.026437188 -0.0076043205
000090 a4 75 e4 bd 74 eb 80 bd 1a 73 cb bd fd 05 01 be
       -0.11155251 -0.06294909 -0.09934063 -0.1259994
0000a0 4e 22 8e 3d 52 79 80 3c ef 1b 3e be 45 97 86 bc
       0.06940137 0.01568285 -0.18565343 -0.016429553
0000b0 e7 08 18 be 94 a5 6b 3d cb ad 35 3d 89 36 a6 bd
       -0.14847146 0.057530954 0.044355195 -0.081158705
0000c0 16 ce 73 3d 60 3b 6f bc 68 8c 34 3d d6 5a 43 3d
       0.05952271 -0.014601558 0.044079214 0.04769405
0000d0 de aa 07 3d 11 3c 73 3c 8e 42 51 bd 19 5c 5d bb
       0.033121936 0.014845864 -0.051088862 -0.0033776818
0000e0 53 64 f8 bc a4 7c 0c bc e4 46 62 3d e7 36 5e 3d
       -0.030321276 -0.0085746385 0.055243388 0.054251578
0000f0 4f 51 a8 bd 8f 84 62 3d cc a4 c1 bd 67 f7 91 bd
       -0.082186334 0.0553022 -0.09455261 -0.071272664
000100 42 95 52 3c ac 42 e9 3b 9f 2a 31 3d 6d 96 02 be
       0.012852969 0.0071185436 0.043253537 -0.12752695
000110 1a 8a e5 3c 7b 81 d2 bd 62 d8 3f bd cd 13 a6 bb
       0.028019954 -0.10278603 -0.046837218 -0.0050682784
000120 08 fd 93 bd f3 d8 5a ba a1 ed 36 3d a0 97 2e bd
       -0.07225996 -0.0008348368 0.044660214 -0.04262507
000130 8e 0d d0 bd 9b 39 0d bc 56 df 9a bd 9c 10 17 bb
       -0.10158835 -0.008619691 -0.07562129 -0.0023050671
000140 15 99 82 bc a2 ed de bc d4 19 3b 3d 4b 95 bc 3c
       -0.015942136 -0.027212922 0.04567893 0.023020407
000150 78 4d 38 bd c1 e8 07 be 41 3f 13 be aa f0 32 bd
       -0.044995755 -0.13272382 -0.14379598 -0.043686546
000160 92 1f c5 bd c2 16 ba bd 09 02 d4 bd 80 ff 93 bc
       -0.09625162 -0.09086372 -0.10351951 -0.018066168
000170 f0 73 bb 3b 07 cb 59 3c 1b c0 e7 bd 71 ee cc bd
       0.005720608 0.013293034 -0.11315938 -0.100064166
000180 6c 61 40 3d 90 5d 18 be f1 18 a7 bd fb 74 f9 3c
       0.04696791 -0.14879441 -0.08159054 0.030451288
000190 4f 63 86 3e 92 86 38 3d df cc 86 bd 04 b6 f3 3d
       0.2624764 0.04505021 -0.06582045 0.11899951
0001a0 96 71 95 bc 2a f3 cf 3c 34 79 8e 3d 77 5b 87 3c
       -0.018242639 0.025384504 0.069567114 0.016523106
0001b0 e0 51 be bd d3 18 cd 3d 1a 02 a4 3d 9c 63 90 3d
       -0.0929296 0.100145005 0.08008213 0.07050249
0001c0 9a 64 72 3d 66 d9 be 3d 33 bb 33 3e 11 e2 85 3e
       0.059177972 0.09318809 0.1755188 0.26149037
0001d0 3f 12 9c 3d 2d 03 00 3e 35 3c ab 3c a2 7f 73 3c
       0.07620668 0.12501211 0.020902732 0.014861973
0001e0 9f 7d 78 3d 9c 8f f8 3d c4 0a 0f 3e 5a 14 ce 3c
       0.060666677 0.12136766 0.1396895 0.025156189
0001f0 b5 f5 4d bd 2d 8a c5 3d f2 f3 a8 3d 32 21 85 bd
       -0.050283153 0.096454956 0.08249654 -0.06500472
000200 fd 54 87 3b fa 1c c0 3c 69 75 9f bb 18 e3 15 3e
       0.0041300044 0.023451317 -0.0048662913 0.1463741
000210 a5 09 c8 3c b4 05 e2 bc ec 28 93 3d 10 c8 77 3d
       0.024418661 -0.02759061 0.071855396 0.06049353
000220 36 5b cd bb e0 42 94 bd 18 41 6b 3d 96 01 22 3e
       -0.0062669767 -0.07239318 0.057435125 0.15820917
000230 78 0d d0 3b 86 d1 39 3e 08 8d cc 3d 4f ab 95 bb
       0.006349262 0.18146333 0.09987837 -0.0045675407
000240 8f 02 b1 3d f2 70 82 3c 27 d7 c1 bc 62 94 57 bd
       0.08643066 0.015922997 -0.023662163 -0.052631743
000250 ae ba 8d 3d 43 fc 61 3e 5e 41 d2 bd 17 5f da 3d
       0.06920372 0.22068886 -0.10266374 0.10662668
000260 d4 bb c4 3d d8 23 de 3d c4 4f 7e bd a0 27 57 3d
       0.09606138 0.108466804 -0.06208779 0.052528024
000270 bf a6 33 3e 22 aa 0e 3d 07 b2 34 bd 35 12 c1 bd
       0.17544077 0.03483022 -0.044115093 -0.09427301
000280 5d 88 df 3d 7f ff c8 3d f2 d9 c6 bd b2 65 03 3e
       0.10914681 0.09814357 -0.097095385 0.12831762
000290 cd 5b 4f 3c 80 fe 5a 3d ee 9f 4b bd 56 ef 08 3e
       0.012656164 0.053465366 -0.049713068 0.1337255
0002a0 cc d5 0f 3d 4c 97 29 bd 60 b6 47 bd 12 d2 97 3d
       0.035116002 -0.041404054 -0.04875791 0.074131146
0002b0 7d cc b5 3e b9 aa 31 bd d1 c3 8d bc cc e7 c6 3d
       0.35507575 -0.043375704 -0.017305287 0.097121805
0002c0 92 c5 0b 3e 96 1f 2f 3e ab 78 01 3e 4f 5b a2 bc
       0.13649586 0.17101893 0.12643687 -0.01981893
0002d0 8b a6 cb bd c9 c3 2d 3d 07 77 04 3d f6 a4 24 3d
       -0.09943875 0.042423043 0.032340076 0.04019638
0002e0 d2 2e 19 3e 16 d3 ae 3c b1 41 95 3d 6b 1c 07 3e
       0.14959267 0.021340888 0.0728792 0.13194434
0002f0 34 b7 04 be 3f cf bf bd e6 92 a3 3d 0f b1 06 3e
       -0.12960511 -0.09365701 0.07987003 0.1315348
000300 33 09 59 bd 34 b3 18 3e 00 c6 ff 3b 05 ce 9f 3c
       -0.05298729 0.1491211 0.007805586 0.019507417
000310 8e 80 51 3e e5 f4 f3 3d e9 38 8d 3d b4 af 15 3e
       0.20459196 0.11911944 0.068956204 0.14617807
000320 21 df ef 3d 6e 9c be 3b 81 ed 2a bd cf 01 6b 3d
       0.1171248 0.0058169877 -0.041730408 0.05737477
000330 12 18 24 3d bc 39 d9 bd 00 57 58 3b cf bc aa bd
       0.040062018 -0.10606715 0.003301084 -0.08336794
000340 ee f8 61 3d bb 3f c9 3d 44 f2 9b 3d d1 47 10 3d
       0.05516904 0.09826609 0.07614568 0.03522474
000350 86 41 95 3b 80 7c 5c 3d eb e9 3b 3d dc 4d 87 bd
       0.00455493 0.05382967 0.04587738 -0.06606647
000360 6f 7e 67 3c d5 fb 81 bc ae 2d 80 3c 92 4c 75 bb
       0.014129265 -0.015867153 0.015646782 -0.0037429673
000370 41 37 e1 bc 66 48 87 bd 9f 7a 4c bd dd ae 46 bd
       -0.027492167 -0.06605606 -0.049921628 -0.048506606
000380 f9 07 6a bd ec eb 68 bd ec d2 a6 bd 67 d5 a0 3d
       -0.05713651 -0.056865618 -0.08145699 0.07853203
000390 70 fc 3f 3d 12 b0 97 3c 7b 46 b2 3c 0f 17 d1 3d
       0.046871603 0.018516574 0.021762123 0.10209476
0003a0 a1 82 be 3d 46 b1 ec bc d3 2d 3d 3d 08 be 81 3d
       0.09302259 -0.028893124 0.04618628 0.06335074
0003b0 1c 89 af 3d dd c9 1d 3b ee 04 6e bd 59 69 a6 3d
       0.085710734 0.0024076619 -0.05811017 0.08125562
0003c0 6e a3 8e bd 29 6b 7b 3d 9d c7 e4 bd a6 e9 dc bd
       -0.069647655 0.061381493 -0.11170886 -0.107867524
0003d0 6c 96 c7 3b 14 44 7a 3d 2a ec d9 3d c2 47 22 bb
       0.0060909297 0.06110008 0.10640748 -0.002476201
0003e0 42 b3 86 bd ec 22 99 3d 1c 32 a6 bd e6 a3 79 bd
       -0.065771595 0.07477364 -0.08115026 -0.06094732
0003f0 b2 8d 3b bd 9c fd 87 bd 3e 20 3d 3d e9 ad 5b 3c
       -0.045789428 -0.06640169 0.046173327 0.013408163
