vae_classification/state_dict_classifier_91_200.pt (torch, 617403 bytes, 14 tensors)

net.0.weight_ih_l0 f4 [300, 2]
0	0xbd879cda	-0.06621714
1	0x3d87be0d	0.06628046
2	0xbd2644c9	-0.040592942
3	0xbd944944	-0.07240537
4	0xbdd83d93	-0.10558619
5	0x3c8223d2	0.015886221
6	0xbd01a60d	-0.0316525
7	0x3ceff86d	0.029293263
8	0x3dcd7b37	0.10033267
9	0x3dde459c	0.10853121
10	0xbd530995	-0.05152281
11	0xbdaaaa6b	-0.08333286
12	0xbdb7ea7a	-0.0898027
13	0xbda1b55f	-0.07895922
14	0x3d309c4a	0.0431178
15	0x3c39db6b	0.011343817
16	0x3d3fe428	0.046848446
17	0xbce8c81c	-0.028415732
18	0xbcc26960	-0.023731887
19	0xbd8737f5	-0.0660247
20	0xbd2395f7	-0.03993794
21	0x3cbca54d	0.02302804
22	0xbd3e3f0b	-0.04644684
23	0x3da33a16	0.079700634
24	0x3cad7375	0.021173218
25	0x3cf8fac4	0.030393012
26	0xbe159af4	-0.14609891
27	0xbcc8b2c4	-0.024499305
28	0x3c8972ea	0.016778428
29	0xbd0d30cc	-0.034470364
30	0x3d7c776e	0.061637335
31	0xbde1eac2	-0.110311046
32	0xbde115ae	-0.10990463
33	0xbccfccdd	-0.025366241
34	0x3d9a0f27	0.07522421
35	0xbd4742e2	-0.04864777
36	0xbdd7c9ef	-0.10536563
37	0x3d798b4f	0.06092387
38	0x3d1fd881	0.039024834
39	0xbd306b68	-0.04307118
40	0x3dc90b1f	0.09816574
41	0x3d93852d	0.07203136
42	0x3cbb07c3	0.02283085
43	0xbc0bd927	-0.00853566
44	0x3c749e64	0.014930341
45	0x3da8fec8	0.08251721
46	0x3d8faf51	0.07015861
47	0xbdec03a6	-0.115241334
48	0x3cea9a29	0.028637962
49	0x3d53e4c6	0.051731847
50	0x3d3d27c6	0.04618051
51	0xbd4df46e	-0.050281934
52	0xbd8c2d73	-0.06844606
53	0xbd0e72aa	-0.03477732
54	0xbdce4e68	-0.100735486
55	0x3cbadfc7	0.022811783
56	0x3d47ceee	0.048781328
57	0x3de6a6ed	0.11262307
58	0x3ddb94b6	0.10721724
59	0x3be10c72	0.0068679387
60	0xbd153cc2	-0.036434896
61	0xbd4ffd38	-0.050778598
62	0xbd405479	-0.04695556
63	0xbd824d03	-0.06362345
64	0xbce3c548	-0.027804032
65	0xbcfd5401	-0.030923845
66	0xbd852430	-0.06501043
67	0x3d06513e	0.032792322
68	0xbd0bdac8	-0.034144193
69	0x3ca330c0	0.019920707
70	0x3d1bc0b6	0.03802558
71	0xbddfa22b	-0.10919603
72	0xbdcaff9f	-0.09912037
73	0xbd06e120	-0.03292954
74	0xbda07fe4	-0.07836893
75	0xbda39c5c	-0.079888076
76	0x3d994fb1	0.07485903
77	0xbbebc81b	-0.0071954853
78	0x3d8c2e18	0.06844729
79	0x3ba3646c	0.0049863365
80	0x3d85a536	0.06525652
81	0xbcde4c86	-0.027136099
82	0xbdf39efb	-0.118955575
83	0xbda7e230	-0.08197439
84	0xbd49aa54	-0.049234703
85	0x3cd4be57	0.025969667
86	0xbb9a8223	-0.0047152205
87	0x3c174e9c	0.0092350505
88	0x3bbbc2d8	0.0057300143
89	0x3db0a82c	0.08625826
90	0x3c6db120	0.014507562
91	0x3d273e63	0.04083098
92	0x3d8850ff	0.06656074
93	0xbd806e7f	-0.062710755
94	0x3d75a47d	0.05997132
95	0xbd90cb5e	-0.07070039
96	0xbd34d12e	-0.0441448
97	0x3cfa8956	0.030583065
98	0xbbcb2215	-0.0061991313
99	0xbdc6282f	-0.09675633
100	0xbd36d2de	-0.044634692
101	0x3d2e0c96	0.04249247
102	0xbde9ba73	-0.114125155
103	0x3d41454c	0.047185227
104	0x3d75e7cb	0.060035508
105	0xbda49d62	-0.08037831
106	0xbd866972	-0.06563081
107	0xbd6a2769	-0.05716649
108	0xbd52d585	-0.05147316
109	0xbcdd2045	-0.026992926
110	0xbd8fa2df	-0.07013487
111	0xbcaffb2c	-0.021482073
112	0xbd94af4a	-0.07259996
113	0xbca56c11	-0.020193132
114	0xbd8a9880	-0.06767368
115	0xbc733c74	-0.014845956
116	0x3dadee11	0.08492673
117	0x3d6c2b17	0.05765828
118	0xbd033737	-0.03203508
119	0xbdb3a1cf	-0.08771097
120	0x3d56b240	0.052416086
121	0x3c2439b7	0.010023526
122	0xbca950bf	-0.020668386
123	0xbe1038b2	-0.14084128
124	0x3db393a9	0.08768398
125	0x3d39d41e	0.045368306
126	0xbd4a08ff	-0.049324986
127	0xbc6c3e47	-0.014419145
128	0x3d124877	0.03571364
129	0x3dceeb64	0.10103491
130	0x3d20c252	0.03924782
131	0x3d8fbfbd	0.07018993
132	0xbd608483	-0.054813873
133	0xbd1449e5	-0.036203284
134	0x3ceb7429	0.028741913
135	0xbcaed9cb	-0.021344086
136	0xbde4d431	-0.11173285
137	0xbdc26269	-0.094914265
138	0x38903f8c	6.8782916e-05
139	0xbd73c49f	-0.059513684
140	0x3db86436	0.09003489
141	0xbd463ee6	-0.04839983
142	0xbb82816f	-0.003982715
143	0xbc835b60	-0.016034782
144	0x3bd1db7a	0.0064043375
145	0xbd51fc5c	-0.05126606
146	0xbdb2200c	-0.08697519
147	0x3dc14a58	0.09438008
148	0x3c4c5377	0.012471071
149	0x3d2c78b4	0.0421073
150	0xbd3c5f38	-0.045989245
151	0xbdf44877	-0.11927884
152	0xbd92bbe9	-0.07164747
153	0xbd2444ab	-0.04010455
154	0x3c63bc37	0.013899854
155	0x3c36c506	0.0111553725
156	0x3d841170	0.064486384
157	0x3c9e5f60	0.019332588
158	0xbda34b83	-0.07973387
159	0x3cc4d14a	0.024025578
160	0x3d6911a0	0.056901574
161	0xbcd54e62	-0.026038352
162	0x3c791304	0.015202288
163	0x3de153cd	0.11002312
164	0xbc29ab6f	-0.010355814
165	0xbe008e7e	-0.12554356
166	0xbd33687f	-0.043800827
167	0xbd8ebeb3	-0.06969967
168	0x3b7fd883	0.0039038963
169	0xbcb71682	-0.0223496
170	0x3dcde825	0.10054044
171	0x3d842b9c	0.0645363
172	0xbc6ee273	-0.014580357
173	0x3b43918a	0.0029841387
174	0xbd4be9ef	-0.049783643
175	0xbd47e2ed	-0.048800398
176	0x3d8b98ef	0.06816279
177	0x3dfb161a	0.12260075
178	0xbdeffd63	-0.117182516
179	0x3ba8f6f6	0.005156393
180	0xbd5f2303	-0.05447675
181	0x3d8255c1	0.063640125
182	0xbdf12435	-0.11774484
183	0xbd670d8a	-0.056409396
184	0x3db26d90	0.08712304
185	0xbc2b59d3	-0.0104584275
186	0x3c6b327f	0.014355301
187	0x3cf87896	0.030330937
188	0x3d5b78b5	0.053581912
189	0xbde379f7	-0.11107247
190	0xbdcaf44b	-0.099098764
191	0x3c427989	0.011869797
192	0x3d74d69c	0.05977498
193	0xbd2cb822	-0.04216779
194	0x3d7bc0ef	0.061463293
195	0x3defdaff	0.11711692
196	0xbc93dd4d	-0.01804986
197	0x3da64cc6	0.08120112
198	0x3daec3f6	0.0853347
199	0x3bb2036f	0.005432538
200	0xbe21f94e	-0.15817758
201	0xbd07d0ca	-0.0331581
202	0xbe2d28e6	-0.16910133
203	0xbe913af2	-0.28365284
204	0xbd6b1e05	-0.057401676
205	0x3dee9960	0.11650348
206	0xbdc1d9de	-0.09465383
207	0xbd94301a	-0.07235737
208	0xbe4afcb7	-0.19822966
209	0xbe732237	-0.2374352
210	0xbe5d773f	-0.2162752
211	0xbca61cac	-0.020277344
212	0xbe5720b3	-0.21008568
213	0xbe9bbe0e	-0.30418438
214	0xbe2a5ad6	-0.16636214
215	0xbdacdf10	-0.08440983
216	0xbe244510	-0.1604197
217	0xbea4160f	-0.3204808
218	0xbd1b03a2	-0.03784526
219	0xbae4fa70	-0.0017469656
220	0xbde6ba81	-0.112660415
221	0xbe5dc97b	-0.2165889
222	0xbe8c2cce	-0.27377933
223	0xbea680b6	-0.32520074
224	0x3c835e6d	0.016036237
225	0xbe130e3a	-0.14360896
226	0xbe4174da	-0.18892232
227	0xbe99b32b	-0.30019507
228	0xbdaf1ad6	-0.085500404
229	0xbe0da1b7	-0.1383122
230	0xbddf9012	-0.10916151
231	0xbe28de4b	-0.16491048
232	0xbe0c2673	-0.13686542
233	0xbe1e742b	-0.15474002
234	0xbe3b0d69	-0.18266834
235	0xbe5066b8	-0.20351684
236	0xbca41934	-0.020031549
237	0xbe28402a	-0.16430727
238	0xbd980dc0	-0.074244976
239	0xbc823d21	-0.01589829
240	0xbe9ea9c5	-0.309889
241	0xbecf5f05	-0.40502182
242	0x3dbacaa5	0.091206826
243	0x3d7f950e	0.06239801
244	0xbe2762ef	-0.16346334
245	0xbd528d5a	-0.051404335
246	0xbc577458	-0.013150297
247	0xbbac7370	-0.0052627847
248	0x3de98243	0.114017986
249	0x3e11c5b4	0.14235574
250	0x3d7d88f4	0.061898187
251	0x3c9c3acc	0.019071005
252	0xbe8d19ae	-0.27558655
253	0xbe90335a	-0.28164178
254	0xbd998c7e	-0.074975
255	0xbdda1b54	-0.10649744

net.0.weight_hh_l0 f4 [300, 100]
0	0xbcfdaf07	-0.030967249
1	0xbdc231d1	-0.09482158
2	0xbc892506	-0.016741287
3	0xbcaa0872	-0.02075598
4	0x3d0eb0d7	0.034836616
5	0xbcdb9719	-0.026805447
6	0xbdaba080	-0.08380222
7	0x3dcaba58	0.098988235
8	0xbc908d1b	-0.01764541
9	0xbd8dc8ec	-0.069230884
10	0x3d9774ba	0.07395311
11	0xbd17b2e3	-0.037035834
12	0x3d590428	0.05298248
13	0x3c8b8ebd	0.017035836
14	0x3dede355	0.11615626
15	0x3de77ca4	0.1130307
16	0xbd6b4c49	-0.057445798
17	0xbd766f11	-0.060164515
18	0x3d4c7a15	0.049921114
19	0xbd15ce69	-0.0365738
20	0xbcc7c245	-0.024384627
21	0x3d3248e3	0.04352654
22	0xbda2fd86	-0.07958512
23	0x3d17e2ba	0.037081458
24	0x3c893d70	0.016752928
25	0x3dea08f0	0.11427486
26	0x3d61050a	0.054936446
27	0xbbf6542f	-0.0075173597
28	0x3c8afbab	0.016965708
29	0x3d2acb89	0.041698013
30	0xbc35d73b	-0.011098678
31	0xbc300ed1	-0.01074572
32	0xbd09c0fb	-0.033631306
33	0xbc3cb224	-0.011517081
34	0x3d554bb0	0.052074134
35	0xbde8b0ea	-0.11361869
36	0xbd5b9a6a	-0.053614058
37	0xbd53879c	-0.051643
38	0x3d8796e5	0.06620578
39	0x3d425a1e	0.047449224
40	0x3d8b8e6f	0.068142764
41	0xbb7489a6	-0.003731349
42	0x3d0c22c2	0.034212835
43	0xbd0f32bf	-0.034960505
44	0xbdac6e34	-0.08419457
45	0xbda74647	-0.08167701
46	0x3d639df3	0.055570554
47	0x3d42d4f0	0.047566354
48	0xbd2dbbde	-0.042415492
49	0x3da7cb28	0.08193046
50	0xbdaa21df	-0.08307242
51	0x3b2641a2	0.002536871
52	0xbdaa5c35	-0.08318368
53	0xbdb047c7	-0.086074404
54	0xbd793560	-0.060841918
55	0xbd10e498	-0.035374254
56	0xbd0d1f02	-0.0344534
57	0x3d91b188	0.071139395
58	0xbd367359	-0.044543598
59	0x3ba18d37	0.004930164
60	0xbcd5778f	-0.026057987
61	0x3c63e625	0.013909851
62	0x3a64dc9c	0.0008730383
63	0x3db16a08	0.08662802
64	0x3d7c833b	0.06164859
65	0x3cc5406a	0.024078567
66	0xbc9bfde9	-0.019041972
67	0xbd8a3750	-0.06748831
68	0x398bc936	0.0002666206
69	0xbce5c62f	-0.028048603
70	0x3d21c826	0.039497517
71	0x3d3542f1	0.044253293
72	0xbc3e8c1b	-0.011630083
73	0x3d7e0246	0.062013887
74	0xbd46e7b8	-0.048560828
75	0xbc8e8ffe	-0.017402645
76	0xbaccd5ed	-0.001562772
77	0xbcccdab5	-0.025006631
78	0xbd1afc02	-0.03783799
79	0xbd01bdfb	-0.03167532
80	0xbdcab5d7	-0.098979644
81	0xbc2dd43c	-0.010609683
82	0x3d4e742d	0.050403763
83	0xbd7bc074	-0.061462834
84	0x3da5e036	0.080994055
85	0xbd7393b3	-0.05946703
86	0x3cc6dd0c	0.024275325
87	0x3b9a2824	0.004704492
88	0xbc550cb9	-0.013003522
89	0xbd924f6b	-0.07144054
90	0x3919de1c	0.00014673959
91	0xbdf7aeed	-0.12093911
92	0xbd29f57c	-0.041493878
93	0xbdd54eef	-0.10415446
94	0xbdbd7baa	-0.09252103
95	0xbd4d6189	-0.050141845
96	0xbc62cfc1	-0.013843478
97	0xbdd0764b	-0.101788126
98	0x3d89c64d	0.06727276
99	0xbd9ccf04	-0.076566726
100	0x3c5a7e14	0.013335723
101	0xbdc0597c	-0.09392068
102	0x3e222dd7	0.15837799
103	0xbd617e96	-0.055052362
104	0x3e0adb3f	0.13560198
105	0x3e2d3573	0.1691492
106	0x3d15ec1e	0.036602132
107	0x3d3c0062	0.045898803
108	0x3e0ffbb4	0.14060861
109	0xbd82fc25	-0.06395749
110	0x3dd03d21	0.101679094
111	0x3dd34d4d	0.10317478
112	0xbdd3b545	-0.10337309
113	0xbe11b84f	-0.14230464
114	0x3d131181	0.035905365
115	0xbdfa20aa	-0.122132614
116	0xbb109743	-0.0022062815
117	0x3e1286d5	0.14309247
118	0x3cb75222	0.022378031
119	0x3d084210	0.033266127
120	0xbe069045	-0.13140972
121	0x3deb3dc5	0.11486391
122	0xbccdae2a	-0.025107462
123	0xbd970a63	-0.07375028
124	0xbcdffd4d	-0.027342463
125	0xbbc19950	-0.005908169
126	0xbd47f572	-0.04881806
127	0x3b334ece	0.0027360204
128	0xbdf6385c	-0.120224684
129	0xbe065f41	-0.13122274
130	0xbdd4a461	-0.10382915
131	0xbd9f6299	-0.07782478
132	0xbd63e15e	-0.05563485
133	0xbdd7660a	-0.10517509
134	0xbe069d86	-0.13146028
135	0xbbcd500b	-0.0062656454
136	0x3c568b0a	0.013094673
137	0x3d24d5d3	0.04024298
138	0xbc54666c	-0.012963872
139	0xbd1d2a36	-0.038370334
140	0x3d2755a9	0.040853176
141	0xbabda4ae	-0.0014468634
142	0xbd7458e2	-0.059655078
143	0x3e1a5c85	0.15074356
144	0x3e14f605	0.14546974
145	0x3de3b695	0.11118809
146	0xbc488be9	-0.012240388
147	0x3d652839	0.055946562
148	0xbdb3ba72	-0.08775796
149	0xbd859904	-0.06523326
150	0xbdb74c14	-0.089500576
151	0xbdb91cd2	-0.090387
152	0x3c1bcb98	0.00950899
153	0x3db754a0	0.08951688
154	0xbdaadfe1	-0.08343483
155	0xbdb65ead	-0.08904777
156	0xbde4423e	-0.11145447
157	0x3d25862c	0.04041116
158	0x3d671f8a	0.056426562
159	0x3c3352f5	0.0109450715
160	0xbdae32f4	-0.08505812
161	0xbd99cb93	-0.07509532
162	0xbc586a3f	-0.013208925
163	0xbe0f16ff	-0.13973616
164	0xbc6fc38b	-0.014634023
165	0xbdce1713	-0.10062995
166	0xbca1d33c	-0.019754045
167	0x3df6675c	0.12031433
168	0x3b016149	0.0019741824
169	0xbcb08630	-0.02154836
170	0x3dcbaa3b	0.09944578
171	0x3dcd7829	0.10032684
172	0xbda206d6	-0.0791146
173	0x3d5d9a62	0.05410231
174	0xbcbb659c	-0.0228756
175	0xbd1eeab6	-0.038798057
176	0xbded1b79	-0.115775056
177	0x3d486435	0.04892369
178	0x3d1b4cbc	0.037914976
179	0x3d82bbea	0.06383498
180	0x3d7d081b	0.061775308
181	0xbcd590aa	-0.026069958
182	0x3cf77772	0.030208323
183	0x3c8b24a8	0.016985252
184	0x3d8409e1	0.06447197
185	0x3e2048c4	0.15652758
186	0x3d8e45d2	0.06946911
187	0x3e349f13	0.17638807
188	0xbd06d840	-0.032921076
189	0xbdb4a72c	-0.08820948
190	0xbd2bcb11	-0.041941706
191	0x3d7395f9	0.059469197
192	0xbd81a71b	-0.06330701
193	0xbdedb444	-0.116066486
194	0xbbbce254	-0.005764285
195	0x3d9d958f	0.07694542
196	0xbbd242ae	-0.0064166402
197	0x3e0566e7	0.13027535
198	0x3d82cd55	0.0638682
199	0xbcc1fabc	-0.02367913
200	0xbd35510d	-0.04426675
201	0x3d0962b7	0.033541407
202	0x3dafe723	0.08589008
203	0x3de9ce3d	0.1141629
204	0x3d16f6e3	0.036856543
205	0x3e07bfb7	0.13256727
206	0x3d876647	0.06611305
207	0x3caf67a4	0.021411724
208	0xbcb34215	-0.021882096
209	0xbcb15e0f	-0.021651296
210	0xbd54a080	-0.051910877
211	0x3d569aba	0.052393652
212	0x3c936180	0.017990828
213	0xbd2a34e3	-0.041554343
214	0xbdb210d3	-0.08694615
215	0xbcb98a13	-0.022648847
216	0xbdae7712	-0.085188046
217	0xbd0b439b	-0.03400002
218	0x3df7d3bf	0.12100934
219	0x3d983509	0.07431991
220	0x3cf18fa2	0.029487435
221	0xbd139a71	-0.03603596
222	0x3d4c8c3d	0.04993843
223	0x3d85a9f9	0.0652656
224	0x3d97ba48	0.07408577
225	0xbd6e8876	-0.058235608
226	0x3d981d3b	0.0742745
227	0xbd940b70	-0.07228744
228	0xbbfb0e72	-0.007661634
229	0xbd585694	-0.052816942
230	0x3c2e716a	0.010647157
231	0xbcf431cd	-0.029808903
232	0x3d3b4b11	0.045725886
233	0xbdbf7a31	-0.09349478
234	0xbd88c630	-0.06678426
235	0xbd1150e3	-0.03547753
236	0x3e2b806d	0.1674821
237	0x3c4ed85d	0.012624827
238	0x3bba8e23	0.0056932135
239	0x3c76ff14	0.015075464
240	0x3d26e0da	0.04074178
241	0x3cf72947	0.03017105
242	0xbdba42b0	-0.09094751
243	0xbced086e	-0.028934684
244	0xbc87507d	-0.016517872
245	0xbdcbfd99	-0.09960479
246	0x3cb6f915	0.022335568
247	0x3e0af83e	0.1357126
248	0xbda19717	-0.07890146
249	0x3d73e5f9	0.05954549
250	0x3d0850bc	0.03328012
251	0xbd53d05f	-0.05171239
252	0x3d0b0df4	0.033948854
253	0x3ca55188	0.020180479
254	0x3da5fac6	0.08104472
255	0xbdad4e53	-0.08462205

net.0.bias_ih_l0 f4 [300]
0	0x3d89a6f5	0.06721298
1	0x3c80c72d	0.015719974
2	0xbd80c16d	-0.06286893
3	0x3d764f46	0.060134195
4	0x3dcbe689	0.099560805
5	0x3d327e91	0.043577734
6	0xbdb446bc	-0.08802554
7	0xbdb1ac5e	-0.086754546
8	0xbbfa9e29	-0.0076482487
9	0x3c455678	0.012044542
10	0xbc41fae7	-0.011839605
11	0x3b333162	0.0027342667
12	0x3d69a3b4	0.057040885
13	0xbd885926	-0.06657629
14	0xbce46806	-0.027881633
15	0xbdb29785	-0.08720306
16	0xbd3bb92f	-0.0458309
17	0xbcfff93a	-0.03124677
18	0xbd7c789f	-0.06163847
19	0xbcadc239	-0.021210777
20	0xbbde94a5	-0.006792622
21	0x3c30961b	0.010777975
22	0x3d58acf6	0.052899323
23	0x3d8a063c	0.0673947
24	0x3d9a502a	0.07534821
25	0xbcbdfc15	-0.023191491
26	0xbc8f4730	-0.01749
27	0xbd2d22ab	-0.04226939
28	0x3d883170	0.066500545
29	0xbc95c7a2	-0.018283669
30	0x3c92e95a	0.017933536
31	0x3db34ddb	0.08755084
32	0xbce0186e	-0.027355399
33	0xbd7cff34	-0.06176682
34	0x3db448d3	0.088029526
35	0x3c2dbc9f	0.010604053
36	0xbcd7a44c	-0.02632346
37	0xbcd6904c	-0.026191853
38	0x3d861c90	0.065484166
39	0x3cb421c8	0.021988764
40	0x3c929b8a	0.017896432
41	0x3ca6f7b0	0.020381778
42	0x3bb4310a	0.00549901
43	0xbd02c7e1	-0.0319289
44	0xbddd63fa	-0.10810085
45	0xbdd7b110	-0.10531819
46	0x3bde056d	0.006775549
47	0x3c9ed5ff	0.01938915
48	0xbda713ec	-0.08158097
49	0xbdc1442a	-0.094368294
50	0xbd0828ee	-0.03324216
51	0xbc87fb07	-0.016599191
52	0xbcb3761c	-0.021906905
53	0x3d0a80aa	0.03381411
54	0xbd2c1cb7	-0.042019572
55	0xbd6bd5de	-0.057577007
56	0xbda60bb6	-0.081077024
57	0xba906e87	-0.0011019268
58	0x3da6eaf9	0.08150286
59	0xbdb242ce	-0.08704148
60	0xbcb50519	-0.022097157
61	0xbdd3d887	-0.10344034
62	0x3ddd3ff4	0.10803214
63	0x3da519e5	0.080615796
64	0xbd761b04	-0.060084358
65	0xbd7a4f74	-0.06111093
66	0xbd8a8c9e	-0.06765102
67	0x3a03720d	0.00050142483
68	0x3d570b5c	0.052501068
69	0xbca04cb3	-0.019567823
70	0xbd734606	-0.05939295
71	0x3dbbb05e	0.09164499
72	0xbd8f94b9	-0.070107885
73	0x3d99be10	0.07506955
74	0x3d77d02b	0.06050126
75	0xbd52ac31	-0.051433746
76	0x3daead99	0.08529205
77	0x3d0601c9	0.032716546
78	0xbda8346a	-0.08213122
79	0x3d557329	0.05211178
80	0xbd916e72	-0.07101144
81	0xbc3c77a9	-0.011503139
82	0x3da53955	0.08067576
83	0x3d3bb116	0.04582318
84	0xbd18a52b	-0.03726689
85	0xbd117f4b	-0.035521787
86	0xbd227432	-0.039661594
87	0x3c2f3de5	0.010695909
88	0xbc914a5b	-0.01773565
89	0x3d605b48	0.054774553
90	0x3d9e21bb	0.07721277
91	0xbdbd7290	-0.09250367
92	0x3cdc9e0e	0.026930835
93	0xbcb8369c	-0.022486977
94	0xbc9c5cc5	-0.019087205
95	0xbba9bce8	-0.00517999
96	0x3dd76957	0.10518139
97	0xbd904d1c	-0.070459574
98	0x3d4f131b	0.05055533
99	0x3d258d28	0.04041782
100	0xbdae1885	-0.085007705
101	0xbe64487a	-0.22293273
102	0xbce557ce	-0.02799597
103	0x3d95a87f	0.07307529
104	0xbea3ed2e	-0.3201689
105	0xbdfb1d50	-0.1226145
106	0xbe7c7e24	-0.24657494
107	0xbda1affa	-0.07894893
108	0xbe548afe	-0.20756146
109	0x3d89df9e	0.06732105
110	0xbe0e8197	-0.13916622
111	0xbe83a9e9	-0.2571557
112	0x3d7c30b8	0.0615699
113	0xbee0452d	-0.43802777
114	0xbe74b678	-0.23897731
115	0xbd1cb07e	-0.038254254
116	0xbdf92fae	-0.12167297
117	0xbc65eed1	-0.014033989
118	0xbe110ea5	-0.14165743
119	0xbd3cd83a	-0.046104647
120	0xbea2d2e5	-0.31801525
121	0xbd791aae	-0.06081646
122	0xbd4662c4	-0.048434034
123	0xbd92cd38	-0.071680486
124	0xbc8c73f1	-0.017145129
125	0xbc35cf0a	-0.011096725
126	0xbe910b9f	-0.2832918
127	0xbe4814ea	-0.19539228
128	0x3da876b0	0.08225763
129	0xbe10978d	-0.14120312
130	0xbdc1ad52	-0.09456886
131	0xbdeff29e	-0.117161974
132	0xbc51cde2	-0.012805434
133	0xbe1c8e86	-0.15288743
134	0xbe992c62	-0.29916674
135	0xbbf8a5c7	-0.0075881216
136	0xbc5dbb3c	-0.01353341
137	0x3d674838	0.056465358
138	0xbe37423c	-0.1789636
139	0xbda0e8ac	-0.07856879
140	0x3cfce80a	0.030872364
141	0xbe6de47a	-0.23231688
142	0xbd2ee476	-0.042698346
143	0xbe000244	-0.12500864
144	0xbd536962	-0.051614173
145	0x3c67312e	0.014110846
146	0xbdd25f8d	-0.10272131
147	0xbd543fd9	-0.051818702
148	0xbe925a6f	-0.2858462
149	0xbe06b2db	-0.13154165
150	0xbe6ec83f	-0.23318575
151	0xbe9c646d	-0.3054537
152	0xbe35c53d	-0.17751022
153	0xbe73141c	-0.2373814
154	0xbe3e7f02	-0.18603137
155	0xbe2fe9d3	-0.1717904
156	0x3e0dbc89	0.13841452
157	0x3cf2a288	0.029618517
158	0xbe6f6b22	-0.23380712
159	0xbdfabb7e	-0.122427925
160	0xbe68d46b	-0.22737281
161	0xbeafd4f9	-0.34342173
162	0xbc3995f2	-0.011327254
163	0xbe4b6864	-0.1986404
164	0xbdf3ab3e	-0.11897896
165	0x3de1d755	0.110273995
166	0x3cb02efb	0.021506777
167	0xbe71bf46	-0.23608121
168	0xbe12b264	-0.14325863
169	0x3dda68e6	0.10664539
170	0xbe36a03c	-0.17834562
171	0xbdd4c7bd	-0.103896596
172	0x3d252251	0.04031593
173	0xbe2f3703	-0.17110829
174	0xbe7ed72f	-0.24886774
175	0x3de75466	0.112953946
176	0xbe4067f5	-0.18789656
177	0x3e508752	0.2036412
178	0xbe1476b2	-0.14498404
179	0xbe77ca78	-0.2419833
180	0x3d470e6f	0.04859775
181	0xbe648baa	-0.22318903
182	0xbca3d797	-0.020000262
183	0xbe825b5e	-0.25460333
184	0x3cf371fd	0.02971744
185	0xbe80d861	-0.25165084
186	0xbeb9ff22	-0.36327463
187	0xbe8ae4e4	-0.27127755
188	0x3c8cefc8	0.01720418
189	0xbe594a06	-0.21219644
190	0xbd9690a2	-0.07351805
191	0xbe344720	-0.17605257
192	0xbe5e56c9	-0.21712793
193	0xbe4368b4	-0.1908291
194	0xbd2c3904	-0.04204656
195	0x3d374d40	0.044751406
196	0xbeb01d98	-0.34397578
197	0xbddc5945	-0.10759214
198	0x3d9ca045	0.076477565
199	0x3e0403e3	0.12892108
200	0x3d7acb03	0.061228763
201	0xbd3103b3	-0.04321642
202	0xbdb1a792	-0.086745396
203	0xbda3b9c6	-0.07994418
204	0x3d296eff	0.04136562
205	0xbd1afa03	-0.037836086
206	0x3d88ab8f	0.06673347
207	0x3d2dea7b	0.042459946
208	0x39eb0699	0.00044827609
209	0x3d74524b	0.059648793
210	0x3ccf027c	0.02526974
211	0x3db2e306	0.087347075
212	0x3d46c95e	0.048531882
213	0xbda39199	-0.07986755
214	0xbc542c6f	-0.012950047
215	0x3db6c2b6	0.08923857
216	0xbdae4a8b	-0.08510312
217	0x3d3796c9	0.044821534
218	0x3dd54412	0.10413374
219	0xbd61b899	-0.055107687
220	0xbd25f817	-0.0405198
221	0xbb767546	-0.0037606522
222	0x3d3b0c62	0.045666106
223	0x3d9e28d9	0.07722635
224	0x3d46d2eb	0.04854099
225	0x3d9c095f	0.07618975
226	0x3d38f748	0.0451577
227	0xbb1ddf8d	-0.0024089545
228	0x3d58f0bf	0.05296397
229	0x3da83a01	0.08214188
230	0x3da7f6c4	0.08201364
231	0x3d0f8876	0.03504225
232	0xbbc84622	-0.006111876
233	0x3d14a04a	0.036285676
234	0xbd29e550	-0.041478455
235	0xbdc4fa87	-0.09618097
236	0x3c9fe5a3	0.019518679
237	0xbb80f789	-0.0039357585
238	0xbd2a3745	-0.041556615
239	0xbd382277	-0.044954743
240	0x3bfd5460	0.0077310055
241	0xbde08a37	-0.109638624
242	0x3d4e3b03	0.050349247
243	0xbbb531e8	-0.005529631
244	0x3c9bd311	0.019021543
245	0xbd143fd1	-0.036193673
246	0xbd32b7e5	-0.043632407
247	0x3d2adbb0	0.041713417
248	0xbd2e3ec7	-0.042540338
249	0x3b2db875	0.002650765
250	0xbd92c2c5	-0.071660556
251	0xbda84cfe	-0.0821781
252	0x3d6dc828	0.058052212
253	0xbb69e150	-0.0035687275
254	0x3da596f8	0.08085436
255	0xbca2418d	-0.019806648

net.0.bias_hh_l0 f4 [300]
0	0xbc4460b0	-0.011985943
1	0x3cb2c9e9	0.021824794
2	0x3dc86ba1	0.097861536
3	0xbd26dc85	-0.040737648
4	0xbc2ecfe2	-0.01066968
5	0x3d252572	0.040318914
6	0x3d4d20bd	0.05008005
7	0xbd4daa7a	-0.050211407
8	0xbd10b9be	-0.035333388
9	0x3cb21303	0.021737581
10	0x3b542817	0.0032372528
11	0x3d8cc1b5	0.06872884
12	0x3dc83c78	0.097771585
13	0xbe1cb6c2	-0.15304092
14	0xbd98a55a	-0.07453413
15	0xbd7e5d70	-0.062100828
16	0x3c9e90f9	0.019356238
17	0x3d935556	0.07194011
18	0xbc965ba6	-0.018354248
19	0xbd850b96	-0.064963505
20	0x3d87651b	0.06611081
21	0xbd9a1997	-0.07524412
22	0xbd5fd482	-0.054646023
23	0xbd7842ea	-0.06061069
24	0x3cb7080c	0.022342704
25	0x3bcb6dbb	0.0062081493
26	0xbb80feb1	-0.0039366116
27	0x3c805b54	0.015668549
28	0xbd0718f2	-0.032982774
29	0xbdcb212c	-0.099184364
30	0xbd63d496	-0.05562266
31	0x3c62bf16	0.013839504
32	0x3ad91d14	0.0016564452
33	0xbd8c91f4	-0.06863776
34	0x3c65ef6e	0.014034135
35	0x3d5d6f7a	0.05406139
36	0xbc8a9fa2	-0.016921822
37	0xbd361643	-0.044454824
38	0xbd6a9209	-0.057268176
39	0xbc31ca01	-0.010851384
40	0xbd45678b	-0.04819445
41	0x3c826f96	0.015922349
42	0xbd9c35dd	-0.07627461
43	0x3db7914e	0.089632615
44	0x3c5355bb	0.012898858
45	0xbccd670e	-0.025073554
46	0x3daee2fa	0.08539386
47	0x3d98ece4	0.07467058
48	0x3dcda4d7	0.10041206
49	0x3ca03020	0.019554198
50	0xbd004174	-0.03131242
51	0xbde4abe9	-0.11165602
52	0xbc37ce91	-0.011218683
53	0xbc5ec85c	-0.013597574
54	0x3d943e75	0.07238475
55	0x3cc34948	0.023838654
56	0x3c110889	0.008852133
57	0x3d1795ab	0.03700797
58	0x3ce19151	0.027535113
59	0xbdf25ec4	-0.11834481
60	0xbd84964e	-0.06473981
61	0xbcddb610	-0.027064353
62	0xbc8462a9	-0.016160326
63	0x3cf3e79f	0.029773531
64	0x3daee705	0.08540157
65	0xbd10c291	-0.035341803
66	0xbd82fbda	-0.06395693
67	0x3d9f32e8	0.077733815
68	0xbd85f9b0	-0.06541765
69	0xbb67600f	-0.0035305058
70	0xbd1863b6	-0.037204467
71	0xbc7fea9e	-0.015619902
72	0xbcf70d03	-0.030157572
73	0x3bc472b7	0.0059951204
74	0x3bfcece3	0.007718669
75	0x3cbf758c	0.02337148
76	0x3ca60da3	0.020270174
77	0xbd80a39c	-0.06281206
78	0xbdaca2c5	-0.08429483
79	0x3df8c278	0.12146467
80	0xbc1e9fb3	-0.00968163
81	0xbdbb092a	-0.09132607
82	0x3d98cae3	0.074605726
83	0x3ccbf802	0.024898533
84	0x3d81cbf1	0.06337727
85	0x3bcf2fe9	0.00632285
86	0x3d2b4e35	0.04182263
87	0x3cd27318	0.025689647
88	0x3c5f5e2a	0.01363329
89	0x3ccf7603	0.025324827
90	0xbd451a1f	-0.048120614
91	0xbddcbf1f	-0.10778641
92	0x3cd9ff37	0.026610954
93	0xbdd6e7bb	-0.10493418
94	0x3d8f5904	0.069994
95	0x3dac251b	0.08405515
96	0x3b992010	0.0046730116
97	0x3d2f0025	0.042724747
98	0x3cc14ba0	0.023595631
99	0xbd9cc0b1	-0.076539405
100	0xbce5e76c	-0.028064452
101	0xbe9e91c9	-0.309706
102	0x3d3d7fe0	0.04626453
103	0xbda4e3e3	-0.080512784
104	0xbe7e0d74	-0.2480982
105	0xbe836102	-0.2565995
106	0xbe8d4ee0	-0.2759924
107	0xbe71cf71	-0.23614289
108	0xbe96fe7d	-0.29491034
109	0xbd765adc	-0.060145244
110	0xbe00696b	-0.12540214
111	0xbe9b5f42	-0.30346113
112	0xbdd5588e	-0.10417281
113	0xbea80ecd	-0.32823792
114	0xbe70a60a	-0.23500839
115	0xbdd30af2	-0.10304822
116	0xbdc1d459	-0.0946433
117	0xbdd2c342	-0.10291149
118	0xbe2f7ebd	-0.1713819
119	0xbc9dffbd	-0.019286985
120	0xbe84f6d3	-0.25969562
121	0x3bca63fd	0.0061764703
122	0xbd667a79	-0.056269143
123	0xbe003d19	-0.12523307
124	0x3d42cdd8	0.04755959
125	0xbde5f995	-0.112292446
126	0xbe4b76d8	-0.19869554
127	0xbe327839	-0.17428674
128	0x3ad4980f	0.0016219633
129	0xbe143738	-0.1447419
130	0xbde56e7c	-0.11202714
131	0x3c81bdf7	0.015837653
132	0x3dc57a25	0.09642438
133	0xbe2271a8	-0.15863669
134	0xbdfb3414	-0.122657925
135	0x3d028ab6	0.031870566
136	0xbc0a53ee	-0.008442862
137	0x3dab1b9d	0.08354876
138	0xbe13a364	-0.14417797
139	0xbbbc939d	-0.0057549016
140	0xbcb247d2	-0.021762762
141	0xbeb8d79f	-0.36102006
142	0x3cb61859	0.022228407
143	0xbe2998c6	-0.16562185
144	0xbdb8a878	-0.09016508
145	0xbdbd51fb	-0.09244152
146	0xbe5f0501	-0.21779253
147	0xbd87ac80	-0.06624699
148	0xbe005ed8	-0.1253618
149	0xbe1e3711	-0.15450694
150	0xbebfd1e8	-0.37464833
151	0xbe639dc0	-0.22228146
152	0xbe35e1ac	-0.17761868
153	0xbe84a946	-0.25910395
154	0xbd937b1f	-0.07201218
155	0xbe77f237	-0.24213491
156	0xbc99b691	-0.018763812
157	0x3b44a1d9	0.0030003695
158	0xbdcfd3f6	-0.1014785
159	0xbe12b8dd	-0.14328332
160	0xbe90cfd2	-0.28283554
161	0xbeae16e2	-0.34001833
162	0xbda9cd50	-0.082911134
163	0xbe120975	-0.1426142
164	0xbe2e5ae6	-0.17026863
165	0x3ddad100	0.10684395
166	0x3cac70bc	0.02104985
167	0xbe7b0787	-0.2451459
168	0xbd28601d	-0.041107286
169	0x3dbd3c62	0.09240033
170	0xbdb252e6	-0.08707218
171	0xbe092131	-0.13391568
172	0x3e00c3e1	0.12574722
173	0xbd37c833	-0.04486866
174	0xbe56d459	-0.20979442
175	0x3dbd2f83	0.09237578
176	0xbe0bd689	-0.13656057
177	0x3eb2012f	0.34766528
178	0xbe4bbb50	-0.19895673
179	0xbe94de0b	-0.29075655
180	0x3ba9a8d0	0.0051775947
181	0xbea4875d	-0.32134524
182	0xbe178294	-0.14795905
183	0xbe2d9769	-0.1695229
184	0x3c382d96	0.011241337
185	0xbe930375	-0.28713575
186	0xbe571d8f	-0.2100737
187	0xbe94dd0e	-0.290749
188	0xbe0b658f	-0.1361296
189	0xbe3251fa	-0.17414084
190	0xbc4ff614	-0.012692947
191	0xbdd892ce	-0.10574876
192	0xbe134fb4	-0.14385873
193	0xbe93bb67	-0.28853914
194	0xbd1ddf17	-0.038542833
195	0xbd8286c1	-0.063733585
196	0xbe82d17e	-0.25550455
197	0xbe1d9f10	-0.15392709
198	0x3a95bcda	0.001142408
199	0x3e29e22b	0.16590182
200	0xbdcc26bc	-0.099683255
201	0xbc20f7f6	-0.0098247435
202	0x3dc3faac	0.09569296
203	0x3ddc6b26	0.107626244
204	0xbc8f6036	-0.017501932
205	0x3dcd34fd	0.10019872
206	0x3d72a8d6	0.059243046
207	0x3d2de33c	0.042453036
208	0x3bc35321	0.0059608375
209	0xbd90f427	-0.07077818
210	0x3d850269	0.064946
211	0x3af8728e	0.0018955038
212	0xbd0ab91c	-0.03386794
213	0xbd002e59	-0.0312942
214	0xbd3ff832	-0.046867557
215	0x3dc37add	0.09544919
216	0xbca4cf9b	-0.020118525
217	0xbc815f62	-0.015792552
218	0x3db75200	0.08951187
219	0xbbf396fc	-0.00743377
220	0x3d92cdbc	0.07168147
221	0xbd1ebbb6	-0.038753234
222	0x3bcb8a93	0.0062115877
223	0xbd1180b6	-0.03552314
224	0x3d0ff81c	0.035148725
225	0xbcc2a861	-0.02376193
226	0xbd857971	-0.06517304
227	0x3ceb017a	0.028687228
228	0x3ce08d35	0.027411083
229	0x3d59069e	0.052984826
230	0x3c623c60	0.01380834
231	0xbcc37f9c	-0.02386456
232	0xbc8beab6	-0.017079692
233	0x3d89537a	0.06705375
234	0x3d3842a8	0.044985443
235	0x3d943ba8	0.07237941
236	0x3cd45c45	0.025922904
237	0xbce5cc15	-0.028051415
238	0xbda3ac7a	-0.07991882
239	0x3c9a4b64	0.018834777
240	0x3d814caf	0.06313454
241	0x3cc1ae56	0.0236427
242	0x3c7ea101	0.015541316
243	0x3d9fd305	0.07803921
244	0x3ba49e4d	0.0050237537
245	0x3df19dd2	0.1179768
246	0xbd1c9627	-0.038229134
247	0x3d8e42bb	0.069463216
248	0xbdc2f6f4	-0.09519759
249	0xbd39de71	-0.045378152
250	0xbd67ea98	-0.05662021
251	0x3c3ba6f6	0.011453381
252	0xbda51b66	-0.080618665
253	0x3ddab42e	0.10678898
254	0x3d9b9a13	0.07597747
255	0xbcf2d43e	-0.02964222

net.0.weight_ih_l1 f4 [300, 100]
0	0xbd387c43	-0.04504038
1	0x3cdf1a80	0.027234316
2	0x3ddf4940	0.10902643
3	0x3d416549	0.047215734
4	0x3bb9a094	0.0056648944
5	0xbc24d61a	-0.010060811
6	0xbd834cd8	-0.06411141
7	0xbd71f931	-0.059075538
8	0x3ca47f73	0.020080304
9	0x3dfec11b	0.12439176
10	0xbbee677b	-0.0072755194
11	0x3df179c8	0.11790806
12	0xbd8e4920	-0.06947541
13	0x3d18e49d	0.037327398
14	0xbd78ef74	-0.060775235
15	0xbd8ffd27	-0.07030707
16	0x3d8000cd	0.06250153
17	0x3df95349	0.121740885
18	0xbd5d1cf6	-0.053982697
19	0x3e20ee36	0.1571587
20	0x3d4a5077	0.049393144
21	0xbdff71ea	-0.12472899
22	0xbc1841b4	-0.009293009
23	0x3e1ba324	0.15198952
24	0x3ce14068	0.027496532
25	0xbc453421	-0.012036354
26	0x3d0cbf98	0.034362406
27	0xbd4268dd	-0.047463287
28	0x3d6985dd	0.057012428
29	0x3d4ad33d	0.04951786
30	0xbd914066	-0.07092361
31	0x3d291663	0.041281115
32	0x3e2f50ff	0.17120741
33	0x3d503c42	0.050838716
34	0xbb8d74ca	-0.004316901
35	0xbdf056e9	-0.11735327
36	0x3d9653ef	0.07340228
37	0x3dcc2d3d	0.09969566
38	0xbd3d2196	-0.04617461
39	0xbd37a951	-0.044839207
40	0x3e08f93f	0.1337633
41	0xbda2d6ee	-0.07951151
42	0xbdf5d44c	-0.12003383
43	0x3d680948	0.056649476
44	0xbe024dd1	-0.12724997
45	0xbda8f14b	-0.08249148
46	0xbd96347f	-0.073342316
47	0xbca319cf	-0.019909767
48	0x3dc5cb05	0.096578635
49	0xbda1fb00	-0.079092026
50	0x3c417492	0.011807578
51	0xbd8b1a06	-0.06792073
52	0xbe09a9df	-0.13443707
53	0x3d00bb00	0.031428337
54	0x3dc9fc31	0.09862555
55	0xbdd3c5e8	-0.10340482
56	0x3b93573e	0.004496484
57	0x3ddc9c7b	0.10772034
58	0x3d2d131a	0.042254545
59	0xbce0e994	-0.027455129
60	0x3c4a40e5	0.012344574
61	0xbd6e2bcc	-0.058147237
62	0x3d9d34a5	0.07676057
63	0x3d7e0dcc	0.062024876
64	0x3b8c8f8e	0.004289574
65	0xbe04b676	-0.12960228
66	0x3cb6a8f0	0.022297353
67	0x3c8d3e1e	0.017241534
68	0x3d8fb3bd	0.07016704
69	0x3e14b4ae	0.14522049
70	0x3df8f05e	0.121552214
71	0xbd3b74b5	-0.045765597
72	0x3deb28b2	0.114823714
73	0xbcb9d0de	-0.022682603
74	0xbd04b06f	-0.032394823
75	0x3d236b79	0.039897416
76	0xbc3707fc	-0.011171337
77	0x3ca226a0	0.019793808
78	0xbd3f016c	-0.046632215
79	0xbcf2cc4b	-0.02963843
80	0x3cb1656c	0.021654807
81	0xbd649b85	-0.055812377
82	0xbdb12074	-0.08648768
83	0x3ccac753	0.024753248
84	0xbc524837	-0.0128346
85	0x3d631492	0.05543954
86	0x3dff8319	0.12476177
87	0x3dc4e0e8	0.0961321
88	0x3d7fff5f	0.0624994
89	0x3c49ab16	0.0123088565
90	0x3d2bbc04	0.041927353
91	0x3c987552	0.01861063
92	0xbd5582d3	-0.052126717
93	0xbde381de	-0.111087546
94	0x3ccca82b	0.024982532
95	0xbb49ef4e	-0.0030812803
96	0xbd43f49e	-0.047840707
97	0xbc814819	-0.01578145
98	0xbe17295f	-0.14761876
99	0x3dc73e4e	0.097286806
100	0xbd37cecf	-0.044874962
101	0x3d78cdc3	0.060743105
102	0xbd49c10e	-0.049256377
103	0x3d0a7a59	0.033808086
104	0xbcfe2be4	-0.031026788
105	0x3d63267d	0.055456627
106	0xbd8139ab	-0.063098274
107	0xbd2a72a0	-0.04161322
108	0x3d992999	0.07478637
109	0xbd46377e	-0.048392765
110	0xbd008986	-0.031381153
111	0xbd880f11	-0.06643499
112	0xbd20af5f	-0.039229747
113	0xbd9f1615	-0.07767884
114	0x3c5e87c0	0.01358217
115	0xbc7f9469	-0.015599349
116	0x3d9231c0	0.07138395
117	0xbc468b1b	-0.012118126
118	0x3ca85f46	0.020553242
119	0xbbf7e1ce	-0.00756476
120	0xbc13c963	-0.009020182
121	0x3db80053	0.08984437
122	0x3d9bb9e4	0.07603815
123	0xbd5c559d	-0.053792585
124	0xbdf2a2a9	-0.11847431
125	0xbdac6bc0	-0.08418989
126	0x3d3cf6f3	0.046133947
127	0xbd4fdec1	-0.050749544
128	0x3d2e9413	0.042621683
129	0xbd8936cb	-0.06699904
130	0xbd11343b	-0.0354502
131	0x3c6a31d0	0.014294103
132	0xbdddfdd4	-0.108394295
133	0xbcd50617	-0.02600388
134	0x3a84038d	0.0010071859
135	0x3d572332	0.0525238
136	0x3bdbe228	0.0067103095
137	0xbdea1434	-0.11429635
138	0x3b0c680b	0.002142432
139	0xbcbaf79f	-0.022823153
140	0xbc10ee9f	-0.008845954
141	0xbdb02c99	-0.08602256
142	0xbc82e185	-0.015976677
143	0xbdd7f3ed	-0.10544572
144	0xbd68aa28	-0.0568029
145	0x3dbe8fa3	0.0930474
146	0x3dd9f4e0	0.10642409
147	0xbc8ede20	-0.017439902
148	0x3cf85f41	0.030318858
149	0xbd163634	-0.036672786
150	0x3d980a2d	0.07423816
151	0xbd2f23bb	-0.042758685
152	0xbdef5644	-0.11686376
153	0xbcc07fea	-0.023498494
154	0xbe031c1a	-0.12803689
155	0xbd2197b7	-0.039451327
156	0x3d42cbde	0.047557704
157	0xbdd8c014	-0.10583511
158	0xbd06e7da	-0.032935955
159	0x3d4042c8	0.046938688
160	0x3c465a11	0.012106434
161	0x3cdea5d9	0.027178692
162	0xbad23af7	-0.0016039301
163	0x3d3864c9	0.04501799
164	0xbd7389fa	-0.059457757
165	0xbcf452b3	-0.02982459
166	0xbd9f2a3c	-0.077717274
167	0xbcbe6834	-0.023243047
168	0xbcc12b23	-0.02358014
169	0xbd223a06	-0.039606117
170	0x3da3eb28	0.08003837
171	0x3dc1d7f8	0.09465021
172	0xbde24e8d	-0.110501386
173	0xbdae7ee8	-0.08520299
174	0xbb367b84	-0.0027844617
175	0xbd021cda	-0.031765796
176	0xbcd4073b	-0.025882354
177	0xbc060f7b	-0.008182402
178	0x3b5a56f7	0.0033315995
179	0x3da77e2d	0.08178363
180	0x3d32125c	0.04347454
181	0xbdbe6d32	-0.09298171
182	0xbcbe9d28	-0.023268297
183	0x3d97eaef	0.07417857
184	0x3ccab048	0.02474226
185	0x3d2cbcd0	0.042172253
186	0x3cd3efd0	0.025871187
187	0x3d0c28a4	0.034218445
188	0x3d9bcbcb	0.0760723
189	0xbd0c1d48	-0.034207612
190	0x3dbad43c	0.09122512
191	0xbd17a87a	-0.037025906
192	0xbd18f025	-0.037338395
193	0x3d86a5bc	0.0657458
194	0xbd8fcb2b	-0.07021173
195	0x3d92373a	0.0713944
196	0x3d703a44	0.058649316
197	0x3d4ca971	0.04996628
198	0x3df25cf8	0.11834139
199	0xbd0b8f75	-0.03407236
200	0x3ba85648	0.0051372387
201	0x3d83b385	0.06430725
202	0x3ca169b7	0.01970373
203	0x3dbae5ff	0.091258995
204	0x3d175509	0.03694633
205	0xbcbbbfb7	-0.022918565
206	0x3d3d2eba	0.04618714
207	0xbcfa2043	-0.030532962
208	0xbdfbcb02	-0.1229458
209	0xbc58dc6a	-0.013236145
210	0x3c016b6b	0.007899146
211	0xbdc2c058	-0.09509343
212	0xbd9d6641	-0.07685519
213	0x3e455a5a	0.19272748
214	0x3d558709	0.052130733
215	0x3bdf0bfa	0.0068068476
216	0xbd4e8df5	-0.05042835
217	0x389cf191	7.483655e-05
218	0x3caa0366	0.020753574
219	0x3dc0aca1	0.09407926
220	0x3dca756b	0.09885677
221	0x3d809b37	0.06279605
222	0x3d72a9e1	0.05924404
223	0xbdd73c8d	-0.10509596
224	0xbd483693	-0.04888017
225	0x3c1c52a8	0.009541191
226	0x3d260817	0.04053506
227	0x3cc7f81b	0.024410298
228	0xbd50441d	-0.050846208
229	0x3c9c9a67	0.019116594
230	0xbc6e57d7	-0.01454731
231	0x3d89a796	0.067214176
232	0xbd07f4af	-0.033192333
233	0x3cecfcf7	0.028929217
234	0x3d9aa546	0.07551055
235	0x3d29e4a4	0.041477814
236	0xbd3b8fa9	-0.045791302
237	0x3df3212d	0.11871562
238	0x3df09d49	0.1174875
239	0x3d8095b2	0.06278552
240	0xbce4095b	-0.027836492
241	0x3cbbf175	0.022942284
242	0xbcf3d928	-0.029766634
243	0x3d52c9a0	0.051461816
244	0x3d78cca2	0.060742028
245	0xbd3efc74	-0.046627477
246	0xbca09878	-0.019603953
247	0x3d81d1b0	0.06338823
248	0x3d8e97e6	0.06962566
249	0x3dce91b9	0.10086388
250	0x3d9ee4ce	0.07758485
251	0x3e0ba3be	0.13636681
252	0xbd31ae7e	-0.0433793
253	0xbd2515c1	-0.04030395
254	0xbcd8a1c9	-0.026444333
255	0x3d7906af	0.06079739

net.0.weight_hh_l1 f4 [300, 100]
0	0xbd36430b	-0.04449753
1	0xbe02e100	-0.12781143
2	0x3cb2f68f	0.021846084
3	0x3caa99c9	0.020825284
4	0xbddec50d	-0.10877428
5	0x3d1fb730	0.03899306
6	0xbcfec553	-0.03109995
7	0x3dcbf15c	0.09958145
8	0xbdf9f248	-0.122044146
9	0x3db9371b	0.09043714
10	0xbd0d210d	-0.034455348
11	0xbd179448	-0.037006646
12	0xbd961f60	-0.07330203
13	0xbd877921	-0.066149004
14	0x3d18fe5a	0.037351944
15	0x3c03916c	0.008030277
16	0x3d64c18b	0.05584864
17	0x3cf373cf	0.029718308
18	0x3b9f1447	0.004854712
19	0x3d95ccf6	0.07314484
20	0xbd329c5c	-0.043606147
21	0xbdcc322e	-0.099705085
22	0x3d4ae179	0.049531434
23	0xbcc6c9c0	-0.024266124
24	0x3cff4538	0.031160936
25	0x3d7ac09b	0.06121884
26	0xbc2a1f8d	-0.010383499
27	0xbd95279e	-0.07282947
28	0xbdb73685	-0.08945946
29	0xba86b3e6	-0.0010277003
30	0xbdc87948	-0.097887576
31	0xbd6c4cae	-0.057690315
32	0x3da01e4a	0.07818277
33	0x3d780404	0.060550705
34	0xbd8b42e9	-0.067998715
35	0x3d10811a	0.03527937
36	0xbca56036	-0.020187479
37	0xbdcfda97	-0.101491146
38	0xbd36a63c	-0.044592127
39	0x3d9d059a	0.07667084
40	0x3dfda024	0.1238406
41	0x3e26540e	0.16243002
42	0x3d82bd1e	0.063837275
43	0x3d446b83	0.047954094
44	0x3d599a88	0.053125888
45	0x3cf4997a	0.02985834
46	0xbbe5b27c	-0.0070098024
47	0xbdeaeb16	-0.1147062
48	0xbe2665ea	-0.16249815
49	0x3d81cf0b	0.063383184
50	0xba3799aa	-0.0007003794
51	0xbbdf983c	-0.0068235677
52	0xbdcd15af	-0.100139014
53	0x3d9220b0	0.07135141
54	0x3d161943	0.036645185
55	0x3cee838b	0.029115459
56	0xbc7446de	-0.014909474
57	0x3d5df055	0.054184277
58	0x3c5d9cc2	0.0135261435
59	0xbd2963b9	-0.04135487
60	0x3d7f6d0b	0.06235985
61	0x3c51b65a	0.012799824
62	0x3d817840	0.06321764
63	0xbd36ff89	-0.04467729
64	0x3cbaee9a	0.022818852
65	0x3d33e9be	0.043924086
66	0x3de017fb	0.10942074
67	0xbd2bbcb5	-0.041928012
68	0xbdcc9403	-0.099891685
69	0x3dc3b254	0.09555498
70	0x3dcbd1e8	0.09952146
71	0x3d238ae5	0.039927382
72	0xbb185a25	-0.002324709
73	0xbdb28b38	-0.0871796
74	0xbd26a6b1	-0.040686313
75	0xbbbf4d7f	-0.0058380957
76	0x3da6841e	0.08130668
77	0x3d39381c	0.045219526
78	0x3dd62a75	0.10457317
79	0xbd4fc238	-0.05072233
80	0xbc3f34c1	-0.011670292
81	0x3ddca55d	0.10773728
82	0x3c9325fe	0.017962452
83	0xbd7f4cfb	-0.062329274
84	0xbe067f16	-0.13134417
85	0x3db4ee24	0.08834484
86	0x3d80b227	0.0628398
87	0xba027d3c	-0.0004977768
88	0x3d3a46ee	0.0454778
89	0x3e03b0d9	0.12860431
90	0x3d9e017b	0.07715126
91	0x3d4d2202	0.05008126
92	0xbe07ea67	-0.13273011
93	0x3a003d94	0.00048919884
94	0xbd4211af	-0.047380146
95	0xbcbebafd	-0.023282522
96	0x3da803cf	0.082038514
97	0xbde71894	-0.11283985
98	0xbda79909	-0.08183486
99	0x3d3c5a39	0.04598448
100	0xbdc86226	-0.09784345
101	0x3c16c6d9	0.009202682
102	0x3c1868f6	0.009302368
103	0x3d54f344	0.05198981
104	0x3d18035f	0.03711259
105	0x3dd1d659	0.10245962
106	0x3cbc6cbb	0.023001065
107	0xbcd54305	-0.026032934
108	0xbce0bc4b	-0.027433535
109	0xbc953a50	-0.018216282
110	0xbdaa8500	-0.08326149
111	0xbdd68725	-0.104749955
112	0xbd1845cf	-0.03717595
113	0x3cef7edd	0.029235298
114	0xbdab97f4	-0.08378592
115	0xbd9293a8	-0.071570694
116	0x3d40ce3c	0.04707168
117	0x3dad9cf7	0.08477204
118	0x3d896b72	0.06709947
119	0xbdc6b265	-0.09701995
120	0xbd41bb44	-0.04729773
121	0xbdaeab56	-0.085287735
122	0xbd5d8370	-0.054080427
123	0x3d81335c	0.06308624
124	0x3c383a79	0.01124441
125	0x3dc4e068	0.096131146
126	0x3c603ec7	0.013686842
127	0xbdcaa552	-0.098948136
128	0x3dd4f954	0.10399118
129	0xbdb2fc38	-0.08739513
130	0x3daad8d5	0.08342139
131	0xbc2ff386	-0.010739213
132	0x3d4abd57	0.049496975
133	0xbc089129	-0.00833539
134	0x3d9d302c	0.07675204
135	0xbd543f78	-0.05181834
136	0xbbfed8d0	-0.007777311
137	0x3cbf3b4c	0.023343705
138	0xbd2e23e2	-0.04251469
139	0x3d9b94d1	0.07596744
140	0xbd47e719	-0.048804376
141	0xbdc549b4	-0.096331984
142	0xbcfd4cb5	-0.030920366
143	0xbdd137d9	-0.1021573
144	0xbd3179f7	-0.043329205
145	0xbd6b78b8	-0.057488173
146	0x3c02314d	0.007946325
147	0xbcb91aac	-0.022595726
148	0x3cc827c8	0.024433032
149	0xbd9eb333	-0.07749023
150	0x3d6e4e9b	0.058180433
151	0xbd99f219	-0.075168796
152	0xbd90cd45	-0.07070402
153	0xb9ebd911	-0.0004498442
154	0x3c9d1f54	0.019179977
155	0xbd94cd1e	-0.072656855
156	0x3db33fad	0.087523796
157	0x3d1be254	0.03805764
158	0xbda7d58e	-0.08195029
159	0x3d333280	0.043749332
160	0x3d4b47da	0.04962907
161	0xbd6414b0	-0.05568379
162	0x3d2ba6ad	0.041907
163	0xbd3f2c44	-0.046673074
164	0x3d7910fd	0.060807217
165	0xbb6a557e	-0.0035756524
166	0x3c3725fe	0.011178492
167	0x3dcff1ea	0.10153563
168	0x3bdcd5ac	0.006739339
169	0x3d1fee48	0.039045602
170	0x3b0047c8	0.0019574035
171	0xbc32b59e	-0.010907559
172	0x3d876bed	0.06612382
173	0xbd5f41b2	-0.05450601
174	0x3d8243a1	0.063605554
175	0x3da5643c	0.08075759
176	0xbdd237af	-0.10264527
177	0xbc7b6ef6	-0.015346279
178	0x3d094243	0.033510458
179	0x3d11c268	0.03558579
180	0xbd5b9900	-0.05361271
181	0xbd2175a6	-0.03941884
182	0xbc3a2a8c	-0.011362683
183	0xbdb742e3	-0.089483045
184	0x3d358475	0.044315774
185	0xbd77cb74	-0.060496762
186	0xbc7cade2	-0.015422316
187	0x3d79dcbc	0.061001524
188	0xbdb31cc6	-0.087457225
189	0x3dc1a89c	0.09455988
190	0x3dc07ac4	0.09398416
191	0xbd829271	-0.06375588
192	0x39e2acea	0.0004323491
193	0x3c03d2c9	0.008045861
194	0x3c4e6b35	0.012598802
195	0xbd9e9f77	-0.07745259
196	0xbcc10837	-0.023563487
197	0x3cdae69b	0.02672129
198	0xbdaf63a9	-0.085639305
199	0x3dd84802	0.105606094
200	0xbd461805	-0.04836275
201	0x3c97688b	0.018482467
202	0x3d993796	0.07481305
203	0xbd49a645	-0.049230833
204	0xbd2b68b9	-0.04184792
205	0xbd86d862	-0.065842405
206	0x3ce62f4c	0.028098725
207	0xbd859fea	-0.06524642
208	0xbd508230	-0.050905406
209	0xbd2a7a53	-0.041620564
210	0xbd32976e	-0.043601446
211	0xbd872965	-0.06599692
212	0x3bf56430	0.00748875
213	0x3d0aca69	0.03388444
214	0x3d56dfa4	0.052459374
215	0x3cb4bfa3	0.022064036
216	0xbda3cad0	-0.07997668
217	0x3b078d43	0.0020683564
218	0x3cfbda29	0.030743675
219	0x3cbb54b6	0.022867542
220	0x3d567541	0.052357916
221	0x3ba01746	0.004885587
222	0x3d556beb	0.05210487
223	0xbbc188fa	-0.0059062215
224	0xbd6bb94f	-0.05754977
225	0xbcd9f7e5	-0.026607463
226	0xbb55f795	-0.003264879
227	0xbb3e53e8	-0.0029041711
228	0xbca1fe42	-0.01977456
229	0xbd649acc	-0.05581169
230	0x3cd36188	0.025803342
231	0x3c0d88cd	0.008638573
232	0x3c993d8e	0.01870611
233	0xbd014eaa	-0.03156916
234	0xbd37fb6c	-0.04491751
235	0x3d5ee28e	0.054415278
236	0x3c42afb0	0.0118827075
237	0x3d999939	0.07499928
238	0x3dbae173	0.09125032
239	0xbca9185f	-0.020641504
240	0xbc1631b2	-0.009167122
241	0x3b218d24	0.0024650777
242	0xbb482417	-0.003053909
243	0x3d3149fd	0.04328345
244	0xbca797c4	-0.02045811
245	0x3d82e2c2	0.06390907
246	0xbda47ea9	-0.08031971
247	0xbdb3ad0a	-0.08773239
248	0x3d9b2bba	0.075766996
249	0x3cc52e51	0.024069937
250	0xba475ff3	-0.0007605545
251	0xbd4237d4	-0.047416523
252	0x3d0d8d7e	0.034558766
253	0xbd559167	-0.05214062
254	0xbc9148bd	-0.01773488
255	0x3d49ff2c	0.049315616

net.0.bias_ih_l1 f4 [300]
0	0x3cabea26	0.020985674
1	0x3d3b0fa2	0.045669205
2	0x3d441c1e	0.047878377
3	0xbc416747	-0.011804408
4	0xbc97876b	-0.01849719
5	0xbc8c1c93	-0.017103469
6	0xbd622b7e	-0.05521726
7	0xbd544792	-0.051826067
8	0xbdc4980a	-0.09599312
9	0x3d687595	0.05675276
10	0x3ade90da	0.0016980425
11	0xbd7842a2	-0.06061042
12	0x3d3c0036	0.04589864
13	0x3ad3f88c	0.0016172095
14	0x3cf33e21	0.029692711
15	0x3d4836bb	0.04888032
16	0xbdb1a5da	-0.08674212
17	0x3d96ca48	0.07362801
18	0x3d0040bb	0.03131173
19	0xbd338683	-0.043829452
20	0x3d496630	0.04916972
21	0x3d4577dd	0.048210014
22	0x3dad0f20	0.084501505
23	0xbd54472b	-0.051825684
24	0xbc3d0eba	-0.011539156
25	0xbc72d371	-0.014820919
26	0x3d17bff4	0.037048295
27	0x3d9334e3	0.07187822
28	0xbd9edc62	-0.077568784
29	0xbd00b90e	-0.031426482
30	0x3d76ff42	0.060302027
31	0xbb157e97	-0.002281105
32	0xbd2d0eba	-0.042250372
33	0x3dc6b192	0.097018376
34	0x3db7d64f	0.08976423
35	0x3c976e83	0.018485313
36	0xbd806a48	-0.062702715
37	0xbdd72a95	-0.10506169
38	0xbcf9dc7d	-0.030500645
39	0x3d86538a	0.065589026
40	0xbd804050	-0.06262267
41	0xbbeb1bc6	-0.0071749417
42	0xbd1fce1e	-0.039014928
43	0x3dbf2f4a	0.093351915
44	0x3b9786f5	0.0046242424
45	0x3d442b91	0.04789311
46	0x3d0ceae9	0.034403715
47	0xbddd631f	-0.108099215
48	0xbdc5227c	-0.09625718
49	0xbd9b7167	-0.07589989
50	0x3d7d2679	0.06180427
51	0xbd0490b9	-0.03236458
52	0xbc8ec3ef	-0.017427413
53	0x3c7ff722	0.015622886
54	0xbcd1e4dd	-0.025621826
55	0x3d0d0914	0.034432486
56	0x3d311ab1	0.043238346
57	0xbc9d129f	-0.019173918
58	0xbdc32476	-0.09528439
59	0x3d886f30	0.06661832
60	0x3d8934e6	0.06699543
61	0xbd6765f4	-0.056493714
62	0x3c8faf13	0.017539537
63	0x3d1b5f9e	0.037932985
64	0xbd35e8f2	-0.044411607
65	0xbd04d220	-0.032426953
66	0x3d88d296	0.06680791
67	0xbd351d16	-0.04421719
68	0x3d1e4097	0.038635816
69	0x3d484759	0.048896167
70	0xbdcb48c3	-0.099259876
71	0xbd33b150	-0.04387027
72	0x3d9b0c70	0.07570732
73	0xbd9b606e	-0.07586752
74	0xbcf5dd3d	-0.030012721
75	0xbdb5d55c	-0.08878586
76	0x3db46529	0.08808357
77	0xbd6e518b	-0.058183234
78	0x3d1e4af8	0.038645715
79	0xbd2ab935	-0.041680533
80	0xbd52156c	-0.05128996
81	0xbd254859	-0.0403522
82	0x3d58b269	0.05290452
83	0xbb80f020	-0.003934875
84	0x3dbd961f	0.09257149
85	0xbdb4f0fa	-0.08835025
86	0xbc54e258	-0.012993418
87	0xbd235d1f	-0.03988373
88	0x3d2f4b0a	0.042796172
89	0x3d9fcbcf	0.07802545
90	0xbb9b3806	-0.004736903
91	0x3cfc93dc	0.030832224
92	0xbd45ca92	-0.04828889
93	0xbd00038a	-0.031253375
94	0xbde9e5cc	-0.114207834
95	0xbd74000c	-0.059570357
96	0x3dac12a4	0.08401993
97	0xbc1799fe	-0.009253023
98	0xbdc2b1bf	-0.095065586
99	0x3d198423	0.03747953
100	0xbd77c258	-0.060488075
101	0xbd0328ac	-0.03202121
102	0xbe26635e	-0.16248843
103	0x3cf19c7e	0.029493567
104	0x3a345715	0.00068794313
105	0xbb968c63	-0.004594372
106	0xbdf6d8f8	-0.12053102
107	0xbe09e961	-0.13467933
108	0xbc8c209c	-0.017105393
109	0xbc6eda06	-0.014578348
110	0x3e20e437	0.15712057
111	0xbddeb9f6	-0.10875313
112	0xbe23f985	-0.16013153
113	0xbd27a972	-0.04093308
114	0xbccdf2fc	-0.025140278
115	0x3d5ce77c	0.0539317
116	0x3c9e14f1	0.019297095
117	0xbd08406f	-0.033264574
118	0xbd430eb0	-0.04762143
119	0xbdff4d7a	-0.12465949
120	0xbdb61b2e	-0.08891903
121	0x3d9c34bb	0.07627245
122	0xbdca7a19	-0.098865695
123	0xbd6985ad	-0.05701225
124	0xbd64dd2e	-0.055874996
125	0xbdcbe3e4	-0.09955576
126	0x3cb8fdc4	0.022581942
127	0xbd7c05bc	-0.061528906
128	0xbdb27187	-0.0871306
129	0xbdb91c61	-0.09038616
130	0xbd3d36aa	-0.04619471
131	0xbd651534	-0.055928424
132	0x3c5d8ce1	0.013522358
133	0xbde587ed	-0.112075664
134	0x3cf5d189	0.03000714
135	0xbdcb4aec	-0.099263996
136	0xbd0c6154	-0.034272507
137	0xbd0471e0	-0.032335162
138	0x3cacae6e	0.021079268
139	0xbca25145	-0.019814143
140	0xbe5625f8	-0.20912921
141	0xbd4bec53	-0.049785923
142	0xbde273f9	-0.11057276
143	0xbc5731d8	-0.013134442
144	0xbd173fc8	-0.03692606
145	0xbc95b556	-0.018274944
146	0x3cbc2ef4	0.022971608
147	0x3c814215	0.01577858
148	0x3e38b0de	0.1803622
149	0xbd32dda5	-0.043668408
150	0x3c6e987d	0.014562723
151	0xbde5ec49	-0.112267084
152	0x3db50bc0	0.08840132
153	0xbdcfb1cf	-0.10141336
154	0xbd7a6114	-0.061127737
155	0xbe45cf71	-0.19317414
156	0x3d33f16c	0.04393141
157	0x3ddd6204	0.108097106
158	0xbda661ac	-0.08124098
159	0xbd800ed6	-0.0625283
160	0xbbd98d7c	-0.0066391807
161	0xbdc5f8b2	-0.096665755
162	0xbdcf64b1	-0.10126627
163	0xbe1d3474	-0.1535204
164	0xbe7543d4	-0.23951656
165	0x3c91c2d5	0.017793098
166	0xbdb3e9be	-0.08784817
167	0xbdc8ddfe	-0.09807967
168	0xbe3c7bb9	-0.18406571
169	0x3d9f8694	0.077893406
170	0xbe451422	-0.19245961
171	0xbd5d288a	-0.05399374
172	0xbe0130d9	-0.1261629
173	0x3d984fd2	0.074370995
174	0x3ced17eb	0.028942069
175	0xbc865b78	-0.016401038
176	0xbc0ad0c5	-0.008472626
177	0xbd3650af	-0.04451054
178	0xbd445546	-0.047932886
179	0xbc0a4408	-0.0084390715
180	0x3c76627c	0.015038129
181	0xbdeb58ad	-0.11491523
182	0xbda2c085	-0.079468764
183	0xbcad5a5a	-0.021161247
184	0xbd7809cf	-0.06055623
185	0xbe4a519a	-0.19757691
186	0xbdd6c7f1	-0.104873545
187	0x3c877632	0.016535852
188	0x3c05c122	0.008163722
189	0xbe386b15	-0.18009599
190	0x3cc7f60c	0.024409316
191	0xbde0699e	-0.10957645
192	0xbd16383a	-0.036674716
193	0x3d5fd646	0.054647706
194	0xbe3cdbae	-0.18443176
195	0xbded7c87	-0.11596017
196	0xbdca57af	-0.098800056
197	0xbe03f152	-0.12885025
198	0xbcdd3f9b	-0.027007869
199	0x3d80dc9d	0.06292079
200	0xbdbe6b12	-0.09297766
201	0x3d36033d	0.044436682
202	0xbcb2f728	-0.021846369
203	0xbcb2bd0c	-0.02181866
204	0x3dd64b0c	0.10463533
205	0xbdb8a5b3	-0.090159796
206	0x3dbfa08a	0.09356792
207	0xbce9bab2	-0.028531406
208	0x3c1ab331	0.009442137
209	0xbdc4f039	-0.09616131
210	0x3d3e17eb	0.04640953
211	0x3d82e97e	0.06392191
212	0xbdb2f54e	-0.087381944
213	0xbd6079e4	-0.054803744
214	0xbc9c3802	-0.019069675
215	0x3d56ba82	0.05242396
216	0x3dd81682	0.10551168
217	0xbcb07dca	-0.021544356
218	0x3c03e99c	0.008051302
219	0x3c908382	0.017640833
220	0x3dd0daaa	0.10197957
221	0x3d106cce	0.035260014
222	0x3c621aba	0.013800317
223	0xbd403778	-0.0469279
224	0xbd16b9bc	-0.036798224
225	0xbd248ac7	-0.04017141
226	0x3d853b53	0.06505456
227	0x3dd9a923	0.106279634
228	0xbdb6686a	-0.08906634
229	0x3b9f3952	0.004859128
230	0xbcd9bd6c	-0.026579581
231	0x3cab8443	0.02093709
232	0x3d93d48f	0.07218277
233	0xbdc62a23	-0.09676006
234	0xbc05f7b7	-0.008176736
235	0x3dee092f	0.116228454
236	0x3d77a983	0.060464393
237	0x3d44b16a	0.048020758
238	0x3dc26be1	0.094932325
239	0x3d1f0be8	0.038829714
240	0x3d654bdd	0.055980552
241	0x3ccf14de	0.025278505
242	0xbd4fb345	-0.050708074
243	0x3d4dc73d	0.050238837
244	0x3d9d46b5	0.07679502
245	0xbd4ccb5e	-0.049998634
246	0xbbfcd495	-0.0077157714
247	0xbd0371dd	-0.03209101
248	0x3da553af	0.08072602
249	0xbd0e1f06	-0.034697555
250	0x3cb4b663	0.022059625
251	0x3d7bd961	0.061486606
252	0x3dad9f76	0.084776804
253	0xbdb67cdc	-0.08910534
254	0x3d05282a	0.032509007
255	0x3dc00b71	0.09377182
