vae_classification/state_dict_classifier_grusingle_loss.pt (torch, 617403 bytes, 14 tensors)

net.0.weight_ih_l0 f4 [300, 2]
0	0xbde4db48	-0.11174637
1	0xbd8e6f6f	-0.06954848
2	0xbd861a77	-0.065480165
3	0x3c83239c	0.01600819
4	0xbb7af7bc	-0.0038294634
5	0x3c8348e0	0.01602596
6	0xbdae3c7d	-0.08507631
7	0x39f38bb8	0.0004645267
8	0xbcf5a45c	-0.0299856
9	0xbd94ac14	-0.07259384
10	0x3dd33ee6	0.10314731
11	0xbdf4d7b8	-0.119552076
12	0x3d017b3c	0.031611666
13	0xbd0ad0fc	-0.03389071
14	0xbd5ec7ad	-0.054389644
15	0x3db5d0fc	0.08877751
16	0xbd79c6c6	-0.06098058
17	0xbc42ce67	-0.0118900305
18	0xbcfbd5f6	-0.030741673
19	0xbc2507fd	-0.010072705
20	0xbd555fb6	-0.05209323
21	0x3d84f2e3	0.064916395
22	0xbde21d79	-0.11040778
23	0x3a152f7c	0.00056909746
24	0xbcfe1715	-0.031016866
25	0xbdd14476	-0.10218136
26	0x3c59319e	0.013256459
27	0x3d235620	0.039877057
28	0xbca5f1d8	-0.020256922
29	0xbb957b5c	-0.0045618247
30	0xbd979e17	-0.074032
31	0x3ac241b0	0.0014820602
32	0xbd973029	-0.07382233
33	0x3d2fd468	0.042927176
34	0xbde9f53a	-0.114237264
35	0xbd982340	-0.074285984
36	0x3dabf4c9	0.083962984
37	0xbda0c0d4	-0.07849279
38	0xbdcc8829	-0.09986908
39	0x3db6afe6	0.08920269
40	0x3d43cb3b	0.047801238
41	0xbe0add42	-0.13560966
42	0x39d8ec29	0.00041374683
43	0xbdc26957	-0.09492748
44	0x3e008241	0.12549688
45	0xbe023e72	-0.12719133
46	0xbda234df	-0.079202406
47	0xbde57c6f	-0.112053744
48	0x3d99b7cb	0.07505759
49	0x3a6226a9	0.00086269766
50	0xbd96fb39	-0.07372136
51	0x3d549e63	0.05190886
52	0x3da411ca	0.080112055
53	0x3ded76cf	0.115949266
54	0xbd74c0e7	-0.05975428
55	0x3c09b5c4	0.008405153
56	0xbc43f784	-0.011960868
57	0x3dedc24d	0.116093256
58	0xbdfc1607	-0.12308889
59	0xbc901c0f	-0.017591504
60	0xbe042502	-0.12904742
61	0xbb9dec02	-0.004819394
62	0x3c8544a3	0.01626808
63	0x3c4c9b18	0.012488149
64	0xbdb1a50f	-0.086740606
65	0xbd746683	-0.059668075
66	0xbdba348b	-0.09092053
67	0xbd039114	-0.03212078
68	0xbd5aaade	-0.053385608
69	0xbca2ac02	-0.01985741
70	0xba9b3bc9	-0.0011843379
71	0xbded6cf5	-0.115930475
72	0xbdb872bf	-0.09006261
73	0x3d85e3fb	0.065376244
74	0xbde59a66	-0.1121109
75	0xbd2d6a7f	-0.04233789
76	0xbddb457b	-0.10706612
77	0x3d64ebcc	0.055888936
78	0xbc8bbf0a	-0.017058868
79	0x3db31b9c	0.087455004
80	0xbdbb4aee	-0.09145151
81	0xbd898e11	-0.0671655
82	0x3d1f87ed	0.03894799
83	0xbd75ec81	-0.06004
84	0x3da9ae17	0.08285158
85	0x3d169f49	0.036773
86	0x3cee9522	0.029123846
87	0xbdd1a818	-0.102371395
88	0x3d822959	0.06355543
89	0xbd8e42db	-0.069463454
90	0xbbd2e45c	-0.006435914
91	0x3d9d1b51	0.07671226
92	0xbcdd7021	-0.027031006
93	0xbd1ef043	-0.03880335
94	0xbda79c1f	-0.081840746
95	0x3c8f23a7	0.017473055
96	0xbdce9b55	-0.10088221
97	0xbd602289	-0.054720435
98	0xbd6c8bd1	-0.057750527
99	0xbdbccc99	-0.092187114
100	0x3c24a677	0.010049454
101	0x3d14a2fa	0.03628824
102	0xbd153a87	-0.03643277
103	0xbbaea8c9	-0.0053301794
104	0xbdd359dc	-0.10319874
105	0xbc96fa71	-0.018429967
106	0xbdeea4d4	-0.11652532
107	0xbda120d1	-0.07867587
108	0xbd0ebbbe	-0.034847014
109	0x3cf14017	0.029449506
110	0xbe22f184	-0.15912443
111	0xbcc49ef8	-0.024001583
112	0x39df3f8e	0.00042581226
113	0x3d69e492	0.057102747
114	0xbdb3e0fc	-0.08783147
115	0xbca5e262	-0.02024955
116	0x3c8b8992	0.017033372
117	0x3de0cb15	0.10976235
118	0xbe37fbd3	-0.17967157
119	0xbd9dde10	-0.07708371
120	0x3c635d03	0.013877156
121	0xbcce2924	-0.025166102
122	0xbbf61c1c	-0.007510675
123	0x3d7915b4	0.060811713
124	0xbde878e7	-0.11351185
125	0xbcd5e951	-0.02611223
126	0xbddbab84	-0.107260734
127	0xbcaea6d1	-0.021319779
128	0xbd0968b1	-0.033547107
129	0x3dfad71c	0.1224806
130	0xbcd78721	-0.026309552
131	0xbe0ef751	-0.13961531
132	0x3d5ff43b	0.054676276
133	0x3c80862a	0.015688974
134	0x3db29ad6	0.08720939
135	0xbda0d3f7	-0.07852929
136	0xbc3a5ff8	-0.01137542
137	0xbdbea610	-0.09309018
138	0xbe0ffa86	-0.14060411
139	0xbdc5c4cc	-0.09656677
140	0xbe0bfd16	-0.13670763
141	0xbe0888b1	-0.13333394
142	0x3cedd1c5	0.02903069
143	0xbd00c3a3	-0.031436574
144	0xbcf85c24	-0.030317374
145	0x3c76f3c1	0.015072764
146	0xbcf09215	-0.029366532
147	0x3dd21ece	0.10259782
148	0xbd6fbf21	-0.058531884
149	0x3c512d15	0.012767096
150	0xbb483247	-0.0030547546
151	0x3d174251	0.03692848
152	0x3e274243	0.1633387
153	0xbe3845b0	-0.17995334
154	0xbc63b76e	-0.0138987135
155	0x3d9d5725	0.07682637
156	0xbdfe5188	-0.124178946
157	0x3d979c46	0.07402854
158	0xbd5d7c9a	-0.054073907
159	0xbcaf392d	-0.021389568
160	0xbdfa0e14	-0.122097164
161	0x3d0d73b4	0.03453417
162	0x3d65b287	0.05607846
163	0x3cea7f40	0.02862513
164	0xbe047221	-0.12934162
165	0x3d42c96e	0.04755538
166	0xbddb46ea	-0.10706885
167	0xbdbf2ac6	-0.0933433
168	0xbdb118db	-0.08647319
169	0xbdb13c66	-0.08654098
170	0xbe33cf79	-0.17559613
171	0xbda707b3	-0.081557654
172	0x3da7a84f	0.08186399
173	0xbdc8306f	-0.09774863
174	0xbdcdee3a	-0.10055204
175	0x3d2c447c	0.0420575
176	0xbdc0e5a2	-0.09418799
177	0x3cb6f280	0.02233243
178	0xbc859db0	-0.016310543
179	0x3e0fccc5	0.14042957
180	0x3d6d862c	0.057989284
181	0xbdd14da8	-0.1021989
182	0xbdda9fb8	-0.10674995
183	0xbd191130	-0.037369907
184	0x3d5c1823	0.053733956
185	0x3d8d5770	0.06901443
186	0xbd9a53e2	-0.075355306
187	0x3c07c313	0.008286255
188	0xbd0141d6	-0.031556927
189	0x3cb6c8dc	0.022312574
190	0xbd0558d7	-0.032555427
191	0x3c96831d	0.018373067
192	0x3d553e0d	0.05206113
193	0xbced81a8	-0.028992489
194	0xbd3fb0b1	-0.046799365
195	0x3dab3f68	0.08361703
196	0x3e3021d7	0.17200409
197	0xbdd89aba	-0.10576387
198	0xbd8b751f	-0.068094485
199	0x3e016749	0.12637056
200	0x3e2152d2	0.1575425
201	0xbd9f0406	-0.07764439
202	0xbe2003b3	-0.15626411
203	0xbde60c3a	-0.11232801
204	0xbdf5e5b9	-0.12006707
205	0xbe8420ac	-0.25806177
206	0xbd500e5c	-0.050794944
207	0xbe34ac68	-0.17643893
208	0xbe14f647	-0.14547072
209	0xbdd8f14e	-0.105929
210	0x3e892971	0.2678943
211	0x3ea51f4b	0.32250437
212	0x3da85e0a	0.082210615
213	0xbc60c518	-0.013718866
214	0x3d216cec	0.039410517
215	0xbda74b97	-0.081687145
216	0x3ccb918c	0.024849676
217	0xbe44c2d3	-0.19214945
218	0x3de44284	0.11145499
219	0xbe2c22e7	-0.16810189
220	0xbe07c11a	-0.13257256
221	0xbd90a50a	-0.07062729
222	0xbd81bcbf	-0.063348286
223	0xbe9a22cc	-0.30104673
224	0x3df714da	0.12064524
225	0xbe70c8c7	-0.2351409
226	0x3de00a98	0.109395206
227	0xbe20fff6	-0.15722641
228	0xbd971a6b	-0.07378086
229	0xbe1ecc8c	-0.15507716
230	0xbd202567	-0.03909817
231	0xbc30eac3	-0.010798159
232	0xbe44e0a9	-0.19226326
233	0xbe18ab40	-0.14909077
234	0xbc85eb17	-0.016347451
235	0xbdef7a72	-0.116932765
236	0x3e6c5f08	0.23083127
237	0x3d8d3a14	0.06895843
238	0x3e04973f	0.12948321
239	0xbd2e6a01	-0.042581562
240	0xbe11a8ec	-0.14224595
241	0xbd59862a	-0.053106464
242	0x3c9b4ee5	0.018958518
243	0xbde2e52b	-0.110788666
244	0xbe2299c7	-0.15878974
245	0xbcd85c1a	-0.026411105
246	0xbe0c2740	-0.13686848
247	0xbe048c26	-0.12944087
248	0x3ca6e547	0.020373
249	0xbe82a266	-0.25514525
250	0x3a63a56c	0.00086840126
251	0xbe167435	-0.14692767
252	0xbd22b798	-0.03972587
253	0xbe69ad89	-0.22820105
254	0x3d998f48	0.07498032
255	0xbe4dad58	-0.20085657

net.0.weight_hh_l0 f4 [300, 100]
0	0xbd42adc9	-0.047529016
1	0xbbd5ac15	-0.006520758
2	0xbd88f99e	-0.06688236
3	0x3d7341f8	0.059389085
4	0x3d7c983e	0.061668627
5	0xbd8a89d9	-0.067645736
6	0x3d90774b	0.07054003
7	0x3cd68b1c	0.02618938
8	0xbd3860cf	-0.0450142
9	0xbda503bc	-0.08057353
10	0x3d349e5c	0.044096336
11	0xbc0e17de	-0.008672683
12	0x3dee272e	0.11628567
13	0xbd032fac	-0.032027885
14	0xbd93deda	-0.0722024
15	0xbcec0aa7	-0.028813673
16	0x3cd352ae	0.02579626
17	0xbdaac4bc	-0.08338305
18	0xbd3a099a	-0.045419313
19	0xbdff7ac3	-0.12474587
20	0x3dbd1313	0.09232154
21	0x3d640b1b	0.055674654
22	0x3d895906	0.06706433
23	0x3b1452a8	0.0022632275
24	0xbcd35235	-0.025796035
25	0x3dc40948	0.09572083
26	0x3cd24826	0.025669169
27	0xbc1bfeca	-0.009521196
28	0x3d443917	0.047906008
29	0x3d076f1b	0.033064943
30	0xbdbce33d	-0.0922303
31	0x3c1a02ca	0.009400079
32	0xbc6c2901	-0.014414073
33	0x3d9720f2	0.07379331
34	0x3dc5ff80	0.096678734
35	0x3d874094	0.06604114
36	0x3cb7626d	0.0223858
37	0x3d310b7b	0.04322384
38	0x3c943fe1	0.018096866
39	0x3d89c835	0.067276396
40	0x3cad9f81	0.021194221
41	0x3c187349	0.00930483
42	0xbdcbd0d1	-0.09951938
43	0x3da30c27	0.07961302
44	0xbcead43b	-0.028665652
45	0xbdbe9ff8	-0.09307855
46	0x3c2523b3	0.010079312
47	0x3dd73873	0.10508814
48	0x3d3307a3	0.043708455
49	0x3ca0a2c3	0.01960886
50	0xbdbae3ec	-0.09125504
51	0xbdb2dfa0	-0.08734059
52	0xbc2d7551	-0.010587052
53	0xbdcc23bd	-0.09967754
54	0xbd88419a	-0.066531375
55	0x3dde385c	0.108505934
56	0xbc3381ba	-0.010956222
57	0x3cb7328a	0.022362966
58	0xbc8306c5	-0.015994439
59	0x3d4e071e	0.050299756
60	0xbd8f652f	-0.07001721
61	0xbc960174	-0.01831124
62	0xbcf8880d	-0.030338312
63	0xbce93a34	-0.028470136
64	0x3d64f287	0.055895355
65	0xbd2b2f29	-0.041793022
66	0x3c85970e	0.01630738
67	0xbd5e98ed	-0.05434506
68	0x3c71b1d0	0.014751866
69	0xba5b967f	-0.00083766127
70	0xbdc4ebf8	-0.0961532
71	0xbd579d3e	-0.052640192
72	0xbd8702d0	-0.06592333
73	0xbdb736df	-0.08946013
74	0x3d2606db	0.04053388
75	0x3cb10ca3	0.021612471
76	0x3db44817	0.088028125
77	0x3c21a98c	0.009867083
78	0xbc1fa479	-0.009743803
79	0xbdc64cb9	-0.096826024
80	0x3bc185aa	0.0059058266
81	0x3dccecb9	0.10006089
82	0xbd82cd6d	-0.06386838
83	0xbdafc4c7	-0.08582454
84	0x3d5a4220	0.053285718
85	0xbd7e3dd2	-0.062070675
86	0xbdbb76c8	-0.09153515
87	0xbd66bb11	-0.056330744
88	0x3d9f1a37	0.07768672
89	0x3d533ac6	0.051569723
90	0xbd6162dd	-0.055025924
91	0xbd37be5e	-0.044859283
92	0x3d9835c9	0.07432134
93	0xbc785036	-0.0151558425
94	0xbd3df828	-0.04637924
95	0xbdc78a03	-0.097431205
96	0x3d8403fb	0.06446072
97	0xbcbb8ad8	-0.022893354
98	0x3d1b8083	0.037964355
99	0xbd442b5c	-0.047892913
100	0x3dd0058a	0.101573065
101	0x3d8824e6	0.06647663
102	0x3c5d6e1d	0.013515023
103	0x3e238ab5	0.15970881
104	0x3dd2c6ac	0.102918
105	0xbd6e876d	-0.05823462
106	0x3bfeabc4	0.007771941
107	0x3bd6a536	0.0065504564
108	0x3d2517d1	0.040305916
109	0xbd91ad20	-0.07113099
110	0xbb2a30d3	-0.0025969043
111	0x3c429975	0.011877407
112	0x3de1052d	0.10987315
113	0xbd18a336	-0.037265025
114	0x3d3f4c37	0.046703544
115	0xbc476a14	-0.012171287
116	0x3d72f304	0.05931379
117	0x3bb3e632	0.005490088
118	0xbd099c1d	-0.033596147
119	0xbda51532	-0.08060683
120	0x3c99e70d	0.018786931
121	0x3cf70537	0.030153854
122	0xbe0064f1	-0.12538506
123	0xbd193301	-0.037402157
124	0x3e183011	0.14862086
125	0x3d57e03a	0.052704073
126	0x3c5e0652	0.013551312
127	0xba8ab6fd	-0.0010583099
128	0x3dbcb037	0.09213298
129	0xbcbcd782	-0.02305198
130	0x3d856a33	0.065143965
131	0x3d8f1cf3	0.069879435
132	0x3b75f200	0.0037528276
133	0x3df068a9	0.11738712
134	0x3db14676	0.086560175
135	0x3d3d3770	0.046195447
136	0xbd0bb978	-0.034112424
137	0xbd20d4c9	-0.039265428
138	0xbce75df7	-0.028243048
139	0x3b4ff30c	0.003173056
140	0x3d9c0094	0.07617298
141	0x3d041ffd	0.03225707
142	0xbdc3957c	-0.09549996
143	0xbd9cb7c7	-0.0765224
144	0xbe257246	-0.16156873
145	0xbdbd73fe	-0.092506394
146	0xbca29e0f	-0.019850759
147	0xbd4bd013	-0.049758982
148	0xbd9ac0ca	-0.07556303
149	0xbd846aee	-0.06465708
150	0xbd62447a	-0.055241086
151	0x3d18d368	0.037310988
152	0x3e29e18e	0.16589949
153	0x3daed067	0.08535843
154	0xbbace047	-0.0052757594
155	0xbd1483b2	-0.036258407
156	0x3d3a887a	0.04554031
157	0xbd9475b2	-0.07249011
158	0x3d67b9c1	0.056573633
159	0xbda77f86	-0.0817862
160	0x3c2205f2	0.009889113
161	0xbd521231	-0.05128688
162	0x3c91e22f	0.017808048
163	0xbde069f3	-0.10957708
164	0xbd10a3ea	-0.03531257
165	0x3d219085	0.039444465
166	0xbd8ab691	-0.06773103
167	0x3db0a9d8	0.08626145
168	0xbd763427	-0.06010833
169	0x3c316920	0.010828286
170	0xbd070a49	-0.032968793
171	0xbdecb620	-0.11558175
172	0x3d64f34d	0.055896092
173	0xbc87f4db	-0.016596248
174	0xbcd39557	-0.025828047
175	0xbd835fb2	-0.06414737
176	0x3c91bc4b	0.01778998
177	0xbd8dae94	-0.06918064
178	0x3d41fe3c	0.047361597
179	0x3e20679d	0.15664525
180	0xbcf69131	-0.03009853
181	0xbcbffe46	-0.023436677
182	0xbdb3cac8	-0.08778912
183	0xbdd458e3	-0.10368516
184	0xbcf6eec2	-0.030143145
185	0x3d01961e	0.031637304
186	0x3d26db94	0.04073675
187	0xbd03e9fa	-0.03220556
188	0x3d40142a	0.04689423
189	0xbda2a555	-0.07941691
190	0x3d870689	0.06593043
191	0x3c0125f3	0.007882583
192	0xbca7fea8	-0.020507172
193	0xbd12e35a	-0.03586135
194	0x3d5a3d9c	0.05328141
195	0x3d970a3b	0.07374998
196	0x3d5f5b92	0.054530688
197	0x3ddd460d	0.10804377
198	0xbd0e6d93	-0.034772467
199	0x3deaa7c6	0.114577815
200	0xbb2a05cb	-0.0025943394
201	0xbd12534e	-0.035723977
202	0xbd0fc413	-0.0350991
203	0xbd83dea9	-0.064389534
204	0xbd675963	-0.05648173
205	0x3d9914f3	0.07474699
206	0x3d6147c8	0.055000097
207	0xbd2ddd39	-0.042447302
208	0xbdcce8c7	-0.10005336
209	0xbd8502cc	-0.06494674
210	0x3d390776	0.04517313
211	0x3db97584	0.090556175
212	0xbc144b31	-0.00905113
213	0xbd691860	-0.05690801
214	0xbbd72ef3	-0.006566876
215	0x3c70555b	0.014668788
216	0xbbbf0213	-0.0058291047
217	0xbd67f4ec	-0.05663006
218	0x3dcd1c6f	0.10015189
219	0x3de31c66	0.11089401
220	0x3ce84263	0.028351968
221	0x3d748da6	0.0597054
222	0xbdab298f	-0.08357536
223	0x3e0ae6b1	0.13564564
224	0x3d8ef25e	0.069798216
225	0xbda69290	-0.08133423
226	0xbdcbf13f	-0.099581234
227	0xbd347b04	-0.04406263
228	0xbd00e420	-0.031467557
229	0xbd95aa5c	-0.07307884
230	0x3d00baf4	0.031428292
231	0xbb8bc92b	-0.0042659245
232	0x3c93721c	0.017998748
233	0x3dc2d3aa	0.09513028
234	0x3db8617d	0.090029694
235	0xbd04db7a	-0.03243587
236	0xbd8db6e8	-0.06919652
237	0x3a8042eb	0.0009785568
238	0xbdd0ac9b	-0.10189172
239	0xbe1cfa88	-0.15329945
240	0xbdc593dd	-0.09647343
241	0x3b48f22c	0.0030661924
242	0x3d81587d	0.06315706
243	0x3dbc7a42	0.09203006
244	0x3d59aabd	0.053141344
245	0x3dc9c255	0.09851519
246	0x3d895100	0.06704903
247	0x3bf07754	0.007338444
248	0x3ccb7475	0.024835804
249	0x3d38c188	0.04510644
250	0xba729b5a	-0.00092547166
251	0xbcb3c084	-0.021942385
252	0x3d84c93b	0.06483694
253	0xbde068eb	-0.109575115
254	0x3d2d1a7d	0.04226159
255	0xbd823d88	-0.063593924

net.0.bias_ih_l0 f4 [300]
0	0xbdcaf3aa	-0.099097565
1	0xbac44f09	-0.0014977168
2	0x365218a0	3.1306772e-06
3	0x3d4b4c38	0.049633235
4	0xbdaf8369	-0.085699864
5	0xbd4dbd0f	-0.05022913
6	0xbdc3d50a	-0.09562118
7	0x3d091f93	0.033477377
8	0x3c2443a4	0.010025892
9	0x3dbfae3a	0.09359403
10	0x3cda8ad3	0.026677525
11	0xbdeb8772	-0.115004435
12	0xbc8f7204	-0.017510422
13	0x3db83f0f	0.089964025
14	0xbc79adde	-0.015239207
15	0xbc0c6a7f	-0.0085703125
16	0x3db56134	0.08856431
17	0xbd9959ac	-0.07487807
18	0xbd92ad41	-0.07161952
19	0x3c548e2a	0.012973348
20	0xba961a92	-0.001145201
21	0xbd43dca2	-0.047817834
22	0xbdc37140	-0.09543085
23	0xbe04d94b	-0.12973516
24	0xbd2b28ac	-0.041786835
25	0xbdac7cef	-0.08422267
26	0x3d8a0dbe	0.06740902
27	0x3bae376d	0.005316666
28	0x3cbc7e02	0.023009304
29	0xbcd159e7	-0.025555564
30	0xbd1db8c5	-0.038506288
31	0xbde077db	-0.109603606
32	0x3da167fb	0.07881161
33	0xbd9b4354	-0.07581201
34	0xbd680dda	-0.056653835
35	0x3db583d4	0.08863035
36	0xbdc0bf7f	-0.09411525
37	0xbd24afaa	-0.04020659
38	0x3d2e165d	0.042501796
39	0x3dbf031c	0.09326765
40	0xbc2aa68b	-0.0104156835
41	0xbd9aae12	-0.075527325
42	0xbccfe0c1	-0.025375726
43	0xbdacbbe0	-0.08434272
44	0xbdc73fbb	-0.097289525
45	0x3d0614ae	0.032734565
46	0xbd68404a	-0.056701936
47	0x3d7a5899	0.06111965
48	0xbc901f47	-0.01759304
49	0xb99e94d8	-0.00030247006
50	0xbdd0f738	-0.10203403
51	0xb90b61d4	-0.00013292517
52	0x3d9272a9	0.07150776
53	0x3d943d43	0.07238247
54	0x3cc631c4	0.024193652
55	0xbd9bac56	-0.0760123
56	0x3d042cfd	0.032269467
57	0xbdac5142	-0.08413936
58	0xbc898026	-0.016784739
59	0xbd248f81	-0.04017592
60	0xbd935338	-0.07193607
61	0x3d718ac9	0.058970246
62	0xbc9065ed	-0.017626727
63	0xbd1bdeb7	-0.038054194
64	0x3d3d91e9	0.04628173
65	0xbd75827b	-0.05993889
66	0x3c0f04e7	0.008729196
67	0x3de12101	0.10992623
68	0x3d5811fd	0.05275153
69	0x3b982c99	0.0046439883
70	0xbd4ad4f1	-0.049519483
71	0x3d6bcd3b	0.05756877
72	0xbdbdb363	-0.09262731
73	0x3dcd20f0	0.10016048
74	0xbce4ef4a	-0.027946133
75	0xbd944208	-0.07239157
76	0x3c814ca9	0.015783625
77	0xbd009538	-0.031392306
78	0x3d966544	0.07343534
79	0xbc4c2f94	-0.012462515
80	0x3cb2a5cb	0.021807572
81	0x3b7f621d	0.0038968392
82	0x3d96bd25	0.07360295
83	0x3d894fa0	0.067046404
84	0xbd36db07	-0.044642475
85	0xbda55b38	-0.08074039
86	0xbd9dab1f	-0.076986544
87	0xbc16eca1	-0.00921169
88	0x3daeac14	0.08528915
89	0xbdb9aa48	-0.09065682
90	0xbc97794a	-0.018490452
91	0x3db7b362	0.089697614
92	0xb8bf3f3e	-9.1193695e-05
93	0x3d24211b	0.040070634
94	0x3d73c277	0.059511628
95	0xbd14caaa	-0.036326088
96	0xbd1971c1	-0.037462
97	0x3c347e9a	0.011016512
98	0xbd31d5a3	-0.04341663
99	0x3b839000	0.004014969
100	0x3d8f3d2a	0.06994088
101	0xbe1c187d	-0.15243717
102	0xbe9124de	-0.2834844
103	0xbe15eb45	-0.1464053
104	0xbe5dccc4	-0.21660143
105	0x3e9579f9	0.2919462
106	0x3c957039	0.018241988
107	0xbd7e1a6b	-0.062036913
108	0xbdf84e98	-0.121243656
109	0xbd8fe841	-0.07026721
110	0xbdd86c70	-0.10567558
111	0xbe476b05	-0.19474418
112	0xbd3e42f0	-0.046450555
113	0xbd3586bd	-0.04431795
114	0xbe3c9476	-0.18416008
115	0x3dc299d3	0.09501996
116	0xbe2fc6b5	-0.17165644
117	0x3d1e324b	0.03862218
118	0x3e8a0cb8	0.2696283
119	0xbdb4b167	-0.08822899
120	0x399dbf79	0.00030088032
121	0xbe547414	-0.20747405
122	0xbdb760c5	-0.08954004
123	0x3d1b781e	0.03795635
124	0xbdd5d56a	-0.10441096
125	0xbe3738b9	-0.17892732
126	0xbe11b033	-0.14227371
127	0x3d6c9cc6	0.0577667
128	0xbe0f2418	-0.13978612
129	0xbd97f4e7	-0.07419758
130	0xbdc89650	-0.09794295
131	0xbd98f43c	-0.07468459
132	0xbbc91d4c	-0.0061375257
133	0xbdd16423	-0.10224178
134	0xbd6d60f0	-0.057953775
135	0xbdbd06b5	-0.09229795
136	0x3df946cb	0.12171706
137	0xbe15e534	-0.14638215
138	0xbe9cd12f	-0.30628344
139	0xbc5a6581	-0.0133298645
140	0xbce56a4f	-0.028004793
141	0x3cb5f62f	0.022212116
142	0xbd760f5b	-0.060073238
143	0xbd2e2b03	-0.042521488
144	0xbe8465b6	-0.2585885
145	0xbe6b4d6d	-0.22978754
146	0x3d758491	0.05994088
147	0x3df5e9ff	0.12007522
148	0xbe0741a1	-0.13208629
149	0xbc07783f	-0.008268415
150	0xbddd10ce	-0.10794221
151	0x3e063149	0.13104738
152	0xbe39ba5e	-0.181375
153	0xbdbf5bc6	-0.09343676
154	0xbe1fb8ba	-0.15597811
155	0xbe287ab7	-0.16453062
156	0x3cc643cd	0.024202252
157	0xbde6bf16	-0.112669155
158	0xbdfd3881	-0.12364293
159	0xbdcd6788	-0.10029513
160	0x39cceac2	0.0003908482
161	0xbc632972	-0.013864862
162	0xbc3d47e5	-0.0115527855
163	0xbdf7832b	-0.12085565
164	0xbe6bc165	-0.23022993
165	0xbdf00429	-0.117195435
166	0x3d5a54b3	0.05330343
167	0xbe42924b	-0.19001119
168	0xbc58ee1e	-0.013240365
169	0xbe583c92	-0.21116856
170	0x3c54bfae	0.012985153
171	0xbde5ac94	-0.11214557
172	0xbe3d536a	-0.18488851
173	0xbea0181c	-0.31268394
174	0xbe7f0cc8	-0.2490722
175	0xbd89e279	-0.06732649
176	0x3e2489e8	0.16068232
177	0xbe179be6	-0.14805564
178	0xbe3af603	-0.18257909
179	0xbafa08ca	-0.0019076106
180	0xbde40058	-0.11132878
181	0xbe0a86b2	-0.13527945
182	0xbe0e976b	-0.13924949
183	0xbe34014c	-0.1757862
184	0xbcbe8bc9	-0.023260014
185	0xbe3467f4	-0.1761778
186	0xbda8e744	-0.082472354
187	0xbe2a12c9	-0.16608728
188	0xbe139bb2	-0.14414862
189	0xbe39c00e	-0.1813967
190	0x3d9b3f7f	0.0758047
191	0xbe359fca	-0.17736736
192	0xbddcec62	-0.10787274
193	0xbdb76f9f	-0.08956837
194	0xbd99fc31	-0.07518805
195	0xbe6dfe2f	-0.23241495
196	0xbda43a8b	-0.08018979
197	0xbdfa016b	-0.12207302
198	0xbe14c42c	-0.14527959
199	0xbe716b5a	-0.23576108
200	0x3d2d71c4	0.042344823
201	0xbc8ea49a	-0.017412473
202	0xbdb15765	-0.08659247
203	0x3dbd7911	0.09251607
204	0xbd5a134e	-0.053241067
205	0x3cde7232	0.027154062
206	0xbc90b50e	-0.017664459
207	0x3d799bfd	0.060939778
208	0xbd73f894	-0.059563234
209	0xbb2a1eb0	-0.0025958233
210	0xbdcb27be	-0.099196896
211	0xbd9640cb	-0.07336577
212	0x3cdb5965	0.026776025
213	0x3d88bd28	0.06676704
214	0x3d2b0b09	0.04175857
215	0x3c2bcca8	0.010485806
216	0x3dbc4a93	0.091939114
217	0x3d8e564e	0.06950055
218	0xbd5a4a96	-0.053293787
219	0xbd674e90	-0.056471407
220	0xbd58085d	-0.05274235
221	0xbcd59cce	-0.026075747
222	0x3cb24c79	0.02176498
223	0x3ca6a4a8	0.020342186
224	0x3cc13049	0.023582594
225	0x3c888f46	0.01666988
226	0x3d4d803f	0.050171133
227	0xbddfa95e	-0.10920976
228	0x3dd79363	0.10526159
229	0xbcc02bb5	-0.023458341
230	0x3d6ca86b	0.057777803
231	0x3cc1b0aa	0.02364381
232	0xbc6d4766	-0.014482355
233	0xbd4cfd1b	-0.050046068
234	0x3c57b022	0.013164552
235	0xbb92398e	-0.0044624275
236	0xbd225382	-0.03963042
237	0x3d41c472	0.047306485
238	0xbc7fc7cf	-0.015611603
239	0x3d5c51e8	0.05378905
240	0xbcc907b4	-0.024539806
241	0x3ada8880	0.001667276
242	0x3d6398e6	0.055565737
243	0xbc15dfaa	-0.009147564
244	0xbd6a8f13	-0.057265352
245	0xbdaba237	-0.083805494
246	0xbb96bf70	-0.004600458
247	0xbdcfe41b	-0.101509295
248	0xba84d7a1	-0.0010135063
249	0xbd20f3f5	-0.039295156
250	0xbd1915c6	-0.03737428
251	0x3c445ad8	0.011984549
252	0xbc7bfde6	-0.015380358
253	0x3d8b5489	0.06803233
254	0xbc376094	-0.01119246
255	0xbd41274b	-0.047156613

net.0.bias_hh_l0 f4 [300]
0	0x3d54edd3	0.05198462
1	0x3dbce284	0.09222892
2	0xbd91fb46	-0.07128005
3	0x3d53099c	0.051522836
4	0xbd3cb306	-0.046069168
5	0x3c476b2e	0.01217155
6	0xbdf86c15	-0.1212999
7	0x3b209df8	0.002450822
8	0xbd52f6f1	-0.051505033
9	0x3da5d35c	0.08096954
10	0xbd74f695	-0.05980547
11	0x3d819603	0.063274406
12	0xbdb6acef	-0.08919703
13	0x3c4dc6e1	0.012559623
14	0xbd97b254	-0.0740706
15	0x3d9be109	0.076112814
16	0xbd2a4609	-0.041570697
17	0xbd4b9afa	-0.049708344
18	0x3d1d240b	0.03836445
19	0xbd2514e1	-0.040303115
20	0x3d818806	0.063247725
21	0xbda17c55	-0.078850426
22	0x3c518ee1	0.012790413
23	0xbdd3236c	-0.103094906
24	0xbcbd3a58	-0.02309911
25	0xbc68b9ea	-0.014204482
26	0xbdb6c43d	-0.08924148
27	0x3c7db7a9	0.0154856825
28	0x3d978125	0.07397679
29	0xbcce8258	-0.025208637
30	0xbdb5ae7e	-0.08871172
31	0xbbdb5931	-0.006693982
32	0xbcbf38f3	-0.023342585
33	0x3d5b402d	0.053528
34	0xbdc1deb6	-0.09466307
35	0x3c5e6c8f	0.013575687
36	0x3d18b394	0.037280634
37	0xbd2e8401	-0.042606357
38	0xbd1aa2a6	-0.03775277
39	0x3c8a54f2	0.016886208
40	0x3d21abda	0.03947053
41	0x3d4037ce	0.04692822
42	0xbdb45bf4	-0.08806601
43	0xbd230296	-0.039797388
44	0x3d363e03	0.044492733
45	0xbdf9eda3	-0.12203529
46	0x3a2e6f22	0.00066541333
47	0xbbc0fbf6	-0.005889411
48	0x3d6e3eae	0.058165245
49	0x3cd1db0b	0.025617143
50	0x3b2520d7	0.0025196576
51	0xbd6d31da	-0.05790887
52	0x3d6e43e2	0.058170207
53	0x3d81d0d2	0.063386574
54	0x3d9fd9f3	0.078052424
55	0x3d9cd6c7	0.07658153
56	0xbdaa60c7	-0.0831924
57	0x3cc005af	0.02344021
58	0xbcf480ea	-0.029846627
59	0xbca79b90	-0.02045992
60	0x3afd71e3	0.0019336309
61	0xbda5faa5	-0.08104447
62	0xbd07960b	-0.033102077
63	0x3d8914b4	0.06693402
64	0xbd79b1e4	-0.060960665
65	0x3caa2718	0.020770594
66	0xbd89e436	-0.06732981
67	0x3da2f341	0.07956553
68	0x3dabd961	0.08391071
69	0xbca39247	-0.019967211
70	0xbd3ec9be	-0.046579115
71	0x3d830faf	0.06399476
72	0x3d49987d	0.04921769
73	0xbd17897c	-0.03699635
74	0x3cc57c76	0.0241072
75	0x3bd6a66a	0.0065506
76	0x3d4dc1b9	0.050233576
77	0xbceedf51	-0.02915922
78	0x3cb30332	0.02185211
79	0x3cc83674	0.024440028
80	0x3d5f42d4	0.05450709
81	0xb99b6ce7	-0.00029645042
82	0xbdcddd1f	-0.10051941
83	0xbdb61516	-0.088907406
84	0xbd111054	-0.035415962
85	0x3d89a8b5	0.067216314
86	0x3cb62e26	0.022238802
87	0x3cd8c793	0.026462352
88	0x3cd5e2e8	0.026109174
89	0xbd84151c	-0.06449339
90	0x3d035207	0.03206065
91	0xbd96d3e2	-0.07364632
92	0x393c1cb9	0.00017939777
93	0x3d18f9d6	0.037347637
94	0xbd92ed69	-0.07174189
95	0xbd5e9e76	-0.05435034
96	0xbcf0b99e	-0.029385384
97	0xbca9ff80	-0.020751715
98	0xbd6bd3a7	-0.057574894
99	0x3d2a8999	0.04163513
100	0x3c5a56af	0.013326331
101	0xbdf63401	-0.12021638
102	0xbe78884e	-0.24270746
103	0xbe57e0d1	-0.21081854
104	0xbe5e099a	-0.2168335
105	0x3ea18db4	0.31553423
106	0xbaaf7218	-0.0013385443
107	0x3d804229	0.06262619
108	0xbe400abf	-0.187541
109	0xbd540326	-0.051760815
110	0xbe2a7830	-0.1664741
111	0xbd9db710	-0.07700932
112	0xbc5ade13	-0.013358611
113	0xbe495759	-0.19662227
114	0xbe17b3fc	-0.14814752
115	0xbc95b6fa	-0.018275727
116	0xbe17a690	-0.14809632
117	0xbcca99a1	-0.02473146
118	0x3ea5d1b0	0.3238654
119	0xbd4e06b7	-0.050299373
120	0xbcdf04a6	-0.027223896
121	0xbe22efbc	-0.15911764
122	0x3dc53541	0.09629298
123	0xbd6e083c	-0.05811332
124	0xbe680c17	-0.22660862
125	0xbe2ebc86	-0.17064103
126	0x3bf3f6f1	0.007445209
127	0xbdab77b5	-0.08372442
128	0xbe1677f5	-0.14694197
129	0xbd35c47a	-0.044376828
130	0x3d060c79	0.03272674
131	0xbdde33c6	-0.10849719
132	0xbd8832dc	-0.06650326
133	0xbd5e5f20	-0.054289937
134	0xbe777919	-0.24167289
135	0xbe14db8b	-0.14536874
136	0x3e2fedea	0.17180601
137	0xbd238492	-0.03992135
138	0xbe6baf0d	-0.23015995
139	0x3d18a8fd	0.037270535
140	0x3ba53e2a	0.005042811
141	0xbdac0b84	-0.08400634
142	0xbd6343f8	-0.055484742
143	0xbd0345b1	-0.032048885
144	0xbe60d8dc	-0.21957725
145	0xbe827b2d	-0.254846
146	0x3d42b2fa	0.047533967
147	0x3ddd3dd3	0.10802808
148	0xbe8ebdd1	-0.27879193
149	0x3c72f9ad	0.014830035
150	0xbe1a608e	-0.15075895
151	0x3de9c2aa	0.11414082
152	0xbe6ddf7f	-0.23229788
153	0xbd3b3078	-0.04570052
154	0xbde8cc70	-0.11367118
155	0xbe0da0ff	-0.13830946
156	0x3d528774	0.05139871
157	0xbd26658d	-0.04062419
158	0xbd386561	-0.045018557
159	0xbe60940b	-0.21931474
160	0x3d124336	0.03570863
161	0xbcefc0a6	-0.029266667
162	0xbe018ce3	-0.126514
163	0xbe097859	-0.13424815
164	0xbdc44158	-0.09582776
165	0xbe08fa61	-0.13376762
166	0xbdc59fe7	-0.096496396
167	0xbd8d581d	-0.06901572
168	0xbd5e3f67	-0.054259684
169	0xbe8ee731	-0.2791076
170	0x3c19d08c	0.0093881
171	0xbe83a3b0	-0.2571082
172	0xbdf26012	-0.1183473
173	0xbe4b33ae	-0.19843933
174	0xbe9741d9	-0.29542425
175	0xbe35ce3e	-0.17754456
176	0x3e8d9763	0.2765456
177	0xbe1486f9	-0.14504613
178	0xbe409ff3	-0.18811016
179	0xbdc947e0	-0.09828162
180	0xbd1a1c5b	-0.037624698
181	0xbd950226	-0.072758004
182	0xbe674739	-0.22585763
183	0xbdb0259b	-0.08600923
184	0xbdecfe24	-0.11571911
185	0xbe02034a	-0.12696567
186	0xbda31e38	-0.07964748
187	0xbe176e9c	-0.14788288
188	0xbe56c2eb	-0.20972793
189	0xbe154d16	-0.14580187
190	0x3d1eb056	0.038742386
191	0xbe67aaab	-0.22623698
192	0xbdc75249	-0.097324915
193	0xbd8cf501	-0.06882668
194	0xbdd603fd	-0.104499795
195	0xbe3c1b13	-0.18369703
196	0xbe0495ae	-0.12947723
197	0xbe3e0467	-0.18556367
198	0xbe07b117	-0.13251148
199	0xbdcd1322	-0.10013415
200	0xbd63f6ed	-0.05565541
201	0x3d8ad4fb	0.06778904
202	0x3d498939	0.04920313
203	0x3cccf353	0.02501837
204	0x3da3e4cc	0.08002624
205	0x3c474cb3	0.012164283
206	0x3d3add8c	0.04562144
207	0xbc51056e	-0.012757642
208	0x3d5806b6	0.052740775
209	0xbdcb8e1d	-0.09939215
210	0x3d597efd	0.05309962
211	0xbdb337a4	-0.08750847
212	0xbd67d6af	-0.056601223
213	0xbdafbc94	-0.0858089
214	0xbaaf3edd	-0.0013370175
215	0xbd82e1ed	-0.06390748
216	0x3dae303d	0.085052945
217	0x3d7ce045	0.061737318
218	0x3d297072	0.041367
219	0x3cb4b7b8	0.02206026
220	0xbd19e80f	-0.037574824
221	0x3c91edcd	0.017813588
222	0xbd1de765	-0.038550753
223	0x3b5759ff	0.0032860038
224	0xbc314031	-0.010818527
225	0x3c846107	0.016159547
226	0xbd090604	-0.033453003
227	0x3db22f6c	0.08700451
228	0x3b80ff58	0.0039366893
229	0xbabed459	-0.0014559134
230	0xba2a6919	-0.0006500646
231	0x3c7189ab	0.014742295
232	0x3db7fd63	0.089838766
233	0x3ba99fc8	0.005176518
234	0xbd297b4a	-0.041377343
235	0xbd9aae41	-0.075527675
236	0x3dd4e6e6	0.10395603
237	0x3d10fca3	0.035397183
238	0xbd5715cb	-0.052511018
239	0xbc1f459f	-0.009721189
240	0xbc900fb1	-0.017585607
241	0xbd40fdaf	-0.04711693
242	0x3d1cfb76	0.03832575
243	0x3d88f04a	0.066864565
244	0x3d4f24e0	0.050572276
245	0xbcbacade	-0.022801813
246	0x3d6fafdb	0.05851732
247	0x3d30c395	0.04315527
248	0xbd2dcc7f	-0.04243135
249	0x3c5eae8b	0.013591419
250	0x3d927b59	0.07152433
251	0x3d0635a7	0.03276601
252	0x3de7e259	0.11322469
253	0x3db85add	0.09001706
254	0xbc0bd5ea	-0.008534888
255	0xbdaf29f8	-0.08552927

net.0.weight_ih_l1 f4 [300, 100]
0	0x3e182da9	0.14861168
1	0xbd624b0c	-0.05524735
2	0x3e0e904b	0.13922231
3	0x3bb9f0d8	0.0056744628
4	0x3d706f0f	0.058699664
5	0x3e1a4dee	0.1506879
6	0x3e1eef11	0.15520884
7	0x3db2cbcb	0.08730277
8	0xbcd06e70	-0.025443286
9	0x3e248f4a	0.16070285
10	0xb9e8208c	-0.00044274738
11	0xbb0bbf74	-0.0021323832
12	0xbde0f0e2	-0.10983445
13	0xbd0a5be0	-0.033779025
14	0xbe19dbda	-0.15025273
15	0x3c013058	0.007885061
16	0x3cdeef0b	0.027213594
17	0x3e028325	0.1274534
18	0xbdf31236	-0.11868708
19	0x3c93e67e	0.018054243
20	0x3d6a62a0	0.057222962
21	0x3e0ccedd	0.13750787
22	0x3b2b7abb	0.0026165682
23	0x3cf78b8c	0.030217908
24	0xbd546017	-0.05184945
25	0xbde2436f	-0.11048018
26	0xbdd25821	-0.102707155
27	0x3cad5230	0.021157354
28	0xbdcda8b2	-0.10041942
29	0xbc60226e	-0.013680084
30	0xbdc605b5	-0.09669057
31	0xbc72433c	-0.014786538
32	0xbe132f71	-0.14373566
33	0xbde77887	-0.11302286
34	0xbddd1555	-0.107950844
35	0x3e3c5e8f	0.18395446
36	0xbddf3f01	-0.10900689
37	0x3c045ca8	0.008078732
38	0xbdd15b77	-0.10222524
39	0xbe4edb86	-0.20200929
40	0x3c8ffa0f	0.017575292
41	0x3d83a0b3	0.06427135
42	0x3db0f25d	0.08639977
43	0xbd2ad270	-0.041704595
44	0x3cca4070	0.02468893
45	0x3ccaae68	0.024741367
46	0x3e21deb8	0.15807617
47	0xbc972c2d	-0.018453682
48	0xbdc99893	-0.09843554
49	0xbd805e94	-0.06268039
50	0x3df8cc14	0.121483
51	0xb939bc22	-0.0001771306
52	0xbd97ad65	-0.07406119
53	0xbde0a1e2	-0.10968377
54	0x3d8efa4e	0.069813356
55	0x3cd89ab4	0.026440956
56	0xbd14c604	-0.036321655
57	0x3cf0db70	0.029401511
58	0xbe108477	-0.14113031
59	0x3e338660	0.17531729
60	0x3e17f95d	0.14841218
61	0x3d9d7b42	0.07689525
62	0xbded804f	-0.115967385
63	0x3e040be3	0.1289516
64	0x3c029ea6	0.007972395
65	0xbd764cca	-0.060131826
66	0x3c518f60	0.012790531
67	0x3e650f8b	0.2236921
68	0xbe509bf2	-0.20371988
69	0x3cf810a7	0.030281378
70	0xbcdcd132	-0.02695522
71	0x3d7f468e	0.062323146
72	0x3e37bc8d	0.1794302
73	0x3d962bef	0.073325984
74	0xbad1eb9e	-0.0016015654
75	0xbd8b8647	-0.06812721
76	0xbc81354a	-0.01577248
77	0x3da2463f	0.07923555
78	0xbdcf1f5d	-0.10113404
79	0x3cf3a95e	0.029743847
80	0xbcd921d4	-0.026505388
81	0xbbeae2e9	-0.007168163
82	0x3d8a48c6	0.06752162
83	0xbc6a4920	-0.014299661
84	0x3d6677c0	0.056266546
85	0x3d875ab6	0.066090986
86	0x3d44450f	0.047917422
87	0x3cdc44e3	0.026888316
88	0xbda632e5	-0.08115176
89	0x3e294b40	0.16532612
90	0x3e506116	0.20349535
91	0x3b4f2dde	0.0031613032
92	0x3e204567	0.15651475
93	0xbd9d82c1	-0.07690955
94	0x3db58609	0.08863456
95	0xbd4ce72f	-0.05002516
96	0xbe1b88dd	-0.15188928
97	0xbe4220cb	-0.18957822
98	0xbda73462	-0.08164288
99	0xbcd67d78	-0.026182875
100	0xbc582256	-0.01319178
101	0x3dcfc9db	0.10145923
102	0xbc8fb395	-0.017541686
103	0xbd3d348b	-0.046192687
104	0xbd38e414	-0.045139387
105	0x3c8071eb	0.01567932
106	0xbb37031c	-0.0027925437
107	0x3ca9e3fd	0.020738596
108	0xbdafbd8a	-0.085810736
109	0xbe0f501e	-0.13995406
110	0xbd2c3ed0	-0.04205209
111	0xbd992ba9	-0.07479031
112	0x3b9e8f31	0.004838847
113	0xbdfb744f	-0.122780435
114	0x3e05ce26	0.1306692
115	0xbd7163bf	-0.058933016
116	0x3d99f3e7	0.07517224
117	0xbda40577	-0.08008855
118	0xbcaaed6e	-0.020865168
119	0xbc012296	-0.007881781
120	0x3da91ffa	0.08258052
121	0xbe0e5fe4	-0.13903767
122	0x3d7deee0	0.061995387
123	0xbde8cfdf	-0.11367773
124	0x3cca99f1	0.024731608
125	0x3d3389a3	0.043832432
126	0x3e21947f	0.15779303
127	0xbdb730ce	-0.08944856
128	0x3dbfb516	0.09360711
129	0x3c2ce7e5	0.010553335
130	0xbdf93c26	-0.121696755
131	0x3dbf8242	0.093510166
132	0x3dd48ffb	0.103790246
133	0x3d9670b5	0.07345716
134	0x3dfdb848	0.123886645
135	0x3d0ae871	0.03391308
136	0x3dac33d3	0.08408322
137	0xbcdd184c	-0.026989125
138	0xbb2b45a0	-0.002613403
139	0x3da15cbe	0.07879017
140	0x3d628a4d	0.055307675
141	0x3d5fe20a	0.054658927
142	0x3cbe1445	0.023203025
143	0xbc7b68cc	-0.01534481
144	0xbde779cb	-0.11302527
145	0x3d650594	0.055913523
146	0xbdfd3ac5	-0.12364725
147	0xbdac5b88	-0.08415896
148	0x3d7b3a90	0.061335146
149	0xbd8d9590	-0.069132924
150	0xbd8d14c3	-0.068887256
151	0xbc916734	-0.017749406
152	0x3d324356	0.043521248
153	0x3c858ff5	0.016303996
154	0xbdb7ad83	-0.089686416
155	0x3dd70eb5	0.10500852
156	0x3d0992b4	0.033587173
157	0x3bbd736b	0.005781581
158	0xbce9b234	-0.028527357
159	0xbdb104a9	-0.08643467
160	0xbde90131	-0.1137718
161	0xbe10ca29	-0.14139618
162	0xbca5a253	-0.020219004
163	0xbdf294e3	-0.11844804
164	0x3c5c9b35	0.013464739
165	0x3c6d2bc3	0.014475766
166	0xbd0b4b00	-0.034007072
167	0xbd8a4cad	-0.06752906
168	0x3dccae85	0.099942245
169	0xbdda4989	-0.10658557
170	0xbe16aec7	-0.1471511
171	0xbd37a56f	-0.044835504
172	0xbd394402	-0.045230873
173	0xbc5ddb74	-0.013541091
174	0xbe0a5fa5	-0.13513048
175	0x3d2ce1d4	0.042207554
176	0xbd337f0b	-0.04382233
177	0x3be729c6	0.0070545403
178	0x3c2cc225	0.010544335
179	0xbc445b8f	-0.01198472
180	0x3d9b5c9f	0.075860254
181	0x3c80b1f2	0.015709851
182	0xbd499f94	-0.04922445
183	0xbc252d17	-0.010081551
184	0xbdb31ac9	-0.08745343
185	0xbc8cc8a1	-0.017185511
186	0x3d247ef7	0.040160146
187	0xbc1a1bc4	-0.009406034
188	0x3def7f8d	0.1169425
189	0xbe16b8ab	-0.14718883
190	0xbdc1956d	-0.09452329
191	0xbc317cd1	-0.010832981
192	0xbe18901e	-0.14898726
193	0x3d194987	0.037423637
194	0xbda4c647	-0.08045631
195	0xbd85e756	-0.065382645
196	0xbcbd3529	-0.023096638
197	0x3decdd48	0.115656435
198	0xbdf1a298	-0.117985904
199	0x3d50c246	0.050966524
200	0xbd6dbac8	-0.058039457
201	0xbde78021	-0.113037355
202	0x3dae97c2	0.08525039
203	0xbd4b0ccc	-0.04957275
204	0xbaa2472a	-0.0012380828
205	0x3d7f5a8f	0.062342223
206	0x3bf0d3f5	0.007349486
207	0x3da8efdd	0.08248875
208	0xbd3ac770	-0.045600355
209	0x3d100236	0.03515836
210	0x3e0ef7b9	0.13961686
211	0x3dbae19d	0.091250636
212	0x3d2ec0e9	0.042664442
213	0xbdac4deb	-0.08413299
214	0x3b204f5c	0.0024461364
215	0x3de38537	0.11109393
216	0xbe20abd9	-0.15690555
217	0xbd6a4722	-0.057196744
218	0xbd5bd617	-0.05367097
219	0xbc9e14ee	-0.01929709
220	0xbdc3476c	-0.09535107
221	0x3d5fa6bd	0.054602373
222	0x3c77500a	0.015094766
223	0xbddfdd5e	-0.10930894
224	0x3d441425	0.047870774
225	0xbc3afad0	-0.011412337
226	0x3d2561a8	0.040376335
227	0x3ac06588	0.0014678696
228	0x3c83e0dd	0.016098434
229	0x3dbf5c1d	0.09343741
230	0xbca867e2	-0.020557348
231	0xbc2f7309	-0.010708579
232	0x3d49db64	0.049281493
233	0xbca4b440	-0.020105481
234	0x3a174acd	0.0005771339
235	0xbcabfce3	-0.02099461
236	0xbd8b23c3	-0.067939304
237	0xbde83673	-0.1133851
238	0xbc3cb64e	-0.011518074
239	0x3d4965b1	0.049169246
240	0x3d2abf09	0.04168609
241	0xbbdd8908	-0.00676072
242	0xbce4ebdc	-0.027944498
243	0x3d69bd42	0.057065256
244	0x3de2b7d7	0.11070221
245	0x3d85062d	0.064953186
246	0xbdb79cb2	-0.08965434
247	0xbd956cf9	-0.072961755
248	0x3d555273	0.052080583
249	0x3d772862	0.060341246
250	0xbd521ee7	-0.051299002
251	0xbd845e94	-0.06463352
252	0x3d5cfd40	0.053952456
253	0xbbf74c40	-0.0075469315
254	0xbdc13967	-0.09434777
255	0x3ce26524	0.027636118

net.0.weight_hh_l1 f4 [300, 100]
0	0x3d1449f6	0.036203347
1	0xbd506809	-0.050880466
2	0x3d973cc4	0.07384637
3	0xbe16623d	-0.14685912
4	0x3e39db90	0.18150163
5	0xbbf8bb45	-0.0075906836
6	0xbda17c71	-0.078850634
7	0x3c29c808	0.010362633
8	0xbe02532b	-0.12727039
9	0xbdbfba0d	-0.09361658
10	0x3df0d79d	0.11759875
11	0xbdeed678	-0.116620004
12	0xbdcb3695	-0.0992252
13	0x3daf8a45	0.08571295
14	0xbe472360	-0.19447088
15	0x3d2ab598	0.041677088
16	0xbcf9b058	-0.030479595
17	0x3cb04a37	0.021519763
18	0xbd73ee5e	-0.059553497
19	0x3e060593	0.13088064
20	0xbd11d9f0	-0.035608232
21	0xbccfab18	-0.025350139
22	0x3c13c0d7	0.009018145
23	0x3cc57400	0.024103165
24	0xbe1dad11	-0.15398051
25	0x3e10ea5a	0.14151898
26	0xbd8173f2	-0.06320943
27	0x3d1bdacb	0.038050454
28	0x3ddebeb6	0.10876219
29	0x3e2de45a	0.1698164
30	0x3cea7c97	0.028623862
31	0xbdb0ac49	-0.08626611
32	0xbd3a3d3c	-0.045468554
33	0x3d9f4a9e	0.07777904
34	0xbe036e94	-0.12835151
35	0x3e695d83	0.22789578
36	0x3e683b4d	0.22678871
37	0x3c919c82	0.017774824
38	0x3d97908b	0.07400616
39	0x3e44bff6	0.19213852
40	0x3d490c01	0.049083713
41	0x3dfe7207	0.12424093
42	0x3e1255c1	0.14290525
43	0x3e1dc703	0.15407948
44	0x3db559c9	0.08855016
45	0xbd75b831	-0.05999011
46	0x3d892f91	0.06698526
47	0x3e496e1f	0.19670914
48	0x3df16a3b	0.1178784
49	0x3e05a119	0.13049735
50	0x3e0e0390	0.13868546
51	0xbcc7cf28	-0.024390772
52	0x3df56ba1	0.11983419
53	0xbd0ac39a	-0.033877946
54	0xbd964830	-0.073379874
55	0x3dd193d5	0.10233275
56	0x3dcb20f2	0.09918393
57	0x3de0ad25	0.10970525
58	0xbdd8f145	-0.105928935
59	0x3bc95be1	0.006144986
60	0x3d9dba4a	0.077015474
61	0xbcf09cac	-0.029371582
62	0xbce2bd64	-0.0276782
63	0x3d4fb274	0.050707296
64	0x3d141e0e	0.036161475
65	0x3d859100	0.06521797
66	0xbd669fc8	-0.056304723
67	0xbd5ca980	-0.053872585
68	0x3e359acb	0.1773483
69	0xbda1f6d5	-0.079084076
70	0x3de7b7bb	0.11314341
71	0x3e3c8f7a	0.18414107
72	0xbd9e4138	-0.07727283
73	0xba8a88ed	-0.0010569372
74	0x3d4a887e	0.049446575
75	0x3c79f83e	0.015256939
76	0x3d9257c1	0.07145644
77	0xbe42fde1	-0.1904216
78	0xbdd0c859	-0.10194463
79	0x3d6f2de2	0.058393367
80	0x3c946f88	0.018119588
81	0xbc4a5435	-0.012349178
82	0xbde42003	-0.11138918
83	0x3e36f566	0.1786705
84	0x3bb789d6	0.005601148
85	0xbd428654	-0.047491387
86	0x3d58a6ab	0.052893322
87	0xbd01a76e	-0.031653814
88	0x3e66b0c9	0.22528376
89	0xbd9a2f7a	-0.07528587
90	0x3e26d10e	0.16290686
91	0x3d3f75b7	0.04674312
92	0xbd09d4aa	-0.033650078
93	0xbded3261	-0.11581875
94	0xbccd383b	-0.025051227
95	0x3bd94d13	0.0066315024
96	0x3b7bd5eb	0.0038427066
97	0xbd5f7661	-0.054556254
98	0x3dfc86b8	0.12330383
99	0xbd448a29	-0.047983322
100	0xbe10d051	-0.14141966
101	0x3db92cdb	0.090417586
102	0xbdc1a804	-0.094558746
103	0x3d63c51e	0.055607907
104	0xbd25002b	-0.040283363
105	0xbe0d6d42	-0.1381121
106	0xbd0429cb	-0.03226642
107	0xbcf5af0f	-0.029990701
108	0x3d73bb17	0.059504595
109	0x3dd5f989	0.10447986
110	0xbdc59bdf	-0.09648871
111	0xbcb23f48	-0.02175869
112	0x3d07b233	0.03312893
113	0xbd3aaea6	-0.045576714
114	0xbc68a722	-0.014200004
115	0x3db289b1	0.08717669
116	0xbdbf6d1f	-0.09346985
117	0x3d09dfc2	0.033660658
118	0x3c3651d1	0.011127905
119	0x3b3b945b	0.0028622362
120	0x3ce78b8b	0.028264781
121	0xbddb733a	-0.10715337
122	0xbdb22d4e	-0.087000474
123	0x3d79d76a	0.06099645
124	0xbd93871d	-0.07203505
125	0x3d9c464b	0.07630595
126	0xbceffa31	-0.029294105
127	0xbcbd65c8	-0.023119822
128	0x3d00541f	0.031330224
129	0xbcf1c166	-0.029511165
130	0xbdd8dacb	-0.105886064
131	0x3d4ab410	0.049488127
132	0xbd5f4eb0	-0.0545184
133	0xbd579e8c	-0.052641436
134	0xbdc49cc8	-0.09600216
135	0xbdb3252b	-0.087473236
136	0xbcd8129d	-0.026376063
137	0x3db51b9a	0.08843155
138	0x3cf00f63	0.029304212
139	0x3d8b92ae	0.06815086
140	0xbdf5b45f	-0.11997294
141	0xbd3f7c0a	-0.046749152
142	0x3d86e0ba	0.06585832
143	0xbd60a776	-0.054847203
144	0x3d4f7f89	0.050658736
145	0x3d7568f3	0.05991454
146	0xbbf2d672	-0.007410818
147	0xbafadfd8	-0.0019140197
148	0x3d496ca9	0.049175892
149	0x3ba2c9e6	0.004967916
150	0x3d562a77	0.05228659
151	0xbd34d3de	-0.044147365
152	0xbd967ce2	-0.07348038
153	0x3c9bf171	0.019036027
154	0xbd3fd140	-0.046830416
155	0x3c7c97c4	0.015417043
156	0x3d3a07e6	0.04541769
157	0x3d425f69	0.04745427
158	0xbd33d552	-0.04390461
159	0x3debd1bb	0.11514612
160	0xbd20ca96	-0.0392557
161	0x3c1220fb	0.008918996
162	0xbd438ee9	-0.04774371
163	0xbb980f38	-0.004640486
164	0xbd5dac9a	-0.054119684
165	0x3d50aaae	0.050944023
166	0x3bee83b7	0.007278885
167	0xbdc8f17a	-0.09811683
168	0x3daea17f	0.08526897
169	0x3d7dad43	0.061932813
170	0xbc1e98f6	-0.009680023
171	0x3cb4b756	0.022060078
172	0xbd22e0c5	-0.03976514
173	0xbcf364e2	-0.02971119
174	0xbd423533	-0.047414016
175	0x3dc08a84	0.0940142
176	0xbd893264	-0.066990644
177	0x3d6b92f0	0.057513177
178	0x3da850f4	0.082185656
179	0x3df727f8	0.1206817
180	0x3dd165bf	0.10224485
181	0x3d27a72f	0.040930923
182	0xbd9a4c5d	-0.075340964
183	0xbdb99d5e	-0.090632185
184	0xbd4244d8	-0.047428936
185	0x3d4e8ab2	0.05042524
186	0xbd83801d	-0.0642092
187	0x3d9f8c98	0.07790488
188	0xbdf16889	-0.117875166
189	0xbe0295a9	-0.12752403
190	0x3c331bc2	0.010931911
191	0xbdd3edad	-0.103480674
192	0xbd6bdbd1	-0.05758268
193	0x3d90bc50	0.07067168
194	0x3c9b2662	0.0189392
195	0xbd81a32b	-0.0632995
196	0xbd95f29b	-0.07321664
197	0x3cc63270	0.024193972
198	0x3d6804cd	0.056645203
199	0x3c660009	0.014038094
200	0xbd4fc9a6	-0.050729416
201	0x3de66ed7	0.1125161
202	0xbd0c58fa	-0.034264542
203	0x3d0981ed	0.033571173
204	0x3d230bb0	0.039806068
205	0x3df99b7d	0.1218786
206	0xbe1218d7	-0.14267288
207	0x3d02b261	0.031908397
208	0x3bd7e332	0.006588363
209	0x3dd4adb7	0.10384696
210	0x3c8445ad	0.016146505
211	0x3d1c1102	0.038102157
212	0x3d80ca07	0.06288534
213	0xbd46a963	-0.048501384
214	0x3d2b121a	0.04176531
215	0x3d256a52	0.040384598
216	0xbd261b7f	-0.040553566
217	0x3d93dfc8	0.07220417
218	0xbd98d675	-0.074627794
219	0x3deb6b6f	0.11495101
220	0xbb3caadc	-0.0028788364
221	0xbb99df38	-0.004695799
222	0x3dc75a36	0.09734003
223	0x3de596bf	0.11210393
224	0x3b8a7432	0.0042252773
225	0x3cfc29a1	0.030781569
226	0xbc8181bc	-0.015808932
227	0x3d5b6507	0.053563144
228	0x3dd62902	0.1045704
229	0x3c8a8bb7	0.016912324
230	0xbcc3a8d5	-0.023884216
231	0xbe0c42a1	-0.13697292
232	0x3c76694c	0.015039753
233	0xbc1eff71	-0.009704457
234	0xbd71da5d	-0.059046138
235	0xbb1fd948	-0.0024390984
236	0xbcb2a8bc	-0.021808974
237	0x3daaefdb	0.0834653
238	0xbd69b71a	-0.057059385
239	0x3d98df67	0.074644856
240	0xbd89e24b	-0.06732615
241	0x3d6cf3dd	0.057849754
242	0x3cb6ea94	0.022328652
243	0xbd0894d4	-0.03334506
244	0x3d27b1d0	0.04094106
245	0xbd96911b	-0.073518954
246	0x3dc8d78a	0.09806736
247	0x3db9a2a9	0.09064228
248	0xbd93b80a	-0.07212837
249	0xbd10abbf	-0.03532004
250	0x3d6421f1	0.05569643
251	0x3d1a6f0b	0.037703555
252	0x3e1ddb2d	0.1541564
253	0xbd996957	-0.07490795
254	0x3b9313a3	0.004488425
255	0x3da2cdab	0.07949384

net.0.bias_ih_l1 f4 [300]
0	0x3d0b44ca	0.03400115
1	0xbdae5ada	-0.08513422
2	0xbd887efa	-0.06664844
3	0x3d28c308	0.04120162
4	0xbd95b4c7	-0.07309871
5	0x3ce2979f	0.02766019
6	0xbdd24159	-0.1026637
7	0xb9ec5bd6	-0.0004508185
8	0xbddee3ae	-0.1088327
9	0xbc95e4ac	-0.018297516
10	0xbc62936d	-0.013829094
11	0xbe008c2e	-0.12553474
12	0xbd0906ff	-0.033453938
13	0x3bb782c8	0.005600307
14	0xbcacc0df	-0.021088062
15	0xbdb0aeea	-0.08627112
16	0x3b69d91f	0.0035682393
17	0x3d38b624	0.045095578
18	0xbbb4d19d	-0.005518152
19	0xbd0ffca9	-0.035153065
20	0xbe176c8e	-0.14787504
21	0xbd6dcf50	-0.058059037
22	0x3c9a1791	0.018810065
23	0xbdadfa32	-0.084949866
24	0x3c7acfb5	0.01530831
25	0x3a04c5e2	0.0005064887
26	0xbdbedbc5	-0.093192615
27	0xbd9eee11	-0.07760251
28	0xbda962fc	-0.08270833
29	0xbe162db8	-0.14665878
30	0xbd794ad6	-0.060862385
31	0x3d20e7f5	0.03928371
32	0x3ce75f0f	0.02824357
33	0x3d5534c7	0.052052286
34	0x3da0bd8c	0.07848653
35	0x3d2d0f37	0.042250838
36	0xbdbab3f8	-0.091163576
37	0xbd97b61f	-0.07407784
38	0x3b0e340c	0.0021698503
39	0xbdc94fd7	-0.09829681
40	0xbc5e6b3a	-0.0135753695
41	0x3d9a67f9	0.075393625
42	0x3c00b934	0.007856656
43	0xbda76391	-0.08173288
44	0x3dd03061	0.101654775
45	0x3d69b24a	0.057054795
46	0x3d6f6d54	0.058453873
47	0x3d9492b4	0.07254544
48	0xbd939efd	-0.07208059
49	0x3da11c51	0.07866729
50	0xbda5d272	-0.0809678
51	0xbd2dc763	-0.042426478
52	0x3cf6b9fe	0.030117985
53	0xbdcbe1de	-0.0995519
54	0x3cc02890	0.023456842
55	0xbc677a99	-0.014128351
56	0xbd61a302	-0.055087097
57	0xbd2b3574	-0.041799024
58	0xbc010c6a	-0.007876495
59	0xbe0c14c1	-0.13679792
60	0xbd396e0f	-0.045270976
61	0xbd69a473	-0.057041597
62	0x3b8f5790	0.004374452
63	0xbd686a07	-0.05674174
64	0x3d3c8038	0.046020716
65	0xbc301af1	-0.010748611
66	0xbda4624b	-0.080265604
67	0x3dacff97	0.084471874
68	0x3d54250d	0.051793147
69	0x3d806173	0.06268587
70	0xbd6274e8	-0.05528727
71	0xbdeff0fb	-0.11715885
72	0xbdbcc7ed	-0.0921782
73	0x3cb032fe	0.02150869
74	0x3a432080	0.00074435025
75	0x3d47a05b	0.04873691
76	0xbda36823	-0.07978847
77	0x3b843c1f	0.0040354873
78	0xbdea9099	-0.11453361
79	0x3d687198	0.056748956
80	0xbdcddcf9	-0.10051913
81	0xbe1a1b52	-0.15049484
82	0x3d968eda	0.073514655
83	0xbcbf3e41	-0.023345115
84	0x3d271139	0.04078791
85	0xbddee185	-0.10882858
86	0xbd0a1b18	-0.033717245
87	0xbde369c6	-0.11104159
88	0xbd20bf98	-0.039245218
89	0x3d4d1f6e	0.0500788
90	0x3db7ae24	0.089687616
91	0x3c81f622	0.015864436
92	0x3ca48568	0.020083144
93	0x3d78fb2a	0.060786404
94	0xbd5ee51a	-0.054417707
95	0x3d1cdb03	0.038294803
96	0x3e24dafd	0.16099162
97	0xbd4a6464	-0.049412146
98	0xbd2e75d8	-0.042592853
99	0xbd86f8dd	-0.06590436
100	0x3ca1e224	0.019761153
101	0x3e1e977a	0.15487471
102	0xbd66bb97	-0.056331243
103	0x3dc92019	0.09820575
104	0xbc0c1bfe	-0.008551596
105	0xbe086230	-0.13318706
106	0xbdcfed93	-0.101527356
107	0x3e12a427	0.14320432
108	0xbc226d71	-0.009913788
109	0x3e818e66	0.25303954
110	0x3c352823	0.011056933
111	0xbe3b1f65	-0.18273695
112	0x3d262877	0.040565934
113	0x3dd19439	0.10233349
114	0xb9d82fb8	-0.00041234284
115	0xbd9a5ae2	-0.07536866
116	0xbe1432a1	-0.14472438
117	0x3d527f0e	0.0513907
118	0x3ccd4a79	0.025059925
119	0x3d01b75f	0.031669017
120	0xbc100a6a	-0.008791545
121	0xbd566527	-0.05234256
122	0xbe1fa947	-0.15591918
123	0x3e1d1fe2	0.15344194
124	0xbe39444a	-0.18092456
125	0xbd1b765f	-0.037954684
126	0x3dd55215	0.104160465
127	0xbc253c92	-0.010085242
128	0x3a9d48c7	0.0011999839
129	0xbcbca9a3	-0.023030108
130	0xbdce9de0	-0.10088706
131	0xbd85ff0a	-0.065427855
132	0x3bdad7f2	0.0066785747
133	0xbe0d3c51	-0.1379254
134	0xbd36835c	-0.044558868
135	0xbd66112b	-0.056168716
136	0xbe02dc29	-0.12779297
137	0x3d0a2269	0.033724222
138	0xbda7d953	-0.08195748
139	0xbd08344a	-0.03325299
140	0x3d904332	0.070440665
141	0xbdb21310	-0.08695042
142	0xbb9ac791	-0.004723497
143	0xbd822326	-0.0635436
144	0x3d4ba2fa	0.049715973
145	0x3e0413b0	0.12898135
146	0xbe4409b6	-0.1914433
147	0xbc5b3cfd	-0.01338124
148	0x3c01f902	0.007932903
149	0xbd83b05a	-0.06430121
150	0xbd99f6f4	-0.07517806
151	0xbd3e48fb	-0.04645632
152	0xbe246f0d	-0.16057988
153	0x3cb91fcc	0.02259817
154	0xbddf0de9	-0.10891325
155	0x3dc6722a	0.09689744
156	0x3e146761	0.14492561
157	0xbc673778	-0.014112346
158	0x3c365a52	0.0111299325
159	0x3d8c918d	0.06863699
160	0xbe0fbd4b	-0.14037053
161	0xbda512da	-0.08060236
162	0xbd8d2050	-0.06890929
163	0x3d298cde	0.041394107
164	0xbd4b8c05	-0.04969408
165	0xbe3ec68a	-0.18630424
166	0xbd358244	-0.044313684
167	0x3dd4b7a2	0.10386588
168	0x3d804968	0.06264001
169	0xbd01d2f2	-0.031695314
170	0x3d1dcc13	0.0385247
171	0xbcc883a3	-0.024476832
172	0x3d9e0306	0.077154204
173	0x3dae2ae8	0.085042775
174	0xbccc6903	-0.024952417
175	0xbe0b7cfb	-0.13621895
176	0x3d05b8e5	0.032647032
177	0x3d5da827	0.05411544
178	0x3d01bbf4	0.031673387
179	0xbdf4cb5f	-0.119528525
180	0xbe07582e	-0.13217232
181	0xbcb869b1	-0.022511335
182	0x3c474117	0.012161515
183	0xbdc1c7a0	-0.094619036
184	0x3d26ca69	0.040720377
185	0x3b971510	0.004610665
186	0x3d6cde23	0.057829034
187	0xbe144e58	-0.14483011
188	0xbdb935f6	-0.09043495
189	0x3e06432f	0.13111566
190	0xbc546dfe	-0.012965677
191	0x3ddb0c95	0.10695759
192	0x3db890c7	0.09011989
193	0x3caaf4e9	0.020868735
194	0xbbdcc3f9	-0.006737229
195	0x3dd76069	0.10516436
196	0x3e7c712d	0.24652548
197	0xbe4cfa69	-0.20017399
198	0xbbc714d9	-0.0060754833
199	0xbb4ea7b9	-0.0031533076
200	0x3cb70523	0.022341317
201	0xbcf8c764	-0.030368514
202	0xbd8b4b08	-0.068014205
203	0x3d95be1c	0.07311651
204	0xbd34a41e	-0.044101827
205	0xbd8685af	-0.06568467
206	0xbd4aeb88	-0.049541026
207	0x3da89f52	0.08233513
208	0x3cc5c0a4	0.02413971
209	0xbdbe9f8a	-0.093077734
210	0x3dcbf30c	0.09958467
211	0xbdad81b3	-0.08472004
212	0x3d0014b4	0.031269744
213	0x3bbf3446	0.005835089
214	0x3c4e4c50	0.0125914365
215	0x3bc2b280	0.005941689
216	0xbd0563ef	-0.032566007
217	0xbd8ef248	-0.06979805
218	0x3db0dba0	0.0863564
219	0xbd91c7ab	-0.07118162
220	0x3d9198cf	0.07109224
221	0xbc57ee2a	-0.013179341
222	0xbca2185d	-0.019787008
223	0x3d7d9670	0.061911047
224	0x3d7bfaac	0.061518356
225	0xbdb966a1	-0.09052778
226	0x3df2e0cc	0.11859283
227	0xbc4a3e20	-0.012343913
228	0xbcfd9b28	-0.030957773
229	0xbda2f452	-0.07956757
230	0x3d449f42	0.048003443
231	0x3dd4aa29	0.10384018
232	0xbc0ee426	-0.008721387
233	0xbd3f3007	-0.04667666
234	0x3d9b03fd	0.0756912
235	0x3b28c1f3	0.0025750368
236	0x3d0bcb49	0.034129415
237	0xbdda3771	-0.10655106
238	0x3d64a046	0.05581691
239	0x3dad6ea6	0.0846837
240	0x3df3e13d	0.11908195
241	0xbd4a1762	-0.049338706
242	0x3d292090	0.04129082
243	0x3dac94ff	0.08426856
244	0xbdd1951c	-0.102335185
245	0x3c65a2c6	0.014015859
246	0xbdb60c80	-0.08889103
247	0xbba9d141	-0.0051824157
248	0x3dda557d	0.10660837
249	0x3dabbee7	0.08386021
250	0x3dc11b6c	0.094290584
251	0x3db59820	0.08866906
252	0xbc0ae165	-0.00847659
253	0xbd7599c7	-0.059961107
254	0x3cb67561	0.022272767
255	0xbd5e4b66	-0.054271124
