gan_classification/acgan_classifier.pt (torch, 618549 bytes, 15 tensors)

conv_blocks.0.weight_ih_l0 f4 [300, 2]
00000000: d7b3 0e3c f69c fd3b 3099 333d ab9a 05be
00000010: f541 1dbd 0bb7 7f3d 4021 df3c 001f 27bd
00000020: 498e dc3d 4006 093a 5cc4 8ebc fafc e0bd
00000030: 253a dc3b c416 86bd d7e5 753d 8f79 d63c
00000040: 505b b5bd b6b3 aebd d04e 7bbd efde d3bd
00000050: c738 8fbd bd0f a0bd 46c9 b43d 393a c03d
00000060: 160e 9a3b b54c 8e3d 5af1 be3d 1ac1 8dbc
00000070: 05d4 993d 854e d6bc 9639 8cbc ab43 0c3d
00000080: ce9c 7c3c e6f6 ebbc 8e9c 0c3c e8b4 a1b9
00000090: 986a e3bc 7e95 6fbd 3af5 183c 0735 9fbc
000000a0: 7b91 e03d af7b 9b3d 238c 183b 287c 843d
000000b0: 01dd 79bd 811c a2bd a6bd 8d3d 3a30 12bd
000000c0: 8417 9f3d 6bb8 9e3d d324 c4bd 8d70 87bd
000000d0: 5e0a 473d 2983 893d 8972 873d a3ea 703d
000000e0: bdbf 4dbb 38b9 bebd 831b ce3d 7b02 b23d
000000f0: a036 69bc 7b6e b3bd fc90 683d f9b3 363d
00000100: 72c9 cd3b 259a 4c3d 473c 113d 8db7 6bbc
00000110: 2886 b73d ae9d 933d 8be4 593d 7f49 c93b
00000120: 70c3 3a3c fa3f 25bc 1bc9 71bd 3950 703c
00000130: 6891 9c3d c998 8cbd 3f23 a93d 19f4 acbc
00000140: afe5 df3c 5069 9d3d fbd6 8cbb 52a3 213c
00000150: d9c1 6bbd ada3 333c f57d 5b3d 2f9f a1bb
00000160: f049 c4bc ffac a43d 80b7 69bd 9698 38ba
00000170: d0a1 913d e828 b3bc 85a2 e03c 577f 63bd
00000180: d554 80bc 768d 793d fbc6 82bd 3558 3dbc
00000190: 6bc6 38bd 0aa1 133d 792f 97bd a115 103d
000001a0: 66d4 6d3d a347 3abd 54ab 923d 2eac d63c
000001b0: 6161 b13d 2930 673c b170 f5bd 6202 7ebd
000001c0: 1171 c9bd cfe9 80bd d5d3 40bc bd4b ebbc
000001d0: 31b0 9e3d 829e 083d aaa5 3ebd 004a 2f3c
000001e0: 3354 2dbd 8790 89bd 95b2 a2bc 5c68 e2bc
000001f0: dc4b 5e3c d589 a7bc 17d4 18bd d552 6e3d
00000200: 4a64 5abc 520e cdbd 3cee 5d3c 69de 693d
00000210: 012e b53d 08d6 783d 2253 a13d 28c5 333a
00000220: c480 863a 5ddb a33d c61e a1bd ce31 b8bc
00000230: e93d dd3c a372 953b fa0d 05bd e91f b2bd
00000240: 019a dcbb 8649 4e3d a29b 59bc 3be2 9c3d
00000250: df1f 6c3d be11 b1bc c347 903d e9f1 20bd
00000260: a877 bd3b a59f c73d 798b 373d 3ad3 133d
00000270: 977a 893c 24af 893d fde2 713d a7c3 d0bd
00000280: eaf5 883d 7a84 b5bd fc53 783b b437 b9bd
00000290: 2519 6abd 53cb a8bc b2ca c73d 87cc f1bd
000002a0: be43 a3bc 00c4 933d 7a28 43bc 9801 6dbd
000002b0: 8d14 c03d 4ed1 9dbd 3bb6 bebc 1a83 cfbd
000002c0: a86a a6bd 871f 073d 83c1 94bd a2e2 58bd
000002d0: beab 84bb fcbb a2bb aa9b e9bc 9619 4fbc
000002e0: 19ec 18bd d75b c93d 37af 883d 05e9 b2bd
000002f0: f038 b93d 5edf c9bd 93d6 17bd 20b8 45bd
00000300: 11eb 93bd a2fc 6a3d 84a0 0abd 1e95 a4bd
00000310: e2c4 d0bc 5195 86bc 7929 8d3d c3f4 80bc
00000320: 53e8 70bd e606 4ebd aafd 70bd 361e 16bc
00000330: 5d34 723d 3151 a53d d306 9abd d3a2 9cbd
00000340: b914 80bd e761 22bd e4ce 803d df54 793d
00000350: 1b1b 9b3c 8802 b2bc d331 34bd a611 be3d
00000360: 9714 0ebd 5b78 a73c 6637 3c3d a624 51bb
00000370: 64d6 25bd 1a7e b33c e1e1 0c3c d5ac 8dbd
00000380: 1e26 b3bd e9b4 cb3c e07e d33c 2ff1 8e3d
00000390: d200 97bd 3f31 9dbd 1cab 79bd 8157 963d
000003a0: c2c3 1abd a673 dbbb 7a66 8dbd 1315 63bd
000003b0: 2a71 bcbb 5258 943d 7748 4b3c e60d 3ebd
000003c0: 205c d63c 5d03 5cbd 4b7a 563d 24d8 3a3d
000003d0: 8091 fb3b f2ad cdbd cb87 32bd 05cc fd3c
000003e0: 617e 10bd 5427 8cbc 74f0 2bbd 3f84 8e3d
000003f0: f51c 05bd 0ae1 05bd f3e4 27bd 16df ba39
0.008709869 0.0077396585 0.043847263 -0.13047282 -0.03839298 0.062430423 0.027237535 -0.04080105
0.10769326 0.00052270666 -0.017427616 -0.109857515 0.0067207986 -0.06547311 0.060033645 0.02618101
-0.08855307 -0.08530371 -0.06135446 -0.103452556 -0.06993251 -0.07815502 0.08827452 0.09386105
0.004701386 0.069482245 0.09323378 -0.017303992 0.07511143 -0.026160488 -0.017117303 0.03424422
0.0154182445 -0.028804254 0.008582247 -0.000308431 -0.027760789 -0.058492176 0.00933581 -0.019434465
0.10965248 0.0759195 0.0023276887 0.064689934 -0.06100178 -0.07915593 0.06920938 -0.035690524
0.07768157 0.07750019 -0.09577336 -0.06613264 0.04859387 0.0671447 0.06613643 0.058817517
-0.0031394802 -0.093126714 0.10063841 0.08691879 -0.014234215 -0.08761307 0.056778893 0.04460523
0.0062801177 0.04995169 0.035457876 -0.014387024 0.08961135 0.072078094 0.05319647 0.0061427946
0.011399135 -0.010086054 -0.05902968 0.014667564 0.076449215 -0.06865079 0.08258676 -0.021112489
0.027331201 0.076861024 -0.0042980886 0.009865599 -0.057557914 0.010964316 0.05358692 -0.0049323062
-0.023961037 0.08040809 -0.057059765 -0.000704178 0.071109414 -0.021870092 0.027421245 -0.055541363
-0.015665451 0.060925923 -0.06385609 -0.011556675 -0.0451111 0.03604225 -0.073821016 0.035176877
0.058063887 -0.045478474 0.071615845 0.026205149 0.08661152 0.014110603 -0.11984385 -0.06201399
-0.09836019 -0.062945955 -0.011769255 -0.028722638 0.077484496 0.03335429 -0.04654471 0.010698795
-0.042316627 -0.067170195 -0.019860545 -0.027637653 0.013567891 -0.020451466 -0.03731164 0.058184464
-0.013329575 -0.10012497 0.013545569 0.057096872 0.08846665 0.06075099 0.078771845 0.00068576867
0.0010261764 0.080008246 -0.07867198 -0.022484686 0.02700706 0.004560785 -0.032484032 -0.08697493
-0.006732226 0.050363086 -0.013281735 0.076603375 0.057647582 -0.021614905 0.070449375 -0.039293204
0.0057820864 0.09747247 0.044810746 0.036090113 0.016782088 0.067228585 0.059054364 -0.10193568
0.066875294 -0.088631585 0.0037891855 -0.09043828 -0.057152886 -0.020604765 0.09755458 -0.118065886
-0.019929763 0.072151184 -0.011911506 -0.057862848 0.0937892 -0.07705937 -0.023280254 -0.101324275
-0.08125812 0.03298905 -0.07263472 -0.05295051 -0.0040487936 -0.004966257 -0.02851661 -0.0126403775
-0.037334535 0.0983197 0.066740446 -0.08735851 0.09044063 -0.09857057 -0.03706987 -0.0482713
-0.0722257 0.057369836 -0.033844486 -0.08036254 -0.025484506 -0.016428621 0.06892676 -0.015741711
-0.05881531 -0.050299548 -0.058835663 -0.009162476 0.05913197 0.08072127 -0.07520833 -0.07648244
-0.062539525 -0.03964415 0.06289461 0.060871955 0.018933823 -0.021729723 -0.04399283 0.0928071
-0.034687605 0.020443132 0.04595127 -0.0031912713 -0.040487662 0.021910716 0.008598776 -0.06917731
-0.08747505 0.024866538 0.025817335 0.06979596 -0.07373203 -0.076754086 -0.0609542 0.07340909
-0.037784345 -0.006697136 -0.069043115 -0.05544002 -0.005750795 0.07243408 0.012407414 -0.046399973
0.026166975 -0.053714145 0.05236272 0.045616284 0.007677257 -0.10042943 -0.043586534 0.030981073
-0.035276774 -0.017108597 -0.04197736 0.06958818 -0.03249832 -0.032685317 -0.040989827 0.00035642897

conv_blocks.0.weight_hh_l0 f4 [300, 100]
00000000: a229 d7bd 3bf0 dbbd 0543 993d 6e50 8cbc
00000010: 46c2 c13c 7607 883d 6899 793d c251 1abd
00000020: 7be2 663d 5e9c 00bd 752f 8ebd 0ac3 ca3a
00000030: 6e56 9a3d 3db0 99bd 95e6 02bd 5d8c 67bd
00000040: f656 103c ff11 9dbd 2df3 833d 6c5f 303d
00000050: 10af 933d 284c c63d a66e b53d 53c5 b3bd
00000060: f65a 9e3d dc4e dc3b 6b0d 2f3d c88c 0dbd
00000070: d4e4 e2bb b6be f9bc 8ae9 00bc e6a9 f8bb
00000080: 63af 8b3d e746 b9bc 99d2 a8bd ec72 17bc
00000090: aa61 8f3d a259 afbc 8d2f a53d 2069 d2bc
000000a0: e69d de3d c265 073d d547 3f3d 25bd 4d3d
000000b0: 7fd9 a1bd 14ca 093d 3ff1 353d 216f cabc
000000c0: 9dd1 a53d b263 15bd 29b1 873d 728a 963d
000000d0: e6f8 833d b0a5 743d 7c11 6f3c e0f8 933d
000000e0: a0c0 3abc 3228 b03d 25f0 35bd 6887 4f3b
000000f0: 00bc 01bd 538c 0b3d 1cbf 423d a8a6 22bd
00000100: bb55 433d d36e 153d a2e3 663d 97d7 093d
00000110: 00f6 04bd 3938 43bd d6fe 4bbd a10f 673c
00000120: 2f0d 453d 641c 8fbd 6b07 3ebd 3e82 c43d
00000130: 359c 953d 5d9b 95bd bff1 003c 7ba2 7a3b
00000140: 9483 1a3d 951c 963d bd15 a6bc b4d5 c23c
00000150: 956a 82bd 488d d33c 48fe 99bd 9b01 c6bd
00000160: 58f5 1f3d 917c 9a3d 0ead 49bd 2cb3 5fbd
00000170: 3f56 91bd b80c 5b3d aefa 52bd da96 f83c
00000180: 05ae 68ba fe6e 0bbd 0d0a 843d 4686 bb3d
00000190: 1a06 8cbd b1bf 423b 57c3 a53d ada2 593d
000001a0: bbdf 383d 10f3 e4bc 7083 18bd 1c6c cc3b
000001b0: d98c 87bd 7bdc e5bd 8624 98bd 0be7 66bd
000001c0: 513a 4e3d 7fc0 953d 1f81 893d 0d0d 393d
000001d0: 5adc 98bd 00b7 ad3d be59 76bd 1013 3b3d
000001e0: 926b 05be 07f1 8a3d af06 21bd 39e5 84bd
000001f0: cea5 8fbc 80a1 fabd 06f2 c93d 2b09 b93d
00000200: 21ce bb3d 6f42 ddbb 3f02 2ebc 1ac9 b63d
00000210: eaf4 73bd 0cb0 b6bd 97d6 383d a9b6 2ebc
00000220: a432 02be 319d 383d 50da 88bc 3b8a ddbc
00000230: 5ac1 e7bc 35cd 19bd 199f 453d 8398 56bd
00000240: e0ff f537 f662 933b ba58 a33d b5a1 0c3d
00000250: 6aef 843d eeab 833d e625 ad3d 65a0 c0bd
00000260: d208 f53d 22bc 39bd 9e8a 453d 92a1 d53d
00000270: 6c52 263d 2655 81bd 92fd 5a3c 0b26 b2bd
00000280: 83b2 a6bc b68f 823d 605c 113c 4a91 173d
00000290: 8347 b13d d2a5 6fbd 709d 5a3d bd71 b0bd
000002a0: 4804 9cbc b20c 6d3c 5c63 b0bb 4a7e b2bb
000002b0: d19d 783d 1390 b9bd 230a 3cbd 1aa5 96bd
000002c0: fcec e83d 7524 5e3d c897 41bd 44a4 6d3c
000002d0: 8f5c 963c 47f6 a43d ecbb cc3d e5ae 533c
000002e0: a7d8 00bd f038 63bd 5429 1bbd d6ed b9ba
000002f0: 5a0c 11bd e43b d7bd 3938 89bd 78f6 a43c
00000300: 9499 2ebc 7924 eabc 756c 98bd bc23 963b
00000310: 3a4a 8c3d f443 acbd e8d9 ee3c c64f cb3d
00000320: f02c d13d c900 0b3c d346 be3b 938a 513d
00000330: 60ba e5bc 8eef c8bd 0064 a3bb d890 023c
00000340: d93e 183c 62f5 febb 1890 ab3b 7475 72bd
00000350: 1d51 8b3c 1ad2 3fbd e8e8 b93b 39c0 04bd
00000360: 8a7c 0a3d 6a31 743d 7c8c a03d 5fa2 013d
00000370: 466a 163d 527a 7b3d 6631 9cbd 8477 fd3c
00000380: 5ec6 303d c79b c6bd d7dc 36bd 5c87 8a3d
00000390: 5469 ba3d 249b 6dbd 690e 7dbd 00a1 03bd
000003a0: 421e 0a3d b737 81bc f576 0e3d ef84 a9bd
000003b0: e1c9 8bbd bb1d 17bd 6a5e 9e3d 93a2 b0bd
000003c0: 45f3 0abd f840 ae3d 662e a43b 19da 953b
000003d0: e92e c5bd 5468 a5bb 66e5 a0bd 6dfe 9abd
000003e0: 2af2 fe3b ef5e 123d 4474 033c 3abf b4bc
000003f0: b448 083d bdcc 03bd 63f4 1f3d a8fa bfba
-0.10505988 -0.1073918 0.07483486 -0.017128196 0.023652207 0.06642048 0.060937315 -0.037675627
0.056368332 -0.031399123 -0.069426455 0.0015469503 0.075360164 -0.07504318 -0.03195818 -0.056530345
0.008809796 -0.07669448 0.064428665 0.04305975 0.07211125 0.096824944 0.08858995 -0.08777871
0.07732193 0.006723268 0.042737406 -0.034558088 -0.006924251 -0.030486446 -0.00786818 -0.007588613
0.06820562 -0.022616817 -0.08243293 -0.009243708 0.0700105 -0.021405045 0.0806571 -0.025684893
0.108699605 0.03305603 0.046699364 0.05022921 -0.07902812 0.033639982 0.044419523 -0.024711194
0.08096621 -0.03647203 0.066255875 0.07350625 0.06443958 0.059728324 0.014591571 0.072252035
-0.011398464 0.08601417 -0.044418473 0.0031666402 -0.03167343 0.03406937 0.047545537 -0.039709717
0.04768918 0.036482643 0.05636943 0.033652868 -0.032461166 -0.04766104 -0.049803577 0.014102847
0.048108276 -0.06987837 -0.046393793 0.09595154 0.07305185 -0.07305024 0.007870137 0.0038243819
0.03772314 0.0732967 -0.020274037 0.023783542 -0.06367985 0.025824204 -0.075192034 -0.09668275
0.039052337 0.075432904 -0.049237303 -0.05461423 -0.07096528 0.053478926 -0.051508598 0.03034537
-0.00088760286 -0.034041397 0.064472295 0.0915647 -0.06837101 0.0029716308 0.08093899 0.053133655
0.04513524 -0.027947932 -0.037234724 0.0062384736 -0.066186614 -0.11223694 -0.07428841 -0.056372683
0.050348584 0.07312106 0.06714081 0.04517846 -0.07463904 0.0848217 -0.06014418 0.045672476
-0.13029316 0.067842536 -0.039313015 -0.06489033 -0.017535117 -0.12237835 0.098606154 0.09034952
0.09170175 -0.0067523043 -0.010620653 0.08925076 -0.05955974 -0.08920297 0.045126524 -0.010663667
-0.1271463 0.045071784 -0.016705662 -0.027043452 -0.02829044 -0.037549216 0.04824743 -0.05239154
2.9325427e-05 0.004497881 0.079759076 0.034333903 0.06490977 0.06429277 0.08454494 -0.09405593
0.11964573 -0.045345433 0.0482279 0.10431208 0.040605947 -0.06315069 0.01336612 -0.08698662
-0.020348793 0.06375067 0.008872122 0.037003793 0.08656218 -0.058507748 0.0533728 -0.08615444
-0.01904501 0.014468359 -0.0053829383 -0.0054471837 0.06069738 -0.09060683 -0.045908105 -0.073557094
0.11373326 0.054233987 -0.04726389 0.014504496 0.018354682 0.08054786 0.09996781 0.012920116
-0.031456616 -0.05547422 -0.03788121 -0.001418526 -0.03541217 -0.1050947 -0.06700177 0.020137057
-0.010656733 -0.028581845 -0.074425615 0.0045818966 0.06850095 -0.084113985 0.02915664 0.09927325
0.10213649 0.008484074 0.0058067827 0.051157545 -0.028042972 -0.098113164 -0.004986286 0.007969104
0.009292328 -0.0077807168 0.005235683 -0.059194043 0.017006451 -0.046831228 0.0056735165 -0.03240988
0.033810176 0.059617437 0.07839295 0.03164899 0.036722444 0.06139595 -0.076266095 0.030940779
0.043157928 -0.09697681 -0.044644203 0.06764099 0.09102121 -0.05800928 -0.06178132 -0.032135963
0.033720262 -0.015773637 0.034781415 -0.08277308 -0.06825615 -0.036893588 0.07732852 -0.086247586
-0.033923406 0.085084856 0.005010414 0.0045731184 -0.09628088 -0.0050478373 -0.07856254 -0.07568059
0.007780333 0.035735067 0.008023325 -0.02206384 0.03327246 -0.032177676 0.039051425 -0.0014646845

conv_blocks.0.bias_ih_l0 f4 [300]
00000000: d6e8 8f3d 9ef8 033e c796 a1bd b25a abbc
00000010: 4bbe 28bd 388d bc3c 6ca8 9a3c 95c2 993d
00000020: 5e6d 2abd 77ec 753d 1e62 8d3d 0059 40bd
00000030: c2ae e7bb cc6c 57bd 98fd d83c f83d cf3b
00000040: fb27 303d 97c2 b73d 1e06 ca3d 6db1 1f3d
00000050: b356 4fbd d1f8 ac3d 95c4 b4bd a242 9ebd
00000060: 3bfe 413d 8339 223d 73c9 05bd 6ebc 91bc
00000070: 2e33 503d 04d9 47bc 2774 c33c c520 f63c
00000080: 6588 35bd 2b20 85bd 4bd5 3a3d 7f02 91bd
00000090: adcc 8fbd 7c79 adbd 58ab 5ebd b92a 4cbd
000000a0: b30b cebb 3ab3 42bd 243d 78bd 3db4 47bd
000000b0: 020e 0bbc f85f bebd bc91 5ebd c0fe 67bd
000000c0: 8e05 80bd afd3 94bd 2bb0 c43c 2891 ba3d
000000d0: f374 ce3d 3d83 853d b05d 9e3c 9421 8d3a
000000e0: 633d b6bd cde0 f63d 5ec4 863d 457b 79bd
000000f0: c1d0 85bd b8fb cebd 1e78 c43d 6f76 8c3d
00000100: 34c5 c9bc f215 ba3d 2e9e a9bd c4ee 60bb
00000110: c041 bebc 5525 2dbd 0688 8abc bcac 16bd
00000120: 32ee c3bc fecb 883c 5800 4abd fe80 913b
00000130: 6389 013e fa35 a73b 5852 7f3d be75 7f3d
00000140: cfc5 353d 13e9 453d 6ae5 173a 1dae aebb
00000150: 1ba0 80bd a941 f53c 115a 0f3d 51e4 363d
00000160: 1486 84bd 92a9 8dbd 0445 42bd 171a 3dbc
00000170: c341 09bd 5ff5 bd3d 643f 7ebd a159 30bd
00000180: 8355 db3c abb0 b4bd 7cc1 b3bd 92a1 53bd
00000190: 8966 803d 6846 a63c a1b5 0b3d 4b36 88bd
000001a0: 3b9e 553d 99a1 94bc f4e5 813d 532b a4bd
000001b0: 678c 88bc 8602 bebd e7bf d63d 7ad5 07bc
000001c0: ee7d bc3c c2a6 8b3d 1272 4abd ecd8 12bc
000001d0: 2446 153d a524 ad3d df5b b33b 7efb 763b
000001e0: dd23 ccbd 033d 99bd 54fb f2bb 6782 b53c
000001f0: 7796 d43b ac7e 57bd 05e9 06bd cb77 bc3c
00000200: f883 27bd b8f8 4cbd 3b7d bf3d dfc0 80bd
00000210: 28b7 6f3b e66e ccbd 684d 223c a726 91bd
00000220: 90c2 c0bd af0e 773d 2108 bd3d 8442 ecbc
00000230: 1df3 923c ad4d 2a3c 3cc5 8f3c 33ff 8ebc
00000240: 2f6c bebd 39a4 adbd 07de 813d 2c3a a3bd
00000250: 9553 fbbc 8251 ec3c 5fe3 323d 6540 a73c
00000260: 7460 6b3d 1b1b 573d 188a 07bd dd44 383d
00000270: f6c3 ed3b 1bb0 0b3d 04cb bd3c 0292 b4bd
00000280: 6223 56bd f825 b3bd 7e45 05bd 1a66 6cbd
00000290: 4ca0 de3c 8222 0f3d 39e0 9ebd 65d7 833c
000002a0: bbcd ca3d 40aa b7bd 0820 e23c 976a 8a3d
000002b0: 8390 333d 5e29 b8bd 971d 733d 4959 4b3d
000002c0: 6b5a 303d c075 bf3c 6ba6 b0bd 29d6 1a3d
000002d0: e894 c23b fa22 6e3d fe26 e8bc 5750 32bd
000002e0: 842a 03bd c10d a7bd 8163 ea3c 525e a73d
000002f0: ee58 ad3d a80d 9b3d ca06 743d 2c0b 84bd
00000300: 662d 003d 809d 4d3c abeb 37bd dd9a 74bd
00000310: b592 763d f44c 873d 31c9 6b3d f4dc e23c
00000320: 0ee1 ac3d 220d a53d d113 a1bd 3208 22bd
00000330: 1281 2a3d c551 07bc 6d9e 11bb c9a3 42bb
00000340: caeb c63d 5620 e93b 3edb 05bc 6317 023d
00000350: dc77 b3bb c0c0 b63d a162 b7bd a87e 4dbd
00000360: 892c 40bd f333 053c 83fb c13d 8e10 39bd
00000370: 7a4d 723b 1458 9b3d 9cbb 9bbd b2c9 50bd
00000380: 4a3a bc3d 6ec6 9bbc a34b 2dbd 0b18 32bb
00000390: 8569 e43d 21a2 9b3d edc9 23bd 1b3e 1fbd
000003a0: bf7f 85bd 919a 39bd aa7a 92bd 5a07 b1bd
000003b0: c5b4 8ebd ebee e53b 6fef d4bd bd9d 43bd
000003c0: d7ba 033c b97e 8ebd 0b3f a23d 9a17 b1bc
000003d0: 9ee0 96bd 7eac ddbc 48b9 923d 9610 a6bd
000003e0: 543d 983d 116b f73c a6ef b73d 712c a6bd
000003f0: 822b ab3c 5e71 303d efd7 893c be7e 623d
0.07026832 0.12887809 -0.078900866 -0.02091727 -0.041197103 0.023016557 0.018879138 0.07507817
-0.041608207 0.060039964 0.0690348 -0.046959877 -0.0070703933 -0.05259399 0.02648811 0.006324526
0.04300688 0.08972662 0.09864448 0.038987566 -0.050619792 0.084458955 -0.088265575 -0.07727553
0.047361594 0.03960563 -0.03266282 -0.017790046 0.05083006 -0.012197737 0.023859097 0.030044923
-0.04431953 -0.06500276 0.04561357 -0.07080554 -0.07021461 -0.08470437 -0.054362625 -0.04984543
-0.0062880157 -0.047534205 -0.060605183 -0.048755873 -0.008487226 -0.09295648 -0.054338202 -0.056639433
-0.062510595 -0.07266938 0.024009785 0.091097176 0.100809 0.06519172 0.019331783 0.0010767453
-0.08898427 0.12054596 0.06580423 -0.060908575 -0.06533957 -0.10106605 0.09593223 0.06858527
-0.024630167 0.09086217 -0.082821235 -0.0034322003 -0.023224711 -0.04227193 -0.016910564 -0.036785826
-0.023917291 0.016698834 -0.049316734 0.004440426 0.12650065 0.00510287 0.06233439 0.062368147
0.044378098 0.04831798 0.0005794378 -0.0053308145 -0.06280538 0.029938536 0.034998003 0.044651333
-0.06470886 -0.069171086 -0.0474291 -0.011541865 -0.03350998 0.092753164 -0.062072173 -0.043054227
0.026774174 -0.08822759 -0.087771386 -0.051667757 0.06269557 0.020297244 0.03410876 -0.066509806
0.052152853 -0.018143462 0.06342688 -0.08016076 -0.016668512 -0.09277825 0.10485821 -0.008290643
0.023009267 0.06818916 -0.049425192 -0.008962851 0.036443844 0.08454255 0.0054735984 0.0037686522
-0.09967778 -0.0748234 -0.0074152146 0.022156907 0.0064876634 -0.052611038 -0.03293707 0.02300634
-0.04089734 -0.050041884 0.09350058 -0.06286787 0.0036577675 -0.0998209 0.00990615 -0.070874505
-0.0941211 0.060316738 0.09230066 -0.02884031 0.017938191 0.010394496 0.017550103 -0.017455673
-0.09297978 -0.084785886 0.063411765 -0.0797008 -0.030679503 0.02884746 0.04367387 0.020416448
0.05746503 0.052516084 -0.03309068 0.04498755 0.0072560264 0.034103494 0.023168094 -0.08816911
-0.052279837 -0.08747476 -0.032536976 -0.05771456 0.027176045 0.03494502 -0.07757611 0.016093919
0.09902521 -0.089680195 0.027603164 0.06758612 0.04383899 -0.08992265 0.05935439 0.049645696
0.04305498 0.023371577 -0.08625492 0.037801895 0.005938161 0.058138825 -0.028338905 -0.04353365
-0.032022968 -0.0815692 0.0286119 0.08172287 0.084642276 0.07570964 0.059576787 -0.06447443
0.031293295 0.012549758 -0.044902485 -0.059718 0.060198504 0.066064745 0.057564918 0.02769325
0.08441363 0.080591455 -0.07865108 -0.039558597 0.041626997 -0.0082592415 -0.0022219673 -0.0029699674
0.09712942 0.0071144504 -0.008169947 0.031760585 -0.005476935 0.08923483 -0.08954359 -0.050169617
-0.046917472 0.008130061 0.094718 -0.045181803 0.003697245 0.07585159 -0.07604143 -0.0509736
0.09190805 -0.019015517 -0.04230846 -0.0027174975 0.11152939 0.07599283 -0.039987493 -0.038877588
-0.06518506 -0.04531342 -0.071523026 -0.0864398 -0.06968073 0.0070170066 -0.10397231 -0.047757853
0.008040152 -0.06957764 0.07922181 -0.0216177 -0.07367061 -0.02705979 0.07164246 -0.08108632
0.074335724 0.03020242 0.08981256 -0.08113945 0.02089477 0.043076865 0.016826598 0.055296652

conv_blocks.0.bias_hh_l0 f4 [300]
00000000: 8deb 3e3d 6bd4 3c3d 9c68 f7bb 5dfb 7b3d
00000010: afc6 80bd 15bc f9bc 860b a63d 59be 9f3d
00000020: 429c 713d e1ff cc3c acf3 b43d 1a18 be3d
00000030: 41e2 d53d cd95 fc3c 9625 cdbc 3bb6 6ebd
00000040: 55af 893c b14d 5c3d ac31 27bb 5737 43bd
00000050: f499 0c3d fd84 b23d 040d 193d ec2d c5bd
00000060: 8157 db3d 5eeb a13d 7529 72bd 35e9 47bc
00000070: 4921 a5bd 90eb 85bd 1ac6 933c a4eb 813d
00000080: 14d1 f6bc b2fc cebd c49e 52bb 8020 d23d
00000090: 5032 7c3b 99ae a93d 583b a33d b88b 9b3d
000000a0: 697a a13d d4be 6d3d 5212 2b3d 747a 88bd
000000b0: 25b4 aebb a34f 86bc be63 db3b 400a d23d
000000c0: 0d9e 2f3c 764d 363b d7eb 0c3d f581 3c3d
000000d0: c2fb d8bc 7248 e43d 8d5d 8e3d 08ac 8e3c
000000e0: 853f 4a3c 8d79 77bd f38f 81bd ccc6 5d3d
000000f0: 4b3f 473d 8a5a 693d 3cbd db3b 5fd0 133d
00000100: 8d37 71bc 82e9 87bd 9ba8 b9bd 8be0 333d
00000110: 9028 493d 6300 7d3d f9da ddbc e4a7 cebd
00000120: 66b6 cc3d 21fd 7dbc 4ad7 803d 37aa f33c
00000130: 7b9c 1ebd c71f 823d 468d ebbd 348e 51bd
00000140: 0395 c6bd 30a5 77bd 36f1 b33d a97f 0ebc
00000150: 8bc2 51bd 9497 a73c 227b 6f3d 784c fb3d
00000160: 8472 23bd 7ce7 c23d c479 22bc fd17 e33c
00000170: 9686 fabc 03a0 1cbd 36bb 31bd 6361 82bc
00000180: 8f2b a73c daed 31bd 5c3e 5b3d 97e9 c63c
00000190: bce1 853d ed2d 55bc e21c 97ba f2ff b73c
000001a0: 6fea 853b 27c2 adbd debd 2c3c 27ad 53bd
000001b0: 18ce c23d 2c56 efbd 2761 793d 3eb7 40bd
000001c0: ef28 3a3d 911f e03c 2dc0 cabd 567d cf3c
000001d0: 70fe 5dbb 08d4 803d 5f6e 703d ccb8 65bd
000001e0: 046b abbc 813d a8bd 11f0 06bd 10ac 933d
000001f0: a249 9cbd 8b0f 623c a5ec 2a3d fd5b bebb
00000200: de37 0fbd aec5 02bd da9b 9dbd b210 dabd
00000210: eb1b 99bd 1bc7 40bd c98b 99bd 0882 553d
00000220: 6b9c 35bd 5e0a 8abc 900f 783d 18b9 efbb
00000230: 2c95 c33d 1890 76bc ca55 863d 6957 89bc
00000240: 9461 a5bd fa4a 653d a554 87bd 2f14 d6bc
00000250: c567 8fbc 227c d5bd 7c4c 993d 06d4 3dbb
00000260: 85d1 5b3d 8c13 83bd f336 c0bd a3ef 88bd
00000270: 6e9c 9bbd 7d4f c3bd e8a2 89bd 2ee1 c63d
00000280: 2991 20bd 7042 d5bc 351b 87bd 2cf8 f2bc
00000290: 8897 a0bb 3a76 0f3d 2d32 723d 1042 6d39
000002a0: 2350 98bd 7273 bc3a eeee 84bd 93c5 2e3d
000002b0: 1560 103d a0f3 3c3d 7698 803d 6222 f0bd
000002c0: 3bcf 043d 753d 083d 3aa1 cbbd 3ee2 59bd
000002d0: e265 c0bd 1606 38bc 9315 c63d 1ca8 503c
000002e0: 88c4 a73c 97d6 bb3c fc0c f93b a1a8 9fbd
000002f0: 4d27 a23b 72b2 313d 026f 273d 716b f7bd
00000300: 78a5 1b3d db66 7b3d 559b 90bd 7b70 94bc
00000310: 8f67 a93d 976f 283d 6fc8 383d d27a dabc
00000320: 168d 743c 7dfb 3dbd e292 9a3d 47d9 81bd
00000330: 5909 533c 313c ffbb a1a3 163c 1a7d f43c
00000340: f3a2 c73d 6600 30bd 5e85 e73d f262 8a3a
00000350: 37e1 b8bd ad5a 753c 9870 4bbd 570e be3b
00000360: e50d 943d d153 423d 34f2 683b ce2b cc3c
00000370: 90a5 98bd 597b b8bd 42c7 d43c 7fe4 8f3b
00000380: b623 9f3d 3b4d 1bbd 6240 d13b 97f3 bdbd
00000390: 94ad 173d ecd4 a2bd 6e3a 66bd f8da c13d
000003a0: 6151 023b ced0 cfbc cd86 d73c 5bec 28bd
000003b0: 13cc 16bd f55a aebd 9094 8dbd d853 5bbd
000003c0: f193 223d efae 4e3c 0c3e 073d 8f84 6e3d
000003d0: 0ea1 8e3d c64a 813d 6219 de3c afe2 183b
000003e0: 27e0 f1bc b53d 213d f6dc 61bc 6a73 563d
000003f0: e6a2 afbd 9e71 9b3c b855 4b3c 2c2b cc3b
0.046611357 0.046101015 -0.007550312 0.061519016 -0.06287896 -0.030485192 0.08107667 0.07799978
0.05898691 0.025024356 0.08835539 0.09281941 0.10443545 0.03083315 -0.025042336 -0.058279257
0.016807238 0.05378503 -0.0025511784 -0.047660198 0.03432651 0.08716772 0.03736593 -0.096278995
0.107100494 0.07906221 -0.059121568 -0.012201597 -0.08062989 -0.065390706 0.018038798 0.06343773
-0.030128993 -0.101067916 -0.0032138089 0.10260105 0.0038482137 0.08285255 0.07970303 0.075950086
0.07884676 0.058043316 0.04176552 -0.06663981 -0.0053315335 -0.016395396 0.00669524 0.10255861
0.010718835 0.0027817166 0.034404602 0.046022374 -0.026487235 0.1114663 0.06951437 0.017416015
0.012344246 -0.060418654 -0.06326284 0.054144666 0.048644345 0.05697111 0.006705908 0.03608739
-0.014722717 -0.06636335 -0.09065362 0.043915313 0.04911095 0.061767947 -0.027081953 -0.10090616
0.09995727 -0.015502245 0.06291063 0.02974425 -0.03872345 0.06353717 -0.11501555 -0.051161006
-0.096963905 -0.06046027 0.08786242 -0.008697429 -0.05121092 0.02045802 0.058467038 0.12270445
-0.039904132 0.095168084 -0.0099167265 0.0277214 -0.030581754 -0.038238537 -0.04339143 -0.015915578
0.020406513 -0.043439724 0.053526267 0.024281306 0.06537196 -0.013011438 -0.0011528993 0.022460911
0.0040867846 -0.08484297 0.010543315 -0.051678803 0.095119655 -0.11686358 0.060883667 -0.047049753
0.045449194 0.027358802 -0.09899936 0.02532832 -0.003387358 0.06290442 0.058699008 -0.05608444
-0.020925052 -0.08214856 -0.03294379 0.07210553 -0.07631232 0.013797651 0.041729588 -0.0058093057
-0.03496539 -0.031926803 -0.07695742 -0.10647716 -0.07476028 -0.04706488 -0.07497365 0.05212596
-0.044338625 -0.016850647 0.060561717 -0.007315766 0.09549937 -0.015049003 0.06559332 -0.016765313
-0.08075252 0.055979706 -0.066079415 -0.026132671 -0.017505536 -0.10424067 0.07485291 -0.0028965487
0.05366661 -0.06400213 -0.09385481 -0.06686332 -0.07598196 -0.095366456 -0.06720525 0.09710918
-0.039200936 -0.026032656 -0.06596986 -0.029659353 -0.0049008764 0.03502486 0.059129883 0.00022626691
-0.0743716 0.0014377667 -0.06490885 0.04266889 0.03524788 0.046130776 0.062790796 -0.11725308
0.032424193 0.033261735 -0.09942861 -0.053194277 -0.093944326 -0.01123192 0.09672084 0.012735393
0.020479456 0.022929473 0.007600425 -0.07795835 0.0049485327 0.04338307 0.04087735 -0.1208104
0.0379996 0.061377387 -0.07060877 -0.018120041 0.08271705 0.041122045 0.045113023 -0.026669893
0.014926216 -0.046382416 0.07547547 -0.063402705 0.012880647 -0.007789158 0.009194286 0.02984481
0.09747877 -0.04296913 0.11304735 0.0010558052 -0.09027331 0.014975232 -0.049667925 0.0058000493
0.07229213 0.047443215 0.0035544755 0.024923231 -0.074534535 -0.09007902 0.02597392 0.0043912525
0.07770483 -0.03791545 0.006385849 -0.09274977 0.03703077 -0.07950768 -0.056208067 0.09465593
0.0019884931 -0.02536812 0.026309395 -0.04124103 -0.036815714 -0.085134424 -0.06913102 -0.053546757
0.03969187 0.01261495 0.033018157 0.058231886 0.069643125 0.0631309 0.027111713 0.0023328473
-0.02952583 0.03936549 -0.013785591 0.05235616 -0.08575992 0.018975075 0.012410574 0.0062307324

conv_blocks.0.weight_ih_l1 f4 [300, 100]
00000000: 41ea fa3c f045 c8bd 4de1 2cbd fe77 febc
00000010: 8800 6dbd e0b0 b8bc 6d4b 0d3d 5e6b 86bd
00000020: 00ef 12bd 87e5 96bb b929 9dbd 5dbd aabd
00000030: 1b05 ee3c de12 923d e792 9abd 1501 cd3d
00000040: 286b 53bd 29bf 94bd 1f48 f43c 52b8 d43d
00000050: 770e b0bd e8bc a23d 4c28 bdbd 93d2 86bd
00000060: ce66 173c 3ffd 20bd 6246 b739 d511 b6bd
00000070: 026f f5bd aa46 113d e96e 323d 5536 19bc
00000080: 2101 5fbd 76c8 d83b 223b fd3a 363e bf3d
00000090: c059 b93c 762b 363c 8268 893d 15b5 d03d
000000a0: e0c3 a13b cee6 c63d 0343 f5bd 2853 48bd
000000b0: 6f88 953d 2eca 5fbc 9d03 9c3d 709e 63bd
000000c0: 0096 9a3d 1a51 a6bd ed18 b23d 3ed5 adbc
000000d0: e612 253c 9db1 50bd 76f0 d0bb 1d57 8bbd
000000e0: bcb6 12bd 7a80 88bc 559c ffbc 61fa e0b8
000000f0: dff2 86bc f784 32bb f2f3 a5bc adaf 7fbd
00000100: dc82 95bd 756c 2f3c b678 8dbd ed2e 0d3d
00000110: 0c0b bd3d 0aff e5ba 9d93 943d 2c43 823d
00000120: 89a0 6fbc a7ee 3c3d f9d2 8cbd 1592 0f3d
00000130: 567c 483c 580d d13d ef0d dc3d 076e d03d
00000140: 9236 31b9 9abd bf3d 947f 083d 55e3 a8bd
00000150: d5ae a5bd efcc b93b 6dd6 603d df89 8fbd
00000160: 240d af3d 9d30 cabd f305 7a3d 661b a4bd
00000170: 09e5 98bd 0704 ff3c 5a52 afbd fdf2 9bbd
00000180: e153 673d 58d4 bbbd fa4a b83d acff 6bbd
00000190: 38cc ea3c 9fd0 29bc b896 1e3d 4b35 e7bd
000001a0: 4d1e 8c3c 4438 a4bd 3788 45bd 896f 8f3d
000001b0: 1109 993d e873 1ebd 2381 a13c c4a8 023c
000001c0: f4d3 a1bd 24b1 b1bd b658 a4bd b416 473c
000001d0: 1767 8abd 56da 5abd ed60 a13d 2272 5dbc
000001e0: 5ec2 873d fa64 cdbc 4bfb 8ebd e907 823d
000001f0: a4c1 573c 0ce0 cdbd f0bf 3b3d 5e1d ea3d
00000200: 3008 a13d 298b b93d ee27 c5bc 1c62 3c3d
00000210: 8350 223d 7cba a93d 2edc 83bc efb6 c03d
00000220: 0357 36bd adea 7fbd 5618 a1bc 6db5 62bd
00000230: 3792 79bc 1e28 0f3d c9da 253b b46d d63c
00000240: b964 b03d 6e73 ddbc 1342 b5bd 2776 d2bd
00000250: 760c 9a3d 7590 9f3d af61 b6bc 04f9 2a3d
00000260: 6d91 c0bd a472 10bd 99fd 6f3d 36d6 bc3d
00000270: 86fc 8d3d b733 8fbd 69c9 a83c e889 953d
00000280: d514 143b 5f2f 9b3d 00b5 0a3c 6f54 173d
00000290: a068 a03d 0013 24bc 8954 a4bd 8d74 1e3b
000002a0: b8c1 783b fc94 8cbd c47f 2abd cf5a 4c3d
000002b0: 47b0 e83c c530 06bd 40f2 8fbd bc16 533b
000002c0: 298a 513d 0875 c63c 6145 a53d 02bf c1bc
000002d0: 6458 243b 16b9 91bc dc7f 043d 4684 1fbd
000002e0: ec82 143c 2354 cdbc 58f4 963d 40a1 0bbd
000002f0: 3538 993d bc06 d53d 237b 89bd 7904 0c3d
00000300: ed6e 983d 126f 6ebd 9f9e fdbc 3d3b 883c
00000310: c27b 5d3d 8485 253c e9a3 523c 75b2 95bd
00000320: cf3a 54bc 59cb 7ebd be41 633d 184c 87bd
00000330: 1b92 e8bd 3722 863d 2f7c 9f3d 6b9e cbbd
00000340: a40f 8dbd c637 873c 3df7 993d c77f 51bd
00000350: 8073 063d 858e 1ebd 424b c5bd 1410 133d
00000360: 60b1 01bd 2206 c63d 895c b3bc 05e5 073c
00000370: 711a 153d 283b 1dbd 3e30 a73c 8c2d c33d
00000380: b292 c83c a822 913d 337c f6bc 1f6e bf3c
00000390: a307 d1bd f4a7 8fbd 57bb 1bbd ea33 c0bc
000003a0: f737 efbd 7cc3 6e3d 54cb ba3c f948 4bbc
000003b0: 8900 5dbd 1a87 cebd 02f0 cc3d 3652 02bd
000003c0: ae24 aabc 7b10 04bc bd24 48bd 5aa0 233c
000003d0: 1302 babc 48ff 513d de1e 11bd 1f04 5b3d
000003e0: 11e8 533d d4f0 ef3d 0bb8 59bd e1a0 8cbc
000003f0: 72f1 73bd fadf e7ba c701 afbc 1bbc ea3d
0.03062928 -0.097789645 -0.04220705 -0.031063076 -0.057861835 -0.022545278 0.03449576 -0.065634474
-0.03587246 -0.0046049985 -0.076739736 -0.083368994 0.029055169 0.07132505 -0.07547551 0.10009972
-0.051615864 -0.072630234 0.029819546 0.10386719 -0.08596509 0.07946187 -0.09236202 -0.065831326
0.009240819 -0.039304014 0.0003495692 -0.0889012 -0.11984064 0.03546778 0.043562803 -0.009351333
-0.054444436 0.0066156937 0.0019319991 0.09338038 0.022625804 0.01111876 0.067093864 0.10190789
0.00493668 0.09711991 -0.11975672 -0.04890743 0.07301413 -0.013659043 0.07617877 -0.05557102
0.075481415 -0.08120938 0.086961605 -0.021219846 0.0100753065 -0.050950635 -0.0063763214 -0.06803725
-0.0358188 -0.016662825 -0.031202475 -0.00010727789 -0.016473232 -0.0027239898 -0.020257924 -0.062423397
-0.0730035 0.0107070105 -0.069077894 0.03446858 0.09230623 -0.0017547321 0.072547175 0.06360468
-0.014625677 0.046126034 -0.06876177 0.035051424 0.012236675 0.10207623 0.10744845 0.10177236
-0.00016900364 0.093623355 0.033324793 -0.08246485 -0.08089987 0.005670182 0.054891992 -0.07008719
0.08547428 -0.098725535 0.06104083 -0.08013038 -0.0746556 0.03112985 -0.08560629 -0.07614706
0.056476478 -0.09171361 0.08998676 -0.057616875 0.028661832 -0.010364681 0.038717955 -0.11289462
0.017104292 -0.08018544 -0.048225608 0.070036955 0.074724324 -0.038684756 0.019714897 0.007974807
-0.07901755 -0.08676365 -0.08024733 0.012151409 -0.06757944 -0.053430878 0.07879815 -0.013515981
0.066288695 -0.025072563 -0.06981524 0.06349165 0.013168726 -0.10052499 0.045837343 0.114313826
0.0786289 0.09059746 -0.024066892 0.045992002 0.039627563 0.08287522 -0.0160962 0.09409892
-0.044516575 -0.062479664 -0.019664925 -0.055348802 -0.015232614 0.034950368 0.0025307408 0.026175357
0.08612961 -0.02703258 -0.08850493 -0.10276442 0.07521908 0.07791225 -0.022263376 0.041741386
-0.09402738 -0.03526558 0.05859146 0.09220545 0.06932931 -0.06992286 0.020603852 0.07301694
0.0022595425 0.07577395 0.008466005 0.036945757 0.07832456 -0.010014296 -0.08023936 0.0024178356
0.0037957262 -0.06864354 -0.041625753 0.04989129 0.028404368 -0.032761354 -0.070286274 0.0032209596
0.05115715 0.024225727 0.080698736 -0.02365065 0.00250771 -0.017788451 0.0323485 -0.038944505
0.009064417 -0.025064534 0.073708236 -0.034089327 0.07481424 0.10401675 -0.067129396 0.034183953
0.074430324 -0.058211394 -0.030959425 0.01662981 0.054073103 0.010102633 0.012856462 -0.073094286
-0.012953474 -0.062205646 0.05548262 -0.066063106 -0.113559924 0.06549495 0.07787358 -0.09942325
-0.06887749 0.016506087 0.0751786 -0.05114725 0.032824993 -0.038710136 -0.09633495 0.035904005
-0.0316633 0.096691385 -0.02189471 0.008294349 0.03640217 -0.038386494 0.020408746 0.09530172
0.024484012 0.07086688 -0.03008852 0.02336794 -0.10206535 -0.070144564 -0.038020458 -0.023462255
-0.11680596 0.058291897 0.022802033 -0.012407535 -0.05395559 -0.10084362 0.10006715 -0.031816684
-0.020769443 -0.00806057 -0.04886316 0.009986961 -0.022706067 0.051268846 -0.035429828 0.053470727
0.051734988 0.11715856 -0.053154033 -0.017166557 -0.059556432 -0.0017690652 -0.021363152 0.114616595

conv_blocks.0.weight_hh_l1 f4 [300, 100]
00000000: a77d b3bd 52d5 013b ab63 99bc c1b5 abbc
00000010: 22ed 3c3b 63db 663c 4cbb 5e3a 0f14 fb3c
00000020: 78c9 a1bd d6fa ce3c 5c86 6fbd 4d9e 333d
00000030: 2aaa 6b3d 02a7 8a3d ccb5 82bd 0044 b73d
00000040: 4f6a 15bd 7503 a6bd 13d3 8b3d 0f24 e1bd
00000050: cbce 19bd ea17 d9bc 8fb2 213d 325a a83b
00000060: b6a1 ad3c 297e 923d f671 b83b c9ab 36bd
00000070: 1447 153c c143 2cbd 0ecf bebd 7c2b 9abd
00000080: 3ca8 c8bd 71ab ecbc 9670 babc 9226 4abd
00000090: e7b2 7f3d 486f 913d 98aa 2a3c ee5c 643d
000000a0: d600 c4bd ebaa bf3d 0791 a53d db33 ccbb
000000b0: 81a0 8ebd 6a07 41bd f946 6e3d 2fc5 3bbc
000000c0: 6c30 3a3d fa84 b4bc 41ef 913d 9fe2 843d
000000d0: 956e ae3d 7aae 70bd 9897 763b 826b 24bd
000000e0: 232f ae3d e071 9e3d 7fd0 09bd 6e2d a33d
000000f0: 9bdb 353b 4e3f ca3d c03b 9b3d 3d51 b33d
00000100: 1a71 d43d 728e 303d 00cf 5dbd 5046 63bd
00000110: 566f 2f3d aa46 9e3c f968 6fbd 51f0 753d
00000120: b230 c03d 62c3 b73c c881 1ebd 0cb2 b93d
00000130: 9303 41bd 94d9 77bd 9a33 813d 208e c93d
00000140: 61bd 22bc cdf6 0b3d f89e 263c 09e8 83bd
00000150: 20a1 a03d 40e8 0abc 3f21 79bd dd57 8c3d
00000160: 2ceb 873d 4661 503c 9169 b23b 642e 3fbd
00000170: b2b6 f3bc bead 943d a2e4 e0bd 6a05 a03d
00000180: 5bc6 103d 4818 8cbd e896 b1bc 9a85 7f3d
00000190: 9313 9c3d 8582 c4bc 6e24 99bb e7c8 4ebd
000001a0: 207d 983d 3bd1 af3c 156a b83d 9b30 b6bd
000001b0: 616d ab3d 8134 d83d 7a7e aabd 4626 863d
000001c0: 3550 bb3d 3927 b93c c2b4 98bd 34e8 bc3d
000001d0: 0295 153d 6ab2 3f3d 0377 38bd 70f8 263b
000001e0: 279f 223d 8acb 84bd 2443 523c 89c2 acbd
000001f0: b1ec a9bd f11d 603c a6f7 c3bd f973 703d
00000200: c7fa 85bd 7a34 fcbc d611 713d d5a4 b93d
00000210: ab2e b43c 9880 893d 4514 44bd dad0 0ebd
00000220: 654e d3bb e046 933c 60d3 1dbd 698e 023d
00000230: 20df 6d3d aaaa 40bd 042c 9abc 891a 93bd
00000240: 7ad4 34bd 69b6 853d 2c73 a0bc 8886 f5bc
00000250: 9133 213d a1b1 1abd 5556 32bd d6de b1bd
00000260: 8f71 cfbd 4fd5 aabd 2f39 4fbc 4b25 1c3d
00000270: 4a28 36bd 6e5f 9a3d 6e84 313b 60dc 97bd
00000280: f1a4 ed3c dce0 943d 70a3 93bc 0c02 52bc
00000290: 188d d03c 0c8a c43d 61b4 b7bc 3f83 f2bb
000002a0: a848 39bd 13c1 3a3d b15f 913d 023c 913c
000002b0: 2476 853c 1de1 2fbd 20dd d43b e63a 1ebb
000002c0: f84f 3abd 10a6 d6bd 4aa3 9bbd 4742 a8bd
000002d0: 1980 9c3d c0bc bc3c fe50 363d 3810 c93d
000002e0: 40ff 983d b1c6 54bd 32ce b2bd f346 943c
000002f0: 4dd2 003d 1476 a7bd abe3 c3bd 5f1e bc3d
00000300: 4ed6 0e3d 3c33 8fbd 3455 cbbd 2dd8 76bb
00000310: 122f c63d 9702 39bd 381e a3bd 3569 0cbd
00000320: ce22 c83d c70c 233d b073 02bb 6a00 b73d
00000330: e5df 1cbc 2931 be3d b119 f9bb cfbc 5a3d
00000340: e142 bdbb fe75 cebd f5e3 1ebd d01f 2b3d
00000350: d204 0e3d e65a 88bc 56d7 f5bc 78bf 66bd
00000360: 590e c3bd aa30 81bd d0a3 b7bd adff 273d
00000370: 8398 5bbd a3cf cebb 1181 95bd e2ca 00bc
00000380: bd09 353b 6fc7 a63d 7fd1 113d 9f41 aebd
00000390: 127e 133d 0e08 a63b c512 2abd 1b21 4fbc
000003a0: 9c75 9e3d ac8c a7bd 0521 9d3d a061 12bd
000003b0: 49af 4b3d c201 80bd 6d6a a13c ad22 a5bd
000003c0: 54d9 88bd 5312 543d f6df 3f3d 72e1 b33c
000003d0: 4070 c53d 7e05 b53d c875 b63d f6a3 883d
000003e0: d61b 9abd 864e 06bd 62c2 30bd 7c5a 8abd
000003f0: b782 8cbd f623 b5bd d188 48bd 142a b73d
-0.08764201 0.0019810987 -0.018724283 -0.02096069 0.0028827866 0.014090392 0.00084965373 0.030649213
-0.07899755 0.025266092 -0.058477744 0.04385214 0.057535328 0.067701355 -0.06382331 0.08948517
-0.036478337 -0.08106128 0.068273686 -0.10993206 -0.03755073 -0.02650066 0.039476927 0.0051377052
0.021195274 0.071529694 0.0056288196 -0.04459742 0.009111185 -0.042056803 -0.09316836 -0.07527825
-0.09797713 -0.028890343 -0.022758763 -0.04935319 0.062426474 0.07101303 0.010416649 0.055752687
-0.09570472 0.09358772 0.080843024 -0.0062317676 -0.069642074 -0.04712621 0.058173154 -0.011460586
0.045456335 -0.022036064 0.07125712 0.06488537 0.085171856 -0.058760144 0.0037626978 -0.04014159
0.08505084 0.07736564 -0.033646103 0.079676494 0.0027749303 0.09875356 0.07579756 0.08755729
0.10373135 0.043104596 -0.05415249 -0.055486977 0.042830788 0.019320805 -0.05844972 0.060043637
0.09384288 0.022432033 -0.038697988 0.09067163 -0.04712255 -0.060510233 0.0630867 0.09841561
-0.009932847 0.034170914 0.010169737 -0.064407416 0.07843232 -0.008478224 -0.06082272 0.06852696
0.06636652 0.012718504 0.0054447134 -0.0466751 -0.029750202 0.07259701 -0.10981108 0.07813533
0.035345417 -0.06840569 -0.021678403 0.06238327 0.07620921 -0.023988018 -0.004673532 -0.050484564
0.07445741 0.021462074 0.090046085 -0.088959895 0.08370472 0.10556889 -0.08324905 0.06550269
0.09146158 0.02260171 -0.07456352 0.09223977 0.036519058 0.04680101 -0.045035373 0.002547767
0.03970256 -0.064841345 0.01283339 -0.08435542 -0.082970984 0.013679014 -0.095687196 0.05870435
-0.065419726 -0.030786742 0.0588549 0.09064642 0.02199491 0.067139804 -0.047870893 -0.034867145
-0.0064485543 0.017978132 -0.03853166 0.031874094 0.058074117 -0.047037758 -0.018819816 -0.071827956
-0.044147946 0.065289326 -0.019586168 -0.029971376 0.03935582 -0.037767056 -0.043539364 -0.08685081
-0.101290815 -0.08341467 -0.012647911 0.038121503 -0.044472016 0.07537733 0.002708699 -0.0741508
0.029009314 0.07269451 -0.018022269 -0.012817871 0.025457904 0.09596643 -0.022424879 -0.0074008997
-0.045235306 0.045594286 0.0709833 0.01772881 0.016291685 -0.042939294 0.0064960867 -0.0024143993
-0.04548642 -0.10480893 -0.07599504 -0.082157664 0.0764162 0.023039222 0.044510834 0.098175466
0.0747056 -0.0519473 -0.08730735 0.018100237 0.03145056 -0.081768185 -0.095649086 0.0918548
0.034872346 -0.06992194 -0.099283606 -0.0037665472 0.09676947 -0.045168485 -0.07964748 -0.03428002
0.097722635 0.039807107 -0.001990538 0.08935626 -0.009574865 0.0928672 -0.0076019396 0.05340272
-0.005775795 -0.10081099 -0.038791616 0.041778386 0.034672566 -0.016644906 -0.030009907 -0.056334943
-0.09524221 -0.0630811 -0.08966792 0.041015316 -0.053612243 -0.0063113733 -0.07300008 -0.007860871
0.0027624213 0.08143508 0.03560018 -0.0850861 0.036008902 0.005066878 -0.041521806 -0.01264217
0.07737276 -0.08181128 0.076723136 -0.035737634 0.04972771 -0.06250335 0.019704068 -0.080632545
-0.06682077 0.051775288 0.046844445 0.021958087 0.096405506 0.08838938 0.08909184 0.06671898
-0.075248405 -0.03278973 -0.043154128 -0.0675554 -0.068608694 -0.0884475 -0.048958603 0.08943573

conv_blocks.0.bias_ih_l1 f4 [300]
00000000: bb5d 79bd 677d c53c 1d82 5dbd db7f 993d
00000010: c793 8f3d c9b8 00bd 213f c1bb bdc7 d9bd
00000020: da4a 68bc 9ce2 a73d 82a0 b7bd 0758 d23d
00000030: c462 80bc 7d2b 7b3d bd83 5e3d 6edf 87bd
00000040: afb2 b63d 1ee7 cc3d a431 79bd 2372 7fbd
00000050: db7e 9cbc aeba 26bb b0ca fbbb 9db6 4bbc
00000060: 486c c73d c24b c03d e3f7 d53d f4e1 243c
00000070: 1783 843d 30bd 863c ae76 e63d fc6a 00bd
00000080: 6b86 b93d 421a ba3c 03ad 92bd 81cf 48bd
00000090: 3f36 bd3d d524 3a3d cdde 603d 8f48 55bc
000000a0: 617f 86bd cee0 883d a9e3 f2bc 396f de3d
000000b0: b230 6c3c 4b42 d43d ce18 a43d cb83 523d
000000c0: 506a 9d3d 2b95 483d 3eaa 523d f201 58bb
000000d0: 1459 b23d 5734 f73d a401 393d cde1 b5bc
000000e0: cb94 b5bc 141a f4bc 3abc 933d 2997 953c
000000f0: 7418 cfbc 4e55 8c3d b249 7fba 6bf1 9a3d
00000100: f1d5 dabd 6533 12bc 631e db3d 4c35 613d
00000110: d3c2 443d 5ff2 eebc 1a42 cdbd 6563 0a3d
00000120: f414 50bd 4d33 be3d d91c b53c bd70 14bd
00000130: 645b 15bd 50ee c0bd 1c9d 7abd 25c4 d3bb
00000140: cd4f 3f3d ab9e e53d cc28 7ebd d32a 90bd
00000150: 1310 b83c 2a5b 9cbc a003 ac3d 3493 8b3d
00000160: dc75 c83d 2903 d8bc 07a6 de3d fd15 04bd
00000170: 0a4b 693c 14ee 83bd 6207 003d 2e8f bdbd
00000180: 805b 233c f850 423d 9d0d 163d 6b93 c23d
00000190: ba87 9b3c 4e6b 76bd 847c a9bd 42cf e7bc
000001a0: 6fbf bebc 060b 64bd 4a54 213d f6a2 673d
000001b0: c027 d73d 1bdf 803c 7417 edbd 93ba 333d
000001c0: 4acf 93bd e9dd 62bd ccca ebbc 700e 45bc
000001d0: acb2 243d bb03 96bd b23f ccbc 9881 d63b
000001e0: 61e3 b63d 24a4 333c 6af7 c83d ce95 8c3d
000001f0: 6c0d 853c a01d 433d 6394 9e3d 480c cabc
00000200: 51a5 7dbc 34ac f6bd 126c 9dbd 9878 c43d
00000210: a7cc 103d 53db ba3c f4ca 35bd 4242 bebc
00000220: de89 993c 95c4 fbbc e3e5 843d f494 b43c
00000230: d3a4 05bd 70a4 893d 538a 3cbc 9cc5 10bd
00000240: 4020 81bd 0cd6 663d ddb1 b13d f390 023d
00000250: 3819 9dbd 80b6 9f3d 8053 323d b21a cfbc
00000260: 73d6 ce3d 0499 1ebd de09 37bd a0b5 72bd
00000270: 44c6 b73d e6bd 1ebd 3736 92bd 89da 97bd
00000280: ff86 e9bc 7fe4 e33c 0744 483d c376 bebd
00000290: 4203 f33c 3f9c 0ebd 974f 503c a600 a0bd
000002a0: 85d3 c03d 0a67 d7bc 0a2c ae3d 8c06 b1ba
000002b0: 3064 2c3d f7e4 8d3d 4630 adbd ce08 893d
000002c0: dd18 263d dfd2 9f3d 68b2 f3bc 8caa a339
000002d0: 98f2 84bc 4223 103d 0817 cb3c c80e e73b
000002e0: 43fa fdbc c4ce 223c aab5 ed3b 2725 8abd
000002f0: 24bc bb3d 61eb 0d3d e858 d2bc 4934 b1bd
00000300: d11c 8fbc 2d5b 8bbc 71e3 383d 6080 2c3c
00000310: 3b31 b3bc e040 17bd 7e95 db3c 328b d9bd
00000320: 8583 41bc fe85 ea3c deea c23d 472e 47bd
00000330: 6c27 e03d 94d7 243d c65a 7cbc ef6a b2bd
00000340: 44bb 9b3d e6f0 2b3d 1df6 77bc 5594 a63d
00000350: a534 c13d 9be2 c3bd a204 b23d 89c5 c83c
00000360: 993f 123c e2b4 6bbc f7a9 213b a4f2 3ebd
00000370: 9e23 b5bd 9ac7 223d e2d8 babd bbfb 713d
00000380: 64ca 7f3d c3d5 57bd e526 da3b b3c4 2fbb
00000390: f64f 963d de2b bebd 267e 803d bb75 20bd
000003a0: b0f7 fa3c eb86 313c 5f0c cc3d 7d30 413d
000003b0: 3af4 7dbd 8336 d83c 497f 0d3d 40be ff3c
000003c0: 8acd 453d 94b7 5ebd 1aed 2cbd b937 51bc
000003d0: fd3d 8ebc 6e9a bd3d dc33 9fbb ff85 86bd
000003e0: cd61 67bd b0b6 a9bd f56a 523d f815 dd3b
000003f0: e310 a9bd d2e6 29bd af35 383d c9f7 fe3b
-0.060880404 0.024107648 -0.054079164 0.074950896 0.07010608 -0.031426225 -0.005897418 -0.106338
-0.014178002 0.08197519 -0.08966161 0.10270696 -0.015672095 0.06132077 0.054324854 -0.06634413
0.089208 0.100050196 -0.060838357 -0.06236471 -0.019103458 -0.002544086 -0.0076840743 -0.012433675
0.0973745 0.0938945 0.10447671 0.010063637 0.06470316 0.016447634 0.11253105 -0.03135203
0.09058841 0.022717599 -0.071619056 -0.049026016 0.09238862 0.045445282 0.05489998 -0.013017788
-0.06567264 0.06683503 -0.029649572 0.10861058 0.014415907 0.10364207 0.080125436 0.05139522
0.07686293 0.048970383 0.051431887 -0.0032960144 0.087083966 0.1207053 0.04516758 -0.022202397
-0.022165677 -0.029797591 0.07213636 0.018260555 -0.025280215 0.06852208 -0.00097384595 0.07565578
-0.10685337 -0.008923386 0.10699155 0.05498247 0.04803736 -0.029168306 -0.100223735 0.033786196
-0.050801232 0.092871286 0.022108482 -0.036240328 -0.03646411 -0.094204545 -0.061184987 -0.0064625912
0.046706963 0.11211904 -0.062050626 -0.07039418 0.022468602 -0.01908644 0.08399129 0.06815186
0.09788105 -0.026368694 0.10871511 -0.032247532 0.014239082 -0.06441894 0.03125704 -0.09255825
0.009970546 0.0474405 0.036634076 0.09500774 0.018985618 -0.060160927 -0.082757026 -0.02829707
-0.023284642 -0.055674575 0.039387025 0.056551896 0.105056286 0.015731385 -0.11576739 0.043879103
-0.072172716 -0.05538741 -0.028783225 -0.012027368 0.040209457 -0.0732493 -0.024932716 0.0065462105
0.08930088 0.010964427 0.098128155 0.068645105 0.016241752 0.047635674 0.07743146 -0.02466406
-0.015481309 -0.12044564 -0.076866284 0.09593314 0.03535142 0.02280966 -0.044383004 -0.023224954
0.018742498 -0.030733386 0.0648916 0.022043683 -0.03262789 0.06720817 -0.011507588 -0.035344705
-0.06304979 0.056356475 0.08676503 0.031876516 -0.07670826 0.07798481 0.043536663 -0.025281284
0.10099497 -0.038720146 -0.044687144 -0.059255242 0.08973363 -0.03875532 -0.07139247 -0.07414729
-0.028506754 0.027818916 0.048893 -0.09299996 0.02966464 -0.034816977 0.012714288 -0.07812624
0.09415344 -0.02629425 0.085044935 -0.001350598 0.042087734 0.06928437 -0.08456473 0.066911325
0.040551055 0.07803892 -0.029748157 0.0003121685 -0.016228959 0.035189874 0.024791256 0.0070513226
-0.031003123 0.009936992 0.007254322 -0.067453675 0.09166744 0.034648303 -0.02567716 -0.08652551
-0.017469795 -0.01701125 0.04513878 0.010528654 -0.02187406 -0.036927104 0.026804682 -0.106222525
-0.011811142 0.028628346 0.095174536 -0.048628118 0.10945019 0.040244654 -0.015402501 -0.08711802
0.076040775 0.041977786 -0.015134362 0.08133761 0.09433869 -0.09564706 0.0869229 0.024508255
0.008926296 -0.014386388 0.0024667957 -0.04661812 -0.08844684 0.039741136 -0.09123398 0.05907796
0.062448874 -0.052694093 0.0066574686 -0.0026820123 0.0733947 -0.09285711 0.06274061 -0.039174777
0.030635685 0.01083539 0.09963297 0.047165383 -0.06200049 0.02639318 0.034545217 0.031218648
0.04829172 -0.054374292 -0.042218305 -0.012769633 -0.017363543 0.09257971 -0.004858477 -0.065685265
-0.056489754 -0.08286798 0.051371533 0.0067470036 -0.08255174 -0.041479893 0.04497307 0.007781003
