gan_classification/state_dict_classifier.pt (torch, 617403 bytes, 14 tensors)

net.0.weight_ih_l0 f4 [300, 2]
00000000: 1753 033c e7ea 353d ce0b c93c 0794 cfbd
00000010: 760d 6bbb e030 c3bd 3fef 32bb fd5d 0fbd
00000020: 03b2 a43d 5f6a ea3d 5ab8 a4ba bd48 743d
00000030: e304 bdbd 2180 103e 060d 99bb c1ed ebbd
00000040: 0db4 5d3d 975e 72bd 204b 293d 01f3 02bd
00000050: f0c1 5abd df84 a7bb 32bd 25bd 6dac 363c
00000060: 3607 b8bd 5192 6ebd aab3 58bb ef72 013d
00000070: 83dd 9c3c 668c a2bd 8f99 fabc 4d5e 09be
00000080: ec9b 993c 1bde f13c 841d 973d 020a 6d3d
00000090: 7d37 943d 2413 febd f5cf 8bbd c12f 20be
000000a0: 78af 7ebd 24ef fc3b 1235 14be 0ed8 b03d
000000b0: 826f 08bb 0c4b 1dbe 853f f73b a66e 9bbc
000000c0: ae6f 783d 4a75 263d 6313 9d3c 3644 c13c
000000d0: 00b3 553d 8577 7f3d d6bd 9c3d bda0 703d
000000e0: c78c c6bd 44ec 913d 0732 62bd bdf7 013c
000000f0: e884 3abc ef55 99bd bbbc 363d d1bb ac3d
00000100: dad7 c9bc f575 dcbc e071 2abe 8d82 39be
00000110: 1cd2 bc3d 453f 2e3d c54b 8dbd bed4 84bd
00000120: d133 89bc 2d56 4f3d f027 a13c a8f3 c5bd
00000130: bd95 11be 7bbe 47bd ac54 bb3d f62c 4e3d
00000140: 4974 4c3c b1cd e5bd 0e3d 5a3c 96c5 3a3d
00000150: 8221 74bd 845f cebd bf3c c8bd b190 3ebe
00000160: 6542 7f3d 3967 183e 441b c5bd 9e21 9dbd
00000170: d616 03bd 21d3 29bd e955 873a f36a 163e
00000180: a261 833d 8fdc ea3c 74bd 84bd 9667 45bd
00000190: 3fcf cabd 9860 00be 88f0 2f3d 26d6 7c3d
000001a0: 6848 4ebd db2c e0bd 3399 ff3c 307e e6bd
000001b0: 7de6 a9bd 8136 ea3d a3db 80bc 923d 18be
000001c0: 67b7 cc3c 32bb d93d 8eb7 a6bd bb45 b23d
000001d0: b345 62bd e9c6 1d3d 52cd 693d 06f2 b43c
000001e0: c4db aabd debb 00bd e1e2 9bbd 5aef febd
000001f0: 1bd5 cdbc 1acf 83bd 8f1d e83c c758 2b3c
00000200: a750 e33d c48e 8c3d f567 23be c8b1 c4bd
00000210: 74a6 00bd 5462 a73d 0d19 cb3d 6947 543b
00000220: 3e53 31bd e252 eebb 6add 56bd a3c0 36ba
00000230: 45f0 28be 2aec 49bd f433 033d 56be 6a3c
00000240: 6f11 9d3d 6dc0 b8bc 4066 55bd e85b 8b3c
00000250: 9fe3 d6bd cf2e e6bd 1508 0ebe 1ea1 8fbc
00000260: df6a 7e3a 1c4f 493c cedd 38bd 9994 f63c
00000270: 5931 623d 8ac2 62bd 95b2 ebba 4893 41ba
00000280: 2acf 92bd 32ee 11be d416 0abd 74f2 cebc
00000290: 45e7 a1bd 9e1b 40bd 0206 01bd 66eb f8bd
000002a0: 1932 95bd 73fa 64bd a054 003b 1284 a63d
000002b0: 249c 873c 31f9 2ebd fcfb 823d b286 003e
000002c0: eded e6bd ad6f dd3d 0376 eebd 346a f63c
000002d0: 1843 8b3d 2a86 e03d f1fb d1bd be1c debb
000002e0: ed3f 2d3d 79c2 cebd e637 4fbd 5123 52bc
000002f0: a3cc 553d 405e d73c 2a6c 01bc 7f82 12bd
00000300: f5c1 ab3c 81ca b8bd 41db 95bd c82e e6bd
00000310: cb35 893d 92d6 d7bc 7552 8ebd 7ba0 a43d
00000320: cdd4 0bbe 0e28 81be 774e 6d3d 859d b4be
00000330: 2641 fcbd 6883 98be 1ef3 c53d a6c9 033e
00000340: bb0f 22bd 1444 113e a17b 76be 0c38 bdbe
00000350: b10a 893c d135 ed3b 14ee b8bb cc5a adbb
00000360: 774e e6bd a4f0 9c3d 176b 37be d12f 86be
00000370: 6965 67bb 8559 03bd 8869 01be 56e5 ddbe
00000380: e460 853e ea24 513c 8de5 933d da31 69be
00000390: 8f45 82be 2531 04bf c9af 803c 6b00 863d
000003a0: 39d9 633d cce6 cabe 4410 68be 642e 9abe
000003b0: eada 473d 0696 893d d277 abbb 52a7 a53d
000003c0: b757 89be 50f3 e8be 304d 14be 1a6d cebe
000003d0: ba36 12be 5e2e a4be 4ef1 723e a713 ca3d
000003e0: 4615 f7bc 1b43 8fbe 253b 4abd 437c a8bd
000003f0: 562b 26be 31ae 4abe 01b3 9ebe c951 bbbe
0.008015416 0.044413473 0.024541762 -0.10135656 -0.0035866178 -0.095308065 -0.0027303246 -0.035001744
0.080417655 0.1144607 -0.0012567148 0.05963968 -0.09229448 0.14111377 -0.004670742 -0.11519957
0.054126788 -0.05917224 0.04133141 -0.031970028 -0.05340761 -0.005112275 -0.040463634 0.011149508
-0.089857504 -0.058245007 -0.0033066073 0.03160375 0.019148594 -0.07936935 -0.0305908 -0.13414879
0.018751107 0.029524853 0.073786765 0.057870872 0.07237146 -0.124059945 -0.06826774 -0.15643217
-0.06217906 0.0077189375 -0.1447337 0.08634959 -0.0020818417 -0.1536066 0.007545414 -0.01897366
0.06065338 0.0406392 0.019174283 0.023592096 0.05217266 0.062369842 0.07653396 0.058747042
-0.0969482 0.07125142 -0.05522349 0.007932601 -0.011384226 -0.07487094 0.04461358 0.08434261
-0.024639059 -0.026911715 -0.16645002 -0.18116207 0.09219763 0.042540807 -0.068992175 -0.0648589
-0.01674834 0.050619293 0.019672364 -0.09665614 -0.14217277 -0.04876564 0.09147009 0.050335847
0.012478896 -0.11220873 0.013320221 0.04559859 -0.059602268 -0.10076812 -0.097772114 -0.18609883
0.062319178 0.14883126 -0.09624341 -0.076724276 -0.0320042 -0.041461114 0.0010325286 0.14689235
0.06415106 0.028669624 -0.06481448 -0.04819449 -0.0990281 -0.12536848 0.042953998 0.061727665
-0.05036202 -0.109460555 0.03120098 -0.11254537 -0.08295915 0.11436177 -0.015729731 -0.14867237
0.024989797 0.10631408 -0.08140479 0.08704706 -0.05524225 0.038519774 0.057080574 0.022088062
-0.08342698 -0.031429164 -0.07611633 -0.124479964 -0.02512603 -0.06435986 0.028334407 0.010458178
0.110993676 0.06863168 -0.15957625 -0.096042216 -0.031408742 0.081730515 0.099168874 0.0032391197
-0.043292277 -0.007273064 -0.05245725 -0.0006971454 -0.16497906 -0.04929749 0.03203197 0.014327606
0.07669341 -0.022552693 -0.052099466 0.017011598 -0.10492634 -0.11239397 -0.1387027 -0.017532881
0.0009705256 0.012286928 -0.045133404 0.030100154 0.055222843 -0.05536131 -0.0017982299 -0.00073843123
-0.0716842 -0.1425102 -0.033713177 -0.025262095 -0.07905439 -0.046901338 -0.03149987 -0.12154274
-0.07284946 -0.05590291 0.001958169 0.08130659 0.016553946 -0.042718116 0.063957185 0.12551382
-0.112758495 0.10812316 -0.11643603 0.030079938 0.067999065 0.1096309 -0.10253132 -0.0067783287
0.042297293 -0.100956865 -0.05059042 -0.012825803 0.05219711 0.02629006 -0.0078993235 -0.035768982
0.02096651 -0.090229996 -0.0731721 -0.112393916 0.06699713 -0.026347432 -0.06949321 0.08038422
-0.13655396 -0.25225872 0.057936158 -0.35276428 -0.123171136 -0.29787755 0.096655115 0.12869892
-0.039565783 0.14186126 -0.24070598 -0.36956823 0.01672873 0.0072390814 -0.0056436155 -0.005290365
-0.11245435 0.07663086 -0.17911945 -0.26208356 -0.0035308248 -0.032067794 -0.12637913 -0.43339032
0.26050484 0.012765149 0.07221518 -0.22772923 -0.25443694 -0.5163749 0.01570882 0.065430485
0.05562708 -0.3962921 -0.22662455 -0.30113518 0.048792757 0.06718068 -0.0052327896 0.080885544
-0.26824734 -0.45498133 -0.1448257 -0.40317613 -0.14278689 -0.32066625 0.23724863 0.0986703
-0.030161511 -0.27980885 -0.04937281 -0.08226826 -0.16227469 -0.19793011 -0.30995944 -0.36585835

net.0.weight_hh_l0 f4 [300, 100]
00000000: 8c1a d5bd f7bc 383d 86ac a93c 7789 083d
00000010: 53dc 2e3d 18b6 a23c 29e3 54bd 3da9 b63c
00000020: 1dca 2c3d 9e18 083e 6797 8bbd 44e4 a83b
00000030: 4ce6 c03c 86a7 f2bd 93f2 d5bd cf4c 75bd
00000040: 9c48 fbbd 9e53 bebd c9eb 183e 82f6 2abc
00000050: 0fbf 29bb 5e03 80bc 27d0 9cbd 5084 bbbd
00000060: 33ff 4ebd b42c eeba 8891 8fba 778b 6ebd
00000070: b38e d4bd f7d5 163d 094f d13d db87 9ebd
00000080: 9ce5 0ebe e885 2f3c 60a4 febd d80f 283c
00000090: 4ed8 ac3d d76c 2b3d d0ac b23d e491 53bd
000000a0: 1a7b e23d f39c 87bd d727 583d 05d7 e83d
000000b0: 3dc3 013e 37f3 52bd e703 383d 914c dcbc
000000c0: f87f 6bbd 25c8 0c3d b597 963d 07ac 74bd
000000d0: efa3 9fbd b110 a13d be96 23bc 9d9e d1bd
000000e0: 6182 973d 918c b4bc 8390 113e 639e 19bd
000000f0: 545b d83c 39bd bebd f540 1a3c 6042 babd
00000100: c3aa ae3c b290 743d ab2f e2bd 9a43 bebc
00000110: 6857 d9bb 048b 0b3e a75e 35bd a940 d8bd
00000120: 8ec5 8e3d 2c5c 01be 9116 ef3d fa72 e03d
00000130: 1698 07bc 861b b8bd fc6e de3d 79fc ef3d
00000140: 51f1 96bd b40b e33d 1e4b e2bd 4401 a83d
00000150: 1d1b 13be fa63 ac3d 6700 a73d f2a1 c93d
00000160: 3002 c83d 1e2d d9bd ef30 82bb 4809 1e3e
00000170: 779a b4bc d6d8 77bb 8303 1dbe 7b4d 20bc
00000180: 0f55 253e af10 d8bd f428 44bd 0708 1a3e
00000190: b1cc ca3d a3fd 053e bcbd 83bd e83e 933d
000001a0: 8d8d a1bd 9bfc 20be 63a4 f63d e5d3 ac3b
000001b0: cc46 a7bd bf1b 3d3d 1596 08be 28e4 e1bd
000001c0: ab6e a73d 3721 e0bd 757c b23d 5fe7 533d
000001d0: 5a67 e13c 9b2f 493b ca61 813d 09a7 94bd
000001e0: 09ff 373d eac6 903d 86d5 143e 4edd 09bd
000001f0: 1c3e 4cbd 2257 223e fc0e 123e 5397 873c
00000200: 66dd 413d 2f2e c4bd 4658 8f3c b929 a63d
00000210: bbd0 b0bd 69cd 10bd 90cb b5bd 8691 683c
00000220: c05f 013e 23d1 adbd 9556 b2bc 86f8 97bd
00000230: a401 0f3b 890d a03d c264 023d 736f a63d
00000240: c830 a2bd 33b0 b73d 9f0f 61bd 9ccd ae3d
00000250: 8be6 aebb 98fe 69bd ebea e43c be6c c33d
00000260: 75c6 1b3d 005c 38bd 3054 113e 0d1f 373d
00000270: 6360 823d 6ddb d5bc 860e bb3d 9294 e1bc
00000280: 6781 c13d fcf5 963c f62f 45bd ebbe 80bd
00000290: cb25 4abc 0dd6 da3d 6721 bebd c7a6 473d
000002a0: 3356 19bd 8e9c 65be 0696 943d 47aa 813d
000002b0: 6d83 a8bd 27f2 0f3d f9c3 9e3d c959 bbbd
000002c0: 5dc1 773d e787 1a3d b215 1a3e d115 083e
000002d0: 4669 313e ade0 33be 9871 923d cc04 a13d
000002e0: 2571 15be 4e7d e33d a07b 183d 296e 34bd
000002f0: db8d b6bd fb0a db3d 8b71 fa3d 1f83 3abd
00000300: 9217 ca3c 8f1e a93d 0a22 953d afd5 70bd
00000310: d2cb ba3c 7729 06be 874e f5bb 5ed8 923d
00000320: 8f8e a03d 2e29 893a 0508 9c3d c8ff b43c
00000330: 12ac 8bbd a99c 4d3d f0b0 3e3b 2ece 423d
00000340: d1aa 513d a35b 1dbc 6e45 29bc b61e 493d
00000350: b60e 97bd 00f6 4f3d 005a b6ba c26f afbd
00000360: c89a 5e3d 35e8 2539 c693 b9bc f5b9 a3bd
00000370: 8678 93bc 2099 a53d 473a 573d df3a 96bd
00000380: f672 cdba 9491 ba3d 6b5e d23d d346 a0bd
00000390: 994d 233d 5c2e 813d 69cd 513d 5c8f 583d
000003a0: a2c6 173d 134a 693c 310c 873c cef8 92bd
000003b0: cdce 963d 30f1 49bd 4d6f 9a3d 0a49 45bc
000003c0: 4fe4 cabd a166 ce3d 85fb 02bd c337 ac3d
000003d0: 3115 9e3c 0e3c e23d aad7 823d 02d6 81bd
000003e0: 8341 c43d cbbc c7bd 98ed 2b3d 9d70 50bd
000003f0: 0c09 463d 395d dfbc cb59 a6bc b55e 36bd
-0.10405454 0.045102086 0.020712148 0.03333422 0.042690586 0.01986222 -0.05197445 0.022297496
0.042184938 0.1329064 -0.06815987 0.0051541645 0.023547314 -0.11848359 -0.10446658 -0.059887704
-0.122697085 -0.092932925 0.14933695 -0.010434749 -0.0025901233 -0.015626606 -0.076568894 -0.09156096
-0.050536346 -0.0018171282 -0.0010953406 -0.058238473 -0.1037878 0.036825147 0.10220153 -0.07740756
-0.13954777 0.010713078 -0.12433696 0.010257684 0.08439694 0.041851845 0.087243676 -0.051652804
0.11058636 -0.066217326 0.05277237 0.11369137 0.12672134 -0.05150148 0.044925597 -0.026891978
-0.057495087 0.03437056 0.073531546 -0.05973437 -0.0779494 0.07864512 -0.00998467 -0.10235331
0.07397915 -0.022039684 0.14215283 -0.037504565 0.026410736 -0.09313435 0.009414901 -0.09094691
0.02132166 0.059708305 -0.11044248 -0.023225594 -0.006632734 0.13627249 -0.04427972 -0.10559208
0.06971274 -0.12632817 0.11674226 0.1095943 -0.008276006 -0.08989625 0.10861012 0.11718077
-0.07370246 0.110862166 -0.11049484 0.082033664 -0.14365812 0.084175065 0.081543736 0.09845342
0.09766042 -0.106043085 -0.0039731185 0.15433228 -0.02204631 -0.0037818453 -0.15333371 -0.009784098
0.16145729 -0.10550057 -0.04789062 0.15042125 0.09902323 0.13085036 -0.06432673 0.07189733
-0.07888327 -0.15721361 0.12043073 0.0052742832 -0.081678 0.04616904 -0.13338502 -0.110298455
0.08175405 -0.10943835 0.087151445 0.051734325 0.027515102 0.003069854 0.0631748 -0.07258422
0.044920955 0.0706919 0.14534578 -0.03365832 -0.04986392 0.15853551 0.14263529 0.01655165
0.047330283 -0.09579121 0.017498147 0.08113427 -0.08633562 -0.035352144 -0.08876717 0.014194852
0.12634182 -0.08487155 -0.021769801 -0.07420449 0.0021821046 0.078150816 0.03183437 0.08126726
-0.079194605 0.08969154 -0.054946538 0.085353106 -0.0053375415 -0.057127565 0.027944049 0.09542225
0.03803106 -0.045009613 0.14192271 0.044707347 0.063660406 -0.026105607 0.091336295 -0.027536664
0.0944851 0.018427841 -0.048141442 -0.06286415 -0.012338112 0.10685358 -0.09283715 0.048743036
-0.03743572 -0.22423002 0.07255177 0.06331306 -0.082281925 0.035143044 0.077522226 -0.091479845
0.06048714 0.037727263 0.15047339 0.13289572 0.17325315 -0.17566176 0.071505725 0.07862243
-0.14593942 0.11107884 0.037227273 -0.04405037 -0.089137755 0.10695454 0.12228688 -0.045535203
0.024669442 0.08257782 0.07281883 -0.058797535 0.022802267 -0.13101755 -0.007486168 0.07170175
0.07839691 0.0010464543 0.07618717 0.022094622 -0.06819929 0.05019823 0.0029097162 0.04755991
0.051188294 -0.009604367 -0.010331495 0.049101554 -0.07375853 0.050771713 -0.001391232 -0.08566238
0.05434683 0.0001582213 -0.022653472 -0.07994453 -0.018001806 0.08085847 0.052545812 -0.073354475
-0.001567452 0.09109798 0.10271915 -0.07826009 0.039868925 0.063076705 0.051221285 0.052871093
0.037054665 0.014238852 0.016485306 -0.07176362 0.07363663 -0.04930228 0.0754076 -0.01204134
-0.09906828 0.10078169 -0.03197815 0.08409073 0.019297214 0.11046611 0.06388791 -0.06339647
0.09582808 -0.09752806 0.041974634 -0.050888646 0.04834847 -0.027266132 -0.020306488 -0.044523913

net.0.bias_ih_l0 f4 [300]
00000000: 4ffb babc 23cd 613d ba90 323d 9fb0 5b3d
00000010: 0d44 c13d 18fe debd 8558 fbbc 5101 db3b
00000020: d82a c0bd cbfa af38 a967 f73c 0061 febd
00000030: b37d 623d 31c0 90bb 7a39 f93c ab9a 9ebd
00000040: 4cb9 07bc 5e81 68bd b6a1 8a3d 3816 333c
00000050: 0ede aebd 3dfb f93b 1d5b 14bd e6b8 4fbd
00000060: c0b0 58bd 02cf 803d 35bd 65bd bfc2 a4bd
00000070: 32dc 3c3c b2a5 cebd b54d 023d d0bd ad3d
00000080: a538 833d 6f1b 31be c61e fdbc 110c fcbd
00000090: 0eed b13d b176 333d 6d94 dcbd 3c32 863b
000000a0: f421 8f3c 43da 873d 1ba9 9d3d 6107 f7bd
000000b0: 3d95 843d 8a9c 643c 117f 283b c011 bdbd
000000c0: e673 12bc 4a2c a4bd 2ec0 89bd 2ee2 5dbd
000000d0: 1064 b73b e2d6 0dbc f99f a13c 1376 31bd
000000e0: c83f 323d 08dd 513d d694 18be 85d9 8a3c
000000f0: a2eb d8bd d34c 023d e0f5 193c e702 943c
00000100: d8e0 c53b 7a3b 8c3b c34e 493d e783 c3bd
00000110: 1891 87bc f8b9 783d 854a a33c a329 46bd
00000120: 53ec b03d 95c5 b6bd cd6a 85bd 1119 cebd
00000130: 62d6 97bd 7762 87bc 8995 9e3d 5bba 4abd
00000140: 38c5 603b 1d8a 243d 2fd1 14be de08 96bd
00000150: 0d7c 00be 4671 c63c ced2 0b3d 0601 7fbd
00000160: f63d 92bc f16d dbbc 2ddd ddbd 0334 a0bd
00000170: 5aa2 61bc 3ac1 f53c db62 54bd 78e4 913d
00000180: b16d d5bd 9d0c c13c ff6a 86bd 2846 97bd
00000190: 3d98 8dbe 48ac b4be db4d 3dbe 6090 e33d
000001a0: 6e4c b6bb 92f6 f3be e300 ddbc 93e7 d83c
000001b0: e8f3 f13b 9293 b5be b52a 49be 20cc 89be
000001c0: 4236 01bb 15a7 43be c877 a7be 882b 5bbd
000001d0: 70e4 b9be 470f c0be a9dc 03be 15d7 8abd
000001e0: 8580 eabe 22ea cabe 9af5 bdbe 5f0b 46bc
000001f0: 695a 87be 0aeb d9bd cdd7 98be 0835 fdbe
00000200: 02ca 2d3d df02 e43d 6956 edbe eb7b 9ebe
00000210: 6ce6 b6bd 97ea ac3d 973c 77be bf34 053e
00000220: 7141 21be be29 33be 45b9 ac3d 2844 d0be
00000230: addb c1bc d408 cabe 0413 d5be df8e 0a3e
00000240: b7a2 c8bc 1f39 ddbe 0e2d c4be 0344 8fbd
00000250: 1a70 9abe 6409 e43c e07c 6dbe f2a6 dabc
00000260: 9814 523e fd14 8a3d 3e32 78be fc21 afbe
00000270: c2ea 9ebe 7a23 91be 5121 04be 5982 bdbb
00000280: c305 47bd 47c9 2e3d c2bc f63c 9c05 aebe
00000290: f99b 893d 42fb 82be 3726 34be 79f7 80be
000002a0: 00d9 21be 5c45 91be c6a3 89be 8430 0d3e
000002b0: 3e9f c8be e982 dabe 3665 11be a776 16be
000002c0: 29d9 a4bd da48 403d 5f65 c1be 737b b8be
000002d0: 936d 37be 88ec 98be 945e 483c ae46 c3be
000002e0: 8e20 76be b20d a2be 0a67 e83d 0c8e bcbd
000002f0: 8c6a 25bd e56c c6be b181 a13d 3495 36be
00000300: 0dff 073e 2581 dfbe 5ce2 bfbe 7bd4 c7be
00000310: 5e3d 193d 659c fe3c b4ee b3be 957d bf3d
00000320: eb1a d03d ceab a33c 6a23 c5bd b363 28bd
00000330: 888e c6bc ea17 aabd 09f6 843c 31d0 3bbd
00000340: b0f4 53bd 56ec 8fbd 6dc2 a4bd eb49 32bd
00000350: bbbb 593c 2e90 c33c 7711 d53d 2397 61bd
00000360: 6df6 9a3d a395 723d 7316 8e3d c2c0 8c3d
00000370: 8f89 89bd 4f8d da3d 92b9 853d a1c9 653d
00000380: a519 afbc d9a3 f4bc c18a 023a dda7 ad3d
00000390: 2118 e13c 9f72 cfbb 894b 073c 23aa 553d
000003a0: ec7b 183c 39dc 9bbb 450f 943b b255 5a3d
000003b0: c6cd 7abd 3cb7 2f3c bbe5 0bbc d306 b6bd
000003c0: eaba 9438 2626 e93c 9cc4 b03d 22c1 fcbc
000003d0: 7dac 7fbd 1c83 773d 194b cfbd ca06 6b3d
000003e0: 1674 dc3d 949d 69bd 0008 a43d 4dd7 8d3d
000003f0: 1372 7a3d 098f b63c e6dd 04bd 73a9 8f3d
-0.022824911 0.055127274 0.043595053 0.053635236 0.09436808 -0.10888308 -0.030681858 0.0066835065
-0.09383172 8.391364e-05 0.030200796 -0.12420845 0.055295657 -0.0044174423 0.030422915 -0.07744344
-0.008283924 -0.056764 0.06769125 0.01093059 -0.08538447 0.007628827 -0.036219705 -0.050713442
-0.052902937 0.062894836 -0.056088645 -0.08044957 0.011527108 -0.100901976 0.03181239 0.084834695
0.064072885 -0.17295621 -0.030898463 -0.12306989 0.08687793 0.043814365 -0.107704975 0.004095344
0.017472245 0.06633427 0.0769827 -0.12061954 0.064737774 0.013953337 0.0025710503 -0.09231901
-0.008938765 -0.0801626 -0.067261085 -0.05417078 0.005596645 -0.008657189 0.019729601 -0.043325495
0.043517858 0.051236182 -0.14900526 0.016949425 -0.105918184 0.031811547 0.009397 0.01806779
0.0060387664 0.004279551 0.04914738 -0.09546643 -0.016548678 0.06072423 0.019932995 -0.04837955
0.08638825 -0.089244045 -0.06514511 -0.10063375 -0.07413937 -0.016526444 0.07743365 -0.04949413
0.003429724 0.040170778 -0.14532922 -0.0732591 -0.12547322 0.024223935 0.034136586 -0.062256835
-0.01785181 -0.026785823 -0.108332016 -0.078224204 -0.013771618 0.029999364 -0.05185209 0.07123655
-0.104213126 0.023565585 -0.06563377 -0.07386428 -0.2765521 -0.3528769 -0.18486731 0.11111522
-0.0055633103 -0.47649056 -0.026977962 0.02647761 0.007383812 -0.3546415 -0.19645198 -0.26913548
-0.0019716178 -0.19106705 -0.32708573 -0.05350831 -0.36307096 -0.37511656 -0.12877144 -0.06779305
-0.45801178 -0.39631754 -0.37101442 -0.012087672 -0.26436165 -0.10640533 -0.29852143 -0.49454522
0.042428978 0.1113336 -0.46354988 -0.30953917 -0.08930668 0.08443182 -0.24144207 0.13008402
-0.1574762 -0.17496392 0.08433775 -0.40677 -0.02366432 -0.3945986 -0.4161607 0.13531063
-0.024491651 -0.43207642 -0.38315624 -0.06995394 -0.30163652 0.027836509 -0.23192167 -0.026690934
0.20515668 0.067422844 -0.24237916 -0.34205616 -0.3103848 -0.2834738 -0.12903334 -0.005783361
-0.04858948 0.04267242 0.030119304 -0.33988655 0.067192025 -0.2558232 -0.17592703 -0.25188807
-0.15805435 -0.2837323 -0.26882762 0.13788038 -0.39183992 -0.42678002 -0.14198765 -0.146937
-0.080492325 0.046944477 -0.37772653 -0.36031684 -0.17912893 -0.2986796 0.01222958 -0.38139862
-0.24035856 -0.31651074 0.11347778 -0.09206781 -0.040384814 -0.38754955 0.07886065 -0.17830354
0.13280888 -0.43653217 -0.37477386 -0.39029297 0.03741204 0.031080434 -0.35143054 0.09350125
0.10161384 0.019979384 -0.09625895 -0.041110706 -0.024237886 -0.083053425 0.0162306 -0.045852844
-0.051747024 -0.070274994 -0.08044896 -0.043527525 0.013289387 0.023872461 0.10403722 -0.055075776
0.07566533 0.059224736 0.069378756 0.06872703 -0.0671569 0.10671484 0.06529535 0.05610049
-0.021374533 -0.029863285 0.00049797824 0.08479283 0.027477326 -0.0063308026 0.008257755 0.05216421
0.009306889 -0.004756477 0.004518422 0.05330438 -0.061231397 0.010724839 -0.008538659 -0.0888802
7.0920054e-05 0.028460573 0.0863125 -0.030853812 -0.062420357 0.06042777 -0.101217456 0.05737952
0.10764329 -0.057035044 0.080093384 0.06925831 0.061143946 0.022285001 -0.03243818 0.07014742

net.0.bias_hh_l0 f4 [300]
00000000: 13ee 8ebd ecd7 a83b ee40 923d 2b89 acbd
00000010: 45b4 8a3d 9e58 88bd aea4 23bd 526c dfbd
00000020: 8f32 6ebd cfe2 29bc 00aa abbd 14bb 28bc
00000030: 689b 1cbd 3568 0ebd 4737 23bc dc87 d5bd
00000040: 7283 b9bd 26e2 683d 4619 793c 0f0b 023d
00000050: ff2c ba3d 6afb b8ba 5d6f 0ebe f4ae 86bc
00000060: df49 35bd c43d f23a 4d73 8dbd a65d 9d3b
00000070: 9a46 a2bc 6869 8c3d c2ab 49bd efdf d2bd
00000080: 99fd 8ebd 1cc3 afbd c93b ee3c f036 7bbd
00000090: f954 a03c 1674 1dbe 30dd 3dbd 46e3 97bd
000000a0: 971b f9bd e0f8 973c 70cf 6d3b a113 21be
000000b0: 4ef1 d8bc 55de 8f3d 1c61 07bd f992 f6bc
000000c0: 2e0c 3bbc a928 17bd 6da8 4cbd a24f 9dbd
000000d0: 9cee 23bd 4c2b 10bd c5bd 693d e499 5f3d
000000e0: 7bbc 753c f087 80bd 0646 f4bd 88f6 34bd
000000f0: cf7a 3e3c c11a 8aba 0f92 e23b 6910 6d3d
00000100: 02dd 93bc 3431 59bd 1a50 293c dcdc a5bd
00000110: 21e3 423d 77d7 5b3d 56d8 81bd a30e e9bc
00000120: b34b 3ebd 459a 7ebd 4f50 dcbd b658 97bd
00000130: 458b 6bbd 9139 4cbd faa8 823d 9e63 dcbd
00000140: 593a 62bd cfcc 5c3d 2175 bbbd 3867 83bb
00000150: 2224 d4bd 2bc9 6d3c 9012 db3c 4955 6b3d
00000160: 2688 f6bd 5535 893d 88d8 963d 03eb 7139
00000170: 9fd8 87bd 41a0 b5bd 8625 9a3d d9c1 a7bd
00000180: 5450 a7bd 0ef3 a3bd 30fc 89bd da7c 51bd
00000190: b8d2 cebd d4c2 89be 0a17 71be bf45 3f3d
000001a0: d798 fe3d 3f2f b2be 4fdd a7bc 0fb8 fbbd
000001b0: 6ecc c2bb 14d5 a5be a472 b3bd c913 cfbe
000001c0: bc11 c63d 8752 46be f2cc b9be 25b3 d93d
000001d0: 50d6 91be 4142 c1be 9a2a 79bd ad75 a0bd
000001e0: 1cd1 b0be 2037 ddbe 55a0 95be 23a5 873d
000001f0: 7833 22be 8c62 69bd 48dc 7cbe 48d5 01bf
00000200: 4d39 0c3d 0231 8f3d 29ba eabe 944a f3be
00000210: 69f4 2cbd 82b9 a13d 4d37 33be 6067 14bd
00000220: bb95 3ebe 16be 3ebe b0bc 473c 828d d9be
00000230: 6221 433d 501f dbbe 93ef a1be 99e4 003c
00000240: 7ae6 4abd d4ce c7be 6b3f debe 57b3 fe3c
00000250: 5635 a7be 58b5 d63d 1345 4bbe 60f3 063e
00000260: 3af6 b43d f9e4 7f3b fab8 35be 8121 9ebe
00000270: 05c6 ccbe fdea afbe 371a 7ebe 1552 f43c
00000280: 6cfc 19be 30ae 793d 5086 103e 61ce 95be
00000290: 3d53 c4bd 768b 9dbe 4717 b0be 2977 7cbe
000002a0: 499c 1cbe a658 4cbe c4d5 c1be 452c c9bb
000002b0: ed80 c7be 9037 e1be 37cd 6fbd 4bbf 8cbe
000002c0: 82ad bd3c 4f4e b33d 3df8 e6be 93e0 d2be
000002d0: 8bdf 9c3c 9f40 b2be 4eca 3f3e 8165 f4be
000002e0: 8188 30be b55f 8ebe 9b4d 133e e21c cc3c
000002f0: b54d ae3d a918 dbbe ddca afbd a191 8cbe
00000300: 603a be3b 098a a5be d231 94be c727 edbe
00000310: 4e47 6a3c 7815 033d 1d91 95be ef8b 2e3e
00000320: b059 843c cafb 253d 9ca1 d4bd 42cd 2f3b
00000330: 8c2c 0abb 8baf 84bd e2c0 213d e094 dabb
00000340: fe03 64bc c455 acbd 35f9 833d 6a7a c03c
00000350: 55da 3c3b 5b58 73bb 3fda c33d c505 d6bc
00000360: 2667 4abb 5f7b bebd 46c6 b837 9e7e e4bb
00000370: c23f b63d b416 a63c 95cb 1e3c 8dbf 46bc
00000380: 5f92 eebc f366 ce3c fcca 4abb 1d8a 9abd
00000390: 7ef4 aebd f228 bd3d 156f f23c 09f3 903d
000003a0: 73a3 09bd ecd2 c8bc 95cd 3d3d de22 0e3d
000003b0: b154 b2bc 9b9d 4c3d 0fb3 b23d 0c04 883d
000003c0: adaa 55bd 2273 c33d 44c0 8cbc c6ed 883c
000003d0: 73e0 8b3d c911 b53c 0fd8 143c be65 ad3c
000003e0: a72f b73d 5b32 b93d 3973 883d db1b 88bc
000003f0: 0d37 6f3d 3047 a0bd 22a8 b0bc d7fd 8c3d
-0.06979003 0.005152693 0.071412906 -0.084246 0.06772665 -0.066575274 -0.039951973 -0.10909332
-0.058153685 -0.010369017 -0.08382034 -0.010298509 -0.038234144 -0.03476735 -0.00996191 -0.10426304
-0.09058274 0.056856297 0.01520378 0.031748828 0.090906136 -0.0014113013 -0.13909669 -0.016440846
-0.044259902 0.0018481542 -0.069067575 0.0048024235 -0.019809056 0.06856042 -0.049236067 -0.10296618
-0.06981964 -0.08582136 0.029081242 -0.06133169 0.019571768 -0.15376315 -0.04635352 -0.07416396
-0.121634655 0.01855129 0.0036286972 -0.15730144 -0.02648225 0.07024828 -0.033051595 -0.030099379
-0.011416478 -0.03690401 -0.04996531 -0.076812044 -0.040022478 -0.03519754 0.057065744 0.05459012
0.0149985505 -0.06275928 -0.119274184 -0.044180423 0.01162596 -0.0010536538 0.006914384 0.057876978
-0.01804972 -0.05302544 0.010334039 -0.08098766 0.04757989 0.05367228 -0.06340091 -0.028449362
-0.04645891 -0.06215884 -0.10757505 -0.07389967 -0.057505865 -0.049859587 0.06379886 -0.10761188
-0.055231426 0.05390626 -0.091532 -0.0040101074 -0.10358454 0.014513294 0.02674225 0.05745438
-0.12037687 0.066996254 0.07365519 0.000230711 -0.06633114 -0.08868457 0.07526688 -0.081912704
-0.08169618 -0.080053434 -0.06737554 -0.05114446 -0.10098785 -0.26906455 -0.23543945 0.046697374
0.12431496 -0.3480167 -0.02049127 -0.12290966 -0.00594478 -0.32389128 -0.087621 -0.40444782
0.09671351 -0.19367419 -0.36289173 0.10629872 -0.2848382 -0.3774586 -0.060831644 -0.07834945
-0.34534538 -0.4320612 -0.29223886 0.06623294 -0.15839946 -0.056978747 -0.24693406 -0.50716066
0.034234334 0.069917694 -0.45845154 -0.47517836 -0.042225275 0.07896711 -0.17501564 -0.0362314
-0.18611805 -0.186272 0.012190983 -0.42490774 0.04763926 -0.42797327 -0.31628093 0.007867002
-0.049536206 -0.39024985 -0.4340776 0.031091375 -0.3265788 0.10483807 -0.19850568 0.13178778
0.088360265 0.003904639 -0.17746344 -0.30884936 -0.39994827 -0.3435897 -0.24814688 0.029824296
-0.15037698 0.060957134 0.14113736 -0.29259017 -0.09586189 -0.30770463 -0.3439276 -0.24654831
-0.15293993 -0.19955692 -0.37858403 -0.0061393105 -0.3896555 -0.43987703 -0.058545318 -0.27489695
0.023154024 0.087551706 -0.45111266 -0.41186962 0.019149562 -0.34814927 0.18729517 -0.4773369
-0.17239572 -0.27807394 0.14385073 0.024916116 0.08510915 -0.42792252 -0.08583615 -0.27454856
0.0058052987 -0.32331875 -0.2894426 -0.4631941 0.014299227 0.032002896 -0.29212275 0.17045568
0.016156048 0.040523328 -0.10382387 0.0026825224 -0.002108368 -0.06478795 0.039490588 -0.0066705793
-0.013916967 -0.08414796 0.06444017 0.023495872 0.002881666 -0.0037131521 0.095631115 -0.026125798
-0.0030884235 -0.09300875 2.2026838e-05 -0.0069731018 0.088988796 0.020274498 0.009692092 -0.01213063
-0.02912253 0.025195574 -0.0030943742 -0.07545874 -0.08542727 0.09236325 0.029593984 0.07077605
-0.033603143 -0.024514638 0.046338636 0.03470122 -0.0217689 0.04995499 0.08725559 0.06641397
-0.052164722 0.09543444 -0.017181523 0.016714942 0.0682992 0.022103207 0.0090847155 0.021166679
0.08944636 0.09042808 0.06662602 -0.016614845 0.05840211 -0.07826078 -0.021564547 0.068843536

net.0.weight_ih_l1 f4 [300, 100]
00000000: 9328 01bd 6375 85bc 8dba e53d 00ca 313e
00000010: 70ad 113e 4cfb e63d 5adf 37be 8a64 183e
00000020: 2451 b03d f0cc 1c3e ae91 1bbe 3035 0bbe
00000030: 7e69 ebbb 113b bc3c db71 d6bd 28cf 1e3d
00000040: fdbb 9fbd a14b 46bc eb76 9c3c c32f db3c
00000050: 3e84 a03c 75f4 c4bd 6fca 27bd 2d84 bdbd
00000060: 5948 01be b5dd 1bbe f60e 50bb c262 2dbc
00000070: ace7 403c 263f 083e 005a a3bc e8c4 593d
00000080: d09f 12be 7287 cb3d 5f75 14be fe3b dc3d
00000090: a34b c23d c0b8 dbbd 825f 0b3e e06b 11bd
000000a0: ac45 133d 625b a3bc 4ebb 8f3c e5da aa3d
000000b0: 79ee 933d 9a6a bebd 806e a23d d3c9 e5bd
000000c0: 18ba 38bd 203d e93c 8e55 96bd 4c5e 3cbe
000000d0: a157 cabd 1c6a 0d3e cf1a 193c e8cc 253c
000000e0: 2456 013e 579f 383e 9af9 653e 0069 c93d
000000f0: a99e c33d 9b64 e4bd ecde 4fbe ed5a f9bd
00000100: 8027 303e 62d8 c0bd ee9b d9bd fa3b 2e3c
00000110: eca9 ccbd a7ca de3d 68a8 dcbd dbe2 24be
00000120: c6cf 2d3e 3fd5 dabd ad83 103d 94c4 f1bc
00000130: c665 8ebd 05a4 0ebd ab1a 033e 109f 053c
00000140: 3e09 35be 5584 a8bd 6913 bebd 43e0 f93d
00000150: 5a1d 99bd 5cd6 febc 8506 a33d 027a 853b
00000160: 07e3 053e 3652 40bd c612 5ebd 7637 263e
00000170: cd38 313e 2baa 71bd f5f7 02be 711b da3c
00000180: 8400 ab3d 6ba6 3ebd 15cb aebd 1cab 683e
00000190: c1cd 583d 636d b63c ed56 2fbd c8e1 0e3e
000001a0: ffd0 5ebc 6951 9f3d 7b25 8e3d 6c00 d73d
000001b0: ec39 eebb ef1d 73bd 9952 783d 2173 03be
000001c0: fb0d 1bbd 72fd a4bd 54f0 94bd fb57 7abd
000001d0: a180 b9bb 6557 503d fcb8 1c3d 405a 0cbc
000001e0: 79d3 143d a70a acbd 5e15 c43d d8ab 5a3d
000001f0: 9b46 883c 88a2 de3c 0f52 ee3d eeab 39bd
00000200: 8956 7abd 3afa e53d abee 3bbd 072b 5ebd
00000210: 631d fcbd 435e c03d 7109 d4bc e50e 003e
00000220: e414 39bc 6709 2b3d 769c 4f3c b8fe 9ebd
00000230: 49b7 ea3d 01b6 23bd a0ac e73c 8d63 b8bd
00000240: 7a48 4d3c 6bb3 98bd f67f c23d 8ff8 e7bc
00000250: 64a7 00bd 0ee5 c5bc c707 64bb 2549 debd
00000260: e206 b5bd b509 e8bd 375e d33d 984a f0bb
00000270: ce3d da3c 5b02 003e aa43 193c 1a73 d23c
00000280: 4af6 c43c ed03 abbd 9b0d a13b cf14 e5bd
00000290: 67a7 8c3c 2699 e1bb d671 ccbd 9542 353d
000002a0: 9d58 f13c 6358 1fbd 1d9b 4f3d 9b94 b33c
000002b0: 7127 00bd 9afb f6bd d0c8 d7bb f67d 3abc
000002c0: 00fd 0f3d 7aa7 843d ddd0 d33d 6661 0abc
000002d0: c693 9bbd 8e7c 69bd 4589 933c cc6c 473d
000002e0: cccd e43c fb9b f43d 4d44 ee3d 0c48 693d
000002f0: 46fd 65bd ac21 5d3d bf10 133d eae5 bd3b
00000300: 9aa3 5fbc 6ef9 97bd 43b9 db3c f98e d0bd
00000310: dda6 e13d 897b 85bd 3035 f43c 9659 e6bc
00000320: b04c 3a3d c2a5 163e 9510 bb3d 8706 683d
00000330: f877 0abd 9e20 adbd a66d b63d e094 05bd
00000340: 1c8d 213c 2992 473d 194a c7bd 3fe2 4cbd
00000350: e520 2dbd 7600 14be 13b1 343e 2e1f 03be
00000360: 0027 0f3e e01f 63bd a20f 3e3e 7f8a 583d
00000370: 47c7 3e3d b6b1 3a3e c9fa 433e f2b9 ccbd
00000380: 4394 53be 4cdd 4f3d c7d2 bb3c 3d0e 643d
00000390: 6605 42bd 8468 3a3e 1c5b f93c 8d12 863d
000003a0: a575 05be 552c 7f3c 66ee adbd 1828 223e
000003b0: 4165 233e f5ef f7bd 05e6 313d 22fc 22be
000003c0: 32f6 b73d 2a49 2d3e 8fb3 6f3e 889e 153e
000003d0: 4ffc 1bbe a2d3 563e 5cea 1bbe e11c 4d3d
000003e0: 7ac4 5a3e e216 3a3d 82a6 36bd 86d8 0dbd
000003f0: 1989 37bd 5d26 03bd ffc9 cf3d 65cb fe3d
-0.031532835 -0.016291326 0.11217222 0.17362213 0.14226317 0.112784 -0.17956296 0.14882103
0.08609226 0.15312552 -0.15192291 -0.13594508 -0.0071842065 0.022977384 -0.10470935 0.03877178
-0.07799528 -0.012102992 0.019099673 0.026756173 0.019594308 -0.09616939 -0.04096454 -0.09253726
-0.12625255 -0.15221293 -0.0031747199 -0.010582628 0.011773985 0.13305339 -0.019940376 0.0531663
-0.14318776 0.099379435 -0.14497899 0.1075363 0.09487083 -0.10728598 0.13610652 -0.03550327
0.035955116 -0.019941036 0.017545369 0.08342532 0.072232194 -0.092976764 0.079312325 -0.112201355
-0.045099348 0.02847153 -0.07340537 -0.18395346 -0.09879995 0.13810009 0.009344771 0.010119654
0.12630516 0.18029533 0.22458497 0.0983448 0.095517464 -0.111520015 -0.20299882 -0.12175546
0.17202568 -0.09416272 -0.10625444 0.010634417 -0.099933475 0.108784966 -0.107743084 -0.16102163
0.1697379 -0.10685205 0.035281826 -0.029512681 -0.069530055 -0.03482439 0.12803142 0.008155599
-0.17679307 -0.08228365 -0.09281046 0.12200978 -0.074763015 -0.031108074 0.07960228 0.0040733824
0.13074885 -0.046953402 -0.054217122 0.16232094 0.17306824 -0.059000175 -0.127899 0.026624413
0.08349708 -0.046545427 -0.085348286 0.22721523 0.052930597 0.022268957 -0.04280751 0.13953316
-0.013599633 0.077792 0.069407426 0.10498127 -0.0072700884 -0.05935472 0.060625646 -0.12836887
-0.03785513 -0.08056153 -0.072724015 -0.06111906 -0.0056610857 0.050864596 0.038262352 -0.008566439
0.03633449 -0.08400469 0.09574388 0.05338654 0.01663523 0.02717711 0.11636745 -0.04532998
-0.061117683 0.112293676 -0.04588191 -0.054240253 -0.123102926 0.09392979 -0.025883408 0.12505682
-0.011296485 0.041757014 0.012671581 -0.077634275 0.1146074 -0.039968494 0.028280556 -0.09003363
0.012529487 -0.07456096 0.09497063 -0.028316764 -0.031409636 -0.024157073 -0.0034794675 -0.10853795
-0.088392034 -0.113299765 0.103207044 -0.007333111 0.026640799 0.12500899 0.009354511 0.02568965
0.024043221 -0.08350358 0.004914952 -0.111856095 0.017169667 -0.006884712 -0.0998265 0.04425295
0.0294612 -0.03890265 0.050685037 0.021921447 -0.031287614 -0.12059708 -0.006585218 -0.0113825705
0.03515339 0.06477256 0.10342572 -0.008446073 -0.07596545 -0.05700355 0.018009791 0.04868774
0.027930163 0.119438134 0.11634121 0.056953475 -0.056149743 0.05398719 0.035904642 0.00579523
-0.0136498455 -0.07420622 0.026821738 -0.1018352 0.11018155 -0.06517703 0.029810518 -0.02811889
0.04548329 0.14711669 0.09134022 0.05664685 -0.033805817 -0.08453487 0.089076325 -0.03261268
0.009860303 0.048723374 -0.0973093 -0.050020453 -0.0422677 -0.14453301 0.17645673 -0.12804863
0.13979721 -0.05545032 0.18560651 0.052866455 0.046576764 0.18231854 0.19138636 -0.09996404
-0.20662026 0.050748155 0.022927655 0.05567764 -0.04736843 0.18203932 0.030438952 0.06546507
-0.13033159 0.015574534 -0.084927365 0.15835607 0.15956594 -0.12106315 0.043432254 -0.15916494
0.08982505 0.16922441 0.2340834 0.14611256 -0.15232967 0.20979169 -0.1522612 0.05007637
0.21364012 0.04543198 -0.044592388 -0.03463032 -0.04480848 -0.032019008 0.101459496 0.12441138

net.0.weight_hh_l1 f4 [300, 100]
00000000: 2839 cbbc 4e94 d7bc f244 b4bc 4225 043c
00000010: 6d27 873d 6c9d 0abd 5b69 ffbc 82e3 253b
00000020: bef6 12be 6437 a1bc 4f95 2fbe e5bd 873d
00000030: 40a3 9a3d d64f 9cbc 82cd 883d a985 c23d
00000040: 5d46 c1bd e57d e63d 8d28 a2bd c874 a43d
00000050: a5a8 a53c 5a33 343d 987e e73d 3d8f c23c
00000060: aa6d aaba d180 d93d 4864 68bd a770 343e
00000070: d15d 5b3d bccb 83bd a5c9 c2bb 9553 1cbe
00000080: f993 11bc 9d95 aabd b7e9 1fbd f5ab 98bd
00000090: 26cf aa3d a26d 4cbd 2837 bdbd 7df9 0ebe
000000a0: e863 c73d 0018 103d a56e 40bd d5a3 ee3b
000000b0: c637 ec3d 1092 8cbd 8467 da3d ca27 2b3d
000000c0: cabc 15bd ad09 93bd 77b7 e6bd 27ca b73d
000000d0: a276 d93d 8e6f 893d c615 dbbd d12a 6cbd
000000e0: f795 dc3c a56c cfbd f11e 2dbd 5bf0 0a3e
000000f0: 978c 0e3e 23a6 033c e6a3 70bd 1766 ab3d
00000100: f0de d6bd 8a71 2bbc 0b6e 0a3e 5f26 e5bc
00000110: 08c3 333d bcd0 893d 024d 0c3e efe6 0f3c
00000120: cf31 c2bc f5fa a1bd bee6 28be 9f84 b53c
00000130: 455f 3f3d 4b2e 9b3d 9daa 823d 8bfb aabc
00000140: 3ca2 0dbd 9822 b23c 9072 113d f1d5 933d
00000150: 6961 9abc 1e2e 403d c3a6 553d 47f0 6b3d
00000160: 36e6 fa3d 7673 523d 4fa4 233e cb70 8b3c
00000170: e320 bbbc 3e1b 6cbd 7f4d 593c 22b2 11be
00000180: 1c3d c53d 9e74 b8bd a4ad bfbc 088e 4d3d
00000190: 614f e53d d6d5 463d 5d32 bb3d 5835 e03d
000001a0: 387e b13a c7b1 60bd 12b5 09bd 9cfa 30bb
000001b0: 8a06 473d 9c32 67ba 50ad 543d d300 593d
000001c0: db1c a33c 1135 6fbc 096d a33d 4db1 acbd
000001d0: 6aa7 8abd 9abe 69bd fa22 67bc 14bb 3fbc
000001e0: 6c16 2a3d 02e4 dd3d f3a8 8f3c b460 03be
000001f0: 1ba5 cc3d 0303 6d3d b3da 2f3d 4e88 d03d
00000200: 9fdf 273d b143 cdbd c0f2 57bd 9287 b3bd
00000210: 34b8 343c 1c21 08bd fcea 193c 8897 d1bd
00000220: 1f5f f43c 4c3c 6a3a 06d0 6dbd 6f5d 1ebd
00000230: d3de 6a3d 11cf 91bd 12bc 153b 58f8 a2bd
00000240: e737 263d e5b2 fa3c 4e69 643d 25ea 513c
00000250: 88f2 a03d c6b5 9c3b 0c67 8a3d 796b 3ebd
00000260: 3725 e23d 6444 033e 6305 a73b 0809 9cbd
00000270: 8942 8d3d 8daa c43d 8aa6 813d 3136 74bd
00000280: 3fd5 023e d25d bfbc e10c dabd 91e0 893d
00000290: 90bb 20bd 05d1 fa3c cb7b 9a3d b8e8 313c
000002a0: c8a7 a83d 1323 d23d 63f7 a5bc 8c9e e83d
000002b0: 440c 173d 5452 2dbd 98d3 bc3b cff3 a53d
000002c0: f494 85bd d2ef ab3d f13b af3d e65a 363d
000002d0: 1c47 89bd 0c2b 4ebd c6c9 853d 61f7 68bd
000002e0: 9264 f83d a836 c33d 7484 823c 1f8d 1e3d
000002f0: 3413 d93d 6202 8dbd 2e4b b63b 2aa7 483d
00000300: 4350 8abd 9303 81bd 94df c73d 16f4 113d
00000310: 3a94 e93d ac2b 9c3d ae7f ccbb 2e49 c93d
00000320: 002c 35bd 4f7d 463d 5808 53bd 186f d73d
00000330: 3a3a 52bd 6240 20bd bb0d 3fbe 384d 1e3c
00000340: 6648 88bd 7f05 433e 02ea 1abd 9668 cf3d
00000350: c9a1 d0bc 4b6e c03c 3622 0a3d b6df 9c3b
00000360: ceb1 c5bd e8b7 4e3e 11a7 b3bd 8bfd 25bb
00000370: 4efa 353e 71c7 603d 51ba 093e 1671 edbc
00000380: be13 603e a9f8 233d 8aeb 563c 0b05 093e
00000390: 182a 3a3d dfd8 713d 949a 89bc 06f8 35be
000003a0: 0ad7 683c 674e b2bd 8944 7b3d 61f8 503d
000003b0: 49b7 b73d 0e72 d73d ff57 c3bd 2402 21bd
000003c0: 47e1 d9bd 5c34 033c c12a 8d3d 37ae 86bd
000003d0: b744 73be 9cb4 2e3c ed9b 053e 6dc6 6fb9
000003e0: e70e da3c 6064 fa3d 996a 853d 6225 1abe
000003f0: 7a89 cebd 1ca4 acbc 4cab c5bd 538e 0c3e
-0.024807528 -0.026315834 -0.022005532 0.008065524 0.06599317 -0.033841535 -0.031178167 0.0025312607
-0.14351937 -0.019679733 -0.171468 0.066280164 0.07550669 -0.019081037 0.066798225 0.0949815
-0.09437249 0.11254481 -0.07917891 0.08030087 0.020222018 0.043994285 0.11303443 0.023749942
-0.0013002653 0.10620273 -0.05673626 0.17621098 0.053556267 -0.064353436 -0.005944448 -0.15266259
-0.008885377 -0.08329318 -0.039041247 -0.07454673 0.08340292 -0.04990924 -0.09239036 -0.1396236
0.097358525 0.03517914 -0.04698052 0.007282714 0.115340754 -0.06863797 0.10664275 0.041785993
-0.036556996 -0.0717958 -0.11265462 0.089741044 0.106183305 0.067107305 -0.10697512 -0.05765802
0.026926978 -0.10128144 -0.042265836 0.13568251 0.13920818 0.008035216 -0.058750056 0.083690815
-0.10491741 -0.010464082 0.1351854 -0.027972398 0.04388717 0.06729266 0.13701251 0.008783086
-0.023705391 -0.079091944 -0.16494271 0.022157965 0.046721715 0.07577189 0.06380198 -0.020871898
-0.034578547 0.021745011 0.035509646 0.072185405 -0.018845277 0.04691898 0.05216099 0.057602193
0.122509405 0.051379643 0.15980648 0.017021557 -0.02284283 -0.057643168 0.013263105 -0.14228109
0.09630796 -0.09006618 -0.023398228 0.05018428 0.11196781 0.048543774 0.091404654 0.109476745
0.0013541644 -0.05485704 -0.033619948 -0.0027004844 0.04859022 -0.0008819492 0.051923096 0.0529793
0.01991122 -0.014600054 0.07979781 -0.08432255 -0.06770213 -0.057066537 -0.01410746 -0.011702318
0.04152529 0.10834505 0.017536616 -0.12829858 0.09992429 0.0578642 0.042933177 0.10182248
0.040984746 -0.10022677 -0.05272174 -0.08766092 0.011030246 -0.0332347 0.009394404 -0.102339804
0.029830514 0.00089353765 -0.058059715 -0.038663324 0.057341408 -0.07119573 0.0022847694 -0.07957524
0.040580656 0.030602882 0.05576449 0.012812172 0.07858759 0.0047824113 0.06757936 -0.046489213
0.110422544 0.12819058 0.0050970777 -0.0761891 0.06897456 0.096028425 0.06330593 -0.059621993
0.1277666 -0.023360167 -0.10646988 0.06732286 -0.039241374 0.030617246 0.07543143 0.010858707
0.08235127 0.10260596 -0.020259565 0.113583654 0.03687693 -0.042314842 0.0057625286 0.081031434
-0.06522551 0.083953515 0.08556355 0.04452028 -0.06703016 -0.05033402 0.06532626 -0.056876544
0.12128557 0.09531909 0.0159323 0.038708802 0.10599366 -0.0688522 0.0055631613 0.048987545
-0.0675359 -0.0629951 0.09759441 0.03563317 0.11405225 0.07625517 -0.0062408065 0.09828411
-0.044231415 0.048459347 -0.05152163 0.10519236 -0.05132506 -0.0391239 -0.18657582 0.009661965
-0.06654434 0.19045065 -0.037820823 0.1012737 -0.02546777 0.023490092 0.033724032 0.0047874106
-0.09653054 0.20187342 -0.087721 -0.0025328125 0.17771265 0.054877702 0.1344998 -0.028984588
0.21882531 0.040032063 0.01311768 0.1338083 0.0454503 0.059044715 -0.016797341 -0.17770395
0.014211426 -0.0870636 0.061344657 0.051018123 0.08970506 0.10519801 -0.09538268 -0.039308682
-0.10638671 0.008008089 0.0689292 -0.065761976 -0.23756681 0.010663178 0.13047762 -0.00022866736
0.026618434 0.12226176 0.065144725 -0.15053323 -0.10084815 -0.021074347 -0.09651813 0.13726167

net.0.bias_ih_l1 f4 [300]
00000000: 6426 6e3c 793f 83bd 96b3 483d 8c0c 92bd
00000010: 378e 60bd e0a8 c038 c907 6fbd b9da 053d
00000020: d27c 683c 0bf9 f8bd c2c4 6bbd bb5e 34be
00000030: 7280 29bd a773 bebc fe73 793d 6741 c8bc
00000040: 6f11 d5bc 6dec acbc f73b 843d c951 c1bb
00000050: 5df4 a3bb f1ef 993c 7c70 c2bd 211f 5e3d
00000060: ca83 68bd 2a82 e8bc c6b4 3c3d f7df a3bd
00000070: 4c37 c4bd 447b 073d e86e 5abd 1b21 623d
00000080: 4c1b 903c b783 efbd c257 25bc a1a2 4b3d
00000090: 2899 20bd eef8 36be af82 babc b9eb 25bd
000000a0: 5ae5 2f3d 4b4b 9abd 8c41 be3d 8aab d7bc
000000b0: 9ae9 f0bc e9ca 27bc 4058 18bd da8d e3bd
000000c0: 7a1e fd3a fd9e d1bd f296 54be e198 a7bd
000000d0: b374 af3c 5cc8 aebd 8247 c9bb d1a0 85bd
000000e0: 3178 29be 2eb2 b5bb f733 9cbd ff9f efbd
000000f0: 22d2 3ebd c046 00be ea59 ddbb 6c1b 2c3d
00000100: 238c a1bc ebba fc3b f0f4 e0bd 7520 14be
00000110: eef7 faba 9304 a0bd 19cf 043d bfaf 8ebc
00000120: 39ad af3d 96ff ba3c 2aba 5cbd 47b3 bbbd
00000130: 092b 4ebd 8622 573d e141 92bc 3721 a43c
00000140: 6d2c 993a 4740 233d 44e6 bb3c 9a01 113d
00000150: 8c39 8a3c a9b5 cebd 560a ca3c 0c7a efbd
00000160: 025a 1dbd 5f2b 6cbd d515 5abd d1da 9bbd
00000170: 2427 bf3c 032d ccbd 36fe e7bd 91ea d93c
00000180: ed87 68bd 70d6 573d ade7 d9bc 2502 a23d
00000190: a457 0c3e 388f 9bbd 9c59 163e 87f8 e4bc
000001a0: 6f36 cf3c f616 98bd 31d9 01be 4865 563d
000001b0: fd9d 333e 4da4 50be e786 6f3e 3156 bdbd
000001c0: 5fa5 ecbd 16ac 0dbd 1ed0 a23d 9bbd 653d
000001d0: 2402 7dbe bfe2 21be 1d5a bfbd 4583 7d3d
000001e0: 647c f53d 204d efbc 277b 40bd d28f f4bb
000001f0: 40c5 073e 8b67 93bd 3f5e 0a3e b291 2b3e
00000200: a5a4 5f3d e53c 133e ec44 0dbe 7ef9 c23d
00000210: f8c6 313d 6a13 38bc ec21 a73d a23e 493d
00000220: b305 c93c 8e76 903d 1623 a63d 9d1a 3ebd
00000230: 46a8 b6bb 01fa 663b 9741 8cbd fce5 973d
00000240: cbc3 2bbe 54ef 49bc c993 ecbc 1cb0 173e
00000250: 8d22 edbd 2ce3 93bc df98 63be a7a5 19be
00000260: 2636 683d 1ba3 afbc c8bd 90bd 613b 30bc
00000270: b80c b6bd 33ef 9c38 512e 7d3d 8061 413e
00000280: b693 093e 13d3 3b3e 1777 56be c3d8 59be
00000290: 1e9e cdbd 6a74 513d 350e e3bd 7eee 98bd
000002a0: 29d8 eabd aff1 c83d 3b64 81bd bbe5 e73c
000002b0: b526 95bd 3ee8 303e 15ac 43be a79b 7d3b
000002c0: 905f 8dbd 4cc8 fc3d 1d71 fcbd 56ba 8c3e
000002d0: a3b0 9f3d de6c 20be a731 2abe 4e6e 8ebc
000002e0: 1cb3 20be 081c c7bd a500 96be a18f ef3d
000002f0: ddda f1bd 4bab 55be d18c 2abe 5f18 94bb
00000300: dad6 7c3c 9b67 083d 9274 30be 7b0b 433e
00000310: f5bb 0bbc 23a0 35bd 9425 5ebe 5742 ac3d
00000320: 220c 1cbc 307c 8e3d 5da3 6b3d 167d d23d
00000330: 84b8 b63d 8eaa 563d 617a da3d 7a7c 90bd
00000340: 50c9 883d 4758 143d 4c3c 913d 54d4 a73d
00000350: 084e 92bd d060 d93d 332e 853d 8dfc af3c
00000360: b264 4ebc 50f4 c13d 5a50 ca3c e169 40bc
00000370: 9747 3fbd 3da2 30bd 5ce1 893d f18a 933d
00000380: 0e5f 7a3d 03bf 7dbd fb8e a4bd 5e74 3c3d
00000390: e1ff 373d d74f ae3d f490 153d f40e e53d
000003a0: ca13 413a 0926 143c 1e99 6dbd 2e87 823d
000003b0: 4010 d0bb bfb7 77bd 1b0a f73d 89f5 3ebc
000003c0: 0211 e5bb c1c4 30bd f43e f6bc 1891 a9bd
000003d0: 7c7b babd 070d 033e 597f 983c c3ac 793d
000003e0: f233 c03c 9671 823d 342e 243d 5bbb 3f3d
000003f0: 38cd c7bc 9308 5bbd 9cfb 99bc 5426 bf3c
0.01453552 -0.06408591 0.04899939 -0.071312994 -0.054823127 9.186729e-05 -0.058357034 0.032679293
0.014189916 -0.12156876 -0.05756069 -0.17614262 -0.04138226 -0.023248507 0.060901634 -0.024445249
-0.02600929 -0.02110883 0.0645675 -0.005899642 -0.0050034956 0.01879117 -0.09494111 0.054228906
-0.05676631 -0.02838238 0.046070836 -0.08001702 -0.095808595 0.03307654 -0.053328425 0.055207353
0.017591141 -0.116950445 -0.010091724 0.049715642 -0.03920856 -0.17868397 -0.022767393 -0.040508006
0.042943336 -0.07533892 0.09289846 -0.026326913 -0.029408265 -0.010241249 -0.037193537 -0.111110404
0.0019311451 -0.10235403 -0.20760706 -0.08183456 0.021417951 -0.08534309 -0.0061425576 -0.06524814
-0.16549756 -0.0055449223 -0.07627099 -0.11700439 -0.046587117 -0.12526989 -0.0067551034 0.04201834
-0.019720143 0.007712712 -0.10984218 -0.14465506 -0.0019147375 -0.078133725 0.032424066 -0.017417787
0.085779615 0.022826951 -0.053888477 -0.09165054 -0.05033401 0.05252316 -0.01785368 0.02003537
0.0011686214 0.03985622 0.022936948 0.035401918 0.016873144 -0.10093243 0.024663132 -0.116932005
-0.038415916 -0.05765855 -0.053243477 -0.07610095 0.023334093 -0.09969523 -0.11327784 0.026601108
-0.056770254 0.052694738 -0.02659973 0.07910565 0.13705307 -0.07595676 0.14682621 -0.027950538
0.02529451 -0.074262545 -0.12680508 0.052342683 0.17540736 -0.20375176 0.23391305 -0.09244955
-0.115549795 -0.034587942 0.079498515 0.056089025 -0.24707848 -0.15809153 -0.093433596 0.061892767
0.11986616 -0.02921158 -0.046992447 -0.007463434 0.13258839 -0.07197484 0.13512515 0.16754797
0.054600377 0.14378698 -0.13795823 0.09520243 0.043402642 -0.011235097 0.08160767 0.049131997
0.02453885 0.070538625 0.08112161 -0.0464121 -0.005574259 0.0035244229 -0.06848448 0.07416913
-0.16773908 -0.012325127 -0.028879063 0.14813274 -0.11578856 -0.01805266 -0.22226284 -0.15004598
0.056692265 -0.02144008 -0.07067448 -0.010756345 -0.08889145 7.483214e-05 0.06181175 0.1888485
0.13435254 0.18342237 -0.20943867 -0.21274094 -0.10039924 0.05113641 -0.11086694 -0.07467364
-0.114670105 0.098117225 -0.063179456 0.028307786 -0.072827734 0.17276093 -0.19108613 0.0038697512
-0.06902993 0.12342891 -0.12326262 0.27485913 0.07797363 -0.1566653 -0.16620503 -0.017386582
-0.15693325 -0.097221434 -0.29297367 0.11697317 -0.11809323 -0.20866124 -0.1665528 -0.004519507
0.015432084 0.03330193 -0.17231968 0.19047348 -0.008528699 -0.04434217 -0.21694022 0.08411091
-0.009524377 0.06957281 0.057528842 0.102777645 0.08921912 0.052408747 0.10667873 -0.07054992
0.06679022 0.036217 0.07091579 0.08194795 -0.071437895 0.10614169 0.065029524 0.02148273
-0.01259725 0.09470427 0.024696518 -0.0117439935 -0.046699133 -0.043123472 0.06732437 0.07204235
0.061125807 -0.06194974 -0.08035084 0.046009414 0.04492176 0.08511322 0.03651519 0.11184493
0.00073653145 0.009042271 -0.058007352 0.0637344 -0.0063495934 -0.06047797 0.12062474 -0.01165522
-0.006990553 -0.04315639 -0.030059315 -0.082796276 -0.09105584 0.12797938 0.018615412 0.060955774
0.02346227 0.06369321 0.040083125 0.046809535 -0.024389848 -0.053474974 -0.018796735 0.023333706
